Models/057f8a81-db45-4214-bc9a-cef3642433af.pt (torch, 166211 bytes, 110 tensors)

conv_final.weight f4 [2, 4, 1, 1]
0.60531014 -0.47981718 -1.3519777 -0.66891 -0.44582057 -0.5314851 -0.07399928 1.0790313
00000000: 9bf5 1a3f 99aa f5be 9b0d adbf b03d 2bbf
00000010: 9842 e4be 680f 08bf ef8c 97bd b31d 8a3f

conv_final.bias f4 [2]
0.92378294 -0.923783
00000000: 0a7d 6c3f 0b7d 6cbf

down_blocks.0.conv1.weight f4 [4, 1, 3, 3]
-0.17846124 0.26315615 -0.1439628 0.41735324 -0.093145534 0.35140705 0.3263928 0.040816195
-0.3223411 -0.13563007 -0.013489867 -0.2875264 -0.086501405 0.18960375 -0.06467728 -0.057436325
-0.02473756 -0.33117086 -0.1589307 0.2979264 0.27799937 -0.3566647 0.34154677 0.2792632
-0.10900562 0.09749033 -0.067025214 -0.35445225 0.12236919 0.15628764 -0.35027167 0.27964625
-0.10941005 0.26044756 -0.39342943 -0.1871254
00000000: 8bbe 36be 67bc 863e fc6a 13be 53af d53e
00000010: 16c3 bebd a0eb b33e f51c a73e e22e 273d
00000020: e509 a5be 9ce2 0abe 9a04 5dbc a936 93be
00000030: a627 b1bd 7c27 423e 8675 84bd 5a42 6bbd
00000040: 6ca6 cabc 3a8f a9be bbbe 22be cf89 983e
00000050: ef55 8e3e c19c b6be 38df ae3e 96fb 8e3e
00000060: 573e dfbd 03a9 c73d 8444 89bd c47a b5be
00000070: b39c fa3d de09 203e cf56 b3be cb2d 8f3e
00000080: 6012 e0bd 6259 853e 956f c9be cd9d 3fbe

down_blocks.0.conv1.bias f4 [4]
4.7090118e-05 0.012569395 0.020224562 -0.08331648
00000000: a182 4538 ddef 4d3c fbad a53c d5a1 aabd

down_blocks.0.conv2.weight f4 [4, 4, 3, 3]
-0.1886754 -0.31413165 0.14727767 -0.100421004 -0.015562594 -0.096020654 -0.09881173 -0.2396316
0.0540028 -0.25751105 -0.26178893 -0.22797123 -0.19439676 -0.22826155 0.27636576 0.27973357
0.2583446 -0.1522513 0.2686289 0.2297064 -0.29869512 -0.17268725 0.056521315 0.20656875
-0.25931805 -0.19292521 0.0685925 0.2135462 0.07688131 -0.13204604 0.23045248 -0.045315128
-0.23493184 -0.018686177 -0.0072969873 -0.11354709 -0.19309099 0.070352 0.13858977 0.17414433
-0.08262969 0.13625258 -0.1883037 -0.119060844 -0.18795905 0.08993163 0.1333114 -0.21072084
-0.14797886 -0.23765847 0.21331076 0.18462007 0.2566851 -0.24032184 0.29694578 0.047268648
0.18496937 -0.11926175 -0.1647937 0.16528364 0.3048087 -0.17604043 0.23866434 0.040157598
0.12950328 -0.03974967 0.12205096 -0.044595823 0.25205952 -0.030179953 0.11992452 0.18264921
0.09013926 -0.079306126 -0.16846861 0.16913389 -0.09956304 0.003944591 -0.11884286 0.2594501
0.03665938 -0.18465568 0.0898397 0.2642484 0.26325166 0.2892823 -0.14985053 -0.11252901
-0.27092403 0.18724403 0.053327233 -0.0050606737 -0.11848114 0.22511472 -0.05307893 0.2083202
-0.11651881 0.21913238 -0.10360348 -0.2547456 -0.27573827 -0.18350257 -0.19953045 0.34837866
0.08500853 -0.14121675 -0.13945153 -0.023775505 0.040114444 0.21395212 0.26506191 -0.1771687
-0.21378796 -0.03451838 0.07452266 0.3030592 0.23402038 -0.22910178 0.0356063 -0.27839398
-0.021510763 0.042682648 0.015143985 -0.16165005 -0.008346213 0.1306932 -0.01720912 -0.02353249
0.09997882 -0.109918535 0.020506274 -0.2568801 0.17002822 -0.23537445 -0.24571809 0.20605475
-0.21821341 -0.104708776 0.021382244 0.05368921 0.092065215 -0.09650959 0.21429572 0.046474803
00000000: 2034 41be ddd5 a0be f5cf 163e 87a9 cdbd
00000010: 40fa 7ebc 7aa6 c4bd ce5d cabd fc61 75be
00000020: 0a32 5d3d 7dd8 83be 3309 86be 4a71 69be
00000030: f20f 47be 65bd 69be d07f 8d3e 3d39 8f3e
00000040: be45 843e c4e7 1bbe ba89 893e 2838 6b3e
00000050: 91ee 98be edd4 30be e582 673d c286 533e
00000060: 56c5 84be 308e 45be 3a7a 8c3d dbab 5a3e
00000070: f373 9d3d 1437 07be bcfb 6b3e 5b9c 39bd
00000080: f991 70be c113 99bc 911b efbb 608b e8bd
00000090: a5b9 45be b614 903d 7aea 0d3e e452 323e
000000a0: c139 a9bd cc85 0b3e afd2 40be 2cd6 f3bd
000000b0: 5678 40be 132e b83d c982 083e 34c7 57be
000000c0: c587 17be be5c 73be 236e 5a3e 0b0d 3d3e
000000d0: 3b6c 833e ee16 76be 4709 983e c59c 413d
000000e0: 9c68 3d3e 813f f4bd aebf 28be 1d40 293e
000000f0: e30f 9c3e f143 34be 6d64 743e 4b7c 243d
00000100: 829c 043e 8dd0 22bd dbf5 f93d 1caa 36bd
00000110: f20d 813e f33b f7bc fd9a f53d 6508 3b3e
00000120: ef9a b83d 406b a2bd 0983 2cbe 6f31 2d3e
00000130: b5e7 cbbd a141 813b e363 f3bd a5d6 843e
00000140: 2528 163d 6116 3dbe e0fd b73d 914b 873e
00000150: ecc8 863e cf1c 943e 6b72 19be 9c75 e6bd
00000160: 8eb6 8abe e6bc 3f3e a86d 5a3d 02d4 a5bb
00000170: 3da6 f2bd 7984 663e 4b69 59bd e451 553e
00000180: 6aa1 eebd 3d64 603e 102e d4bd 046e 82be
00000190: 912d 8dbe 19e8 3bbe b651 4cbe b05e b23e
000001a0: f418 ae3d 209b 10be 62cc 0ebe d9c4 c2bc
000001b0: 0b4f 243d 4416 5b3e 32b6 873e b66b 35be
000001c0: 3beb 5abe 2563 0dbd 569f 983d 932a 9b3e
000001d0: 0aa3 6f3e a899 6abe e9d7 113d a889 8ebe
000001e0: 5737 b0bc 00d4 2e3d 7a1e 783c 9787 25be
000001f0: 8ebe 08bc 70d4 053e 24fa 8cbc 35c7 c0bc
00000200: b2c1 cc3d f81c e1bd c6fc a73c ca85 83be
00000210: e11b 2e3e 0006 71be 869d 7bbe 0400 533e
00000220: 5673 5fbe 8e71 d6bd d129 af3c 38e9 5b3d
00000230: b08c bc3d d2a6 c5bd 5670 5b3e 5d5c 3e3d

down_blocks.0.conv2.bias f4 [4]
-0.1110641 -0.013033485 0.1181851 -0.0365002
00000000: 9375 e3bd 668a 55bc 080b f23d 3c81 15bd

down_blocks.0.norm1.weight f4 [4]
0.9823599 1.0000038 0.9500873 1.036449
00000000: f07b 7b3f 2000 803f ec38 733f 5caa 843f

down_blocks.0.norm1.bias f4 [4]
0.07855876 0.11006199 0.04922223 -0.09921575
00000000: 6ae3 a03d 2e68 e13d 409d 493d a131 cbbd

down_blocks.0.norm1.running_mean f4 [4]
0.3968087 1.9508984e-06 0.38302857 1.4569052e-05
00000000: 832a cb3e 2eec 0236 521c c43e 9a6d 7437

down_blocks.0.norm1.running_var f4 [4]
0.005825159 5.2980827e-08 0.007187607 2.8178538e-06
00000000: fae0 be3b 098d 6333 0586 eb3b 5c1a 3d36

down_blocks.0.norm2.weight f4 [4]
1.0747995 1.002688 0.9967891 0.9575032
00000000: 0893 893f 1558 803f 922d 7f3f ee1e 753f

down_blocks.0.norm2.bias f4 [4]
-0.041311126 -0.006021844 -0.008160095 0.0026007476
00000000: db35 29bd e452 c5bb ebb1 05bc 4e71 2a3b

down_blocks.0.norm2.running_mean f4 [4]
0.18791203 0.12436366 0.30099738 0.10366538
00000000: 036c 403e 60b2 fe3d 541c 9a3e 844e d43d

down_blocks.0.norm2.running_var f4 [4]
0.406883 0.1430924 0.060171723 0.087049924
00000000: f852 d03e d086 123e a076 763d 3b47 b23d

down_blocks.1.conv1.weight f4 [8, 4, 3, 3]
0.13642357 -0.15859687 0.08559474 -0.051503282 -0.19782437 0.008663482 -0.0027429147 0.10016372
-0.07668432 -0.005271625 0.20571606 -0.19787122 0.17258875 -0.072687246 0.20642355 0.072316796
-0.21030025 0.11071812 -0.15619317 0.13557409 0.0028714428 0.14040451 0.19478032 -0.21552412
0.25414047 0.037398666 -0.0034154914 -0.21351407 -0.050333634 0.18199103 0.119938195 0.1724031
0.051898595 0.16211085 0.051218282 -0.2169155 0.14995305 -0.0990287 0.19062795 -0.12350216
0.16092658 -0.016374614 0.15001379 0.17410006 0.047061436 0.03678942 0.053702865 -0.11882031
-0.10099058 -0.024019388 -0.035742197 0.14450742 -0.16120413 0.16178356 0.2287017 0.14763413
-0.18883426 -0.023889355 0.22665231 -0.06825512 -0.004124916 -0.1988723 0.11823688 -0.14491062
0.025056088 0.17012022 -0.028170414 0.12405241 0.034363765 -0.008396457 -0.14486988 0.18100803
0.08045823 -0.08138482 0.021385957 -0.15129098 0.13023785 -0.051662598 0.07916711 0.21998505
0.042596992 -0.1702101 0.056434803 -0.20720443 0.12941274 -0.20920572 0.077801935 -0.067298986
-0.008724934 0.15895028 -0.013957808 0.18426692 0.020602264 0.11607064 0.17918435 -0.19630297
0.16997987 0.086972915 -0.15536037 -0.04912828 0.11077634 -0.078863665 -0.03763904 -0.06381825
-0.20974973 0.17333426 0.018736742 -0.046450127 0.12757471 -0.04332844 -0.16622868 -0.18782842
0.17869836 -0.15583843 -0.16448198 0.07586271 0.15363842 -0.184946 -0.14277464 0.008792697
0.07090576 0.21191832 0.018414628 -0.04209848 -0.17602059 -0.05606664 -0.12355289 0.026790874
0.19512165 -0.01626103 0.1446103 0.19608915 -0.22204502 -0.20777792 0.05502186 0.013950837
0.18204762 -0.038633652 -0.12883165 0.13704824 0.2392087 -0.14604336 0.19799413 0.0019339169
-0.022483064 -0.10918135 -0.06455012 -0.11133571 -0.14520839 0.16354144 -0.20013483 0.09609847
-0.09887072 0.2393306 0.07421457 -0.1088378 0.26299977 -0.15625855 -0.090854585 0.16274184
-0.10690555 0.22050063 0.17016776 0.06042788 0.16422985 -0.009408649 -0.22720015 0.2143044
-0.19589522 -0.0927099 -0.21729481 0.05822416 -0.20290819 -0.21656166 -0.020481337 0.15135664
-0.060510043 -0.069723025 -0.18629901 0.102632515 -0.16535813 -0.22290696 0.09848417 -0.073281154
0.16572626 0.026491212 -0.2091113 0.016007364 -0.20982511 -0.21482983 -0.060810946 -0.13782614
-0.017346516 0.060173757 -0.19846472 0.20232148 0.1732969 0.052883543 0.13435344 -0.018879835
0.01575921 0.21890464 0.06475155 -0.12346683 0.017779373 -0.22500357 -0.19353506 0.1383239
-0.048945874 0.0051539363 -0.20016865 0.21195757 0.21534789 -0.033245455 -0.024496118 0.12369285
0.17098227 -0.1318499 0.019362926 -0.16530617 -0.15968542 0.16453536 0.1342695 0.15631425
-0.1656673 -0.024295233 0.096003376 -0.050637066 -0.14488374 0.10476882 0.087922186 -0.024681274
0.0688549 -0.21123189 -0.17547674 -0.100915045 -0.11723522 -0.11715278 0.019026695 -0.051676117
0.24255168 -0.14024751 0.21757302 -0.113896735 0.06237484 0.0899543 -0.20005554 -0.20074835
-0.16164225 -0.031267174 -0.088103 0.114886194 0.032201454 0.1368886 0.103220634 0.037909053
00000000: 9fb2 0b3e 3867 22be 4c4c af3d 1bf5 52bd
00000010: 7992 4abe 47f1 0d3c 79c2 33bb a322 cd3d
00000020: ab0c 9dbd 98bd acbb 3ba7 523e c19e 4abe
00000030: 1bbb 303e 0ddd 94bd b260 533e d41a 943d
00000040: f358 57be 2fc0 e23d 1af1 1fbe efd3 0a3e
00000050: d12e 3c3b 33c6 0f3e 7e74 473e 5bb2 5cbe
00000060: b31e 823e 582f 193d 70d6 5fbb 6fa3 5abe
00000070: a42a 4ebd db5b 3a3e 28a2 f53d 708a 303e
00000080: 9f93 543d 6300 263e 43ca 513d 191f 5ebe
00000090: 4b8d 193e 8fcf cabd f933 433e b3ee fcbd
000000a0: f0c9 243e 0e24 86bc 379d 193e 4947 323e
000000b0: 7ec3 403d 81b0 163d 89f7 5b3d 1058 f3bd
000000c0: 26d4 cebd 4fc4 c4bc 6966 12bd c1f9 133e
000000d0: b212 25be 97aa 253e c730 6a3e 672d 173e
000000e0: c55d 41be 9cb3 c3bc 8b17 683e 57c9 8bbd
000000f0: 4e2a 87bb 2ea5 4bbe 2d26 f23d 7363 14be
00000100: 6d42 cd3c ff33 2e3e a4c5 e6bc 310f fe3d
00000110: 05c1 0c3d 4b91 09bc c558 14be 2b5a 393e
00000120: 49c7 a43d 16ad a6bd 9a31 af3c 06ec 1abe
00000130: 125d 053e 299c 53bd 5e22 a23d c343 613e
00000140: 2f7a 2e3d 8e4b 2ebe 2e28 673d 662d 54be
00000150: c684 043e 063a 56be 9f56 9f3d 0dd4 89bd
00000160: 07f3 0ebc ddc3 223e 4aaf 64bc 78b0 3c3e
00000170: 14c6 a83c 72b6 ed3d 1a7c 373e a503 49be
00000180: 340f 2e3e db1e b23d ca16 1fbe bc3a 49bd
00000190: b5de e23d 4683 a1bd 652b 1abd 25b3 82bd
000001a0: a2c8 56be 897e 313e cc7d 993c 7d42 3ebd
000001b0: f2a2 023e 2a79 31bd da37 2abe 1856 40be
000001c0: b4fc 363e 1c94 1fbe f76d 28be e95d 9b3d
000001d0: 6453 1d3e 7c62 3dbe 8433 12be 3f0f 103c
000001e0: 0a37 913d 1e01 593e 46da 963c 756f 2cbd
000001f0: be3e 34be 22a6 65bd 4c09 fdbd 8978 db3c
00000200: f8cd 473e da35 85bc b914 143e 98cb 483e
00000210: c55f 63be bcc3 54be 9a5e 613d 0d92 643c
00000220: b16a 3a3e 523e 1ebd 72ec 03be 6056 0c3e
00000230: 20f3 743e 648c 15be f9be 4a3e 7c7b fd3a
00000240: 672e b8bc 799a dfbd da32 84bd fa03 e4bd
00000250: 82b1 14be 6877 273e 25f0 4cbe 46cf c43d
00000260: bb7c cabd 1513 753e cffd 973d 5ae6 debd
00000270: e8a7 863e 3e02 20be f811 babd cca5 263e
00000280: 4cf1 dabd ebca 613e 7540 2e3e 3a83 773d
00000290: df2b 283e bc26 1abc 28a7 68be 9d72 5b3e
000002a0: c298 48be b0de bdbd 8882 5ebe 757c 6e3d
000002b0: 2ac7 4fbe 57c2 5dbe 7ac8 a7bc 3cfd 1a3e
000002c0: 61d9 77bd f2ca 8ebd 2bc5 3ebe ff30 d23d
000002d0: a453 29be b941 64be 12b2 c93d 6e14 96bd
000002e0: 25b4 293e 1904 d93c 4621 56be e021 833c
000002f0: 65dc 56be 5afc 5bbe e614 79bd 4c22 0dbe
00000300: 481a 8ebc c278 763d 563a 4bbe 5d2d 4f3e
00000310: be74 313e 6a9c 583d f393 093e e2a9 9abc
00000320: 7519 813c 8a28 603e 769c 843d 2ddc fcbd
00000330: 0ca6 913c 5667 66be 0e2e 46be c8a4 0d3e
00000340: 787b 48bd 5ae2 a83b 03f9 4cbe 680b 593e
00000350: 2884 5c3e 632c 08bd 15ac c8bc ad52 fd3d
00000360: fa15 2f3e a903 07be 009f 9e3c 0546 29be
00000370: 9384 23be f57b 283e f27d 093e d810 203e
00000380: b0a4 29be cc06 c7bc 6b9d c43d d068 4fbd
00000390: 675c 14be 0991 d63d 8c10 b43d 6230 cabc
000003a0: cc03 8d3d 2c4d 58be 2db0 33be 8cac cebd
000003b0: 0519 f0bd cced efbd dfdd 9b3c 56aa 53bd
000003c0: 785f 783e 0b9d 0fbe 76cb 5e3e b142 e9bd
000003d0: c37c 7f3d f639 b83d 5cdb 4cbe fa90 4dbe
000003e0: 8c85 25be 0212 00bd 586f b4bd 7449 eb3d
000003f0: ace5 033d 862c 0c3e 5765 d33d 8646 1b3d

down_blocks.1.conv1.bias f4 [8]
-0.002733509 -0.0020816324 -0.010734742 -0.00062778173 -0.027652144 0.0046205716 -0.009841395 -0.005571821
00000000: ac24 33bb ff6b 08bb c5e0 2fbc b891 24ba
00000010: c086 e2bc 2a68 973b cd3d 21bc d293 b6bb

down_blocks.1.conv2.weight f4 [8, 8, 3, 3]
0.16948295 0.16949959 0.20007099 0.062655345 0.08495813 0.08879458 0.007353607 0.054448817
-0.18106547 0.113783844 0.10368392 -0.17489465 0.14963612 0.1502058 -0.0048764106 -0.0020906155
0.011939032 -0.19082014 -0.1997947 -0.17237991 -0.19550201 0.20019694 0.12481383 -0.14451392
0.027337119 0.05218308 0.026860345 -0.051045135 -0.1436401 0.11655107 0.16472133 -0.070355386
-0.06317113 0.16914262 0.109716944 0.20565629 -0.08506603 0.018480588 -0.06013316 -0.016919086
-0.07934561 -0.06763421 0.0023391973 -0.059378482 0.12453518 -0.0814476 0.20046248 0.18221012
-0.07033515 0.036290515 0.17796533 -0.031896964 0.06955154 0.10184543 0.015646953 -0.19247258
-0.036578465 0.05140892 -0.16064173 0.15055548 -0.04870292 -0.026012221 -0.057543643 0.099185035
-0.027650608 -0.091530286 0.14874934 -0.074087925 -0.14958791 0.060421266 0.0535602 -0.11502191
0.17006724 0.10568927 -0.05736413 -0.11984027 -0.10041597 -0.2025433 -0.08808103 0.17498513
-0.1161177 -0.16211616 -0.04442761 0.10891001 0.18244646 0.024348756 0.18272309 0.14899197
0.18846758 -0.17119525 -0.03927626 0.04004881 0.11034566 0.20022027 0.16525541 0.0071697813
0.059655625 -0.11060799 0.006725974 -0.036794133 0.029160205 0.17653592 0.04535855 0.19667658
-0.10803722 -0.030255688 0.01934272 0.047946315 -0.11845625 -0.0967284 0.10963185 0.020937817
0.08767557 -0.15024702 -0.15889506 -0.042977855 0.040549714 -0.13555391 -0.12983628 0.103082955
0.16248639 -0.010537635 -0.097791776 -0.10595673 -0.07936705 -0.108697966 -0.18729818 -0.13889027
-0.097467355 -0.120300874 -0.19147775 -0.12532766 0.22250886 -0.009205952 -0.014085844 -0.1321048
-0.107086524 -0.004894061 0.08372144 0.051768307 0.0035599936 -0.14215817 0.11639389 -0.053227987
-0.008566524 -0.19419816 0.13153106 -0.14263038 0.19369967 -0.15715177 0.17593989 0.19476655
-0.040659007 0.0008003446 -0.12464935 -0.14796524 0.00785983 -0.19218116 0.13697779 -0.20386323
-0.045630977 -0.11654855 -0.17182323 -0.16983706 0.013267017 0.09260518 0.041020926 0.08141199
-0.025052622 -0.1643201 -0.11547213 0.0886466 0.080509774 0.033688247 -0.16595714 0.19282708
0.090026185 -0.13168436 -0.038749646 0.19034111 -0.124100104 0.048058562 0.059999604 0.20555682
-0.13935411 0.029483503 0.104125 -0.04328244 -0.19900735 -0.052352935 0.052025083 0.089239866
0.04221037 -0.005624317 -0.08046305 -0.041875772 0.17381196 -0.08118759 -0.19055808 0.14648503
0.1283681 0.07300589 -0.119425535 -0.17860912 0.080365546 -0.037929084 -0.043448072 -0.13611746
0.15234284 0.049233228 -0.10949855 -0.15822911 0.058890816 -0.02693096 0.1320978 0.09287254
-0.08752526 -0.18883139 0.10389377 0.10072931 0.10916115 -0.13184808 -0.14704262 -0.15897924
0.04128741 -0.10305042 0.16924657 0.14900334 -0.18168247 -0.03732769 -0.034890372 -0.021465247
-0.12129507 0.09590437 0.19943964 0.097854115 -0.065889075 -0.16857947 -0.16149172 -0.07264281
-0.08506909 -0.09534007 -0.10549539 0.15938751 -0.034747448 -0.12675704 0.09351622 -0.19232428
0.03575588 -0.072003536 0.08327462 0.01974974 0.121766515 -0.04753623 0.1761764 0.11322338
00000000: f08c 2d3e 4d91 2d3e 69df 4c3e 7251 803d
00000010: 87fe ad3d efd9 b53d 87f6 f03b b905 5f3d
00000020: 3a69 39be 8107 e93d 3c58 d43d 9517 33be
00000030: 363a 193e 8dcf 193e 4cca 9fbb b502 09bb
00000040: ee9b 433c 5b66 43be fb96 4cbe 5c84 30be
00000050: ae31 48be 6d00 4d3e 659e ff3d 75fb 13be
00000060: 18f2 df3c edbd 553d 3a0a dc3c b414 51bd
00000070: 6416 13be 54b2 ee3d b5ac 283e 7c16 90bd
00000080: de5f 81bd b933 2d3e 47b3 e03d 9097 523e
00000090: 1937 aebd 9a64 973c 304e 76bd e599 8abc
000000a0: f47f a2bd ce83 8abd 384d 193b da36 73bd
000000b0: 4d0c ff3d 00ce a6bd 0946 4d3e 4a95 3a3e
000000c0: e00b 90bd 5da5 143d 8b3c 363e 64a6 02bd
000000d0: 0a71 8e3d 5694 d03d 0a2e 803c 8817 45be
000000e0: 4dd3 15bd 2992 523d 447f 24be 372b 1a3e
000000f0: b77c 47bd 9517 d5bc e2b2 6bbd 8621 cb3d
00000100: 8783 e2bc 3b74 bbbd bf51 183e 69bb 97bd
00000110: 932d 19be 4a7c 773d f161 5b3d 9b90 ebbd
00000120: 1b26 2e3e 9e73 d83d a6f6 6abd d16e f5bd
00000130: e3a6 cdbd 8367 4fbe d463 b4bd 4d2f 333e
00000140: 1ecf edbd c701 26be baf9 35bd 360c df3d
00000150: 3fd3 3a3e 0b77 c73c c31b 3b3e 5a91 183e
00000160: a5fd 403e cf4d 2fbe 25e0 20bd 390a 243d
00000170: e8fc e13d 8b06 4d3e b738 293e 7cf0 ea3b
00000180: 7559 743d 7186 e2bd 8f65 dc3b 72b5 16bd
00000190: 62e1 ee3c d5c5 343e e3c9 393d 9665 493e
000001a0: 9e42 ddbd c7da f7bc a074 9e3c 5b63 443d
000001b0: 3199 f2bd 8a19 c6bd aa86 e03d c985 ab3c
000001c0: 408f b33d 5bda 19be 63b5 22be 8c09 30bd
000001d0: 7517 263d a5ce 0abe cdf3 04be 281d d33d
000001e0: d562 263e 0ba6 2cbc 0e47 c8bd d8ff d8bd
000001f0: 318b a2bd 0a9d debd 18cb 3fbe 4039 0ebe
00000200: f79c c7bd 4e60 f6bd be12 44be e555 00be
00000210: 5dd9 633e 90d4 16bc 50c8 66bc 7b46 07be
00000220: 2e50 dbbd 5c5e a0bb 2576 ab3d 010b 543d
00000230: c84e 693b e991 11be eb5f ee3d 9705 5abd
00000240: 9b5a 0cbc e2db 46be 14b0 063e b30d 12be
00000250: 3559 463e 65ec 20be 9629 343e e270 473e
00000260: 0f8a 26bd 38ce 513a 2948 ffbd 3384 17be
00000270: 84c6 003c 23cb 44be e843 0c3e 86c1 50be
00000280: 8ce7 3abd 02b1 eebd 6ef2 2fbe c4e9 2dbe
00000290: e75d 593c c9a7 bd3d 8f05 283d 54bb a63d
000002a0: 283b cdbc 8743 28be a77c ecbd 598c b53d
000002b0: 4fe2 a43d b0fc 093d abf0 29be 7674 453e
000002c0: a65f b83d 44d8 06be f3b7 1ebd c8e8 423e
000002d0: 3228 febd 0ed9 443d 25c2 753d 7d7d 523e
000002e0: d8b2 0ebe 6387 f13c 7d3f d53d ee48 31bd
000002f0: 95c8 4bbe 0870 56bd 4118 553d 64c3 b63d
00000300: c8e4 2c3d 314c b8bb d0c9 a4bd ee85 2bbd
00000310: c3fb 313e ae45 a6bd a821 43be 2c00 163e
00000320: ed72 033e 1d84 953d 6095 f4bd 4fe5 36be
00000330: b196 a43d 875b 1bbd 9bf6 31bd 6062 0bbe
00000340: c3ff 1b3e c8a8 493d c740 e0bd d006 22be
00000350: 7f37 713d 519e dcbc a544 073e f533 be3d
00000360: 7240 b3bd 045d 41be 42c6 d43d 2b4b ce3d
00000370: e28f df3d 2f03 07be 5792 16be 74cb 22be
00000380: fd1c 293d 190c d3bd f94e 2d3e 5594 183e
00000390: f80a 3abe ebe4 18bd 35e9 0ebd e3d7 afbc
000003a0: 8d69 f8bd 8369 c43d e839 4c3e bd67 c83d
000003b0: daf0 86bd 19a0 2cbe 165e 25be c1c5 94bd
000003c0: b438 aebd a841 c3bd f80d d8bd 7b36 233e
000003d0: 5753 0ebd 99cc 01be 6f85 bf3d a8f0 44be
000003e0: c274 123d 9776 93bd e28b aa3d 35ca a13c
000003f0: b960 f93d 5ab5 42bd 9667 343e a9e1 e73d

down_blocks.1.conv2.bias f4 [8]
-0.0022389367 -0.004571968 0.0006545865 0.004027488 -0.0034811173 -0.0014819967 -0.0046828105 -0.0010318182
00000000: 20bb 12bb 73d0 95bb 8e98 2b3a 05f9 833b
00000010: 7523 64bb 8f3f c2ba 4372 99bb 133e 87ba

down_blocks.1.norm1.weight f4 [8]
0.9988999 0.984274 1.0010319 1.0046179 0.99625945 0.9967657 1.0211294 0.9965644
00000000: e7b7 7f3f 62f9 7b3f d021 803f 5297 803f
00000010: dc0a 7f3f 092c 7f3f 5eb4 823f d81e 7f3f

down_blocks.1.norm1.bias f4 [8]
-0.003290801 -0.0055480967 -0.002029213 0.0010075518 0.0011285398 -0.0029198115 0.004481506 0.0027151953
00000000: 7baa 57bb cfcc b5bb 8bfc 04bb d40f 843a
00000010: 83eb 933a 4f5a 3fbb 99d9 923b 6bf1 313b

down_blocks.1.norm1.running_mean f4 [8]
0.3525133 0.26331615 0.15862213 0.2582849 0.19072391 0.27916878 0.14859594 0.23414774
00000000: a07c b43e 60d1 863e d76d 223e eb3d 843e
00000010: 214d 433e 36ef 8e3e 8929 183e 6dc4 6f3e

down_blocks.1.norm1.running_var f4 [8]
0.7681827 0.5741316 0.30963385 0.47555724 0.28575227 0.2890833 0.15371476 0.28564972
00000000: 9fa7 443f 4afa 123f 5488 9e3e 3d7c f33e
00000010: 1f4e 923e ba02 943e 6767 1d3e ae40 923e

down_blocks.1.norm2.weight f4 [8]
0.99982595 1.0041366 0.9970321 0.9978516 1.0056785 1.0110894 1.0063355 0.99504316
00000000: 98f4 7f3f 8c87 803f 7f3d 7f3f 3473 7f3f
00000010: 13ba 803f 616b 813f 9acf 803f 26bb 7e3f

down_blocks.1.norm2.bias f4 [8]
-0.0032957222 0.00036923573 0.0014801706 -0.0022160204 -0.0014867674 -0.0023504535 0.0024409292 0.0050448487
00000000: 0bfd 57bb fb95 c139 4902 c23a a73a 11bb
00000010: a3df c2ba 110a 1abb fff7 1f3b 424f a53b

down_blocks.1.norm2.running_mean f4 [8]
0.3141052 0.21482742 0.21883349 0.38470384 0.2332901 0.216632 0.21512741 0.23552436
00000000: 66d2 a03e b8fb 5b3e e315 603e e7f7 c43e
00000010: 9ae3 6e3e c7d4 5d3e 5c4a 5c3e 4c2d 713e

down_blocks.1.norm2.running_var f4 [8]
0.6731367 0.25319725 0.13621008 0.29069006 0.47002676 0.54083955 0.3889391 0.38673344
00000000: b052 2c3f 12a3 813e a87a 0b3e 54d5 943e
00000010: 59a7 f03e 7674 0a3f 0723 c73e ed01 c63e

down_blocks.2.conv1.weight f4 [16, 8, 3, 3]
0.011355213 0.1624839 0.024783803 0.02957234 0.099423304 0.09095791 0.1457706 0.11555771
-0.002687189 -0.06827313 0.13984545 -0.07494471 -0.07289076 0.13087955 0.118555 0.0023377363
-0.14122741 0.15956362 0.10093973 0.009374527 0.05637452 0.071841694 0.026205817 -0.1385709
-0.16417095 0.07709268 -0.052549552 0.13689142 -0.016887266 0.11339156 0.031077322 0.03489237
0.12592669 -0.029552167 -0.031008352 -0.03217935 -0.010052596 0.026854783 -0.073574655 0.1338072
0.0627941 -0.053405937 -0.008159903 -0.13655975 -0.039466828 0.062130746 -0.123879656 -0.1627865
-0.15087077 -0.100601174 -0.037912827 0.16111438 0.0979576 -0.059183873 0.12438475 0.09423439
-0.11248647 0.041336246 0.09908356 0.031739775 -0.050202485 -0.08015306 0.04369265 -0.08500096
-0.164817 -0.07855278 -0.10399297 0.052904755 0.12787221 0.14373295 0.05497122 -0.08167917
-0.072463386 0.008529767 -0.00014662647 0.07466154 -0.16262232 0.008716234 -0.11082953 0.09762413
0.070419095 0.004655276 -0.07738072 -0.13439971 0.16317722 0.11895941 -0.15468448 -0.12476699
0.13940597 0.15550081 0.079191856 -0.04577732 0.1619368 -0.041010752 -0.054827522 0.07342176
-0.1075133 0.01938658 0.04399239 0.14690128 0.09499448 0.14779054 -0.07739197 -0.026301965
-0.1236396 -0.11582202 -0.011391731 0.13728675 0.0084214555 0.151307 -0.031339362 -0.05234573
0.10769243 -0.037984412 0.082128376 -0.13539773 0.10837041 -0.092749275 0.054022275 -0.09045153
0.023417233 0.09622816 -0.07935323 -0.14208815 0.027566731 0.011183569 0.12407557 0.024183571
-0.12967412 -0.02342521 -0.014675913 0.023812957 0.0072962767 -0.087905064 -0.01590953 -0.11165993
-0.12668632 0.11209582 -0.07108707 -0.09854048 0.037027825 -0.03528046 -0.01991583 0.0019794866
-0.122855835 0.06008639 0.10854899 -0.12872657 0.07824426 0.149041 -0.12105399 -0.095051564
0.12163122 -0.049786426 0.024866339 0.031528443 -0.07186382 -0.13100354 0.0034885076 -0.08900945
0.13608891 -0.0890277 -0.03414859 -0.022217534 -0.02450023 -0.12877713 -0.053022977 -0.06622247
0.04912909 0.16390955 -0.010119275 0.07771416 0.033171576 -0.067247264 -0.1346947 0.14869922
0.13116938 -0.15389664 0.08060178 -0.15091003 0.06958995 0.049410686 -0.014996562 0.03521335
-0.13317521 0.057880923 0.03380155 0.082228765 0.07048129 -0.090417586 0.105880365 0.14793682
0.069603264 0.09027655 -0.003564158 0.13726845 0.11621187 0.063447215 0.14459276 -0.05368151
0.02491497 0.041559707 0.11793397 -0.087642334 0.09669309 -0.050807204 -0.03948724 -0.15258732
0.044623744 0.03166751 -0.14200366 -0.08046574 -0.108306676 0.023964193 0.09728346 0.07725195
-0.061584186 -0.12029497 0.058175646 0.028506476 -0.11788149 0.032809682 0.08562025 0.10694124
0.15729526 -0.095834576 0.12403074 -0.05726134 -0.082706 0.12904865 0.12888551 0.12953854
0.06727218 -0.11252282 -0.15333389 0.10089616 -0.0708629 -0.0506232 -0.07591941 -0.09614416
-0.027590642 -0.12650725 -0.083417565 -0.15666212 0.09120124 0.16437332 0.10924703 -0.026206447
0.07530004 -0.043472532 0.037474435 -0.13371046 -0.11958639 0.13739735 -0.1574537 0.113670796
00000000: 370b 3a3c 2e62 263e 6707 cb3c b141 f23c
00000010: 729e cb3d 2448 ba3d e344 153e 85a9 ec3d
00000020: 8d1b 30bb c8d2 8bbd a533 0f3e 9d7c 99bd
00000030: c047 95bd 4a05 063e f7cc f23d b534 193b
00000040: eb9d 10be a564 233e 7db9 ce3d 9e97 193c
00000050: f8e8 663d bd21 933d 95ad d63c 88e5 0dbe
00000060: 6e1c 28be c4e2 9d3d 333e 57bd 442d 0c3e
00000070: 2a57 8abc d639 e83d de95 fe3c 4deb 0e3d
00000080: edf2 003e 6317 f2bc 3a05 febc 7ece 03bd
00000090: a5b3 24bc 90fe db3c 4fae 96bd c104 093e
000000a0: 319a 803d 2fc0 5abd 1db1 05bc 52d6 0bbe
000000b0: f8a7 21bd cf7c 7e3d 9eb4 fdbd 81b1 26be
000000c0: de7d 1abe fd07 cebd 7b4a 1bbd 2bfb 243e
000000d0: ff9d c83d ca6a 72bd 6fbd fe3d f6fd c03d
000000e0: 4e5f e6bd 3250 293d 52ec ca3d 9101 023d
000000f0: 1fa1 4dbd 4a27 a4bd 10f7 323d fc14 aebd
00000100: cac5 28be 48e0 a0bd 44fa d4bd a8b2 583d
00000110: eff0 023e bb2e 133e 8129 613d 6947 a7bd
00000120: af67 94bd 70c0 0b3c bebf 19b9 26e8 983d
00000130: 7786 26be 89ce 0e3c 98fa e2bd 29ef c73d
00000140: e337 903d 498b 983b c879 9ebd 14a0 09be
00000150: ee17 273e fea0 f33d 9c65 1ebe d685 ffbd
00000160: 70c0 0e3e 9b3b 1f3e 572f a23d 0081 3bbd
00000170: c3d2 253e e4fa 27bd d392 60bd 265e 963d
00000180: ef2f dcbd 9bd0 9e3c 5d31 343d 4a6d 163e
00000190: 778c c23d 6756 173e ae7f 9ebd 3877 d7bc
000001a0: c236 fdbd 1834 edbd 62a4 3abc e694 0c3e
000001b0: 25fa 093c 39f0 1a3e b45d 00bd 7a68 56bd
000001c0: d98d dc3d 8b95 1bbd ec32 a83d b4a5 0abe
000001d0: 4ef1 dd3d 55f3 bdbd 7646 5d3d a73e b9bd
000001e0: 7fd5 bf3c 4513 c53d f283 a2bd 8e7f 11be
000001f0: a0d3 e13c 4a3b 373c 551b fe3d a01c c63c
00000200: 4bc9 04be 3ae6 bfbc 3e73 70bc 6413 c33c
00000210: 9b15 ef3b 9207 b4bd b454 82bc f6ad e4bd
00000220: 0fba 01be 7e92 e53d 1996 91bd 97cf c9bd
00000230: 7daa 173d 3e82 10bd 8626 a3bc 46ba 013b
00000240: d79b fbbd 251d 763d ef4e de3d e6d0 03be
00000250: 873e a03d 349e 183e 28eb f7bd 65aa c2bd
00000260: ca19 f93d daec 4bbd 7eb4 cb3c f823 013d
00000270: 572d 93bd cb25 06be 729f 643b 964a b6bd
00000280: e45a 0b3e 2854 b6bd 64df 0bbd 8c01 b6bc
00000290: b5b4 c8bc 27de 03be 9f2e 59bd a59f 87bd
000002a0: 963b 493d e8d7 273e 51cb 25bc 9a28 9f3d
000002b0: ebde 073d efb8 89bd 68ed 09be 9c44 183e
000002c0: 4451 063e 1597 1dbe 8c12 a53d 2988 1abe
000002d0: 2d85 8e3d dc62 4a3d 24b4 75bc e03b 103d
000002e0: 155f 08be 8c14 6d3d 7e73 0a3d 8e67 a83d
000002f0: 7f58 903d db2c b9bd ced7 d83d c07c 173e
00000300: 288c 8e3d e9e2 b83d a694 69bb 1a90 0c3e
00000310: 7d00 ee3d 9df0 813d 2010 143e 25e1 5bbd
00000320: 7b1a cc3c 833a 2a3d 5e87 f13d d37d b3bd
00000330: 0707 c63d 371b 50bd 5fbd 21bd da3f 1cbe
00000340: 63c7 363d cab5 013d 6869 11be 39cb a4bd
00000350: e4cf ddbd 8e50 c43c 8d3c c73d 4536 9e3d
00000360: b33f 7cbd 365d f6bd 9649 6e3d 6a86 e93c
00000370: da6b f1bd 7263 063d ab59 af3d 0204 db3d
00000380: 0212 213e eb44 c4bd d403 fe3d de8a 6abd
00000390: c361 a9bd 5425 043e 90fa 033e c0a5 043e
000003a0: ffc5 893d 5d72 e6bd 8f03 1dbe a5a2 ce3d
000003b0: 9120 91bd 465a 4fbd a37b 9bbd 3be7 c4bd
000003c0: c505 e2bc 1e8b 01be d4d6 aabd 096c 20be
000003d0: b7c7 ba3d 7b51 283e e8bc df3d e7ae d6bc
000003e0: e836 9a3d 4110 32bd cb7e 193d 65eb 08be
000003f0: b6e9 f4bd e4b1 0c3e 8b3b 21be 3ccc e83d

down_blocks.2.conv1.bias f4 [16]
6.5756234e-05 -0.00018637419 -0.00076779665 -0.0013385189 0.0007981769 -5.794656e-05 0.0012464066 -0.0006050923
0.00024564966 -0.00080192817 -0.0009003681 -2.7735532e-05 0.00028407614 -0.0042383196 -0.0013068814 -0.001446826
00000000: 9ce6 8938 716d 43b9 f645 49ba 3e71 afba
00000010: bf3c 513a a50b 73b8 775e a33a 0f9f 1eba
00000020: 8aca 8039 7d38 52ba ae06 6cba 9aa9 e8b7
00000030: 0ef0 9439 9ae1 8abb aa4b abba 6da3 bdba

down_blocks.2.conv2.weight f4 [16, 16, 3, 3]
-0.040585417 0.06987592 -0.08449318 0.09894487 0.04008947 0.02457101 0.012432101 0.10070739
0.07290038 -0.13108233 0.09269917 -0.035684157 0.06383175 -0.12789977 -0.10581986 -0.02795393
-0.005864354 -0.031112544 -0.10699049 0.022284335 -0.033632837 0.10029448 0.048908066 -0.043957423
0.05672116 0.114615746 0.033049315 0.10490118 -0.018651312 -0.052475896 0.085600756 0.008336888
-0.014611848 -0.069923 0.092349686 0.039273906 -0.12709047 0.087290496 0.08761941 -0.043494616
-0.06794478 -0.034091983 0.10957846 -0.10732578 0.008352873 -0.113300964 0.05342874 -0.033633884
-0.13784534 0.05935578 0.03444687 -0.030162945 -0.11532794 -0.047365993 -0.12859973 0.037479315
0.08205352 -0.032974295 0.0030194712 0.00069786515 0.042308312 -0.0042477655 -0.050562594 -0.010292621
-0.013754198 -0.043331984 0.08341609 0.10959006 -0.030452121 -0.064697504 0.072023176 -0.01700089
-0.033512376 0.04885602 -0.061012644 0.07835424 -0.070101164 -0.03141346 0.026693026 -0.05851746
0.006253911 0.09396653 0.042703446 0.10476584 0.07143862 0.120983034 -0.14029478 0.092560835
0.10931765 0.061491884 0.0117986165 -0.11524017 -0.048559804 -0.104427464 0.003215894 0.0292715
-0.04895428 0.14027902 0.1295248 0.052302048 0.100684606 -0.058424823 0.029858734 0.0028904309
0.04622769 -0.11762977 0.020538136 0.012849574 -0.1405861 -0.0025096666 -0.12006261 -0.06282388
-0.13579339 0.07136113 -0.07668827 -0.110610925 -0.105456725 0.04011221 -0.051971868 0.118297815
0.01718943 0.14134112 -0.013073884 -0.060221735 -0.11761464 0.034516733 0.08857918 -0.073271476
0.1270591 -0.086201034 -0.048409533 -0.004346516 -0.031495575 -0.078908965 0.0015442049 0.029990926
0.021692699 0.111677095 0.13171493 -0.06430241 0.08055156 -0.11142322 -0.07777073 -0.00012630703
-0.1046328 -0.0018484973 0.022720322 0.061678644 0.12056664 0.12337574 -0.00067028886 0.052276824
0.048499793 -0.06359452 0.11375465 0.07609369 0.07692111 -0.0067607816 -0.049767014 0.099643245
-0.079332575 -0.025484595 -0.008889342 0.052486233 0.05310724 0.057002418 0.11798461 0.06224505
0.082778804 0.008466636 0.1376516 0.026054695 0.03391155 -0.06062404 0.017705543 0.11314346
0.076384634 0.13590881 -0.0010545918 0.09208822 0.10336274 0.02752685 0.074746214 -0.10609431
-0.11300197 -0.106587715 0.13132955 0.08580834 0.013038916 -0.090701476 -0.10469199 0.1417664
0.058731183 0.066782095 -0.12800868 0.13993676 0.023973845 -0.07481995 0.082321756 -0.12309683
0.018831952 -0.07681543 -0.022412667 -0.014356064 0.1319672 -0.022185745 0.1362734 -0.1403623
-0.13311723 -0.046858292 0.0065757236 -0.09406478 0.05683742 0.07396989 -0.11548748 0.051134318
0.07200695 0.12421291 0.006124076 0.10849203 -0.086399786 0.0909608 -0.065736644 -0.008651162
-0.0721204 0.033331804 -0.107412525 0.0044100774 0.12008883 -0.06693921 0.06141667 0.08500545
0.021062829 0.060617767 0.023406683 0.03194514 0.06420369 0.0075171995 0.14559537 0.043587796
-0.14101256 0.11792742 -0.07191147 -0.046160385 -0.08095133 0.0070017907 0.11533746 0.012806836
-0.0056612296 -0.043413315 0.10881946 0.046217892 -0.00842755 0.008066565 0.04637323 -0.060722917
00000000: e53c 26bd 1b1b 8f3d c30a adbd 9ca3 ca3d
00000010: db34 243d 2549 c93c 03b0 4b3c ad3f ce3d
00000020: cb4c 953d 723a 06be 10d9 bd3d 8d29 12bd
00000030: 38ba 823d 28f8 02be 15b8 d8bd a4ff e4bc
00000040: c429 c0bb bcdf febc d41d dbbd a38d b63c
00000050: 96c2 09bd 3167 cd3d d353 483d b30c 34bd
00000060: 7254 683d a9bb ea3d b85e 073d 6ed6 d63d
00000070: a3ca 98bc f7f0 56bd 734f af3d 7197 083c
00000080: 8866 6fbc ca33 8fbd d521 bd3d addd 203d
00000090: 0124 02be 5cc5 b23d ce71 b33d 6927 32bd
000000a0: a226 8bbd 09a4 0bbd ac6a e03d 9ecd dbbd
000000b0: 7dda 083c 560a e8bd 18d8 5a3d afc3 09bd
000000c0: 5427 0dbe 0c1f 733d 2918 0d3d 4818 f7bc
000000d0: 0e31 ecbd d802 42bd a6af 03be e983 193d
000000e0: ad0b a83d 0e10 07bd 52e2 453b f0f0 363a
000000f0: 7b4b 2d3d d730 8bbb b91a 4fbd 62a2 28bc
00000100: 4a59 61bc e17c 31bd 0ed6 aa3d c170 e03d
00000110: ba76 f9bc 2080 84bd e380 933d 7345 8bbc
00000120: 4644 09bd 401d 483d 65e8 79bd 3078 a03d
00000130: 3391 8fbd 66ab 00bd 55ab da3c 01b0 6fbd
00000140: 9ced cc3b 8671 c03d cfe9 2e3d 798f d63d
00000150: 694e 923d f4c5 f73d 6fa9 0fbe 8990 bd3d
00000160: efe1 df3d eade 7b3d fc4e 413c 0a03 ecbd
00000170: a5e6 46bd 11de d5bd c0c1 523b c9ca ef3c
00000180: 4884 48bd 4ea5 0f3e 26a2 043e ac3a 563d
00000190: bb33 ce3d de4e 6fbd 4e9a f43c 626d 3d3b
000001a0: 3f59 3d3d e0e7 f0bd 983f a83c 0587 523c
000001b0: cdf5 0fbe 3879 24bb 63e3 f5bd cea9 80bd
000001c0: 6c0d 0bbe c925 923d bd0e 9dbd fb87 e2bd
000001d0: b2f9 d7bd b34c 243d 74e0 54bd 2046 f23d
000001e0: d9d0 8c3c babb 103e d833 56bc 11ab 76bd
000001f0: f2df f0bd 6b61 0d3d 0069 b53d 5b0f 96bd
00000200: c81b 023e 2b8a b0bd 1349 46bd 386d 8ebb
00000210: 8101 01bd 069b a1bd eb66 ca3a 88af f53c
00000220: e3b4 b13c f6b6 e43d 47e0 063e fbb0 83bd
00000230: 37f8 a43d db31 e4bd 4346 9fbd 4971 04b9
00000240: b949 d6bd 4749 f2ba f81f ba3c bfa2 7c3d
00000250: a4eb f63d 6cac fc3d 53b6 2fba 3920 563d
00000260: b8a7 463d d83d 82bd 33f8 e83d 02d7 9b3d
00000270: d188 9d3d 8c89 ddbb 7fd8 4bbd c211 cc3d
00000280: 1e79 a2bd 12c5 d0bc 9aa4 11bc cefb 563d
00000290: fa86 593d 5e7b 693d eaa1 f13d aaf4 7e3d
000002a0: ef87 a93d a5b7 0a3c 8bf4 0c3e a870 d53c
000002b0: d6e6 0a3d ea50 78bd 370b 913c c2b7 e73d
000002c0: 8c6f 9c3d ae2b 0b3e 3b3a 8aba c098 bc3d
000002d0: d8af d33d fd7f e13c 8b14 993d f947 d9bd
000002e0: 946d e7bd a94a dabd 417b 063e 48bc af3d
000002f0: 2da1 553c b2c1 b9bd c168 d6bd 362b 113e
00000300: 1c90 703d 0dc5 883d b514 03be 954b 0f3e
00000310: cc64 c43c 343b 99bd 4f98 a83d 311a fcbd
00000320: 7745 9a3c 6851 9dbd c59a b7bc b235 6bbc
00000330: 6922 073e e1be b5bc 418b 0b3e 23bb 0fbe
00000340: e24f 08be 7bee 3fbd 2b79 d73b 09a5 c0bd
00000350: 5bce 683d 877d 973d b384 ecbd 3872 513d
00000360: 6178 933d 5763 fe3d 79ac c83b 1231 de3d
00000370: 5ff2 b0bd a849 ba3d efa0 86bd 9abd 0dbc
00000380: dcb3 93bd ee86 083d 19fb dbbd 6982 903b
00000390: 22f1 f53d 6d17 89bd 0c90 7b3d 5617 ae3d
000003a0: f48b ac3c 564a 783d 5fbf bf3c e8d8 023d
000003b0: 397d 833d d752 f63b f416 153e 1e89 323d
000003c0: 9965 10be ee83 f13d 5246 93bd ac12 3dbd
000003d0: d0c9 a5bd 476f e53b 0c36 ec3d c3d3 513c
000003e0: d681 b9bb 29d2 31bd bddc de3d f94e 3d3d
000003f0: b513 0abc a029 043c dbf1 3d3d 98b8 78bd

down_blocks.2.conv2.bias f4 [16]
0.00054949283 -0.001330815 -0.00039517463 -0.002409878 -0.0005876058 0.0003904358 0.00013096846 3.275626e-05
-0.00024325107 0.00034480903 -0.00011575263 0.00013996131 -0.001757192 -0.0003567728 0.0008687917 -0.0007574064
00000000: d70b 103a be6e aeba 712f cfb9 0bef 1dbb
00000010: 8f09 1aba 68b3 cc39 9454 0939 c463 0938
00000020: 3611 7fb9 7cc7 b439 38c0 f2b8 94c2 1239
00000030: 9451 e6ba 3c0d bbb9 a0bf 633a af8c 46ba

down_blocks.2.norm1.weight f4 [16]
0.995049 0.99832517 1.0011861 1.0000658 0.9947676 1.0006711 0.9989875 0.99774486
0.99720156 1.0022217 0.99975157 0.9985806 0.9993344 1.0072186 1.0034864 1.0053147
00000000: 88bb 7e3f 3d92 7f3f de26 803f 2802 803f
00000010: 17a9 7e3f fe15 803f a5bd 7f3f 356c 7f3f
00000020: 9a48 7f3f cd48 803f b8ef 7f3f faa2 7f3f
00000030: 61d4 7f3f 8aec 803f 3e72 803f 27ae 803f

down_blocks.2.norm1.bias f4 [16]
0.001514844 -0.00058996317 0.00074098865 0.0017880179 0.0012646342 8.8752226e-05 -0.000322556 0.0012638943
0.0010159713 -0.0003142099 -0.00015741076 0.0009466844 -0.00047288756 -0.0020229765 0.00084239256 -0.0009155024
00000000: bb8d c63a c2a7 1aba e83e 423a ed5b ea3a
00000010: 15c2 a53a 7d20 ba38 bc1c a9b9 41a9 a53a
00000020: 572a 853a 8abc a4b9 a10e 25b9 ea2a 783a
00000030: e5ed f7b9 ea93 04bb 02d4 5c3a 53fe 6fba

down_blocks.2.norm1.running_mean f4 [16]
0.43164226 0.2844296 0.35204163 0.13935499 0.18282573 0.25566754 0.18611747 0.22494008
0.47430587 0.5006521 0.23174939 0.33379456 0.3137132 0.11640604 0.4198876 0.360687
00000000: 3700 dd3e c2a0 913e cd3e b43e 13b3 0e3e
00000010: ab36 3b3e dbe6 823e 9495 3e3e b156 663e
00000020: 38d8 f23e bc2a 003f b64f 6d3e 1fe7 aa3e
00000030: 049f a03e 4a66 ee3d 82fb d63e f7ab b83e

down_blocks.2.norm1.running_var f4 [16]
0.7492522 0.24444745 0.6305579 0.24939205 0.08508553 0.5241816 0.288523 0.10698442
0.7424568 0.6550323 0.1559875 0.42691046 0.6429058 0.13797216 0.6444231 0.646664
00000000: fece 3f3f 6f50 7a3e 3e6c 213f a160 7f3e
00000010: 5341 ae3d c430 063f 49b9 933e a61a db3d
00000020: a611 3e3f 32b0 273f 30bb 1f3e 0294 da3e
00000030: 7995 243f 9348 0d3e eaf8 243f c68b 253f

down_blocks.2.norm2.weight f4 [16]
0.9987863 1.0016736 0.99908274 1.0043801 0.99975884 0.9988077 1.0000131 0.9984372
0.99991107 0.9989073 0.9996193 0.9976742 1.0032947 0.99757934 0.9982905 1.0008254
00000000: 75b0 7f3f d736 803f e3c3 7f3f 878f 803f
00000010: 32f0 7f3f ddb1 7f3f 6e00 803f 9599 7f3f
00000020: 2cfa 7f3f 64b8 7f3f 0de7 7f3f 9467 7f3f
00000030: f66b 803f 5c61 7f3f f78f 7f3f 0c1b 803f

down_blocks.2.norm2.bias f4 [16]
-0.00031870636 -0.0014603471 0.0012557334 -0.0021846832 0.0004500608 0.0006942569 0.0012046781 0.0008926665
-0.001068046 0.00069920975 -0.0001905754 -0.00025121358 -0.0011154565 0.00038613105 0.0008370582 0.00015457121
00000000: 0b18 a7b9 1e69 bfba 6c97 a43a e72c 0fbb
00000010: 23f6 eb39 cbfe 353a 4ae6 9d3a d601 6a3a
00000020: adfd 8bba 2c4b 373a 32d5 47b9 51b5 83b9
00000030: 8234 92ba a271 ca39 066e 5b3a 6514 2239

down_blocks.2.norm2.running_mean f4 [16]
0.22397667 0.42098504 0.238985 0.4313209 0.28117156 0.26592833 0.27512228 0.34637412
0.30549535 0.3515212 0.22262435 0.2192542 0.37328267 0.32566866 0.22615048 0.3147718
00000000: 245a 653e 5a8b d73e 7cb8 743e 18d6 dc3e
00000010: b8f5 8f3e c227 883e d4dc 8c3e f357 b13e
00000020: e369 9c3e 96fa b33e a3f7 633e 2c84 603e
00000030: e81e bf3e 0bbe a63e fe93 673e c529 a13e

down_blocks.2.norm2.running_var f4 [16]
0.21302721 1.1849254 0.338842 0.34434152 0.16566609 0.23666702 0.3390173 0.4728221
0.5531547 0.29696485 0.15804447 0.24179244 0.17937785 0.35654798 0.24930246 0.4901839
00000000: ce23 5a3e a3ab 973f b37c ad3e 884d b03e
00000010: 5fa4 293e d758 723e ad93 ad3e bd15 f23e
00000020: 8c9b 0d3f c70b 983e 69d6 213e 7098 773e
00000030: d4ae 373e 758d b63e 2549 7f3e 62f9 fa3e

down_blocks.3.conv1.weight f4 [32, 16, 3, 3]
-0.02674415 0.03216922 0.0838047 -0.0643474 -0.05044963 0.101833805 0.08053919 0.10462117
-0.009952282 -0.037921954 0.08952823 0.10480717 -0.071948595 0.08570897 0.04639777 0.051666256
0.08629169 0.050670087 -0.061007418 0.08764537 0.01357556 -0.031142259 0.05383247 0.0978753
-0.013792958 -0.1130017 -0.08902988 -0.017543063 -0.07567905 -0.044122543 0.11128236 -0.03637122
-0.018972017 -0.08229878 -0.11768043 0.07599323 0.036547244 0.083425544 0.09102887 -0.026594922
-0.004245963 0.0964184 -0.0015862313 -0.016141396 -0.048048522 -0.049916644 0.09625346 0.018016178
0.11693651 0.11538291 0.0039557125 0.019571953 -0.05991751 0.024884967 0.10254943 0.070761204
-0.03596677 -0.05572705 -0.042021632 0.049157605 -0.022032658 -0.09754031 -0.08237011 -0.01042711
0.035242606 -0.057826087 0.025825888 0.038089804 -0.1082973 -0.004110538 0.10993092 -0.052309223
0.08537069 -0.108862534 0.024776377 -0.019232802 0.022885237 -0.110433936 0.013568386 0.054368325
0.05665793 -0.039629776 0.116482385 0.022213127 0.04316758 -0.10707295 0.1023011 -0.0030551495
-0.095547944 -0.11776105 -0.070220485 -0.095400214 -0.02737115 0.064879544 0.10404405 0.068909
-0.07092319 0.07925468 -0.04653841 -0.066531435 0.050827898 -0.037110377 -0.029178733 0.093097866
-0.0312147 -0.05176238 -0.035034973 0.050111838 -0.052321855 0.024050342 -0.07136465 -0.015104348
0.008613169 -0.068456694 -0.11356512 -0.06483037 0.048816796 -0.035038877 0.014627384 -0.010369097
0.06421744 0.10479638 0.029525584 0.11145874 0.0035788824 0.08328807 0.033658743 0.08899153
0.08288935 -0.0116741955 0.11105561 -0.043262027 -0.059809096 0.07728191 -0.060154542 -0.05978977
0.011515273 -0.07957209 0.05423035 0.043846555 -0.09779912 -0.035531197 -0.07161237 0.04811221
-0.009032953 0.011571646 0.0053324816 -0.09600224 -0.0769071 0.04674149 -0.08242637 0.026277103
-0.04080775 0.094155386 0.08177445 -0.11574745 -0.0065313997 0.09101479 -0.107123315 -0.114448555
-0.007635501 -0.09427658 -0.012818282 -0.012090947 0.094263904 0.0072762338 -0.03420134 0.0065791802
0.06328462 -0.070150726 0.03490101 0.06257182 0.080479555 0.10551179 -0.11678797 0.05295915
-0.042840246 0.085040756 -0.1042618 -0.058379482 -0.093921594 -0.012539076 -0.041027747 0.08001953
-0.02613353 0.07168029 0.0019072928 0.0085176015 0.09360274 -0.014223512 0.041428313 -0.017951699
0.064242095 -0.034797654 -0.038078174 -0.06616111 0.016318941 0.05494217 -0.08360411 -0.052456398
-0.09491243 -0.09652595 -0.059886545 0.10571644 0.048599523 0.021783046 -0.02994775 -0.050605945
0.05313986 0.08573265 -0.06803631 -0.027570909 0.108747 0.10682276 0.022405796 0.09782658
0.108422525 0.0932589 -0.09098202 0.073670015 0.008024507 -0.0027217318 -0.08349387 -0.08036893
0.060206078 -0.054936875 -0.008684217 -0.11431388 0.081159696 0.08692126 -0.08282886 0.07714494
0.04147398 -0.08419771 0.11045032 0.10449432 -0.109657295 0.08359553 0.017062033 -0.083956346
-0.04063091 0.005261393 -0.093273066 0.045239545 -0.08080759 -0.08235399 0.07003674 0.056159403
0.036373273 0.068170145 0.009021652 0.093098216 0.08179478 -0.08996701 -0.012061478 0.0001987643
00000000: 8c16 dbbc dfc3 033d cca1 ab3d 92c8 83bd
00000010: 45a4 4ebd 3e8e d03d bbf1 a43d a043 d63d
00000020: e50e 23bc 0d54 1bbd 945a b73d 24a5 d63d
00000030: c959 93bd 2f88 af3d 970b 3e3d ff9f 533d
00000040: b3b9 b03d 708b 4f3d eae2 79bd 6a7f b33d
00000050: 076c 5e3c 0d1e ffbc 707f 5c3d d872 c83d
00000060: dcfb 61bc 6f6d e7bd 4c55 b6bd 78b6 8fbc
00000070: 9efd 9abd d7b9 34bd 02e8 e33d fdf9 14bd
00000080: 346b 9bbc 438c a8bd 7002 f1bd 57a2 9b3d
00000090: 90b2 153d 03db aa3d 586d ba3d 98dd d9bc
000000a0: b821 8bbb 0377 c53d 17e9 cfba f63a 84bc
000000b0: 87ce 44bd 6575 4cbd 8920 c53d aa96 933c
000000c0: 697c ef3d e04d ec3d ec9e 813b 5c55 a03c
000000d0: 106c 75bd 8fdb cb3c 7005 d23d 40eb 903d
000000e0: e451 13bd 0c42 64bd e01e 2cbd 7c59 493d
000000f0: d57d b4bc 37c3 c7bd a9b1 a8bd 78d6 2abc
00000100: 8d5a 103d 0cdb 6cbd d090 d33c 0e04 1c3d
00000110: faca ddbd b1b1 86bb 7623 e13d 3242 56bd
00000120: d4d6 ae3d 52f3 debd d4f7 ca3c 1c8e 9dbc
00000130: d279 bb3c 302b e2bd f04d 5e3c 52b1 5e3d
00000140: 2512 683d d552 22bd 518e ee3d 4ef8 b53c
00000150: 7dd0 303d 1049 dbbd 3d83 d13d e738 48bb
00000160: a4ae c3bd b52c f1bd c2cf 8fbd 3061 c3bd
00000170: 7639 e0bc 91df 843d 0c15 d53d 2920 8d3d
00000180: 2d40 91bd 4750 a23d 0f9f 3ebd a241 88bd
00000190: ea30 503d 0d01 18bd 3d08 efbc 18aa be3d
000001a0: f8b5 ffbc ca04 54bd d580 0fbd 1242 4d3d
000001b0: 714f 56bd 3905 c53c a127 92bd 3a78 77bc
000001c0: 401e 0d3c 0633 8cbd d494 e8bd c9c5 84bd
000001d0: 1ff4 473d ed84 0fbd b2a7 6f3c 25e3 29bc
000001e0: 6f84 833d 7c9f d63d a3df f13c 7b44 e43d
000001f0: af8b 6a3b f092 aa3d c0dd 093d 3141 b63d
00000200: e4c1 a93d 2045 3fbc 2071 e33d 8633 31bd
00000210: 62fa 74bd fa45 9e3d 9c64 76bd 1ee6 74bd
00000220: 8eaa 3c3c b1f6 a2bd a520 5e3d 7298 333d
00000230: e84a c8bd 2989 11bd 82a9 92bd 4f11 453d
00000240: f3fe 13bc 0097 3d3c 19bc ae3b d39c c4bd
00000250: 7881 9dbd 0174 3f3d 28cf a8bd 1443 d73c
00000260: 0726 27bd 8ad4 c03d 5d79 a73d 000d edbd
00000270: 5a05 d6bb f665 ba3d 7863 dbbd 0164 eabd
00000280: 3a33 fabb 1414 c1bd c503 52bc 1b19 46bc
00000290: 6f0d c13d 796d ee3b b416 0cbd 2a96 d73b
000002a0: 5e9b 813d 2fab 8fbd 5df4 0e3d a825 803d
000002b0: 77d2 a43d 9116 d83d 882e efbd b2eb 583d
000002c0: 4179 2fbd d929 ae3d 3687 d5bd 531f 6fbd
000002d0: f759 c0bd b270 4dbc b60c 28bd 48e1 a33d
000002e0: fc15 d6bc 1ecd 923d 20fe f93a 698d 0b3c
000002f0: cbb2 bf3d bc09 69bc bcb0 293d 710f 93bc
00000300: 5c91 833d fc87 0ebd dcf7 1bbd 7a7f 87bd
00000310: 4daf 853c 0a0b 613d a238 abbd 85dc 56bd
00000320: 7361 c2bd 66af c5bd 984b 75bd dc81 d83d
00000330: 4b10 473d 5c72 b23c fc54 f5bc 2e48 4fbd
00000340: 2fa9 593d 9994 af3d 9f56 8bbd 63dc e1bc
00000350: bfb6 de3d e4c5 da3d 5c8c b73c 4d59 c83d
00000360: a10c de3d 86fe be3d c854 babd 4ee0 963d
00000370: 3979 033c 155f 32bb d6fe aabd 7798 a4bd
00000380: a69a 763d 7d05 61bd 3f48 0ebc 651d eabd
00000390: 0e37 a63d c603 b23d 2da2 a9bd 2bfe 9d3d
000003a0: 9fe0 293d d96f acbd c733 e23d 1e01 d63d
000003b0: 0194 e0bd 2234 ab3d adc5 8b3c 4ef1 abbd
000003c0: 996c 26bd c367 ac3b f305 bfbd 1a4d 393d
000003d0: 737e a5bd 35a9 a8bd 6c6f 8f3d 6707 663d
000003e0: 24fc 143d ca9c 8b3d 8dcf 133c 47aa be3d
000003f0: 0684 a73d a040 b8bd 819d 45bc 636b 5039

down_blocks.3.conv1.bias f4 [32]
8.145249e-05 0.0002053149 6.5715394e-06 -0.00045371038 -4.7410653e-05 9.900303e-05 6.769557e-05 -0.0007887221
-5.360981e-06 -0.0004627099 -5.9492293e-05 1.6494226e-06 0.00055026996 -0.0003330166 -0.00013020984 0.000104996005
-6.370709e-05 -0.0009920094 -0.00047385585 -0.00028447932 0.00035577567 -1.7256118e-05 0.00011911964 -0.00033103782
0.00018879311 -8.5155785e-05 -0.0002985232 0.0002712339 2.3438735e-05 -0.00017391969 -0.00029434866 -4.214917e-05
00000000: 79d1 aa38 cc49 5739 1881 dc36 fadf edb9
00000010: cdda 46b8 d99f cf38 c8f7 8d38 3fc2 4eba
00000020: 7ae2 b3b6 df97 f2b9 5d87 79b8 bb61 dd35
00000030: fe3f 103a bb98 aeb9 f088 08b9 4d31 dc38
00000040: 7c9a 85b8 5006 82ba db6f f8b9 2b26 95b9
00000050: 6787 ba39 3bc1 90b7 dfcf f938 258f adb9
00000060: c4f6 4539 aa95 b2b8 1b83 9cb9 6634 8e39
00000070: 4d9e c437 365e 36b9 cf52 9ab9 54c9 30b8

down_blocks.3.conv2.weight f4 [32, 32, 3, 3]
0.09872936 -0.003063711 -0.08870022 0.09086167 0.09988743 0.04345815 -0.008136461 -0.022606915
0.06511582 -0.053811543 -0.07085769 -0.09203154 -0.0540952 -0.020203164 -0.04571927 -0.10110311
0.06638018 0.03137532 -0.09239404 -0.014981442 -0.029263502 0.041243304 -0.027893139 0.030152317
0.07841834 -0.06370341 -0.06338984 -0.07748146 0.047022864 0.09623737 0.052163836 -0.063197054
0.06815614 -0.042861845 -0.02783127 0.056154 0.053479474 -0.007057937 -0.0779877 0.09715565
-0.040989704 -0.007889063 -0.009903863 0.051147036 0.049238946 -0.02279525 -0.030963823 0.008956847
0.08087629 -0.1019201 0.08511478 0.0552168 -0.010473656 0.063526645 0.082803816 0.03829903
0.05691051 0.033154115 -0.05853408 0.03847244 -0.08523237 -0.046502355 0.0051679304 0.05086913
-0.0053255185 -0.075590566 0.032029543 0.010201157 0.04478071 -0.07065713 0.098665714 0.021345243
0.036305018 0.011583744 0.036105253 0.0031622986 -0.047312316 -0.07773983 0.09496107 0.04016085
0.09660864 -0.07134176 0.10082066 -0.04109876 -0.08506536 0.05124009 -0.064639784 0.07848111
-0.08107151 -0.06056681 0.09123271 -0.04302789 -0.05403375 0.022894729 -0.07581529 0.060343616
-0.053181745 -0.026839465 0.069857456 0.08751052 -0.06744974 -0.027764259 -0.051544316 -0.014366518
-0.034936212 -0.038588148 0.021444736 -0.04674648 0.07201113 -0.017628916 0.047390424 0.063532956
0.058847718 -0.005788048 -0.027849248 -0.04700436 0.015326665 -0.04502805 0.04853922 -0.049576882
-0.08665947 0.016831867 0.038802486 -0.100376524 0.08768866 -0.020993333 -0.04089689 0.0649113
0.078129016 -0.030485403 0.010039643 -0.0017317778 -0.09938866 -0.082020335 -0.09257126 0.09975486
-0.07639339 -0.06046148 0.008332632 0.08512733 0.02148506 0.050543394 -0.021936074 0.050206434
0.04750236 0.089234725 0.072785854 -0.046216477 0.0045383633 -0.0024821924 0.03353181 -0.06783253
0.08634225 0.08162102 -0.011777717 -0.07822779 0.10264357 0.06716748 -0.059002966 -0.05450105
-0.102020934 -0.028553966 0.016820814 -0.0983841 -0.024146723 -0.08631281 0.034266576 0.0026641937
-0.0148705775 -0.09634152 0.07417564 0.097571746 0.014947788 -0.025482837 0.033733997 -0.018230965
-0.07444606 -0.030655177 -0.024019096 0.06139314 0.053659312 -0.09436968 -0.0074803918 -0.046092242
0.017609576 -0.020826515 0.039579526 -0.0020786072 -0.08393405 -0.036873534 -0.076182 -0.05359856
0.09101696 0.032864112 -0.08303226 -0.07029866 -0.004931904 -0.08927129 -0.081853576 -0.072613694
0.009518242 0.056700148 -0.04998834 -0.07648012 0.0018630569 -0.08825542 -0.08821322 0.059118416
-0.0019843606 -0.06928947 0.0730347 -0.055847354 -0.02058341 0.078077935 0.032442555 -0.09349888
0.090698086 -0.019121936 0.016863804 0.013012844 -0.059679814 0.041864656 0.08788046 0.068646185
0.012858589 -0.0126127275 0.09323575 -0.030804232 -0.055976618 0.018610353 -0.04630944 -0.03246016
0.024956582 0.0062671886 0.05746694 0.09068327 0.06361638 0.09399192 0.05392442 -0.09595255
-0.035193667 0.040929932 -0.018679952 -0.05935474 -0.05331938 0.013559051 0.0663443 0.061639395
-0.08072553 -0.019235652 -0.099763095 0.09720409 0.014591554 -0.07944212 -0.06659712 0.01024053
00000000: 9e32 ca3d 8bc8 48bb 76a8 b5bd af15 ba3d
00000010: c891 cc3d 2c01 323d ca4e 05bc 2332 b9bc
00000020: 715b 853d 7e69 5cbd d61d 91bd 087b bcbd
00000030: ee92 5dbd 1b81 a5bc 2144 3bbd 260f cfbd
00000040: 55f2 873d 6883 003d 1639 bdbd b974 75bc
00000050: 03ba efbc bdee 283d 2780 e4bc fe01 f73c
00000060: cb99 a03d ef76 82bd 88d2 81bd 9aae 9ebd
00000070: 0c9b 403d 1918 c53d bfa9 553d 756d 81bd
00000080: 7295 8b3d e78f 2fbd 67fe e3bc bd01 663d
00000090: 4b0d 5b3d 4446 e7bb 04b8 9fbd 8bf9 c63d
000000a0: d2e4 27bd 2141 01bc d043 22bc 8e7f 513d
000000b0: c7ae 493d 1bbd babc d8a7 fdbc bdbf 123c
000000c0: 78a2 a53d 7cbb d0bd a850 ae3d 032b 623d
000000d0: b299 2bbc 421a 823d 0c95 a93d 72df 1c3d
000000e0: ff1a 693d 9ccc 073d 6ec1 6fbd 4795 1d3d
000000f0: 4f8e aebd 4179 3ebd be57 a93b 265c 503d
00000100: b081 aebb 3acf 9abd 6931 033d c122 273c
00000110: fa6b 373d afb4 90bd 4011 ca3d 38dc ae3c
00000120: 92b4 143d bec9 3d3c 1ae3 133d 913e 4f3b
00000130: 8fca 41bd 0f36 9fbd f37a c23d b47f 243d
00000140: c0da c53d a11b 92bd 107b ce3d 2c57 28bd
00000150: bf36 aebd 21e1 513d dd61 84bd b4ba a03d
00000160: d208 a6bd e714 78bd 37d8 ba3d 033e 30bd
00000170: 7e52 5dbd ba8d bb3c 0c45 9bbd de2a 773d
00000180: 1ad5 59bd 70de dbbc 6d11 8f3d b738 b33d
00000190: 1723 8abd df71 e3bc 2220 53bd 8b61 6bbc
000001a0: 4619 0fbd 9b0e 1ebd dfac af3c 3d79 3fbd
000001b0: 927a 933d 846a 90bc 761c 423d 911d 823d
000001c0: 4e0a 713d aaa9 bdbb 1b24 e4bc a587 40bd
000001d0: b11c 7b3c 556f 38bd 10d1 463d 2111 4bbd
000001e0: 857a b1bd fce2 893c 5bef 1e3d 3592 cdbd
000001f0: 1d96 b33d 36fa abbc 7f83 27bd 37f0 843d
00000200: 1b02 a03d 86bc f9bc 517d 243c d2fc e2ba
00000210: 488c cbbd 47fa a7bd 0096 bdbd 474c cc3d
00000220: 2374 9cbd 75a6 77bd 9785 083c 3d57 ae3d
00000230: 7001 b03c 9706 4f3d 48b3 b3bc 43a5 4d3d
00000240: d691 423d b2c0 b63d c010 953d 7d4d 3dbd
00000250: 8db6 943b 47ac 22bb a758 093d c8eb 8abd
00000260: 35d4 b03d ec28 a73d 53f7 40bc e435 a0bd
00000270: cb36 d23d 1b8f 893d 18ad 71bd 7e3c 5fbd
00000280: 5af0 d0bd 02ea e9bc cecb 893c 9a7d c9bd
00000290: 59cf c5bc c5c4 b0bd 1c5b 0c3d c199 2e3b
000002a0: b9a3 73bc b44e c5bd 66e9 973d b2d3 c73d
000002b0: 91e7 743c 62c1 d0bc a92c 0a3d 1b59 95bc
000002c0: 2d77 98bd 9120 fbbc b2c3 c4bc 6077 7b3d
000002d0: dec9 5b3d e444 c1bd 131e f5bb 38cb 3cbd
000002e0: f541 903c 5e9c aabc 241e 223d 3e39 08bb
000002f0: 9de5 abbd b408 17bd 4f05 9cbd 2a8a 5bbd
00000300: 1a67 ba3d 859c 063d d10c aabd bef8 8fbd
00000310: cf9b a1bb ded3 b6bd d9a2 a7bd 7db6 94bd
00000320: 67f2 1b3c 6a3e 683d 93c0 4cbd 9ca1 9cbd
00000330: d131 f43a 42bf b4bd 22a9 b4bd 2726 723d
00000340: 0c0c 02bb a3e7 8dbd 3793 953d 32c0 64bd
00000350: 8a9e a8bc 53e7 9f3d 7ce2 043d 577c bfbd
00000360: ebbf b93d 9ba5 9cbc f625 8a3c d333 553c
00000370: d272 74bd 467a 2b3d acfa b33d 5f96 8c3d
00000380: d5ac 523c 9da5 4ebc 63f2 be3d 2859 fcbc
00000390: bd47 65bd bd74 983c f8ae 3dbd f2f4 04bd
000003a0: bf71 cc3c fd5c cd3b 7462 6b3d 26b8 b93d
000003b0: 4e49 823d d67e c03d dadf 5c3d c582 c4bd
000003c0: 3c27 10bd 25a6 273d b306 99bc f51d 73bd
000003d0: 6c65 5abd c826 5e3c 85df 873d 9779 7c3d
000003e0: 6d53 a5bd 1694 9dbc 9850 ccbd f012 c73d
000003f0: 6a11 6f3c 8db2 a2bd 1264 88bd e5c7 273c
