Models/123456789_bands.pt (torch, 167363 bytes, 110 tensors)

conv_final.weight f4 [3, 4, 1, 1]
-0.620934 1.0329282 0.49137494 -1.0838696 -0.3329776 -0.6366729 0.35688213 0.90707684
-0.4851349 -0.57242066 -0.24876311 0.78710455
00000000: 88f5 1ebf fe36 843f 7f95 fb3e 3dbc 8abf
00000010: 0a7c aabe fffc 22bf 41b9 b63e 3036 683f
00000020: 9a63 f8be 298a 12bf c2bb 7ebe af7f 493f

conv_final.bias f4 [3]
0.6783946 -0.11927373 -0.55911857
00000000: 45ab 2d3f c945 f4bd 6522 0fbf

down_blocks.0.conv1.weight f4 [4, 9, 3, 3]
0.1737463 -0.013746821 0.15236111 0.03681509 0.11117809 -0.01939281 -0.10138954 0.07005449
0.08626583 -0.086962245 -0.122769065 -0.18913825 0.09553164 0.16157167 0.112332806 -0.11738804
-0.014500441 -0.02840235 0.10463113 0.19207042 -0.16402487 -0.13043152 -0.10453104 0.22045547
0.0031446572 0.19921063 0.005842258 0.15692022 -0.2095324 0.085055575 -0.01863024 -0.09201651
-0.12009326 0.009053072 -0.03133306 -0.109659165 0.12882268 0.11169587 -0.074662715 -0.22772871
-0.1522127 -0.15159008 0.05458904 0.19954671 -0.18717109 -0.23449378 0.07776238 -0.007898361
-0.11964166 -0.1181024 -0.19133113 0.19132778 0.043595944 0.17226844 0.14979957 0.084005274
-0.20498264 -0.021211477 -0.24689691 0.036962286 -0.21199776 -0.15550363 0.117506474 -0.2108383
0.1826844 -0.122731045 0.1603935 -0.17937426 -0.027816316 -0.0093809785 -0.14698431 0.02611208
-0.051857647 -0.13542306 -0.080377236 -0.005135749 0.004411983 0.15566881 -0.123176716 -0.03411347
0.013048391 -0.22403792 -0.15398486 -0.11399979 -0.21798718 0.03088335 0.15598807 -0.10617326
-0.07015517 -0.14417337 0.23288965 0.14778554 0.04662305 0.076578066 0.2123231 0.19060957
-0.14746806 0.1259522 -0.18999301 -0.12898447 -0.07486911 0.09421701 -0.15853278 -0.120934
-0.14958768 -0.09990568 0.1580234 0.20567657 -0.19356355 0.20918384 0.16942617 0.14902668
0.1005424 0.2160423 -0.025886912 0.22456485 -0.073826306 -0.14647004 -0.14678743 0.12913467
0.19875318 0.10684499 0.11128778 -0.029403165 0.08298643 -0.21003999 0.1671051 -0.10218009
-0.011060482 -0.17414679 -0.06434229 0.07427843 -0.22073318 -0.2059059 -0.108622976 0.13861558
0.122800194 0.19849537 0.07783461 -0.104321636 -0.1606943 -0.061831165 -0.120023884 0.06852415
-0.09466135 0.13585293 0.17298141 -0.07614752 0.21939687 -0.09848548 -0.025399448 0.11871237
-0.1362335 0.12240924 0.19338746 0.21233796 -0.06938065 -0.03607514 -0.10423186 -0.046486847
-0.13658138 -0.063037835 -0.18656293 0.19476394 -0.094579645 -0.07038807 -0.20835888 -0.20109789
-0.17109047 -0.06258972 0.07641244 0.037256252 0.15165909 0.21216239 0.01618335 0.1663968
-0.08728744 0.011748356 0.016035754 0.19768758 -0.15769033 0.061286286 0.18245943 -0.23319173
0.13783251 -0.15936358 0.20814955 -0.10746276 -0.1602177 -0.04737666 -0.15919925 -0.024138322
-0.07318226 0.02561777 0.08105564 0.10877076 0.10910618 0.15082404 0.17552845 0.051328935
-0.17481172 -0.11193628 -0.1756601 0.20918281 -0.09599762 -0.0066001024 -0.05676136 -0.008526094
0.07744634 0.19253455 -0.065872006 -0.1544566 0.12847804 -0.07977559 0.17271544 0.10354468
0.1649002 -0.08889132 -0.17499658 0.06991867 0.012330151 0.19221707 -0.022784332 -0.047591142
0.11541782 -0.12438147 -0.18343288 -0.13647708 0.2047358 -0.12363027 -0.08976207 0.063885204
0.18856528 0.15232588 -0.19989601 0.09449499 -0.12182376 -0.12316494 -0.20715342 -0.08712132
-0.017689569 0.066878505 -0.050054874 0.074516445 -0.019053662 -0.031071728 0.026536182 0.18211548
-0.20967178 0.07831054 -0.004942286 0.071936116 0.06105489 0.21974002 0.08877243 0.07270261
00000000: 8dea 313e 593a 61bc 8d04 1c3e 6bcb 163d
00000010: 57b1 e33d acdd 9ebc 52a5 cfbd ba78 8f3d
00000020: 24ac b03d 4319 b2bd 596e fbbd 75ad 41be
00000030: 18a6 c33d 0b73 253e be0e e63d 2469 f0bd
00000040: 4293 6dbc 0cac e8bc d948 d63d 1cae 443e
00000050: 23f6 27be d78f 05be 5f14 d6bd 14bf 613e
00000060: 9816 4e3b dffd 4b3e 6a70 bf3b b2af 203e
00000070: a98f 56be 9e31 ae3d 729e 98bc 2773 bcbd
00000080: 75f3 f5bd 5653 143c 1857 00bd fc94 e0bd
00000090: 18ea 033e cec0 e43d c4e8 98bd b731 69be
000000a0: a5dd 1bbe 6e3a 1bbe c298 5f3d f955 4c3e
000000b0: c7a9 3fbe 231f 70be e241 9f3d 2168 01bc
000000c0: b006 f5bd acdf f1bd 4fec 43be 6eeb 433e
000000d0: a991 323d 2367 303e 0f65 193e f50a ac3d
000000e0: f8e6 51be b1c3 adbc 8bd2 7cbe c465 173d
000000f0: f115 59be 583c 1fbe 3ca7 f03d ffe5 57be
00000100: 9f11 3b3e 6a5a fbbd 323e 243e e3ad 37be
00000110: 0bdf e3bc adb2 19bc 0e83 16be 00e9 d53c
00000120: af68 54bd 58ac 0abe d29c a4bd c949 a8bb
00000130: 6592 903b a567 1f3e 1344 fcbd 91ba 0bbd
00000140: ebc8 553c 326a 65be 35ae 1dbe b978 e9bd
00000150: 0838 5fbe 14ff fc3c 56bb 1f3e 5e71 d9bd
00000160: 84ad 8fbd 2fa2 13be a07a 6e3e 1855 173e
00000170: d0f7 3e3d f6d4 9c3d 3a6b 593e 282f 433e
00000180: de01 17be 9df9 003e 878d 42be 8114 04be
00000190: fa54 99bd d9f4 c03d 6b56 22be 3fac f7bd
000001a0: 832d 19be 599b ccbd e3d0 213e e19c 523e
000001b0: 8635 46be 4a34 563e 0e7e 2d3e 739a 183e
000001c0: 2ce9 cd3d 313a 5d3e ca10 d4bc 54f4 653e
000001d0: 3f32 97bd 3efc 15be 724f 16be e13b 043e
000001e0: f485 4b3e 8cd1 da3d d9ea e33d e8de f0bc
000001f0: caf4 a93d b914 57be 991d 2b3e cc43 d1bd
00000200: 0637 35bc 8953 32be e4c5 83bd 4a1f 983d
00000210: e107 62be ffd8 52be b975 debd 3ef1 0d3e
00000220: ab7e fb3d 5f42 4b3e c167 9f3d 95a6 d5bd
00000230: 0c8d 24be ad42 7dbd 15cf f5bd 6456 8c3d
00000240: cfdd c1bd 081d 0b3e 0a22 313e 3bf3 9bbd
00000250: 93a9 603e c1b2 c9bd 8112 d0bc 791f f33d
00000260: cb80 0bbe b2b1 fa3d 5d07 463e 1f6f 593e
00000270: 7117 8ebd 87c3 13bd 8377 d5bd fe68 3ebd
00000280: fddb 0bbe fb19 81bd 5a0a 3fbe 3370 473e
00000290: f9b2 c1bd 9f27 90bd 085c 55be 9bec 4dbe
000002a0: 5732 2fbe 0a2f 80bd 207e 9c3d 039a 183d
000002b0: 854c 1b3e 1941 593e f292 843c ec63 2a3e
000002c0: c2c3 b2bd 2d7c 403c 6a5d 833c 9d6e 4a3e
000002d0: 9379 21be 5407 7b3d a5d6 3a3e d0c9 6ebe
000002e0: f723 0d3e 3530 23be 2825 553e 6f15 dcbd
000002f0: 1c10 24be 070e 42bd 2105 23be bbbd c5bc
00000300: 95e0 95bd 5cdc d13c 8000 a63d 34c3 de3d
00000310: 1073 df3d 9e71 1a3e bbbd 333e 4a3e 523d
00000320: d801 33be d93e e5bd 3ee0 33be 0534 563e
00000330: 669a c4bd ac45 d8bb 9a7e 68bd 08b1 0bbc
00000340: 309c 9e3d c727 453e e7e7 86bd df29 1ebe
00000350: bf8f 033e 6261 a3bd 51dc 303e 3c0f d43d
00000360: 99db 283e a70c b6bd 4e32 33be 8531 8f3d
00000370: 6704 4a3c 8dd4 443e 35a6 babc eeee 42bd
00000380: 2e60 ec3d b6bb febd d4d5 3bbe a6c0 0bbe
00000390: 43a6 513e de31 fdbd 2dd5 b7bd 3fd6 823d
000003a0: 4217 413e 51fb 1b3e 8ab1 4cbe 9786 c13d
000003b0: bc7e f9bd e63d fcbd 0720 54be aa6c b2bd
000003c0: b7e9 90bc 99f7 883d 5706 4dbd 149c 983d
000003d0: 6d16 9cbc 238a febc 6862 d93c 7b7c 3a3e
000003e0: 33b4 56be 4761 a03d e6f2 a1bb 3e53 933d
000003f0: b114 7a3d 8703 613e 52ce b53d 1be5 943d

down_blocks.0.conv1.bias f4 [4]
0.004197509 -0.00034813982 0.0010001701 0.012713005
00000000: 428b 893b 8986 b6b9 2418 833a 354a 503c

down_blocks.0.conv2.weight f4 [4, 4, 3, 3]
0.1899723 -0.050258424 -0.21194683 0.15625687 0.10776759 -0.2906851 -0.29081005 0.0010220171
0.10180116 -0.0017619582 -0.2854681 0.08372118 0.07997148 -0.2020676 -0.001585101 0.11660326
-0.27035862 0.19726564 -0.2556084 0.21702196 -0.08066413 0.04404966 0.2820205 -0.08624817
0.21070474 0.04093529 0.26492998 0.057356086 -0.02193858 -0.19336078 -0.23551206 0.122824736
-0.20207773 -0.23541865 0.05299825 -0.07088839 0.250355 -0.0712877 -0.19424006 0.09543012
0.3053118 0.28699964 -0.16371831 -0.2087824 0.16265036 0.09089612 0.15357487 0.10026045
0.17747332 -0.04850739 0.081719495 -0.1628964 -0.03303687 -0.28006405 -0.17463304 0.23674403
0.20988981 0.076295525 0.018924464 -0.11824611 -0.1346142 0.108633526 -0.114824586 -0.11043354
0.09989513 -0.11057278 0.18746066 0.11702069 -0.19511697 0.26096752 -0.018916 0.32637003
-0.24139781 0.030664843 0.031839 0.042054795 -0.23306087 -0.16082372 -0.1694119 -0.060187683
-0.15645881 -0.21701637 -0.1453655 -0.22895087 0.09512445 0.23067406 -0.21581317 -0.26622802
-0.19274628 0.27935377 0.09015511 0.021418512 -0.19447224 0.17383195 0.0020004525 -0.059291657
0.08453242 -0.23879121 -0.12657042 -0.08278239 -0.25445002 -0.27669105 -0.2559775 0.13277166
-0.23115626 -0.25277698 0.20538332 -0.13220546 0.09245503 0.0018681299 0.23855716 0.25006786
0.1141264 -0.10528379 -0.24562812 0.011707155 -0.13869922 -0.062956996 0.047501717 -0.083372414
0.17406008 0.23998514 -0.17709999 0.1648376 0.25877962 -0.08461218 0.15916982 -0.1809816
0.21914263 -0.20547576 -0.11201705 0.06954679 0.12198042 0.20014219 -0.27350897 -0.0034994846
0.12334855 0.09678144 -0.04864757 -0.23294723 -0.010205917 -0.27975625 -0.13644199 0.0015126194
00000000: 1988 423e c7db 4dbd 9708 59be cd01 203e
00000010: 41b5 dc3d add4 94be 0ee5 94be 34f5 853a
00000020: 207d d03d 82f1 e6ba e028 92be 0376 ab3d
00000030: 16c8 a33d cfea 4ebe 2ac3 cfba b1cd ee3d
00000040: 726c 8abe 0100 4a3e 1bdf 82be 013b 5e3e
00000050: 3c33 a5bd 6b6d 343d fe64 903e e1a2 b0bd
00000060: fcc2 573e c3ab 273d e7a4 873e 37ee 6a3d
00000070: 89b8 b3bc 5e00 46be 132a 71be 898b fb3d
00000080: 77ed 4ebe 9611 71be b114 593d ef2d 91bd
00000090: 882e 803e 49ff 91bd dee6 46be de70 c33d
000000a0: d451 9c3e 9ef1 923e c6a5 27be 0ecb 55be
000000b0: d18d 263e bf27 ba3d bb42 1d3e 5a55 cd3d
000000c0: 91bb 353e afaf 46bd 8d5c a73d 50ce 26be
000000d0: ab51 07bd 8e64 8fbe 01d3 32be 076d 723e
000000e0: 5bed 563e d440 9c3d 7a07 9b3c 042b f2bd
000000f0: 4ed8 09be 417b de3d 2729 ebbd fb2a e2bd
00000100: d195 cc3d fb73 e2bd b0f5 3f3e 8ba8 ef3d
00000110: becc 47be 899d 853e baf5 9abc f919 a73e
00000120: fd30 77be d634 fb3c 9c69 023d a641 2c3d
00000130: 82a7 6ebe f9ae 24be 507a 2dbe 5c87 76bd
00000140: bd36 20be 8a39 5ebe b2da 14be 1972 6abe
00000150: 9cd0 c23d d235 6c3e 21fe 5cbe 0a4f 88be
00000160: 485f 45be 7507 8f3e 3ea3 b83d e075 af3c
00000170: bb23 47be 0101 323e 061a 033b cfdb 72bd
00000180: 551f ad3d af85 74be ad9b 01be d089 a9bd
00000190: 4647 82be 73aa 8dbe 7c0f 83be 4bf5 073e
000001a0: 3ab4 6cbe fc6b 81be 0150 523e de60 07be
000001b0: 1059 bd3d 0adc f43a 5448 743e e508 803e
000001c0: 1abb e93d 079f d7bd f085 7bbe 5ecf 3f3c
000001d0: 2b07 0ebe 99ef 80bd 2991 423d 28bf aabd
000001e0: ce3c 323e aabe 753e b359 35be 30cb 283e
000001f0: c37e 843e 2749 adbd 6afd 223e 3e53 39be
00000200: ed66 603e 3d68 52be 3269 e5bd 8c6e 8e3d
00000210: dfd0 f93d 13f2 4c3e 5e09 8cbe 9c57 65bb
00000220: 2a9e fc3d 5935 c63d ad42 47bd b889 6ebe
00000230: b836 27bc 363c 8fbe 73b7 0bbe 1643 c63a

down_blocks.0.conv2.bias f4 [4]
0.047672067 0.028714024 0.034127153 0.0014001448
00000000: c943 433d ac39 eb3c eac8 0b3d 1085 b73a

down_blocks.0.norm1.weight f4 [4]
0.99796474 1.0134901 0.98126227 1.0023953
00000000: 9e7a 7f3f 0bba 813f 0134 7b3f 7d4e 803f

down_blocks.0.norm1.bias f4 [4]
-0.02669173 -0.027670132 0.026211679 -0.054913864
00000000: 9da8 dabc 79ac e2bc e0b9 d63c 5ced 60bd

down_blocks.0.norm1.running_mean f4 [4]
1.8152032 42.090637 8.772304 846.2924
00000000: 9458 e83f d05c 2842 5b5b 0c41 b792 5344

down_blocks.0.norm1.running_var f4 [4]
5244.5083 194958.53 22362.297 531004.7
00000000: 11e4 a345 a263 3e48 98b4 ae46 cba3 0149

down_blocks.0.norm2.weight f4 [4]
1.0398918 0.9888993 1.0393597 0.9976063
00000000: 2d1b 853f 8128 7d3f bd09 853f 2063 7f3f

down_blocks.0.norm2.bias f4 [4]
0.0026251005 -0.0008065124 0.029778138 -0.026932945
00000000: e109 2c3b 226c 53ba 48f1 f33c 7ba2 dcbc

down_blocks.0.norm2.running_mean f4 [4]
0.30076113 0.21519068 0.45769364 0.25154006
00000000: 5dfd 993e f25a 5c3e d256 ea3e dcc9 803e

down_blocks.0.norm2.running_var f4 [4]
0.36220765 0.30961186 0.6305532 0.5907577
00000000: 4873 b93e 7285 9e3e ef6b 213f e63b 173f

down_blocks.1.conv1.weight f4 [8, 4, 3, 3]
0.005066113 0.15222222 0.087926194 0.14799295 0.2373455 0.22491944 -0.105095185 -0.19498903
0.18528816 0.054617032 -0.005889142 -0.078107774 0.116800666 -0.15517618 0.04962614 -0.21490182
-0.20824546 -0.07100304 0.15886341 -0.0069428068 0.18477893 0.14018384 0.014019685 0.10978698
0.23656827 -0.024548741 0.19330192 -0.05732358 -0.025743213 -0.115050465 -0.042501036 0.0145319095
0.025047433 0.14193884 -0.037858523 0.13851799 -0.19290298 -0.16619438 0.06522298 -0.07290639
0.13614021 -0.008725166 -0.19846995 0.15669072 -0.19737451 0.105923206 0.22683384 0.16758473
0.18715277 -0.081848346 -0.17529365 -0.15094048 -0.024719056 0.13795856 -0.06651433 -0.09754327
-0.14128846 -0.06874978 0.18661815 -0.05803122 0.22924787 0.05482202 0.11035784 0.14435075
0.09528445 0.048118345 -0.18924603 0.14377731 0.087688 -0.13433193 -0.0778684 0.11981045
0.013095669 0.23255707 -0.120253645 -0.020906284 0.14008513 0.048218656 0.17637664 0.06956907
0.04383946 0.011286176 -0.15058129 -0.23632923 -0.02093395 0.014586225 -0.22569782 -0.17135859
-0.01570279 0.032021284 -0.035522792 0.23074545 -0.2142788 -0.08990938 0.1299893 0.0025934647
0.04020972 -0.049890213 -0.13945559 -0.0502667 -0.026501585 0.07219103 0.0003914806 0.13270083
0.09213536 0.21569124 -0.1426584 0.033916492 0.107446454 0.19920927 0.025809838 0.19820622
-0.17968388 0.07427484 0.026459252 -0.041680343 -0.073817044 -0.07962984 -0.05424873 0.20689403
0.1369798 0.22304776 0.03502657 -0.20532936 -0.15606412 0.2065343 0.2189723 0.029295823
-0.17988455 -0.10269399 -0.100535676 0.12657782 0.20654373 -0.00021754335 -0.1721546 0.17734146
0.21947712 0.04459407 -0.18707827 0.16443789 0.10297805 -0.24145041 -0.15779525 -0.118602104
0.18620856 0.22416343 0.02330528 0.23220892 0.2148579 0.035467796 0.21535736 -0.21511978
-0.23076266 -0.03616746 0.033187155 -0.016626066 0.24227309 -0.043250643 0.046537075 -0.21274203
-0.1982477 -0.14113262 -0.21635517 -0.16847585 0.16372135 -0.14061537 -0.04875845 -0.13941249
-0.03176975 0.073093325 0.16827758 0.094028436 0.14741446 0.043236315 0.008382842 -0.23282474
0.11701135 -0.05332934 -0.2115535 -0.048776034 -0.11607059 -0.17125991 0.05446748 0.025781112
-0.14195105 0.102894574 -0.14430128 0.20218451 0.15933551 0.0070545403 0.14226261 -0.12259035
0.23147726 -0.17646866 -0.0077542164 0.23053871 -0.05540346 0.18312772 -0.11855336 -0.021619495
-0.14488618 0.07904035 0.14753596 -0.11797741 0.11772214 -0.13623627 -0.16465749 -0.04883208
-0.23372838 0.16203457 -0.12476432 0.096716 -0.011533379 0.0760302 -0.031207044 -0.1864754
-0.002108326 0.06447978 -0.08954806 0.009025792 0.02291588 0.2072406 0.09298238 -0.16059215
-0.036730226 -0.106346406 -0.10400502 0.20231463 -0.16259955 0.21660455 -0.10551484 -0.014208195
-0.11937236 -0.20910122 0.13583173 0.2250488 0.22666597 -0.028032672 -0.168816 -0.21898317
0.07753937 -0.029940145 0.05486096 -0.21151045 -0.16929726 0.1846087 0.18706548 0.09978819
0.1053984 0.023658894 -0.15755054 -0.07494243 0.14507595 -0.017859332 -0.122828655 0.13703208
00000000: a301 a63b 24e0 1b3e a612 b43d 778b 173e
00000010: b30a 733e 4851 663e 253c d7bd 34ab 47be
00000020: 2ebc 3d3e 1cb6 5f3d b4f9 c0bb f8f6 9fbd
00000030: 3035 ef3d 81e6 1ebe c844 4b3d 390f 5cbe
00000040: 4c3e 55be 0b6a 91bd 17ad 223e 7c80 e3bb
00000050: b036 3d3e 5a8c 0f3e d2b2 653c ffd7 e03d
00000060: f43e 723e 711a c9bc f0f0 453e 21cc 6abd
00000070: 6ee3 d2bc 949f ebbd 9115 2ebd 3f17 6e3c
00000080: 4630 cd3c 6a58 113e 8a11 1bbd a9d7 0d3e
00000090: 5c88 45be dc2e 2abe a093 853d f24f 95bd
000000a0: 5768 0b3e 00f4 0ebc b53b 4bbe 8873 203e
000000b0: 8b1c 4abe 44ee d83d 2147 683e 559b 2b3e
000000c0: faa4 3f3e 1ba0 a7bd 2e80 33be 2490 1abe
000000d0: 9e7f cabc 0245 0d3e aa38 88bd c4c4 c7bd
000000e0: ecad 10be afcc 8cbd d418 3f3e 25b2 6dbd
000000f0: f4bf 6a3e 0e8d 603d 4b03 e23d afd0 133e
00000100: 7e24 c33d be17 453d b6c9 41be 5c3a 133e
00000110: c495 b33d 4f8e 09be 7879 9fbd 2e5f f53d
00000120: 388f 563c 7123 6e3e 8b47 f6bd a843 abbc
00000130: 7a72 0f3e ed80 453d 149c 343e 3b7a 8e3d
00000140: 0191 333d a7e9 383c fb31 1abe 4a00 72be
00000150: ad7d abbc 10fb 6e3c 541d 67be a078 2fbe
00000160: 23a3 80bc c028 033d 5980 11bd 8948 6c3e
00000170: e76b 5bbe 6922 b8bd ea1b 053e 1ef7 293b
00000180: f3b2 243d ae59 4cbd 72cd 0ebe 75e4 4dbd
00000190: da19 d9bc e4d8 933d a33f cd39 bae2 073e
000001a0: 77b1 bc3d 2ade 5c3e 0b15 12be 05ec 0a3d
000001b0: e30c dc3d 84fd 4b3e 276f d33c 92f6 4a3e
000001c0: 0dff 37be 681d 983d 13c1 d83c 02b9 2abd
000001d0: 642d 97bd f814 a3bd eb33 5ebd 07dc 533e
000001e0: 6f44 0c3e a266 643e 0578 0f3d dc41 52be
000001f0: 46cf 1fbe ba7d 533e 463a 603e cbfd ef3c
00000200: a833 38be 3a51 d2bd a6e5 cdbd 9e9d 013e
00000210: 3380 533e 591c 64b9 4c49 30be 0099 353e
00000220: 9cbe 603e 46a8 363d 7291 3fbe 6862 283e
00000230: 28e6 d23d c73e 77be 1495 21be a9e5 f2bd
00000240: 75ad 3e3e 198b 653e b7ea be3c 2dc8 6d3e
00000250: b603 5c3e ae46 113d a486 5c3e 5c48 5cbe
00000260: 0c4d 6cbe 5524 14bd 41ef 073d 6333 88bc
00000270: 7016 783e 9627 31bd a99d 3e3d 0cd9 59be
00000280: 7201 4bbe 1285 10be 368c 5dbe ef84 2cbe
00000290: 92a6 273e 7afd 0fbe f1b6 47bd 26c2 0ebe
000002a0: ff20 02bd f4b1 953d f550 2c3e fb91 c03d
000002b0: d1f3 163e 9018 313d 3058 093c 9c69 6ebe
000002c0: a6a3 ef3d de6f 5abd 7ba1 58be 61c9 47bd
000002d0: 6bb6 edbd c25e 2fbe 4b19 5f3d e932 d33c
000002e0: 9e5b 11be 64ba d23d b7c3 13be 7509 4f3e
000002f0: d928 233e c629 e73b 4aad 113e a610 fbbd
00000300: 6008 6d3e 33b4 34be 1517 febb 5712 6c3e
00000310: bdee 62bd d585 3b3e 1bcc f2bd 5e1b b1bc
00000320: 0b5d 14be e8df a13d ab13 173e 249e f1bd
00000330: 4e18 f13d 8581 0bbe f99b 28be 2604 48bd
00000340: 7e56 6fbe 64ec 253e 7084 ffbd 0a13 c63d
00000350: 7ff6 3cbc b9b5 9b3d eaa5 ffbc 68f3 3ebe
00000360: d72b 0abb fa0d 843d f964 b7bd eae0 133c
00000370: 15ba bb3c e136 543e 8c6d be3d 4572 24be
00000380: 6f72 16bd 25cc d9bd 9500 d5bd 912b 4f3e
00000390: 7f80 26be 95cd 5d3e 2a18 d8bd 7dc9 68bc
000003a0: 7f79 f4bd a11e 56be 7917 0b3e 3173 663e
000003b0: 201b 683e c6a4 e5bc 1ade 2cbe 203d 60be
000003c0: f6cc 9e3d 0945 f5bc e3b5 603d 3296 58be
000003d0: 435c 2dbe 100a 3d3e 188e 3f3e c05d cc3d
000003e0: 1edb d73d 4cd0 c13c ee54 21be 6b7b 99bd
000003f0: ca8e 143e bc4d 92bc 978d fbbd 2352 0c3e

down_blocks.1.conv1.bias f4 [8]
-0.0011624321 -0.00401038 0.004774435 -0.0062702335 0.005569655 -0.00023609892 0.0071810554 -0.005437725
00000000: c05c 98ba 8169 83bb dd72 9c3b 8876 cdbb
00000010: a781 b63b 5291 77b9 0f4f eb3b f22e b2bb

down_blocks.1.conv2.weight f4 [8, 8, 3, 3]
-0.026906535 0.16555934 -0.025550215 -0.19864401 -0.19459602 -0.111419424 -0.16675897 0.05216424
0.013824764 -0.15889965 -0.13866249 -0.18813443 0.19266328 -0.011565084 -0.082206264 -0.16237247
0.20359106 0.1784984 0.077148885 0.15529852 0.18604271 -0.074142866 -0.07441177 0.18776095
0.0054682163 -0.099730186 0.19677165 -0.048543688 -0.17421538 0.06207965 0.05680763 0.1166852
0.07113861 0.12309547 -0.1451596 0.09485729 0.07391429 -0.07259603 0.1321602 -0.1955313
-0.032778278 0.028832803 0.11719865 -0.17650132 0.13649245 0.111200824 0.15454504 -0.14335436
0.04343982 -0.1851044 0.19508603 -0.118818365 0.056511685 -0.08383962 -0.0038229686 -0.11335655
0.09969211 0.06349507 0.04757656 0.1513965 -0.1045398 0.16213468 0.1720184 -0.03908309
0.059803028 -0.11087249 0.023948822 -0.09216404 0.20099467 -0.16059275 0.018517738 0.04396741
0.11847795 -0.079622455 -0.07738815 -0.05792928 -0.18327636 0.067343116 0.0942185 -0.17653409
0.10518809 -0.1384308 0.0178262 0.14134578 -0.14451855 -0.06444351 0.14175004 -0.10315842
0.08602414 -0.07180215 -0.2009793 0.0939183 -0.027466536 0.1594844 -0.0099535715 0.009307416
-0.019058846 0.011507965 -0.15435155 0.13787355 -0.13986821 -0.11108629 0.1549802 -0.10587173
0.123769194 0.030891955 -0.11386334 -0.098036304 -0.20157395 0.16514312 0.113272585 -0.08332106
-0.18682323 0.17520683 -0.14210872 0.09260795 0.09586809 0.013263069 -0.18230349 0.106341
0.12884401 -0.055761363 -0.14652306 -0.036355983 0.13689296 0.15222295 -0.15964186 -0.14816733
-0.13102905 0.10520718 -0.018635206 0.013470575 -0.17792667 0.15152954 0.15176614 -0.010929871
0.11609695 -0.053691175 -0.11807465 -0.097869016 0.0031923072 0.10779958 0.026790041 0.09844574
-0.20217876 -0.038330838 0.08334087 0.13284145 -0.1468425 -0.06715816 0.17008495 -0.057883136
0.042937882 0.1785337 0.064124145 0.031289127 0.18824811 -0.20165841 0.16614604 -0.09491617
-0.028448993 0.05614816 0.12947348 0.16064578 0.10415917 0.19592685 -0.20041114 -0.19782668
0.15893108 0.113604896 -0.00797501 -0.075877406 -0.1714878 0.18586095 0.13773906 -0.06650702
-0.12376009 0.1054606 0.08737114 0.13228424 -0.09088406 -0.11921445 -0.01809934 -0.17651372
-0.18646277 0.18312061 -0.12520456 0.07873588 -0.1550731 -0.18787292 -0.010963711 0.027738458
0.14407697 -0.17086406 0.11242421 0.09694847 0.042877104 0.14881481 -0.034143947 -0.0045350506
-0.030369177 -0.08085556 -0.14114346 -0.0137843685 -0.042077396 -0.10580402 -0.046085704 -0.0035940781
0.07597464 0.051931113 0.16995116 -0.06821447 0.062287074 0.037271205 0.16817543 0.14858551
-0.19313599 0.089681625 -0.040315993 -0.0707438 0.004287935 0.019217437 -0.12892222 0.04395472
0.069271 -0.06430353 -0.100683294 0.11742418 0.093982644 -0.16717955 0.12825151 0.13004431
-0.08443648 0.008289007 0.12734641 -0.15374546 0.07777366 -0.019282283 0.12253839 -0.069870606
-0.09639159 -0.08064267 -0.10020876 0.12190003 -0.14311543 0.092021465 -0.16980183 0.0057602716
0.0064155147 0.13334271 0.14221978 0.016459733 -0.08550834 0.06419798 -0.027081098 0.17842989
00000000: 186b dcbc 6388 293e af4e d1bc 5669 4bbe
00000010: 2e44 47be de2f e4bd ddc2 2abe 2caa 553d
00000020: 4381 623c 97b6 22be 8afd 0dbe 50a6 40be
00000030: 8649 453e 7a7b 3dbc c25b a8bd f844 26be
00000040: 2d7a 503e 49c8 363e 3c00 9e3d 9306 1f3e
00000050: fb81 3e3e 37d8 97bd 3365 98bd 6844 403e
00000060: b92e b33b 573f ccbd 827e 493e bfd5 46bd
00000070: 8465 32be 3b47 7e3d 1eaf 683d a6f8 ee3d
00000080: 1fb1 913d 7a19 fc3d b8a4 14be 8a44 c23d
00000090: 6060 973d 3aad 94bd 0155 073e 5b39 48be
000000a0: 8442 06bd c532 ec3c d905 f03d c3bc 34be
000000b0: adc4 0b3e 42bd e33d 0e41 1e3e 7ccb 12be
000000c0: f4ed 313d 028c 3dbe a2c4 473e 0b57 f3bd
000000d0: cc78 673d 1bb4 abbd c58a 7abb 7b27 e8bd
000000e0: 612b cc3d b409 823d a4df 423d af07 1b3e
000000f0: f618 d6bd a206 263e 9725 303e 9715 20bd
00000100: 05f4 743d 1e11 e3bd 5230 c43c 80c0 bcbd
00000110: 8cd1 4d3e 6d72 24be 83b2 973c 2c17 343d
00000120: 91a4 f23d 1911 a3bd ae7d 9ebd 4147 6dbd
00000130: ccac 3bbe 30eb 893d a1f5 c03d 5ac5 34be
00000140: da6c d73d cec0 0dbe 4008 923c f3bc 103e
00000150: acfc 13be f5fa 83bd ec26 113e b944 d3bd
00000160: 6d2d b03d 010d 93bd 85cd 4dbe 3d58 c03d
00000170: 8001 e1bc e14f 233e 4e14 23bc 227e 183c
00000180: 4c21 9cbc e78b 3c3c 550e 1ebe b92e 0d3e
00000190: 9d39 0fbe 3581 e3bd 21b3 1e3e 47d3 d8bd
000001a0: b47a fd3d 2011 fd3c 2f31 e9bd 42c7 c8bd
000001b0: 6769 4ebe 471b 293e 75fb e73d 3ba4 aabd
000001c0: 974e 3fbe 6b69 333e f384 11be 3da9 bd3d
000001d0: 7d56 c43d 584d 593c c4ad 3abe 4fc9 d93d
000001e0: afef 033e 0766 64bd 240a 16be 03ea 14bd
000001f0: ab2d 0c3e 55e0 1b3e 2879 23be 2db9 17be
00000200: 7b2c 06be dd76 d73d dca8 98bc b0b3 5c3c
00000210: 6932 36be 8f2a 1b3e 9568 1b3e 3413 33bc
00000220: 3dc4 ed3d 47eb 5bbd 1fd1 f1bd 8d6f c8bd
00000230: 0736 513b 07c6 dc3d ca76 db3c ec9d c93d
00000240: f307 4fbe cc00 1dbd 9eae aa3d 9707 083e
00000250: e15d 16be 388a 89bd c02a 2e3e de16 6dbd
00000260: a2df 2f3d 8ad1 363e 8553 833d 0729 003d
00000270: 1dc4 403e 8b7f 4ebe 3022 2a3e 6963 c2bd
00000280: dd0d e9bc 9dfb 653d b294 043e 5480 243e
00000290: 6751 d53d 0ca1 483e 9438 4dbe 1493 4abe
000002a0: d4be 223e afa9 e83d 9ea9 02bc 9d65 9bbd
000002b0: 7f9a 2fbe 5552 3e3e 780b 0d3e d534 88bd
000002c0: ee75 fdbd bafb d73d a4ef b23d 8575 073e
000002d0: 6c21 babd b526 f4bd 1145 94bc 03c0 34be
000002e0: 19f0 3ebe f883 3b3e a035 00be 4740 a13d
000002f0: 7ccb 1ebe c261 40be 23a1 33bc c33b e33c
00000300: ea88 133e fdf6 2ebe aa3e e63d eb8c c63d
00000310: e79f 2f3d e962 183e 86da 0bbd c39a 94bb
00000320: c8c8 f8bc 9a97 a5bd e987 10be d5d7 61bc
00000330: 5959 2cbd c7af d8bd 5dc4 3cbd a08a 6bbb
00000340: 9898 9b3d b8b5 543d ad07 2e3e 07b4 8bbd
00000350: bb20 7f3d b1a9 183d 2e36 2c3e cd26 183e
00000360: 71c5 45be 00ab b73d 6222 25bd 20e2 90bd
00000370: ce81 8c3b e36d 9d3c 3004 04be dd09 343d
00000380: f4dd 8d3d 92b1 83bd 0b33 cebd 177c f03d
00000390: f979 c03d 1e31 2bbe 5d54 033e 562a 053e
000003a0: 09ed acbd 9dce 073c 1967 023e 736f 1dbe
000003b0: cc47 9f3d e1f5 9dbc 68f5 fa3d 5218 8fbd
000003c0: f468 c5bd fc27 a5bd 403a cdbd b9a6 f93d
000003d0: da8c 12be c075 bc3d 88e0 2dbe a9c0 bc3b
000003e0: 3d39 d23b fe8a 083e 10a2 113e 90d6 863c
000003f0: ff1e afbd 3b7a 833d 2ed9 ddbc 53b6 363e

down_blocks.1.conv2.bias f4 [8]
0.0039810697 -0.0072471816 -0.0006607482 -0.0031677233 -0.0030012792 -0.0032699723 0.004697769 -3.9898027e-06
00000000: a273 823b c479 edbb 1036 2dba 9499 4fbb
00000010: 1cb1 44bb 084d 56bb beef 993b 25e0 85b6

down_blocks.1.norm1.weight f4 [8]
0.9970813 1.0026076 1.0039896 0.99725574 0.9989582 0.9987776 1.004308 0.9969044
00000000: b840 7f3f 7255 803f bb82 803f 274c 7f3f
00000010: b9bb 7f3f e4af 7f3f 2a8d 803f 2035 7f3f

down_blocks.1.norm1.bias f4 [8]
-0.0031185404 -0.001747175 0.007532145 -0.0045356946 0.0005368732 -0.0007779327 0.0005231214 -0.0012448609
00000000: 6d60 4cbb 7701 e5ba 36d0 f63b 2aa0 94bb
00000010: f3bc 0c3a 2eee 4bba 1522 093a 9a2a a3ba

down_blocks.1.norm1.running_mean f4 [8]
0.71340847 0.21655811 0.32959116 0.27123463 0.21884346 0.24193403 0.22192898 0.15285754
00000000: f0a1 363f 69c1 5d3e 2cc0 a83e 44df 8a3e
00000010: 8018 603e 8ebd 773e 5a41 633e b086 1c3e

down_blocks.1.norm1.running_var f4 [8]
1.8071767 0.30852395 0.41014832 0.5619698 0.4378991 0.21115789 0.23446846 0.17380989
00000000: 9151 e73f daf6 9d3e f6fe d13e 41dd 0f3f
00000010: 5034 e03e c639 583e 8018 703e 38fb 313e

down_blocks.1.norm2.weight f4 [8]
1.0022122 0.9901749 1.0012627 1.005855 1.0019257 1.0074922 0.9992716 1.0080639
00000000: 7d48 803f 1a7c 7d3f 6029 803f dbbf 803f
00000010: 1a3f 803f 81f5 803f 43d0 7f3f 3d08 813f

down_blocks.1.norm2.bias f4 [8]
0.0016276666 0.0039712596 -0.001971881 -0.0053839893 -0.0042211562 -0.0032626227 0.0004967746 0.0041948385
00000000: 6e57 d53a 5721 823b ac3a 01bb 2d6c b0bb
00000010: a051 8abb bad1 55bb fb39 023a db74 893b

down_blocks.1.norm2.running_mean f4 [8]
0.2246531 0.24860552 0.22663735 0.25037405 0.48532048 0.33621383 0.2792828 0.38747895
00000000: 760b 663e 7292 7e3e 9f13 683e 0731 803e
00000010: ed7b f83e 3824 ac3e 28fe 8e3e a463 c63e

down_blocks.1.norm2.running_var f4 [8]
0.48087272 0.11132934 0.30947226 0.88961893 1.7413347 0.75518435 0.44125566 0.98150325
00000000: f334 f63e a300 e43d 2673 9e3e 11be 633f
00000010: 0ee4 de3f c353 413f 43ec e13e cc43 7b3f

down_blocks.2.conv1.weight f4 [16, 8, 3, 3]
0.11786867 -0.047039676 0.15048008 -0.13006648 0.09465104 -0.0072850017 -0.022875182 -0.034019127
-0.04746328 -0.06843964 -0.15844359 -0.016651997 0.049046952 -0.11786415 0.052595474 0.13960208
0.033217393 -0.16512454 0.1417898 0.016602222 0.14323486 -0.08336061 0.080892496 -0.115769744
0.13803567 -0.16346769 0.08088305 -0.0026448031 0.14432731 -0.14829046 -0.08407003 -0.0030744318
-0.13464001 -0.024447465 -0.069815494 0.16651441 -0.1661305 0.06307506 0.047488898 -0.07714986
-0.1582303 0.04260905 -0.0544979 0.045307294 0.06829326 0.11440871 -0.087534755 0.050744936
0.03877794 -0.018302955 0.12638235 0.0076915976 0.03073269 0.0014759412 -0.12191758 0.14448117
0.10757885 0.10562374 -0.09873813 0.040248726 -0.1113773 0.161614 -0.16473852 -0.12796415
0.123563476 0.092554145 0.10292216 0.16636552 0.09677577 -0.13587728 0.13518655 0.0128464205
0.15789385 -0.164893 -0.08177112 0.006849899 0.0044124224 0.05259784 0.017684547 -0.08907886
0.15390229 0.08189124 -0.07542262 -0.08557051 0.044791427 -0.1544717 0.14570563 -0.08171681
0.12669218 -0.0590752 -0.07935501 -0.12837559 -0.16659106 0.0905423 0.06962897 -0.13071065
0.025606968 0.027993316 0.10387747 -0.003265758 -0.080920584 -0.16543512 -0.027895315 -0.009401629
-0.06796343 0.032765366 0.091609 0.0436928 -0.10207164 -0.007939897 0.11849808 -0.065753594
-0.14615738 0.041246396 -0.011716541 0.10381826 0.15095367 0.06945981 -0.16169876 0.028403029
0.018752491 -0.124559954 -0.07962352 0.12134786 -0.031480104 -0.08969615 -0.11946082 -0.07598666
0.09361513 -0.063347764 0.088084675 -0.06602353 0.14138097 0.049846843 -0.047988955 0.027333654
0.04070846 -0.044624493 -0.06697812 -0.15938541 0.108611815 0.008555705 0.035572417 -0.045256283
0.07088486 -0.099355035 0.015760895 0.14300711 0.101144955 0.13898113 -0.14838193 0.1556706
-0.13646884 0.07369788 0.090039514 0.07025623 -0.121125855 -0.12882827 0.067055985 -0.13653566
-0.081074476 -0.055843405 0.11466883 -0.032901857 -0.09182079 -0.09959474 -0.010785367 0.026279584
-0.15948431 -0.1099317 0.14560878 -0.079248846 0.106116 0.15449584 -0.061144643 -0.15020232
0.069750614 -0.08638157 0.04934365 0.017551923 -0.03895045 -0.16606745 0.058262825 0.09793409
0.16122618 0.10391192 0.0780094 0.10602619 0.05972555 -0.13099742 0.08255767 -0.15063286
0.034671295 0.064665705 -0.009215995 0.04075689 -0.014319753 0.11222987 -0.10153585 -0.026768666
-0.046528302 0.04115512 0.1516118 -0.14952081 -0.15502277 0.045838688 0.03753532 -0.11832858
0.10602066 0.11296885 -0.031431396 0.11300955 -0.0769434 0.11580657 -0.013974416 0.074579775
0.089598626 0.11738695 0.15843219 0.08430585 -0.16664813 0.102827206 0.124835916 0.05016845
-0.042058993 0.006405369 0.060234886 0.10225418 0.10675435 0.05981987 -0.038496304 -0.0873204
0.080322064 0.048803546 0.11191184 0.075854614 0.06702607 0.071335755 0.09590964 0.13655838
0.1446994 -0.13230379 -0.020803716 0.0996362 -0.090500094 0.013817912 0.117473766 -0.0660831
-0.024534583 0.08806812 -0.025403745 -0.1621213 0.029179672 -0.13195747 0.07780222 -0.029897263
00000000: 2165 f13d adac 40bd 7317 1a3e 2630 05be
00000010: 68d8 c13d 06b7 eebb bc64 bbbc a457 0bbd
00000020: db68 42bd 152a 8cbd 093f 22be c569 88bc
00000030: 75e5 483d c262 f1bd 5a6e 573d d9f3 0e3e
00000040: f60e 083d 6816 29be 5831 113e 6201 883c
00000050: 29ac 123e f8b8 aabd f7aa a53d b018 edbd
00000060: 3959 0d3e 1364 27be 03a6 a53d 6f54 2dbb
00000070: 8aca 133e 74d9 17be e82c acbd 687c 49bb
00000080: 12df 09be 0d46 c8bc 6dfb 8ebd c182 2a3e
00000090: 1d1e 2abe 7f2d 813d b883 423d bf00 9ebd
000000a0: 2007 22be d486 2e3d 3139 5fbd 2494 393d
000000b0: 56dd 8b3d 1d4f ea3d 6c45 b3bd ecd9 4f3d
000000c0: 9ed5 1e3d 14f0 95bc 606a 013e cc09 fc3b
000000d0: 1fc3 fb3c 5e74 c13a edaf f9bd dff2 133e
000000e0: 4d52 dc3d 4251 d83d 3737 cabd d9db 243d
000000f0: c819 e4bd 247e 253e 37b1 28be 0909 03be
00000100: d90e fd3d 078d bd3d dac8 d23d b95b 2a3e
00000110: 6032 c63d 6a23 0bbe 586e 0a3e cb79 523c
00000120: edae 213e b6d9 28be 9e77 a7bd 1e75 e03b
00000130: 1596 903b d570 573d 2fdf 903c fa6e b6bd
00000140: 9098 1d3e 98b6 a73d 2d77 9abd 973f afbd
00000150: 3777 373d d42d 1ebe db33 153e 255b a7bd
00000160: 98bb 013e d6f8 71bd e184 a2bd e474 03be
00000170: d996 2abe 3e6e b93d a299 8e3d 03d9 05be
00000180: b4c5 d13c 3d52 e53c b6bd d43d 5406 56bb
00000190: b1b9 a5bd d367 29be b784 e4bc 4a09 1abc
000001a0: 6930 8bbd fa34 063d 809d bb3d 39f7 323d
000001b0: f00a d1bd 5716 02bc 1faf f23d d2a9 86bd
000001c0: 48aa 15be fbf1 283d bcf6 3fbc ab9e d43d
000001d0: 9993 1a3e f240 8e3d 5c94 25be 78ad e83c
000001e0: d39e 993c 4a19 ffbd a811 a3bd 3a85 f83d
000001f0: 48f1 00bd 9db2 b7bd e0a7 f4bd e59e 9bbd
00000200: 4ab9 bf3d 79bc 81bd bd65 b43d 5837 87bd
00000210: 2cc6 103e 342c 4c3d 1190 44bd d4ea df3c
00000220: eabd 263d 2cc8 36bd d32b 89bd ee35 23be
00000230: df6f de3d 3a2d 0c3c 62b4 113d a75e 39bd
00000240: 152c 913d a77a cbbd fe1c 813c 7570 123e
00000250: 1625 cf3d 1251 0e3e 6ff1 17be 1d68 1f3e
00000260: 7dbe 0bbe eaee 963d a366 b83d 80e2 8f3d
00000270: d510 f8bd 8feb 03be a654 893d 01d0 0bbe
00000280: 600a a6bd 0ebc 64bd 7ed7 ea3d 19c4 06bd
00000290: 8a0c bcbd 54f8 cbbd 1cb5 30bc 4848 d73c
000002a0: db4f 23be df23 e1bd 781a 153e 384d a2bd
000002b0: 5853 d93d 2834 1e3e ce72 7abd a3ce 19be
000002c0: 69d9 8e3d d2e8 b0bd 911c 4a3d 0dc9 8f3c
000002d0: 828a 1fbd 960d 2abe 00a5 6e3d ab91 c83d
000002e0: 7a18 253e c6cf d43d 64c3 9f3d 4224 d93d
000002f0: c7a2 743d 3024 06be ff13 a93d 803f 1abe
00000300: 7d03 0e3d 746f 843d affe 16bc b2f0 263d
00000310: 669d 6abc c6d8 e53d 07f2 cfbd f649 dbbc
00000320: 7694 3ebd 4592 283d 2040 1b3e fc1b 19be
00000330: 4abe 1ebe 59c1 3b3d a3be 193d 4156 f2bd
00000340: 5c21 d93d 365c e73d 35be 00bd 8d71 e73d
00000350: 8094 9dbd ff2b ed3d f3f4 64bc 48bd 983d
00000360: 7c7f b73d 9268 f03d 0c3c 223e 8ca8 ac3d
00000370: cfa5 2abe 1297 d23d f9a9 ff3d 6f7d 4d3d
00000380: 0d46 2cbd 21e4 d13b dbb8 763d a46a d13d
00000390: 06a2 da3d ae05 753d 4dae 1dbd 0ad5 b2bd
000003a0: e57f a43d 3ae6 473d 0932 e53d aa59 9b3d
000003b0: f744 893d 7b18 923d 466c c43d f6d5 0b3e
000003c0: 142c 143e a57a 07be 8e6c aabc 100e cc3d
000003d0: 1d58 b9bd 8664 623c 1696 f03d 9456 87bd
000003e0: c0fc c8bc 0f5d b43d 841b d0bc 2003 26be
000003f0: 350a ef3c dc1f 07be c556 9f3d 1beb f4bc

down_blocks.2.conv1.bias f4 [16]
-0.00051353197 0.0010747478 0.0006722253 7.607831e-05 0.002794299 0.00070988695 -0.00076977763 0.00064359565
-0.00067037455 -0.001863023 0.0007047083 -0.00019095773 -1.902772e-05 0.0006400249 -0.002564865 -0.0024231276
00000000: 8c9e 06ba 8dde 8c3a 4738 303a 3b8c 9f38
00000010: 8f20 373b b517 3a3a e7ca 49ba f9b6 283a
00000020: 13bc 2fba ae30 f4ba 2cbc 383a d33b 48b9
00000030: b89d 9fb7 58c7 273a 4b17 28bb 56cd 1ebb

down_blocks.2.conv2.weight f4 [16, 16, 3, 3]
-0.047600556 -0.027130716 0.05581739 0.10206773 0.093484625 0.042921346 -0.13185622 0.11630048
0.13669491 0.06016677 0.14442068 -0.06472462 -0.0981862 0.12242529 -0.02142343 -0.11798324
0.056606375 -0.08893415 0.10205912 0.120732546 0.07793625 -0.06304418 0.13135703 0.119532965
0.04268929 -0.06329947 -0.12556133 -0.09112546 0.03650612 -0.019451395 0.003308209 -0.03865617
-0.013645099 -0.014567946 -0.0026920976 -0.06448834 0.028043466 0.0792268 0.029534841 -0.02271411
-0.049406808 -0.0120587675 -0.10083673 0.00019360174 -0.14002937 -0.100840226 -0.05132862 0.03308542
0.06395614 0.0883913 0.12680826 0.04010845 -0.081423506 -0.054543987 -0.008317041 -0.0038322895
0.12103593 -0.11907692 0.031161342 0.14183807 -0.13900492 -0.02522986 0.13007891 0.052285057
-0.052535266 0.140739 0.13016407 -0.06319707 -0.077726446 -0.0154348705 0.097964756 0.030914556
-0.077465616 0.05665093 0.13345067 -0.07294713 0.083284244 -0.09814335 -0.004256378 0.046871357
0.08247541 0.06174606 -0.12836489 -0.056092653 -0.02560371 -0.06348213 0.12409273 0.02780539
0.052044854 -0.07300397 -0.037555218 -0.074482426 0.11030164 0.00042143243 -0.12930188 -0.11171932
-0.087141916 -0.026746254 0.027176308 -0.029700844 0.06056395 0.12013495 -0.06821467 -0.03848363
0.11502878 -0.061958145 -0.057559125 0.022318665 -0.05688642 -0.029894654 0.12828185 0.053028766
0.031498525 -0.09934021 0.11863608 0.105591625 0.12858637 0.011837371 0.013974414 -0.023609448
0.011252827 -0.066166446 -0.09884221 -0.023279645 0.105701655 0.049417872 -0.14136428 -0.08865429
-0.08643673 0.06814462 -0.1015165 -0.124262944 -0.013643971 -0.041728396 0.12464958 0.08682883
0.09790984 0.12186017 -0.00078847294 -0.1299267 0.0040078387 0.12676665 -0.12658063 0.0035691864
-0.038669854 0.12545127 -0.070032194 0.0022833762 0.035218652 0.013556112 0.027775992 0.12261254
0.035179995 -0.007777257 -0.019485045 -0.12640469 0.10138097 0.05735865 -0.017827867 0.051701795
-0.013293828 -0.11780383 -0.011593372 -0.12691656 0.080643 0.13097133 0.123863705 -0.14689426
-0.132735 -0.09879603 -0.12585498 -0.01706099 0.042789284 -0.123115055 -0.005846418 0.05281897
0.018890033 -0.002591485 -0.038751442 -0.057006393 -0.064705744 0.13273996 -0.047351155 -0.12804341
0.10985441 -0.12388316 -0.046110146 0.114695795 0.11601988 -0.021592746 -0.13778077 -0.103812926
-0.009914502 -0.058392573 0.01636281 -0.058949485 -0.12151086 0.01972678 -0.111092724 -0.09537074
0.07791345 0.13934681 -0.117520094 -0.07302041 -0.037553687 -0.017486334 0.10720253 0.110646136
-0.1107508 -0.1128707 -0.10885393 -0.07851637 0.12778303 -0.13694261 -0.07278014 0.07056772
0.020508386 -0.0064276517 -0.060551193 0.002172306 0.053347565 -0.0917514 0.11241789 0.015419434
-0.053288378 -0.07861486 -0.054173876 -0.008157069 0.12965183 -0.033041745 0.11988748 0.053669866
-0.08171296 -0.03739005 -0.027753027 0.011490854 0.07112734 0.1132643 0.11034358 -0.11998539
-0.040608615 -0.08023873 -0.07292485 0.023506733 0.07040333 0.08053163 0.0938272 -0.112908855
0.038755175 0.017988708 -0.040265404 -0.07047813 -0.025714628 0.027979054 0.12277276 0.009426331
00000000: cdf8 42bd 3c41 debc c7a0 643d e308 d13d
00000010: de74 bf3d 4bce 2f3d 5105 07be f22e ee3d
00000020: c0f9 0b3e 6e71 763d 04e3 133e 578e 84bd
00000030: d915 c9bd 1cba fa3d 3080 afbc 32a1 f1bd
00000040: 16dc 673d 1c23 b6bd 5f04 d13d a042 f73d
00000050: 0a9d 9f3d 4f1d 81bd 7582 063e b3cd f43d
00000060: f7da 2e3d 27a3 81bd 2693 00be fc9f babd
00000070: 7187 153d 8858 9fbc 89ce 583b ef55 1ebd
00000080: b18f 5fbc 65ae 6ebc e76d 30bb 7612 84bd
00000090: 69bb e53c a941 a23d 0df3 f13c f112 babc
000000a0: cb5e 4abd 2392 45bc 7d83 cebd 9201 4b39
000000b0: dc63 0fbe 5285 cebd f63d 52bd 9484 073d
000000c0: 70fb 823d 7f06 b53d 06da 013e c248 243d
000000d0: 5ec1 a6bd 8469 5fbd 3344 08bc 2627 7bbb
000000e0: b0e1 f73d 9ade f3bd 1246 ff3c 003e 113e
000000f0: 4e57 0ebe daae cebc 6833 053e db28 563d
00000100: 382f 57bd e21d 103e bb49 053e 776d 81bd
00000110: 0b2f 9fbd 8ae2 7cbc bfa1 c83d 8640 fd3c
00000120: 4ba6 9ebd ce0a 683d 4ba7 083e 4e65 95bd
00000130: ee90 aa3d 61ff c8bd 1679 8bbb 2efc 3f3d
00000140: dee8 a83d 70e9 7c3d 1672 03be 69c1 65bd
00000150: dfbe d1bc eb02 82bd 5424 fe3d 21c8 e33c
00000160: fc2c 553d 1b83 95bd 80d3 19bd 3e8a 98bd
00000170: d4e5 e13d b4f3 dc39 b667 04be 19cd e4bd
00000180: 7677 b2bd f61a dbbc d9a0 de3c 2f4f f3bc
00000190: e811 783d 5009 f63d 22b4 8bbd 03a1 1dbd
000001a0: 3694 eb3d d3c7 7dbd 1ec3 6bbd a2d5 b63c
000001b0: bc01 69bd a2e5 f4bc 515c 033e b134 593d
000001c0: 9904 013d e172 cbbd 79f7 f23d 6c40 d83d
000001d0: 25ac 033e 88f1 413c f1f4 643c 9a68 c1bc
000001e0: c75d 383c 4682 87bd c96d cabd f4b4 bebc
000001f0: 1c7a d83d 656a 4a3d ccc1 10be 6190 b5bd
00000200: be05 b1bd 688f 8b3d e2e7 cfbd 927d febd
00000210: f68a 5fbc 65eb 2abd 4748 ff3d 50d3 b13d
00000220: f484 c83d d391 f93d 86b1 4eba 810b 05be
00000230: 3054 833b 1ecf 013e 5a9e 01be 03e9 693b
00000240: 4864 1ebd 4c76 003e 0a6d 8fbd b2a4 153b
00000250: 6f41 103d 741a 5e3c 7a8a e33c 491c fb3d
00000260: e618 103d 5cd8 febb 1a9f 9fbc 3b70 01be
00000270: d3a0 cf3d e7f0 6a3d bf0b 92bc 43c5 533d
00000280: 5bce 59bc 2243 f1bd 20f2 3dbc 6af6 01be
00000290: 2828 a53d 591d 063e 41ac fd3d 736b 16be
000002a0: afeb 07be 9355 cabd 21e0 00be 7dc3 8bbc
000002b0: d143 2f3d bf23 fcbd 4f93 bfbb b458 583d
000002c0: 45bf 9a3c e7d5 29bb d5b9 1ebd 897f 69bd
000002d0: 7284 84bd fcec 073e 49f3 41bd d01d 03be
000002e0: 59fb e03d 74b6 fdbd fedd 3cbd a1e5 ea3d
000002f0: d59b ed3d 45e3 b0bc 6716 0dbe df9b d4bd
00000300: 6f70 22bc 0d2d 6fbd 4d0b 863c 0475 71bd
00000310: b0da f8bd 0e9a a13c 9584 e3bd bc51 c3bd
00000320: 1691 9f3d eeb0 0e3e 60ae f0bd ba8b 95bd
00000330: e5d1 19bd 803f 8fbc 008d db3d 719a e23d
00000340: 51d1 e2bd c128 e7bd cfee debd 31cd a0bd
00000350: 8ed9 023e af3a 0cbe c10d 95bd cf85 903d
00000360: 3401 a83c 0d9f d2bb 8704 78bd 3f5d 0e3b
00000370: fa82 5a3d 28e8 bbbd 5a3b e63d cba1 7c3c
00000380: ea44 5abd d400 a1bd 6de5 5dbd 3aa5 05bc
00000390: 73c3 043e c856 07bd 9187 f53d efd4 5b3d
000003a0: 2059 a7bd 4f26 19bd 515a e3bc 2344 3c3c
000003b0: 36ab 913d 1df7 e73d d1fb e13d e6ba f5bd
000003c0: 3855 26bd 3454 a4bd a059 95bd 3191 c03c
000003d0: 9f2f 903d c4ed a43d 7a28 c03d c23c e7bd
000003e0: bfbd 1e3d 0e5d 933c 56ed 24bd d656 90bd
000003f0: 7ca7 d2bc 5434 e53c 4970 fb3d e670 1a3c

down_blocks.2.conv2.bias f4 [16]
-0.0012442135 -0.003878419 0.00062204036 0.00050068647 -0.00090445386 -0.0005117146 -0.00076890475 -0.0011832197
-0.0011661237 0.0006754092 -0.0010496076 -0.00028916966 -0.00062808685 -0.00053232955 9.734548e-05 -0.0010594886
00000000: e114 a3ba 132d 7ebb 6c10 233a 8040 033a
00000010: df18 6dba 9624 06ba 5390 49ba 4416 9bba
00000020: 9ed8 98ba f20d 313a fd92 89ba b29b 97b9
00000030: 32a6 24ba 088c 0bba f525 cc38 8ade 8aba

down_blocks.2.norm1.weight f4 [16]
0.99975425 1.0000508 1.0001413 0.99962497 0.9997523 1.0005229 0.99969465 1.0027354
0.99853367 0.9994775 0.9975538 1.0007672 1.0003935 1.0032701 0.9985777 0.9991197
00000000: e5ef 7f3f aa01 803f a104 803f 6ce7 7f3f
00000010: c4ef 7f3f 2211 803f fdeb 7f3f a259 803f
00000020: e79f 7f3f c2dd 7f3f b05f 7f3f 2419 803f
00000030: e50c 803f 286b 803f caa2 7f3f 4fc6 7f3f

down_blocks.2.norm1.bias f4 [16]
-0.00062836707 0.0007696011 0.00017422166 0.0006994532 9.840892e-05 0.0018717604 0.00075516326 0.0010352688
-0.0003630739 0.00029619536 0.0007571052 -0.0013757747 -0.0019590226 0.0002444281 -0.0018506565 0.00042459543
00000000: 00b9 24ba 0ebf 493a 45af 3639 825b 373a
00000010: e360 ce38 db55 f53a 26f6 453a dbb1 873a
00000020: f45a beb9 ab4a 9b39 7878 463a 5753 b4ba
00000030: f262 00bb 9626 8039 ba91 f2ba 3c9c de39

down_blocks.2.norm1.running_mean f4 [16]
0.32095844 0.20750654 0.33487904 0.48087102 0.23715295 0.1535434 0.26503998 0.5810197
0.2736603 0.33666888 0.19803403 0.27526325 0.6315983 0.22471575 0.27466828 0.46229145
00000000: aa54 a43e 987c 543e 4475 ab3e ba34 f63e
00000010: 39d8 723e 7b3a 1d3e 52b3 873e b5bd 143f
00000020: 341d 8c3e dd5f ac3e 6fc9 4a3e 4eef 8c3e
00000030: 6db0 213f e31b 663e 52a1 8c3e 77b1 ec3e

down_blocks.2.norm1.running_var f4 [16]
0.64721256 0.17500243 0.7789171 0.8677545 0.08416061 0.17669727 0.41699216 1.4898293
0.4516865 0.13705899 0.33063027 0.5072959 1.6616529 0.12770882 0.48031664 0.6990274
00000000: b9af 253f d633 333e 1c67 473f 2925 5e3f
00000010: 665c ac3d 21f0 343e ff7f d53e bab2 be3f
00000020: 7443 e73e 3159 0c3e 5f48 a93e 25de 013f
00000030: 0bb1 d43f 1ac6 023e 10ec f53e 76f3 323f

down_blocks.2.norm2.weight f4 [16]
1.002632 1.001578 1.0001436 0.9968948 1.000552 0.99877876 1.0026731 1.0035245
1.0033067 1.0002682 1.0013722 1.0000559 1.0007492 0.9986416 0.9993689 1.0002261
00000000: 3f56 803f b533 803f b504 803f 7f34 7f3f
00000010: 1712 803f f7af 7f3f 9857 803f 7e73 803f
00000020: 5b6c 803f ca08 803f f72c 803f d501 803f
00000030: 8d18 803f faa6 7f3f a4d6 7f3f 6907 803f

down_blocks.2.norm2.bias f4 [16]
-5.3216354e-05 -0.00041754084 -0.00082718325 0.0004883332 0.0003388714 -0.00015556735 -0.0011942713 0.0009949518
-0.001925674 0.0018781776 -0.0006737071 0.00039832055 -0.0011731782 0.0008442602 -0.0011437945 -0.0005195689
00000000: a034 5fb8 62e9 dab9 54d7 58ba 7c03 003a
00000010: 8daa b139 cb1f 23b9 1889 9cba 0b69 823a
00000020: e666 fcba 2f2d f63a b89b 30ba aed5 d039
00000030: 54c5 99ba 5851 5d3a 60eb 95ba ae33 08ba

down_blocks.2.norm2.running_mean f4 [16]
0.35188586 0.21214575 0.31882763 0.26775938 0.39967972 0.33153424 0.25761873 0.26690087
0.27184033 0.2572269 0.25331712 0.24905671 0.55449957 0.31214985 0.36313435 0.25420302
00000000: 622a b43e bc3c 593e 603d a33e c217 893e
00000010: d2a2 cc3e dbbe a93e 9ae6 833e 3ba7 883e
00000020: a82e 8b3e 3fb3 833e c8b2 813e b908 7f3e
00000030: aff3 0d3f 1bd2 9f3e bfec b93e e626 823e

down_blocks.2.norm2.running_var f4 [16]
0.82514197 0.14151162 0.6860472 0.31722495 0.9570888 0.43103954 0.45351282 0.16758856
0.19305845 0.11626199 0.23189336 0.40735242 0.3100399 0.15318425 0.15282214 0.2685717
00000000: 813c 533f 6ce8 103e caa0 2f3f 4f6b a23e
00000010: c603 753f 37b1 dc3e d532 e83e 569c 2b3e
00000020: 1db1 453e c41a ee3d 7475 6d3e 7f90 d03e
00000030: 8dbd 9e3e 55dc 1c3e 687d 1c3e 3b82 893e

down_blocks.3.conv1.weight f4 [32, 16, 3, 3]
0.06440534 -0.0043508937 -0.09886117 -0.003846428 -0.072523594 0.061747756 0.03155517 0.024202876
0.08791805 -0.028669413 0.0905046 0.015277749 -0.025862329 0.011735956 0.115690075 0.034872975
-0.0771729 0.04669294 0.09101725 0.017436344 -0.085734636 -0.0068431986 -0.02845883 -0.11041251
-0.086829096 -0.014931149 0.10540608 -0.103677236 -0.04999981 -0.06282693 0.07827571 0.051419493
0.10981188 -0.0031094109 -0.11048954 0.044691745 0.057870112 0.08035012 0.03426524 0.011055568
0.105652556 0.008633824 0.044993564 0.09728757 -0.045596693 0.059973527 -0.02341079 0.06726799
0.087620705 0.048352778 -0.090449125 0.05367767 -0.010414686 0.024257384 -0.03185232 -0.10164026
0.056820072 0.019862521 -0.11047091 -0.0018919222 -0.110485375 -0.097432405 0.08385715 0.08026972
-0.07732437 0.016191935 0.030423427 0.06707151 -0.10997755 -0.021057557 -0.084823765 0.08030277
0.0032899228 0.09504923 -0.112167075 0.06698755 0.088580355 0.06831837 -0.008290056 0.071750216
0.08489825 -0.0984407 -0.053500872 0.06589023 -0.11831357 -0.030068872 0.09265733 -0.024174307
-0.01018929 0.017789302 0.037202545 0.012674338 -0.046734445 -0.0997609 0.064362966 0.07133998
-0.04387151 0.023589067 -0.029079251 0.08078563 0.010572724 0.015923262 0.08264198 0.058812533
0.11421859 -0.06184802 0.000789719 0.08403768 -0.06704462 -0.068277955 -0.107011214 -0.0371952
0.022492649 0.11602238 -0.055840705 -0.0014298137 -0.07291839 -0.10889261 0.08423833 -0.0106092
-0.11267237 0.014280429 0.105686165 -0.11366914 -0.049024563 0.06891959 0.033126507 0.094306506
0.0428597 -0.00063243957 0.047853906 -0.11063632 -0.093472295 -0.073302716 -0.00017460287 0.08295056
-0.09938061 0.10129639 -0.08997997 0.043709904 0.08684141 0.049236573 0.018761866 -0.009879574
-0.06745546 -0.069945045 -0.08942386 0.08250078 -0.089645304 -0.10143952 0.05875799 -0.012305027
0.093404174 -0.108443454 0.042804945 0.06523861 -0.0066661593 0.037313096 -0.11117129 0.10611247
-0.10287169 0.038130425 -0.09220088 0.05526951 0.032431718 0.016148295 -0.07525626 0.023384063
-0.11751921 -0.07858665 -0.066780105 0.08379931 -0.06594046 -0.02287228 0.08614195 -0.031323794
-0.09385895 0.048126627 0.009202874 0.013794685 -0.03853272 0.050840937 0.07726081 0.016929496
-0.10429103 -0.038911883 -0.045916677 0.07899911 0.06914636 -0.1033865 -0.037226517 -0.0012752202
0.10252566 -0.08582136 -0.092903726 -0.064755216 0.042751685 -0.11702793 0.04896205 0.084170505
0.0045911977 0.016480613 -0.040774383 0.017551003 -0.012836448 -0.087094456 -0.004067826 -0.10985224
-0.00016743617 0.058610216 -0.005525436 0.03089919 -0.018404247 -0.05816384 0.10969167 -0.069780156
-0.08035147 0.054689832 0.0843527 -0.097724445 -0.116268046 -0.03406685 0.100624405 -0.0493203
-0.09177325 0.04889166 0.110917985 -0.059745915 -0.10082389 -0.07451719 0.05601329 0.10407417
0.013975015 0.11701397 -0.07243724 -0.033819776 -0.049192682 0.012119874 0.0038377042 -0.10947945
-0.03425849 0.10865502 -0.09371213 0.0491097 0.06639605 -0.109450266 -0.026153002 -0.084624246
0.057322815 0.078361444 -0.110092334 0.11512169 0.06969321 -0.10542772 0.08510207 -0.113324516
00000000: f2e6 833d f191 8ebb ba77 cabd 5a14 7cbb
00000010: 4087 94bd 37eb 7c3d fe3f 013d 1c45 c63c
00000020: 610e b43d 1edc eabc 7a5a b93d 864f 7a3c
00000030: 3cdd d3bc 2b48 403c ebee ec3d f7d6 0e3d
00000040: d30c 9ebd 1941 3f3d 4167 ba3d aad6 8e3c
00000050: a495 afbd e93c e0bb 7e22 e9bc f41f e2bd
00000060: 74d3 b1bd c7a1 74bc 25df d73d bb54 d4bd
00000070: 9acc 4cbd 68ab 80bd 044f a03d 3f9d 523d
00000080: 0de5 e03d 42c7 4bbb 5748 e2bd b10e 373d
00000090: 3609 6d3d 9b8e a43d b559 0c3d 6a22 353c
000000a0: 5e60 d83d e274 0d3c 2c4b 383d b53e c73d
000000b0: 99c3 3abd cda6 753d fcc7 bfbc cdc3 893d
000000c0: 7c72 b33d 900d 463d 643d b9bd 1edd 5b3d
000000d0: 5ca2 2abc 6cb7 c63c 9477 02bd c528 d0bd
000000e0: 2abc 683d bab6 a23c 933e e2bd 60fa f7ba
000000f0: 2846 e2bd a48a c7bd 4cbd ab3d 7364 a43d
00000100: 3d5c 9ebd f3a4 843c 8d3a f93c ca5c 893d
00000110: e93b e1bd e680 acbc 15b8 adbd c775 a43d
00000120: bf9b 573b 2ca9 c23d dab7 e5bd c530 893d
00000130: 9e69 b53d 80ea 8b3d 04d3 07bc c7f1 923d
00000140: 22df ad3d 479b c9bd bb23 5bbd 75f1 863d
00000150: 634e f2bd ff52 f6bc 20c3 bd3d 3209 c6bc
00000160: fbf0 26bc dfba 913c b261 183d 07a8 4f3c
00000170: 9e6c 3fbd 714f ccbd bbd0 833d b21a 923d
00000180: 9db2 33bd dc3d c13c 9c37 eebc f072 a53d
00000190: 3839 2d3c 8071 823c 3340 a93d 69e5 703d
000001a0: 70eb e93d 5954 7dbd 2505 4f3a f21b ac3d
000001b0: b14e 89bd 50d5 8bbd b228 dbbd fe59 18bd
000001c0: 8142 b83c 249d ed3d 39b9 64bd 9668 bbba
000001d0: 3d56 95bd 1703 dfbd 2585 ac3d 36d2 2dbc
000001e0: c6c0 e6bd 76f8 693c fd71 d83d 5ecb e8bd
000001f0: fbcd 48bd b725 8d3d a9af 073d c523 c13d
00000200: a78d 2f3d 4dca 25ba 7502 443d 4c95 e2bd
00000210: 676e bfbd bc1f 96bd 9a15 37b9 fce1 a93d
00000220: 1088 cbbd 7b74 cf3d 6b47 b8bd 2809 333d
00000230: e9d9 b13d 4aac 493d 7cb2 993c f0dd 21bc
00000240: 1726 8abd 593f 8fbd db23 b7bd 2bf6 a83d
00000250: f597 b7bd 86bf cfbd 38ac 703d 069b 49bc
00000260: b04a bf3d 9a17 debd 3d54 2f3d d29b 853d
00000270: cc6f dabb 9ed5 183d c6ad e3bd 7f51 d93d
00000280: 65ae d2bd a62e 1c3d d1d3 bcbd 4862 623d
00000290: 1fd7 043d 6e49 843c f41f 9abd ef8f bf3c
000002a0: e9ad f0bd 0af2 a0bd 02c4 88bd f99e ab3d
000002b0: cb0b 87bd a65e bbbc 316b b03d 614d 00bd
000002c0: 1f39 c0bd 6d20 453d a7c7 163c 1a03 623c
000002d0: 7cd4 1dbd 963e 503d ea3a 9e3d baaf 8a3c
000002e0: 8996 d5bd 1162 1fbd 2013 3cbd 49ca a13d
000002f0: 9b9c 8d3d 4dbc d3bd d57a 18bd 4a25 a7ba
00000300: f9f8 d13d 1cc3 afbd 4f44 bebd 629e 84bd
00000310: 641c 2f3d 57ac efbd 6e8c 483d 9661 ac3d
00000320: c271 963b 5a02 873c 0a03 27bd 1fc7 8f3c
00000330: f74f 52bc 945e b2bd 664b 85bb 36fa e0bd
00000340: ce91 2fb9 4411 703d b70e b5bb 4c20 fd3c
00000350: 81c4 96bc 353d 6ebd 07a6 e03d e6e8 8ebd
00000360: 508f a4bd 7202 603d 1cc1 ac3d c123 c8bd
00000370: f11d eebd ae89 0bbd 2b14 ce3d 1504 4abd
00000380: 9df3 bbbd 9f42 483d f828 e33d 22b8 74bd
00000390: c17c cebd 789c 98bd 316e 653d d724 d53d
000003a0: 76f7 643c 05a5 ef3d fa59 94bd 9b86 0abd
000003b0: 447e 49bd 7092 463c fe81 7b3b c336 e0bd
000003c0: a152 0cbd 8686 de3d 25ec bfbd 4127 493d
000003d0: a7fa 873d 7627 e0bd d23e d6bc 7a4f adbd
000003e0: 54cb 6a3d f77b a03d 1778 e1bd ecc4 eb3d
000003f0: 50bb 8e3d 7dea d7bd fe49 ae3d af16 e8bd

down_blocks.3.conv1.bias f4 [32]
9.7622535e-05 0.0007366416 -0.0001818346 5.5049368e-05 -0.00041043406 0.00021348988 9.6145195e-05 0.00022974906
-0.0003897821 -9.399244e-05 -2.8670198e-05 -0.00016125686 -9.957292e-05 1.5396345e-05 -0.0003823066 0.00030432316
4.6671124e-05 -0.000524188 -3.4059987e-05 -0.00081879226 -0.00032557952 -7.498914e-05 0.00082504307 1.176601e-05
0.0005104431 0.00028957138 0.00064570113 -0.0009975366 0.00031358836 6.978793e-05 -0.00031642086 -1.9851801e-05
00000000: b3ba cc38 2e1b 413a dbaa 3eb9 cfe4 6638
00000010: 872f d7b9 41dc 5f39 8fa1 c938 cbe8 7039
00000020: ab5b ccb9 cf1d c5b8 c880 f0b7 0f17 29b9
00000030: ced1 d0b8 6627 8137 5370 c8b9 908d 9f39
00000040: bdc0 4338 a969 09ba a2db 0eb8 38a4 56ba
00000050: 8bb2 aab9 7d43 9db8 b447 583a a166 4537
00000060: 42cf 053a 9dd1 9739 4544 293a c6bf 82ba
00000070: 1e69 a439 1c5b 9238 4ae5 a5b9 6b87 a6b7
