Models/123456789_bands_normalized.pt (torch, 167363 bytes, 110 tensors)

conv_final.weight f4 [3, 4, 1, 1]
1.113344 0.5047736 0.121902674 1.147857 0.5527993 -0.26258314 0.9710168 0.13358499
-0.13059935 -0.19185117 0.80414206 -0.8406148
00000000: 0e82 8e3f d838 013f 1ca8 f93d faec 923f
00000010: 4184 0d3f 4c71 86be 8f94 783f 81ca 083e
00000020: d6bb 05be a274 44be 41dc 4d3f 8832 57bf

conv_final.bias f4 [3]
1.1744691 -0.5756942 -0.59877604
00000000: 0155 963f b260 13bf 6349 19bf

down_blocks.0.conv1.weight f4 [4, 9, 3, 3]
0.19754598 -0.16649058 -0.19376487 -0.023535635 -0.14499451 0.17200549 -0.1550989 -0.13108562
0.07628185 -0.07621412 -0.02919122 0.103497446 0.18853642 0.18781602 0.18215536 0.05325711
-0.10714419 -0.11807553 -0.17912808 0.03243014 0.088228 0.09193554 -0.007087888 -0.09030974
-0.0028565282 -0.08624225 -0.13644554 0.012461149 0.13974105 0.048927028 -0.11210032 -0.19033201
0.1430499 -0.14681418 0.041054253 -0.009842589 -0.09986279 -0.197939 -0.20295574 0.06827853
0.01403913 0.090425625 -0.14198922 -0.13281584 -0.18991902 -0.15282193 0.18901722 -0.023309492
-0.20039605 0.021993773 -0.12948689 0.20528562 -0.03674158 -0.08325658 -0.18429002 -0.09795807
0.060557302 -0.012881373 -0.05180479 -0.22581454 0.13644835 0.19354674 0.15106139 -0.15940441
-0.20722082 0.035792634 0.03938437 -0.19594842 -0.12891322 0.18520294 0.0264568 -0.015994107
0.07560418 -0.1755238 0.114230454 -0.1079193 0.090409845 -0.067727394 -0.15366152 -0.10581803
-0.18831025 0.2153406 0.04516976 -0.0900059 -0.19030333 -0.18074398 -0.11486728 -0.0016837793
-0.21459888 0.12600353 -0.13220242 -0.026515774 0.1448669 0.07768325 -0.054640144 0.18338656
-0.2143679 0.038358398 0.006653469 0.14237337 0.116558984 -0.091603965 0.0003265535 -0.1133891
0.12581548 -0.2381515 -0.11110645 -0.032768406 0.18803757 0.11583204 0.07980794 -0.2050931
0.13255006 0.13700958 -0.12280059 -0.21556918 0.12804894 -0.1832039 -0.21510643 -0.13081758
0.11638806 0.045319244 0.092009574 0.17815815 -0.16306464 0.065653265 0.096825264 0.10228544
0.093274914 -0.21136235 0.15808688 -0.06925609 -0.07723466 0.09953295 0.1717876 0.0045488165
-0.10179575 0.15886252 -0.058970317 0.22629204 0.028811663 -0.12984541 0.04161857 0.09526756
-0.19253242 0.038690843 0.1962125 0.17990643 0.20568366 -0.0010914116 -0.1253043 -0.09962819
0.0737827 0.0145327775 0.20528328 -0.1573955 0.04633068 -0.10477338 -0.1899028 -0.10006184
0.07737902 -0.113386504 0.12507093 -0.0031780677 -0.08945561 -0.021191621 -0.12476148 -0.21437085
-0.19622613 -0.0009822289 -0.11901647 0.11947956 0.12228825 0.05839605 -0.14303917 -0.22980602
-0.22259012 -0.031114966 0.15187883 -0.18345354 -0.26058033 -0.13209234 0.12933323 0.12486484
-0.071012884 0.028357552 0.18936528 0.042070284 -0.1631053 0.19281645 -0.18600978 0.09523028
-0.1867763 0.1916272 0.07399322 -0.12704249 -0.0059619443 -0.12348667 -0.040507566 0.018005397
-0.1083684 0.23653644 0.045879487 -0.040082674 -0.14839943 0.14389013 0.07521133 0.09152976
0.18289173 0.1044024 -0.063471474 -0.02639849 0.20502806 -0.10195177 -0.13572428 -0.061509557
-0.22900417 0.10877186 0.058696024 -0.15332417 0.050518814 -0.17408 -0.17879064 -0.07439356
-0.04165671 0.12542517 -0.119499065 -0.040998068 0.1710518 -0.12034877 -0.10268627 -0.11254252
-0.11590448 -0.001966347 -0.04654489 -0.19114508 0.019175924 0.22894862 0.16414312 0.008789193
0.06279486 0.17210133 0.22302085 -0.10813069 0.0736813 0.2599462 -0.17884852 0.18816096
0.2287404 0.07086458 -0.18379825 -0.15743364 0.2038594 0.04051629 0.219855 -0.05449242
00000000: 7e49 4a3e 827c 2abe 4c6a 46be cecd c0bc
00000010: 7179 14be 3522 303e 3fd2 1ebe 4f3b 06be
00000020: a939 9c3d 2616 9cbd 6d22 efbc 78f6 d33d
00000030: b10f 413e d852 403e ef86 3a3e 2124 5a3d
00000040: 6a6e dbbd 95d1 f1bd 5a6d 37be 77d5 043d
00000050: e2b0 b43d b348 bc3d 8441 e8bb 50f4 b8bd
00000060: 9734 3bbb c79f b0bd 61b8 0bbe d929 4c3c
00000070: 4718 0f3e b567 483d da94 e5bd 65e6 42be
00000080: ac7b 123e 7556 16be 8128 283d cf42 21bc
00000090: dd84 ccbd 85b0 4abe a1d3 4fbe 9dd5 8b3d
000000a0: 6104 663c 1231 b93d 9f65 11be e000 08be
000000b0: 227a 42be 5a7d 1cbe bb8d 413e 8cf3 bebc
000000c0: 9f34 4dbe 492c b43c 3698 04be 6536 523e
000000d0: 577e 16bd 6d82 aabd 86b6 3cbe 3e9e c8bd
000000e0: ef0a 783d 650c 53bc 4231 54bd ed3b 67be
000000f0: 1eb9 0b3e 1e31 463e d6af 1a3e e93a 23be
00000100: b231 54be 4c9b 123d 8151 213d b4a6 48be
00000110: d401 04be d7a5 3d3e eebb d83c 1306 83bc
00000120: 5dd6 9a3d 83bc 33be a8f1 e93d cb04 ddbd
00000130: cc28 b93d a9b4 8abd 7259 1dbe 20b7 d8bd
00000140: 67d4 40be 3f82 5c3e ed03 393d 0355 b8bd
00000150: e0de 42be f314 39be 893f ebbd 42b2 dcba
00000160: cfbf 5bbe 1207 013e 1260 07be 9c37 d9bc
00000170: fd57 143e 6518 9f3d 58ce 5fbd b0c9 3b3e
00000180: 4283 5bbe b21d 1d3d 5805 da3b 53ca 113e
00000190: 7ab6 ee3d dc9a bbbd 4535 ab39 8b38 e8bd
000001a0: c6d5 003e fddd 73be c78b e3bd 2a38 06bd
000001b0: ec8c 403e 5939 ed3d 5872 a33d ed03 52be
000001c0: 34bb 073e 3d4c 0c3e e07e fbbd 2bbe 5cbe
000001d0: 431f 033e ce99 3bbe dc44 5cbe 0bf5 05be
000001e0: dd5c ee3d aca0 393d 846f bc3d 176f 363e
000001f0: 6bfa 26be 3875 863d 534c c63d 077b d13d
00000200: eb06 bf3d 5f6f 58be 87e1 213e 23d6 8dbd
00000210: 352d 9ebd eed7 cb3d 17e9 2f3e 3d0e 953b
00000220: 4a7a d0bd dbac 223e dc8a 71bd 1ab9 673e
00000230: 7006 ec3c 32f6 04be 3c78 2a3d a31b c33d
00000240: 3827 45be 4a7a 1e3d eeeb 483e 6439 383e
00000250: bd9e 523e b20d 8fba c54f 00be dd09 ccbd
00000260: 621b 973d e31a 6e3c c835 523e 492c 21be
00000270: 3dc5 3d3d 6d93 d6bd e175 42be 39ed ccbd
00000280: e478 9e3d 2f37 e8bd 9812 003e 2147 50bb
00000290: 8134 b7bd 0d9a adbc f282 ffbd 0884 5bbe
000002a0: 81ef 48be 22be 80ba e8be f3bd b3b1 f43d
000002b0: 4372 fa3d b230 6f3d dc78 12be 4552 6bbe
000002c0: aaee 63be d0e4 febc 2086 1b3e 3fdb 3bbe
000002d0: c96a 85be 3743 07be ee6f 043e 23b9 ff3d
000002e0: 346f 91bd 194e e83c f9e8 413e e451 2c3d
000002f0: 1305 27be ad71 453e 5979 3ebe 1808 c33d
00000300: 4942 3fbe ec39 443e c289 973d 6d17 02be
00000310: 6a5c c3bb 94e6 fcbd 43eb 25bd 0e80 933c
00000320: 40f0 ddbd 9c36 723e 21ec 3b3d bb2d 24bd
00000330: 05f6 17be ef57 133e 6608 9a3d f473 bb3d
00000340: f847 3b3e edd0 d53d 55fd 81bd a541 d8bc
00000350: e0f2 513e 17cc d0bd 4efb 0abe 72f1 7bbd
00000360: 1280 6abe c8c3 de3d 3e6b 703d 0301 1dbe
00000370: d1ec 4e3d 0742 32be e514 37be a75b 98bd
00000380: 3aa0 2abd 756f 003e edbb f4bd 97ed 27bd
00000390: 3428 2f3e 6a79 f6bd 2e4d d2bd b17c e6bd
000003a0: 545f edbd d4dd 00bb dba5 3ebd 89bb 43be
000003b0: d416 9d3c 8271 6a3e 2215 283e 8c00 103c
000003c0: 979a 803d 553b 303e 945f 643e a073 ddbd
000003d0: 39e6 963d ab17 853e 1124 37be 44ad 403e
000003e0: ec3a 6a3e 7321 913d 9c35 3cbe 4936 21be
000003f0: 85c0 503e 69f4 253d ab21 613e 7233 5fbd

down_blocks.0.conv1.bias f4 [4]
-0.0011180737 -0.011156642 -0.0074444152 -0.00042451412
00000000: 548c 92ba 59ca 36bc 48f0 f3bb 5291 deb9

down_blocks.0.conv2.weight f4 [4, 4, 3, 3]
-0.17831686 0.2565567 -0.09239268 0.2281486 -0.16759588 0.027766323 0.18762062 0.2729712
-0.17224658 0.17233272 0.0123063205 0.25715882 0.041535906 -0.16650909 0.25124705 -0.2177947
-0.021751182 0.04261433 0.23900649 -0.14619751 0.2783471 0.17682794 -0.1705711 -0.042787787
-0.1891473 -0.12624659 0.087050594 0.09700496 -0.058055744 -0.083089344 -0.21305835 -0.0378836
-0.20947233 0.1810071 0.108274244 0.052969363 0.29153612 -0.15227032 -0.024922594 0.235428
0.22523443 0.042004906 -0.22859757 -0.06702983 0.15301268 0.03941345 -0.14963232 -0.24430864
0.09975366 0.19157328 -0.08518259 -0.095748186 -0.021973014 0.002013148 -0.26597667 -0.1635839
-0.07185905 0.15822889 -0.05648562 -0.2628751 -0.15385798 -0.1854201 -0.24610084 -0.18868981
0.10104167 -0.21512572 0.13757555 0.28227052 -0.08435925 0.23007715 0.2948058 -0.20512497
-0.1664829 -0.15608399 -0.12509139 -0.2107985 -0.18487641 -0.2312904 0.16557741 0.035249274
0.22891387 -0.2439856 0.26939538 0.19669053 -0.22542319 0.06275135 -0.15770935 -0.10956308
-0.016287785 -0.061034687 0.13364062 0.24556598 -0.28425956 -0.1305068 0.049525686 -0.2777334
-0.1340321 0.23675357 0.23462184 -0.02808938 0.12061694 0.1558845 0.24757059 0.1836569
0.024219442 -0.08512033 0.20490037 0.23688632 -0.16539958 -0.06544886 0.3223524 0.13142742
0.15444101 -0.13678135 -0.017882066 -0.13456094 0.21273845 0.024118964 0.1795318 0.08374467
-0.19578065 -0.13067529 -0.10271661 -0.0024896853 0.24776068 -0.2702819 -0.10588741 0.028141111
-0.18397763 -0.23072387 0.039570015 0.28488442 0.24600197 -0.19420983 -0.17826617 0.086981446
-0.20735796 0.27396724 -0.13104199 0.26241097 -0.16645403 0.20338531 -0.08753562 0.044313017
00000000: b298 36be 665b 833e 6038 bdbd c99f 693e
00000010: 419e 2bbe 3376 e33c 9f1f 403e e2c2 8b3e
00000020: 6861 30be fd77 303e 73a0 493c 52aa 833e
00000030: 8e21 2a3d 5c81 2abe 74a3 803e 9305 5fbe
00000040: 892f b2bc 5d8c 2e3d 1ebe 743e cdb4 15be
00000050: 8383 8e3e 6212 353e 31aa 2ebe 3f42 2fbd
00000060: d4af 41be c946 01be 9547 b23d 89aa c63d
00000070: dccb 6dbd bf2a aabd f82b 5abe d52b 1bbd
00000080: ea7f 56be ed59 393e e3be dd3d 67f6 583d
00000090: 3944 953e c0ec 1bbe 782a ccbc 0a14 713e
000000a0: dba3 663e 560d 2c3d 7b15 6abe ef46 89bd
000000b0: 5baf 1c3e ff6f 213d 3739 19be 0b2c 7abe
000000c0: a64b cc3d c92b 443e 3674 aebd a017 c4bd
000000d0: c000 b4bc 05ef 033b 182e 88be 8a82 27be
000000e0: d62a 93bd c106 223e 775d 67bd 9197 86be
000000f0: f28c 1dbe c4de 3dbe dc01 7cbe e737 41be
00000100: efee ce3d eb49 5cbe 9be0 0c3e c385 903e
00000110: 8bc4 acbd 5899 6b3e c9f0 963e 480c 52be
00000120: 7e7a 2abe 7bd4 1fbe f517 00be 90db 57be
00000130: 3e50 3dbe 64d7 6cbe 208d 293e 8b61 103d
00000140: 6668 6a3e 5cd7 79be 31ee 893e 3e69 493e
00000150: 56d5 66be c883 803d 8f7e 21be 9c62 e0bd
00000160: f66d 85bc 82ff 79bd 16d9 083e a675 7b3e
00000170: 788a 91be 93a3 05be 72db 4a3d 1233 8ebe
00000180: b63f 09be 876f 723e b540 703e b31b e6bc
00000190: 0406 f73d 30a0 1f3e 2583 7d3e 8e10 3c3e
000001a0: da67 c63c 9153 aebd 67d1 513e 5492 723e
000001b0: 825e 29be 0d0a 86bd 600b a53e e994 063e
000001c0: c925 1e3e 6910 0cbe 697d 92bc 58ca 09be
000001d0: 1cd8 593e 2295 c53c 2fd7 373e 5382 ab3d
000001e0: b97a 48be becf 05be 165d d2bd fd29 23bb
000001f0: fab4 7d3e 6462 8abe 80db d8bd 3088 e63c
00000200: a264 3cbe e142 6cbe 2b14 223d 5fdc 913e
00000210: f1e7 7b3e f1de 46be 688b 36be 5423 b23d
00000220: a555 54be 6f45 8c3e df2f 06be bb5a 863e
00000230: ed72 2abe 3d44 503e e045 b3bd 9181 353d

down_blocks.0.conv2.bias f4 [4]
-0.0065168855 -0.0048770956 0.004940644 -0.032012627
00000000: 998b d5bb 0bd0 9fbb 20e5 a13b ac1f 03bd

down_blocks.0.norm1.weight f4 [4]
1.0173149 0.9928822 1.0009521 0.98801607
00000000: 6037 823f 872d 7e3f 331f 803f 9fee 7c3f

down_blocks.0.norm1.bias f4 [4]
-0.0077781403 0.0006816058 0.011733151 -0.009212447
00000000: c5df febb caad 323a 673c 403c ceef 16bc

down_blocks.0.norm1.running_mean f4 [4]
2.2282352 0.012985783 1.2542955 0.9407381
00000000: 689b 0e40 52c2 543c c18c a03f 36d4 703f

down_blocks.0.norm1.running_var f4 [4]
0.17420037 0.03217688 0.32605326 0.08811907
00000000: 9561 323e e7cb 033d 74f0 a63e c577 b43d

down_blocks.0.norm2.weight f4 [4]
1.0310642 1.0232226 1.0025595 1.0317706
00000000: e9f9 833f f5f8 823f df53 803f 0f11 843f

down_blocks.0.norm2.bias f4 [4]
0.0149124125 0.028002325 0.0034978797 0.020037265
00000000: 3153 743c 2265 e53c af3c 653b 3125 a43c

down_blocks.0.norm2.running_mean f4 [4]
0.20287487 0.35532182 0.31340924 0.15898027
00000000: 6ebe 4f3e beec b53e 2d77 a03e b9cb 223e

down_blocks.0.norm2.running_var f4 [4]
0.3464833 0.9359935 0.49223587 0.19491395
00000000: 4266 b13e 459d 6f3f 5706 fc3e 8697 473e

down_blocks.1.conv1.weight f4 [8, 4, 3, 3]
-0.07549361 0.15708084 0.0033046682 0.1197905 0.21088775 -0.123357154 -0.10548041 0.12599951
-0.22114588 -0.1043918 0.0978077 0.20251928 0.110007204 0.13268538 -0.21105613 -0.07575179
-0.17475255 -0.1624017 -0.05436462 -0.069248065 0.21709155 -0.054503035 -0.04223589 0.06870956
-0.23164725 0.11235499 0.088400416 0.03401453 0.22131228 0.03522514 0.0915892 0.026809994
-0.16827463 -0.0005587947 -0.037774235 -0.08377395 0.17497285 0.09751943 0.045760192 0.18028536
0.07801019 0.053123605 -0.121820495 0.051007014 0.10262182 0.18056142 -0.09475629 0.13751833
-0.19159497 0.004354838 -0.15866633 0.107954375 0.1671782 0.15672673 -0.14479315 -0.07842823
-0.18379857 -0.12860952 -0.2190214 -0.20007086 -0.060051177 -0.024878455 -0.004695171 -0.06569046
-0.02235791 0.08653533 0.04558684 -0.075145565 -0.20304802 0.07465387 -0.010427642 0.08855231
-0.06797775 -0.05467877 0.21162754 -0.058403336 0.13810995 0.16126339 0.058554877 -0.1608925
0.16634691 -0.1956165 -0.11458176 0.06380857 0.086065315 0.0467936 0.15218753 0.1037053
0.1603429 0.064239025 0.21745 -0.12963025 0.18311413 0.06883163 -0.014293192 0.23884122
0.090943485 -0.14951183 -0.07836707 0.08451908 0.20190762 -0.011301467 -0.0267971 0.03216813
0.21096984 -0.09182963 0.17118335 0.109969355 0.092424065 0.18147354 -0.15460055 -0.09448298
-0.067088775 0.20740022 -0.13879281 -0.080405146 0.11030987 0.03005215 -0.045102023 -0.11100582
-0.18450499 0.12285388 0.21297158 -0.10380383 0.067962684 0.09812655 0.16718437 -0.09972381
-0.071270764 -0.14918977 0.19296946 0.09552127 0.020816768 0.18934001 0.15006305 -0.08446986
0.19985472 -0.0777979 -0.16869551 0.17342465 -0.0658975 -0.08550552 -0.06446971 -0.105854176
0.011546389 0.20460135 -0.14001428 0.20440827 -0.0039993953 0.19498257 0.074723504 0.20361046
-0.062855296 -0.20210123 -0.08408505 0.16672851 -0.21932262 -0.12495858 -0.06165038 0.029972622
0.05724856 -0.16888434 0.2045563 -0.14406066 -0.0008388047 -0.14173408 -0.1343705 0.18848836
-0.23101771 0.075707495 0.07094546 -0.2039657 0.18125616 0.15558937 -0.09635899 0.17609915
-0.0066576106 0.049181044 -0.20960383 0.065536186 -0.18652941 -0.1536995 -0.06483467 -0.0325056
-0.11434255 -0.042705458 -0.08203898 -0.15409598 -0.019679476 0.2202134 0.18044484 0.22796296
0.08615179 -0.03790883 -0.08880187 -0.13478722 -0.1650923 0.1862186 0.06026584 0.1138107
0.06707017 -0.024966896 0.06387503 -0.05882677 -0.16803151 -0.18291944 0.110160746 0.17607087
-0.008011755 0.20387822 0.05377856 0.168328 0.22309637 0.16579051 0.001365592 0.21110028
-0.18111762 -0.1695495 -0.07315786 0.14703092 -0.22046138 0.106139354 0.00013486475 -0.18732187
-0.062228855 0.046320245 -0.02122988 0.117516555 -0.17037638 -0.08082227 0.23549962 -0.21462162
0.14022885 -0.14194308 -0.1661895 -0.040474895 0.007199169 -0.20001638 -0.07713001 -0.11507736
0.15496926 0.11074577 -0.04823748 0.18695441 -0.10269139 0.22027184 0.070397526 -0.23270692
0.14073978 -0.20298757 0.06893825 0.07978279 -0.1282535 -0.025123842 -0.014692517 -0.17877908
00000000: 659c 9abd cdd9 203e 2293 583b b954 f53d
00000010: f5f2 573e ada2 fcbd 1d06 d8bd 0406 013e
00000020: 1174 62be 5ecb d5bd 674f c83d 3761 4f3e
00000030: 754b e13d adde 073e 191f 58be c123 9bbd
00000040: 55f2 32be a24c 26be 70ad 5ebd eed1 8dbd
00000050: 3f4d 5e3e 933e 5fbd 8aff 2cbd 99b7 8c3d
00000060: f034 6dbe 5f1a e63d 470b b53d d252 0b3d
00000070: b09f 623e 3d48 103d 1e93 bb3d a2a0 db3c
00000080: 2f50 2cbe 147c 12ba 28b9 1abd ad91 abbd
00000090: 152c 333e 44b8 c73d 0a6f 3b3d ba9c 383e
000000a0: cec3 9f3d 2398 593d 067d f9bd bbec 503d
000000b0: 642b d23d 18e5 383e 960f c2bd 9bd1 0c3e
000000c0: 7931 44be 07b3 8e3b 6d79 22be 2f17 dd3d
000000d0: c330 2b3e f97c 203e a844 14be fb9e a0bd
000000e0: b135 3cbe 37b2 03be 2547 60be 60df 4cbe
000000f0: 39f8 75bd e7cd cbbc f3d9 99bb b888 86bd
00000100: f027 b7bc 6f39 b13d 44b9 3a3d ebe5 99bd
00000110: d2eb 4fbe 21e4 983d b3d8 2abc ea5a b53d
00000120: eb37 8bbd d9f6 5fbd e4b4 583e 5638 6fbd
00000130: b26c 0d3e 3b22 253e 3dd7 6f3d 01c1 24be
00000140: d856 2a3e b14f 48be d7a9 eabd 11ae 823d
00000150: 0343 b03d a5aa 3f3d 0cd7 1b3e 7263 d43d
00000160: ee30 243e c08f 833d 36ab 5e3e cbbd 04be
00000170: 4582 3b3e 99f7 8c3d fe2d 6abc cb92 743e
00000180: 9440 ba3d a119 19be ea7e a0bd 5718 ad3d
00000190: dfc0 4e3e ca29 39bc 9885 dbbc bbc2 033d
000001a0: 7a08 583e 2c11 bcbd b04a 2f3e 9d37 e13d
000001b0: d448 bd3d 33d4 393e 9b4f 1ebe 4b80 c1bd
000001c0: d765 89bd b960 543e b41f 0ebe 74ab a4bd
000001d0: 24ea e13d ed2f f63c e6bc 38bd 0557 e3bd
000001e0: e0ee 3cbe d19a fb3d 3915 5a3e 1a97 d4bd
000001f0: 0530 8b3d 93f6 c83d 6132 2b3e ff3b ccbd
00000200: 68f6 91bd 34c5 18be c999 453e a8a0 c33d
00000210: ed87 aa3c 59e2 413e 21aa 193e 89fe acbd
00000220: b7a6 4c3e 8154 9fbd 84be 2cbe 3b96 313e
00000230: 45f5 86bd 851d afbd b208 84bd 13ca d8bd
00000240: 112d 3d3c 0483 513e e75f 0fbe 6750 513e
00000250: 5c0d 83bb 83a9 473e a308 993d 437f 503e
00000260: 47ba 80bd a0f3 4ebe c834 acbd e1ba 2a3e
00000270: 1c96 60be 49ea ffbd 1c85 7cbd 2589 f53c
00000280: 777d 6a3d 04f0 2cbe 3577 513e a384 13be
00000290: 3be3 5bba bd22 11be 6c98 09be 1803 413e
000002a0: e88f 6cbe 880c 9b3d da4b 913d 62dc 50be
000002b0: 379b 393e d252 1f3e dd57 c5bd 5653 343e
000002c0: 1628 dabb 1072 493d 63a2 56be d637 863d
000002d0: 9101 3fbe 6763 1dbe 0ac8 84bd 9824 05bd
000002e0: 6d2c eabd ebeb 2ebd 0e04 a8bd 56cb 1dbe
000002f0: da36 a1bc 9f7f 613e 88c6 383e 1f6f 693e
00000300: 5a70 b03d 4a46 1bbd c1dd b5bd a905 0abe
00000310: f50d 29be 17b0 3e3e 50d9 763d 9615 e93d
00000320: 165c 893d 6087 ccbc e9d0 823d 57f4 70bd
00000330: 7410 2cbe 3c4f 3bbe f59b e13d ec4b 343e
00000340: bc43 03bc 74c5 503e e846 5c3d 2d5e 2c3e
00000350: 6073 643e fdc4 293e aafd b23a ac2a 583e
00000360: e676 39be 629e 2dbe cad3 95bd 468f 163e
00000370: a1c0 61be 975f d93d 7b6a 0d39 4ed1 3fbe
00000380: afe3 7ebd 4cba 3d3d 49ea adbc 85ac f03d
00000390: 2577 2ebe 2586 a5bd d026 713e c5c5 5bbe
000003a0: 2798 0f3e 8759 11be 952d 2abe 01c9 25bd
000003b0: 02e7 eb3b 18d1 4cbe 57f6 9dbd aead ebbd
000003c0: 43b0 1e3e aece e23d aa94 45bd fa70 3f3e
000003d0: dd4f d2bd f18e 613e 942c 903d b94a 6ebe
000003e0: 171e 103e f9db 4fbe 7f2f 8d3d 2965 a33d
000003f0: e354 03be 84d0 cdbc e2b8 70bc dd11 37be

down_blocks.1.conv1.bias f4 [8]
-0.010165725 0.00027034525 0.00081266824 -0.0041312375 -0.0023069258 0.0010656458 -0.010751917 -0.0013834967
00000000: 248e 26bc 20bd 8d39 3e09 553a 555f 87bb
00000010: cb2f 17bb 24ad 8b3a cf28 30bc 7256 b5ba

down_blocks.1.conv2.weight f4 [8, 8, 3, 3]
-0.11839052 0.06276064 -0.11319766 0.18032715 -0.05353855 0.19215901 0.10367697 0.18594417
-0.051017378 0.16590852 0.15617765 0.16209245 -0.16863808 0.124174066 -0.0137917595 -0.12510903
0.051676042 0.20319211 -0.16050446 0.16887075 -0.18541257 0.15900044 0.1975952 0.05281137
0.045987986 -0.17179336 0.051678468 0.05241932 -0.015196864 -0.12687632 -0.068385504 0.10070889
-0.10494537 -0.05084505 0.006630325 0.1024979 -0.123080656 0.058765616 -0.019997288 -0.018367644
-0.16392933 -0.11159273 0.20142303 -0.0890881 0.053443644 0.030803852 0.19462773 -0.17132746
0.026571048 -0.06465385 -0.18205683 -0.023791473 -0.004779755 0.20234439 0.19100457 -0.043336112
0.06596223 0.18956673 0.074735075 0.010685464 -0.16940746 0.15566722 0.11746074 0.14069115
-0.12477613 0.1725684 0.07550502 -0.20177981 -0.1393581 0.10845776 -0.034833618 -0.19655298
-0.037915546 0.13865507 -0.1760267 -0.13787448 -0.06698017 -0.13675572 0.07087786 0.017284887
0.13021493 -0.13759372 0.15877636 0.113394015 -0.09385933 -0.1265903 0.19117568 -0.085408315
-0.12698908 0.078422114 0.10776661 0.15261656 -0.048038848 0.12855297 0.032567285 0.11224053
0.12107839 -0.056417476 -0.09025424 0.18181288 -0.20778827 -0.031432204 0.19468673 0.10192014
0.11513574 0.029436573 0.05498405 0.1965754 -0.12436991 0.010396273 -0.019241782 -0.14306636
-0.14779104 -0.0027861444 -0.017864842 0.16201931 -0.0024050286 -0.0457383 -0.18884295 0.15547514
0.20084886 -0.0005736138 0.19750214 0.1459306 -0.068986945 0.040301304 -0.04832804 -0.14546882
0.045886844 -0.027167348 0.13065797 -0.08639613 0.027952196 -0.14905283 0.10668904 -0.08682011
0.005207872 -0.1570459 -0.043283284 0.06332695 -0.139081 0.19724746 -0.11838679 -0.18118654
-0.012059129 -0.07065942 -0.09706278 -0.02691131 -0.053142495 0.026648233 0.11789878 -0.1381363
-0.109529756 0.18396595 -0.028986758 -0.15625134 0.021582086 -0.04057283 -0.08116806 -0.13271205
0.08152166 -0.13437128 0.1073366 -0.15480025 0.07353438 -0.10165716 -0.018428586 -0.17038636
-0.17353001 0.023736453 -0.05422367 0.16654591 0.026257815 -0.08690657 0.050880782 -0.03457366
0.03264123 -0.04148987 0.13543433 0.021895895 -0.1668171 -0.08657488 -0.048097502 0.0012009699
-0.16978154 -0.20180911 0.12524275 0.17197971 0.06428996 0.15886267 0.1571177 -0.060165435
-0.20158558 -0.011679287 -0.0039177197 -0.007368539 -0.20913169 -0.16365066 -0.15228967 0.079183385
0.10355279 -0.10258098 0.12757854 -0.15897804 0.18631493 -0.17192157 -0.11370604 0.031939127
0.1646097 0.02267553 -0.05168991 -0.18075083 0.11914631 0.14320308 0.044471323 -0.16769597
0.18428871 -0.07784295 -0.028998021 0.09966541 0.15297654 0.017853357 0.0010945105 0.16992351
0.07710488 0.1578029 0.15315361 -0.13421665 0.034003623 0.00885289 0.083121695 -0.104603454
-0.03414758 0.20292717 -0.056985505 -0.15960588 -0.0019198766 -0.08550546 -0.010921268 0.04090183
0.008900829 -0.09072741 -0.046210848 0.056234833 0.008127455 0.15454024 -0.14657074 -0.0006483357
-0.006743432 0.19110356 0.12810773 0.021358224 -0.19167335 0.040870145 -0.09820061 0.00668878
00000000: bb76 f2bd a788 803d 2dd4 e7bd aea7 383e
00000010: 3d4b 5bbd 55c5 443e 9754 d43d 2668 3e3e
00000020: 99f7 50bd ece3 293e 09ed 1f3e 90fb 253e
00000030: 76af 2cbe f94e fe3d d5f6 61bc 951c 00be
00000040: 42aa 533d 9811 503e 485b 24be 74ec 2c3e
00000050: cbdc 3dbe 03d1 223e 6556 4a3e bc50 583d
00000060: e65d 3c3d 99ea 2fbe cdac 533d a4b5 563d
00000070: 44fc 78bc deeb 01be b30d 8cbd 7640 ce3d
00000080: 99ed d6bd e642 50bd 3343 d93b 6bea d13d
00000090: b611 fcbd 37b4 703d 5ad1 a3bc be77 96bc
000000a0: 17dd 27be bb8a e4bd d741 4e3e d273 b6bd
000000b0: b9e7 5a3d 5c58 fc3c 7e4c 473e 7770 2fbe
000000c0: 87ab d93c 3d69 84bd 1b6d 3abe 56e6 c2bc
000000d0: 7e9f 9cbb 5e33 4f3e b496 433e 3581 31bd
000000e0: 3517 873d c81d 423e b40e 993d 1612 2f3c
000000f0: 2679 2dbe 3a67 1f3e 428f f03d 5711 103e
00000100: a18a ffbd c5b5 303e 60a2 9a3d 5e9f 4ebe
00000110: e4b3 0ebe 1a1f de3d b2ad 0ebd 2f45 49be
00000120: 554d 1bbd 98fb 0d3e 5840 34be f82e 0dbe
00000130: e62c 89bd b109 0cbe 6928 913d 0999 8d3c
00000140: 1057 053e 5ee5 0cbe 4596 223e 1f3b e83d
00000150: 5239 c0bd e3a0 01be 8fc3 433e 8eea aebd
00000160: 6d09 02be c69b a03d beb4 dc3d 8447 1c3e
00000170: 62c4 44bd 64a3 033e 4665 053d 5dde e53d
00000180: f2f7 f73d 0316 67bd 37d7 b8bd 282d 3a3e
00000190: 73c6 54be 0ebf 00bd f55b 473e 82bb d03d
000001a0: 49cc eb3d f824 f13c f536 613d 104b 493e
000001b0: a7b5 febd 2155 2a3c f1a0 9dbc fd7f 12be
000001c0: 8956 17be bf97 36bb 4a59 92bc 64e8 253e
000001d0: af9d 1dbb 1558 3bbd 0c60 41be e034 1f3e
000001e0: 53ab 4d3e 925e 16ba 003e 4a3e d56e 153e
000001f0: 0749 8dbd fb12 253d 9ff3 45bd c7f5 14be
00000200: d8f3 3b3d 0f8e debc 34cb 053e 74f0 b0bd
00000210: 01fc e43c 4ea1 18be c97f da3d bece b1bd
00000220: cca6 aa3b a4d0 20be d049 31bd 8fb1 813d
00000230: 406b 0ebe 3dfb 493e c674 f2bd f788 39be
00000240: a793 45bc e3b5 90bd dac8 c6bd 1c75 dcbc
00000250: f2ab 59bd 654d da3c ea74 f13d 9a73 0dbe
00000260: 2351 e0bd 9261 3c3e a375 edbc 5a00 20be
00000270: eacc b03c b22f 26bd 713b a6bd abe5 07be
00000280: d4f4 a63d a098 09be 4bd3 db3d f583 1ebe
00000290: 3199 963d a131 d0bd 8cf7 96bc c379 2ebe
000002a0: dab1 31be f372 c23c a419 5ebd 038b 2a3e
000002b0: a11a d73c 12fc b1bd 5e68 503d 1c9d 0dbd
000002c0: cfb2 053d 48f1 29bd 4caf 0a3e 055f b33c
000002d0: 1ad2 2abe 2c4e b1bd e301 45bd dd69 9d3a
000002e0: 36db 2dbe 0ca7 4ebe a33f 003e 731b 303e
000002f0: 74aa 833d e5ac 223e 76e3 203e 0870 76bd
00000300: 736c 4ebe 7b5a 3fbc 3760 80bb c973 f1bb
00000310: 9e26 56be 0a94 27be d3f1 1bbe e62a a23d
00000320: 7c13 d43d fa15 d2bd f3a3 023e 24cb 22be
00000330: 57c9 3e3e 350c 30be b6de e8bd 9ad2 023d
00000340: 728f 283e 08c2 b93c cdb8 53bd bf16 39be
00000350: fb02 f43d d4a3 123e 9027 363d 7eb8 2bbe
00000360: 2eb6 3c3e 206c 9fbd 428d edbc 611d cc3d
00000370: e2a5 1c3e 3441 923c ae75 8f3a 6e00 2e3e
00000380: 2ae9 9d3d 1597 213e 4dd4 1c3e 1770 09be
00000390: 6247 0b3d b60b 113c b53b aa3d 563a d6bd
000003a0: 55de 0bbd 24cc 4f3e a269 69bd b96f 23be
000003b0: 5ea4 fbba 7d1d afbd 1eef 32bc ad88 273d
000003c0: c8d4 113c 4bcf b9bd 9647 3dbd 7f56 663d
000003d0: 0429 053c cc3f 1e3e a416 16be 13f5 29ba
000003e0: 02f8 dcbb a7b0 433e ac2e 033e 71f7 ae3c
000003f0: 0546 44be 7467 273d 671d c9bd 8e2d db3b

down_blocks.1.conv2.bias f4 [8]
0.0007064554 0.001845412 0.0003369889 -0.0035771232 -0.0033898652 0.011683319 0.0035915312 -0.004373659
00000000: 6b31 393a c0e1 f13a e2ad b039 2b6e 6abb
00000010: 8028 5ebb 646b 3f3c e55f 6b3b e950 8fbb

down_blocks.1.norm1.weight f4 [8]
0.996542 0.9973646 1.0090071 1.0028924 0.99812794 1.0018611 0.99402434 0.99990374
00000000: 601d 7f3f 4953 7f3f 2527 813f c75e 803f
00000010: 5085 7f3f fc3c 803f 6178 7e3f b1f9 7f3f

down_blocks.1.norm1.bias f4 [8]
-0.011196679 0.0010508135 -0.004950484 -0.0066443426 -0.0027045498 -0.001608268 -0.0055203657 0.0027908417
00000000: 4772 37bc 73bb 893a ab37 a2bb c9b8 d9bb
00000010: d13e 31bb 85cc d2ba 2fe4 b4bb 8ee6 363b

down_blocks.1.norm1.running_mean f4 [8]
0.22679296 0.33802155 0.7002256 0.24166048 0.33344248 0.5783893 0.16614455 0.22410569
00000000: 6a3c 683e 2911 ad3e fc41 333f d875 773e
00000010: f9b8 aa3e 5211 143f cc21 2a3e f67b 653e

down_blocks.1.norm1.running_var f4 [8]
0.5551553 0.32235843 2.9883769 0.44740754 0.61831826 2.1022782 0.1190971 0.24565367
00000000: a81e 0e3f 2a0c a53e 9141 3f40 9a12 e53e
00000010: 1b4a 1e3f ba8b 0640 2ee9 f33d a38c 7b3e

down_blocks.1.norm2.weight f4 [8]
0.9999923 1.0004253 0.9943245 1.0091329 0.99562365 1.0073212 0.9924401 1.0000713
00000000: 7fff 7f3f f00d 803f 0d8c 7e3f 442b 813f
00000010: 31e1 7e3f e7ef 803f 8e10 7e3f 5602 803f

down_blocks.1.norm2.bias f4 [8]
-0.00039672796 0.0021438843 -0.0014175315 -0.0020479737 -0.0046562613 -0.0040255156 -0.0012384731 0.0028534313
00000000: edff cfb9 6980 0c3b 77cc b9ba 4c37 06bb
00000010: 8d93 98bb 79e8 83bb 4354 a2ba a200 3b3b

down_blocks.1.norm2.running_mean f4 [8]
0.2540905 0.38226822 0.32459146 0.2634575 0.2523926 0.34686536 0.26025003 0.21288761
00000000: 2618 823e a9b8 c33e da30 a63e e7e3 863e
00000010: 9a39 813e 5698 b13e 7e3f 853e 36ff 593e

down_blocks.1.norm2.running_var f4 [8]
0.55140764 1.0504259 0.09403119 0.669412 0.42810398 0.094006434 0.08330401 0.45455712
00000000: 0d29 0d3f 5b74 863f 6d93 c03d 965e 2b3f
00000010: 7230 db3e 7286 c03d 4b9b aa3d b6bb e83e

down_blocks.2.conv1.weight f4 [16, 8, 3, 3]
-0.15304434 0.06427567 -0.06078114 0.1608693 -0.09516561 0.06120151 -0.041743863 0.118367
-0.09548082 0.08211355 -0.10177529 0.10301777 0.14675625 -0.07741373 -0.10051064 -0.05969191
0.01724307 -0.14555548 0.10631734 0.014770902 0.10135802 0.08991294 -0.13599274 0.113734886
-0.050227366 -0.12026046 0.025382211 -0.02366733 0.14693905 -0.10425283 -0.056311663 0.098816894
0.09088287 0.15755147 -0.010682875 0.018782843 -0.1631117 0.14443482 0.041339885 0.14189088
0.15152219 -0.04402796 -0.11735543 0.12519856 -0.16781148 0.15221855 -0.11588982 0.1332017
0.15869424 0.013101495 -0.12760445 -0.16633561 0.03981831 -0.029267829 0.12118459 -0.15397997
0.013968703 -0.13993776 -0.08597788 -0.10280805 -0.09684657 -0.16674268 0.08103092 0.05017541
-0.16218281 0.12903237 -0.12857825 -0.014464702 0.033777174 0.01087266 -0.08885131 0.13455544
-0.09547356 0.06866983 0.06170544 -0.118190125 -0.14366947 0.14550546 0.050134994 0.15018159
-0.14600949 0.05888874 -0.031024283 -0.042823367 0.06317574 -0.09179573 -0.029969182 0.14153428
-0.060103487 0.04639163 0.16168305 0.05570096 -0.019703655 0.08014934 -0.15104724 -0.038515374
0.10230642 -0.09854095 -0.033683404 0.08557602 -0.034276642 0.1254154 -0.089263655 0.06227361
-0.14434926 0.070001654 -0.12150075 0.08804472 -0.16300823 -0.058930036 -0.030432202 -0.13288295
0.0015273711 -0.1325622 -0.016847758 0.15499231 0.06886802 0.04905528 0.10897443 -0.02732377
-0.025003074 0.14678259 0.067507155 -0.059803344 -0.04419376 -0.15212117 -0.13054755 -0.055171594
-0.10416941 0.122166716 0.042529274 -0.15138651 -0.06259048 0.06551501 0.10139343 -0.16031234
0.04617432 -0.09641112 -0.020631066 0.03808196 -0.07840693 0.16712403 -0.049508892 0.07755731
0.023642154 -0.0994104 -0.10925115 -0.06364293 -0.07513056 0.00703924 -0.110958286 -0.096033566
0.0025224513 0.07862467 0.10925491 -0.083041705 0.019072203 -0.007744728 -0.04569979 0.1401511
-0.14793637 0.037716657 0.044646814 -0.03717078 0.033981755 -0.06960981 0.067966975 -0.046610978
-0.028907647 -0.0059557897 -0.020690318 0.08490086 -0.009998139 0.1345858 -0.06909398 -0.097648874
0.073478185 -0.021557016 0.08732368 0.055856183 0.054670468 -0.061130647 -0.053036064 -0.10558976
-0.15311974 -0.12142995 0.049620423 0.09860648 0.0040825075 0.08058769 -0.14831845 0.010316859
-0.15042639 0.086410716 0.021365402 -0.10552603 -0.07579206 -0.15879093 0.017958263 0.036719356
-0.056189615 -0.13803028 0.07319005 0.013559662 0.034339093 -0.04689057 -0.14640918 0.1322409
0.01812407 0.10433444 -0.16318242 -0.08207786 -0.09746653 -0.15338187 -0.1328093 0.10391052
-0.064310804 -0.11255852 -0.14483754 -0.012805525 -0.1333949 -0.16462359 0.09141237 -0.10700767
0.12618232 -0.13050084 -0.06333195 -0.06114138 -0.031225763 0.114827275 -0.0046896315 0.09191843
0.104474664 -0.022925574 -0.035929862 0.09894115 0.12535188 -0.068664126 0.09371117 -0.07015147
-0.040225226 -0.16280816 -0.109277196 -0.15088145 -0.103472814 -0.012685937 -0.08754666 0.021267967
-0.057625186 0.10358358 -0.05566632 0.115047544 -0.060267698 -0.06769143 0.09481816 -0.09685502
00000000: a8b7 1cbe f6a2 833d a5f5 78bd ecba 243e
00000010: 30e6 c2bd 6fae 7a3d 9dfb 2abd 666a f23d
00000020: 738b c3bd 262b a83d 906f d0bd fbfa d23d
00000030: 4547 163e 178b 9ebd 86d8 cdbd 817f 74bd
00000040: 5741 8d3c 7f0c 15be e8bc d93d a701 723c
00000050: cb94 cf3d 4724 b83d ae41 0bbe d6ed e83d
00000060: 36bb 4dbd 1e4b f6bd 5bee cf3c fde1 c1bc
00000070: 3177 163e 8282 d5bd 0fa7 66bd 8360 ca3d
00000080: cc20 ba3d 2c55 213e 3a07 2fbc 7ade 993c
00000090: c106 27be b9e6 133e 0354 293d d84b 113e
000000a0: a228 1b3e aa56 34bd 0b58 f0bd 0d34 003e
000000b0: c6d6 2bbe 2edf 1b3e a457 edbd 0766 083e
000000c0: be80 223e a7a7 563c beaa 02be e253 2abe
000000d0: 8618 233d 16c3 efbc a02f f83d edac 1dbe
000000e0: fddc 643c d84b 0fbe 2c15 b0bd 078d d2bd
000000f0: 7f57 c6bd 98be 2abe 8af3 a53d bb84 4d3d
00000100: 4013 26be 1021 043e 04aa 03be 5cfd 6cbc
00000110: ef59 0a3d 3e23 323c adf7 b5bd e7c8 093e
00000120: a487 c3bd c5a2 8c3d d8be 7c3d aa0d f2bd
00000130: 171e 13be 62ff 143e 5a5a 4d3d 34c9 193e
00000140: 8383 15be 5235 713d a326 febc 8e67 2fbd
00000150: 4862 813d 66ff bbbd ee81 f5bc 5dee 103e
00000160: 132f 76bd 2605 3e3d 3e90 253e b126 643d
00000170: 8f69 a1bc 5625 a43d 21ac 1abe 4cc2 1dbd
00000180: 0786 d13d d6cf c9bd 9cf7 09bd 7b42 af3d
00000190: aa65 0cbd e56c 003e ddcf b6bd 9d12 7f3d
000001a0: 4bd0 13be 075d 8f3d 63d5 f8bd ca50 b43d
000001b0: a1eb 26be 9f60 71bd f44c f9bc 7812 08be
000001c0: 1232 c83a 63be 07be 4f04 8abc 4eb6 1e3e
000001d0: ad0a 8d3d 30ee 483d fc2d df3d 19d6 dfbc
000001e0: 3fd3 ccbc 2d4e 163e 3141 8a3d 5af4 74bd
000001f0: 8404 35bd a7c5 1bbe 42ae 05be 9cfb 61bd
00000200: c656 d5bd 8b32 fa3d 2d33 2e3d 1105 1bbe
00000210: 702f 80bd bc2c 863d 5ca7 cf3d eb28 24be
00000220: 4921 3d3d 3173 c5bd 7b02 a9bc d4fb 1b3d
00000230: d093 a0bd 9022 2b3e d6c9 4abd 5ed6 9e3d
00000240: 31ad c13c ae97 cbbd 11bf dfbd 3957 82bd
00000250: 0dde 99bd 6da9 e63b 193e e3bd 3fad c4bd
00000260: b64f 253b f905 a13d 0ac1 df3d c511 aabd
00000270: 4f3d 9c3c 7dc7 fdbb b42f 3bbd c583 0f3e
00000280: a27c 17be c87c 1a3d 94df 363d 6340 18bd
00000290: 7430 0b3d 978f 8ebd 4532 8b3d 27eb 3ebd
000002a0: bbcf ecbc c928 c3bb be7e a9bc 81e0 ad3d
000002b0: 3ccf 23bc dcd0 093e 2581 8dbd 22fc c7bd
000002c0: bb7b 963d 5798 b0bc c2d6 b23d 74c9 643d
000002d0: 24ee 5f3d 2164 7abd 583c 59bd 723f d8bd
000002e0: 6ccb 1cbe 44b0 f8bd c93e 4b3d 32f2 c93d
000002f0: 8ec6 853b 290b a53d cbe0 17be 0b08 293c
00000300: 6009 1abe 1af8 b03d 7f06 af3c 081e d8bd
00000310: de38 9bbd 179a 22be 351d 933c 0967 163d
00000320: 1527 66bd cf57 0dbe aae4 953d 5829 5e3c
00000330: 26a7 0c3d 5410 40bd 4aec 15be 296a 073e
00000340: ee78 943c 4bad d53d 4b19 27be 7018 a8bd
00000350: 889c c7bd 2310 1dbe 29ff 07be 0acf d43d
00000360: 62b5 83bd 1585 e6bd 4b50 14be 44ce 51bc
00000370: ac98 08be 1693 28be 6936 bb3d d626 dbbd
00000380: f035 013e 03a2 05be 2eb4 81bd 626f 7abd
00000390: 2ccd ffbc 902a eb3d 7bab 99bb bb3f bc3d
000003a0: d0f6 d53d 6ace bbbc 312b 13bd a8a1 ca3d
000003b0: 3e5c 003e c79f 8cbd a4eb bf3d 93ab 8fbd
000003c0: 35c3 24bd 2fb7 26be b9cc dfbd ab80 1abe
000003d0: 8ee9 d3bd add8 4fbc aa4b b3bd 293a ae3c
000003e0: 6308 6cbd a123 d43d 5e02 64bd 0c9e eb3d
000003f0: 43db 76bd cea1 8abd 0630 c23d ed5b c6bd

down_blocks.2.conv1.bias f4 [16]
-0.00065105356 -0.00013625677 -0.003321422 -2.0765313e-07 -0.0007036879 0.00010489137 0.001028968 -0.00101776
0.0019820882 -1.4383966e-05 -0.0008059211 -0.00021604022 -0.0018314023 0.0010504083 0.0007274818 -0.0011660869
00000000: 77ab 2aba 26e0 0eb9 37ac 59bb 42f7 5eb4
00000010: b277 38ba 20f9 db38 70de 863a 5c66 85ba
00000020: ece5 013b aa52 71b7 7344 53ba db88 62b9
00000030: aa0b f0ba dbad 893a 7ab4 3e3a 62d7 98ba

down_blocks.2.conv2.weight f4 [16, 16, 3, 3]
0.04046469 0.06202071 0.042548984 -0.1401741 -0.083458446 0.058573976 -0.04054848 -0.13879333
-0.13107796 -0.04778119 -0.015805297 -0.059716024 -0.0021272567 -0.081595905 -0.052736145 -0.037958622
0.122969985 -0.12580635 -0.030407643 -0.058560178 0.059988044 0.122741506 -0.06440766 0.10340595
-0.11289042 -0.09117539 0.01742622 0.050407004 -0.14362235 0.10693472 0.06669906 0.0026449843
-0.05518559 -0.078043014 0.00944092 -0.117150836 0.12072724 0.11476963 0.03273146 0.001360488
-0.12760203 -0.04329464 0.13699453 -0.014536082 -0.13362908 0.064551055 0.0967095 -0.00490654
0.12018728 0.01514679 -0.07017121 -0.116513774 -0.08952154 -0.11643862 -0.069441296 -0.005635836
-0.06226737 -0.071227364 -0.015577439 0.14177088 -0.10634594 -0.07170705 0.1164394 -0.029180558
-0.1329465 0.08390154 -0.019411769 0.045157723 0.14179233 0.03590688 -0.11453998 -0.047293186
-0.07159075 0.09454002 -0.035130624 -0.08349713 0.097534604 0.01255268 0.016157206 -0.04858968
-0.072523355 0.12026386 0.026394345 0.041962765 -0.026471423 0.10761713 -0.03290373 -0.023461219
-0.07606691 -0.050625056 -0.10857028 -0.06652855 -0.13539942 -0.017542718 -0.101573445 -0.066697255
0.13842733 -0.11617619 0.046201058 -0.024374964 0.0128494 0.05481571 0.11219871 -0.09218724
-0.008569438 0.069971666 -0.04584519 -0.02075719 0.06850628 -0.0056399326 -0.12739207 0.09799618
0.072695754 0.115267426 -0.090578124 -0.09534645 -0.0141334385 0.07693771 0.12777913 -0.13161466
-0.067255445 -0.05575868 0.005541764 0.13217698 -0.07556466 0.08500541 -0.068481945 0.09928022
0.04538794 -0.122763455 -0.024117826 0.07413713 0.012707347 -0.054601826 -0.06915384 0.045666523
-0.041848097 0.08595088 0.0035943978 -0.10056291 -0.022406492 0.113997184 0.007397466 0.09259673
-0.09018715 0.065381005 0.10379063 -0.010302373 0.095543236 0.11502477 -0.03674312 0.027661312
0.10575984 0.026473599 0.12403964 -0.04723868 -0.025327006 -0.14041674 -0.111130625 0.07624076
-0.13880932 0.00038867243 0.040723525 0.07400672 0.09202913 -0.0780771 -0.11774396 0.123975806
0.06085765 -0.124413274 0.11654158 0.07640496 0.12642212 0.11907103 -0.13956288 -0.019864572
-0.108004436 -0.033698376 -0.03966484 0.13724001 0.028317537 0.08918765 0.0005827757 -0.04608168
0.11907438 -0.061351735 -0.06120683 -0.021459997 -0.1096398 0.14460504 -0.012357279 -0.10435362
0.059144814 -0.091697425 -0.11034614 0.025202587 -0.14026837 -0.0638627 -0.102552734 -0.05148346
0.09165631 -0.023108417 -0.029479839 0.11249194 0.10017559 0.049439017 -0.0014110331 -0.0019713533
-0.12249366 0.055955354 0.037415914 0.07758206 -0.097050846 0.006342514 0.074964374 0.02142695
0.05515145 0.0029227342 0.10673928 0.026090812 0.0037273285 -0.093168594 -0.05958098 0.075683996
0.08744786 0.04430433 0.047201414 -0.054989867 0.055702686 -0.13367742 0.023905799 0.02295492
-0.107382216 0.10806631 0.14512451 -0.035855237 -0.14214589 -0.1133904 -0.020480206 0.02301673
-0.07904888 0.13824058 -0.03176303 -0.0023507953 -0.053530853 -0.030651772 -0.02311499 -0.11009818
-0.05655897 0.12029267 0.110578515 0.032307867 -0.14601804 -0.00068043714 0.0075160544 -0.123944044
00000000: 4ebe 253d 6e09 7e3d d847 2e3d cd89 0fbe
00000010: 43ec aabd 44eb 6f3d 2a16 26bd d71f 0ebe
00000020: 4d39 06be 36b6 43bd 1c7a 81bc ca98 74bd
00000030: 7269 0bbb c11b a7bd db01 58bd 807a 1bbd
00000040: b0d7 fb3d 61d3 00be 7319 f9bc ccdc 6fbd
00000050: 06b6 753d e65f fb3d 2ae8 83bd 80c6 d33d
00000060: 1833 e7bd 2aba babd 6fc1 8e3c 9377 4e3d
00000070: bd11 13be 9700 db3d 8499 883d 7957 2d3b
00000080: 490a 62bd 04d5 9fbd 17ae 1a3c c7ec efbd
00000090: d83f f73d 570c eb3d 6c11 063d 6752 b23a
000000a0: 1baa 02be b855 31bd 4b48 0c3e bf28 6ebc
000000b0: 10d6 08be 5833 843d a10f c63d 0ac7 a0bb
000000c0: c024 f63d 3e2a 783c ecb5 8fbd c69e eebd
000000d0: 1257 b7bd 5f77 eebd 3d37 8ebd d2ac b8bb
000000e0: 120c 7fbd a7df 91bd 8438 7fbc 632c 113e
000000f0: e6cb d9bd 25db 92bd c877 ee3d 110c efbc
00000100: 2123 08be 92d4 ab3d 6e05 9fbc 4ef7 383d
00000110: 0232 113e 1813 133d f093 eabd 80b6 41bd
00000120: 2c9e 92bd 339e c13d 21e5 0fbd 8b00 abbd
00000130: 39c0 c73d c2a9 4d3c 1e5c 843c f905 47bd
00000140: 2087 94bd e64c f63d f438 d83c 26e1 2b3d
00000150: 99da d8bc 5f66 dc3d 10c6 06bd be31 c0bc
00000160: f8c8 9bbd 385c 4fbd 185a debd 1f40 88bd
00000170: 25a6 0abe bfb5 8fbc bd05 d0bd 9298 88bd
00000180: e5bf 0d3e c8ed edbd 523d 3d3d 01ae c7bc
00000190: 4a86 523c 7086 603d 70c8 e53d aacc bcbd
000001a0: d466 0cbc 4e4d 8f3d 2ac8 3bbd fc0a aabc
000001b0: 054d 8c3d 2fcf b8bb 1173 02be 39b2 c83d
000001c0: 83e1 943d 5411 ec3d 0681 b9bd 0045 c3bd
000001d0: f08f 67bc 8591 9d3d 88d8 023e fec5 06be
000001e0: 39bd 89bd 3763 64bd b097 b53b 6759 073e
000001f0: a5c1 9abd 5117 ae3d 4340 8cbd 6e53 cb3d
00000200: b4e8 393d 686b fbbd bf92 c5bc 35d5 973d
00000210: 7a32 503c 2aa6 5fbd 87a0 8dbd d20c 3b3d
00000220: e968 2bbd 0407 b03d fd8f 6b3b edf3 cdbd
00000230: d28d b7bc 5b77 e93d 7166 f23b 5ba3 bd3d
00000240: 0ab4 b8bd 7ae6 853d 2f90 d43d 49cb 28bc
00000250: 2cac c33d 1b92 eb3d f47f 16bd fa99 e23c
00000260: 9d98 d83d 29df d83c 7f08 fe3d 597d 41bd
00000270: 957a cfbc 68c9 0fbe 7498 e3bd 1e24 9c3d
00000280: 0824 0ebe bbc6 cb39 b6cd 263d d690 973d
00000290: c579 bc3d e3e6 9fbd bf23 f1bd 07e7 fd3d
000002a0: df45 793d 63cc febd 5aad ee3d 347a 9c3d
000002b0: cd74 013e 83db f33d 92e9 0ebe 07bb a2bc
000002c0: 6e31 ddbd 4f07 0abd 9977 22bd a588 0c3e
000002d0: 2efa e73c 04a8 b63d 6ac5 183a 25c0 3cbd
000002e0: 45dd f33d f54b 7bbd 03b4 7abd e0cc afbc
000002f0: d58a e0bd 5813 143e 2f76 4abc 5ab7 d5bd
00000300: d541 723d dccb bbbd 28fd e1bd a875 ce3c
00000310: 83a2 0fbe 72ca 82bd 2b07 d2bd 52e0 52bd
00000320: 4eb6 bb3d dd4d bdbc b47f f1bc 2d62 e63d
00000330: dc28 cd3d 9180 4a3d 6af2 b8ba d231 01bb
00000340: f5dd fabd 7131 653d 6e41 193d 58e3 9e3d
00000350: 98c2 c6bd ddd4 cf3b ec86 993d 9287 af3c
00000360: 7de6 613d 588b 3f3b 209a da3d 66bc d53c
00000370: 3246 743b 2dcf bebd 300b 74bd 3600 9b3d
00000380: dd17 b33d 7578 353d 4556 413d 0e3d 61bd
00000390: 8028 643d bce2 08be 18d6 c33c f50b bc3c
000003a0: 35eb dbbd df51 dd3d 859b 143e f1dc 12bd
000003b0: b18e 11be 3a39 e8bd 1bc6 a7bc 958d bc3c
000003c0: 61e4 a1bd f08e 0d3e f319 02bd cd0f 1abb
000003d0: 2b43 5bbd 6d19 fbbc a65b bdbc 287b e1bd
000003e0: 61aa 67bd 015c f63d fd76 e23d 4155 043d
000003f0: c185 15be 5d5f 32ba 3c49 f63b 60d6 fdbd

down_blocks.2.conv2.bias f4 [16]
0.0009068174 0.00092198764 -0.0005684793 0.00068134937 0.00018356812 0.0010096931 -0.0005871048 0.00019047328
-0.0002561108 -0.000476284 0.00028466646 -0.0002740853 -0.00037695598 -0.0008454129 -0.0017032148 0.00083536224
00000000: 7cb7 6d3a 8bb1 713a 0006 15ba 959c 323a
00000010: 317c 4039 ae57 843a f0e7 19ba c8b9 4739
00000020: 9c46 86b9 c2b5 f9b9 493f 9539 1bb3 8fb9
00000030: 2da2 c5b9 b39e 5dba 683e dfba 36fc 5a3a

down_blocks.2.norm1.weight f4 [16]
0.99765253 1.0017312 0.9997027 1.0020863 0.9987339 0.9995767 0.99816424 0.99864906
0.9994672 1.0018775 0.99855185 1.0031434 0.9998978 1.000943 1.0004115 0.99939567
00000000: 2866 7f3f ba38 803f 84ec 7f3f 5d44 803f
00000010: 06ad 7f3f 42e4 7f3f b187 7f3f 77a7 7f3f
00000020: 15dd 7f3f 863d 803f 18a1 7f3f 0167 803f
00000030: 4df9 7f3f e61e 803f 7c0d 803f 65d8 7f3f

down_blocks.2.norm1.bias f4 [16]
0.00016368441 -0.0008071697 0.0006014687 -0.00033191714 0.000305692 -0.00031160176 0.0009451604 0.0003656084
0.0011159779 -0.00066027313 -0.00033228172 -0.0013484588 -0.0010701683 0.0004970709 0.0009570574 -0.00026569614
00000000: b3a2 2b39 3e98 53ba e2ab 1d3a 2a05 aeb9
00000010: 4945 a039 7b5e a3b9 a4c4 773a 21af bf39
00000020: 0146 923a 2e16 2dba 1936 aeb9 c5be b0ba
00000030: e444 8cba dd4d 023a 09e3 7a3a 224d 8bb9

down_blocks.2.norm1.running_mean f4 [16]
0.209131 0.23471004 0.03692066 0.490942 0.45483574 0.31754798 0.4366904 0.15319939
0.22985017 0.5895823 0.5160006 0.28693905 0.21446167 0.25557724 0.16656016 0.20398173
00000000: 7026 563e d457 703e 1e3a 173d c05c fb3e
00000010: 3be0 e83e a695 a23e e295 df3e 4de0 1c3e
00000020: d85d 6b3e deee 163f 9e18 043f ade9 923e
00000030: d79b 5b3e 05db 823e bf8e 2a3e 96e0 503e

down_blocks.2.norm1.running_var f4 [16]
0.2696762 0.20699187 0.03386298 0.37122583 0.3573156 0.5239547 1.0279415 0.2352986
0.23368478 0.46052405 1.0980777 0.6103797 0.21481752 0.3914094 0.21713834 0.23609608
00000000: 0013 8a3e adf5 533e e8b3 0a3d 5011 be3e
00000010: 12f2 b63e e521 063f 9693 833f 1ef2 703e
00000020: 104b 6f3e cfc9 eb3e cf8d 8c3f d841 1c3f
00000030: 20f9 5b3e d066 c83e 8359 5e3e 2cc3 713e

down_blocks.2.norm2.weight f4 [16]
0.99853075 0.9993231 0.99927366 1.0007263 1.0016514 0.9993908 0.9981674 1.0002317
0.99913627 1.0017374 0.99902475 1.0012478 1.0014547 0.999394 1.0005496 0.99979144
00000000: b69f 7f3f a4d3 7f3f 66d0 7f3f cd17 803f
00000010: 1d36 803f 13d8 7f3f e687 7f3f 9807 803f
00000020: 65c7 7f3f ee38 803f 16c0 7f3f e328 803f
00000030: ab2f 803f 49d8 7f3f 0212 803f 55f2 7f3f

down_blocks.2.norm2.bias f4 [16]
-0.0006902047 -0.00012525161 -0.0001890237 0.00017852115 -0.0007418179 -4.04324e-06 -0.00012613587 -4.0215356e-05
1.054147e-05 -0.00038117616 -1.736349e-06 0.0014288686 0.0007553463 0.00031943928 -0.00025571484 0.00037807616
00000000: daee 34ba f955 03b9 aa34 46b9 6831 3b39
00000010: 8e76 42ba 2bab 87b6 5743 04b9 e9ac 28b8
00000020: 45db 3037 99d8 c7b9 7f0c e9b5 e048 bb3a
00000030: 6f02 463a 6a7a a739 7711 86b9 8638 c639

down_blocks.2.norm2.running_mean f4 [16]
0.31980488 0.2623168 0.32693404 0.2943772 0.3284642 0.3086651 0.259972 0.37258548
0.35788634 0.36312392 0.28367347 0.2735088 0.363055 0.25606954 0.28679988 0.30727944
00000000: 77bd a33e 634e 863e e663 a73e 9cb8 963e
00000010: 762c a83e 5a09 9e3e 0d1b 853e 86c3 be3e
00000020: e13c b73e 61eb b93e a63d 913e 5809 8c3e
00000030: 58e2 b93e 8c1b 833e 6fd7 923e bb53 9d3e

down_blocks.2.norm2.running_var f4 [16]
0.16406892 0.23653966 0.26122385 0.3101819 0.19128364 0.41989145 0.13636827 0.378579
0.20527472 0.3083439 0.20862474 0.39451423 0.69501776 0.2577172 0.34353545 0.40986466
00000000: af01 283e 7437 723e 22bf 853e 29d0 9e3e
00000010: dcdf 433e 03fc d63e 20a4 0b3e 1bd5 c13e
00000020: 8933 523e 40df 9d3e b9a1 553e c5fd c93e
00000030: afec 313f 82f3 833e e1e3 af3e c8d9 d13e

down_blocks.3.conv1.weight f4 [32, 16, 3, 3]
0.09977202 -0.08015106 -0.051626384 0.018533094 0.077201165 0.07190634 -0.057053115 0.01553354
0.08808603 0.07916247 0.0516157 -0.077214055 0.01583444 0.062703796 -0.034570094 -0.07438533
0.07205907 0.036186278 -0.099316075 0.08526342 -0.04963492 -0.07305151 -0.011302286 -0.08979731
-0.050602462 -0.11008057 -0.020086274 -0.07574758 -0.084873065 0.0067271143 0.039389327 0.0071922494
0.10214808 0.09731602 -0.052830927 0.012284636 -0.046372693 0.09851325 -0.11417566 -0.09404421
-0.002409027 0.08389279 0.109887265 0.07910632 -0.042913154 -0.0018441299 -0.027287588 0.0387167
-0.111658245 0.05351522 -0.027716825 0.05091734 -0.0867689 -0.0007681548 -0.042115368 0.001656051
0.07477216 0.046234176 0.10577185 0.005465263 -0.038445525 -0.055302713 0.05318033 0.08409812
-0.001775472 -0.09049491 0.115732044 -0.065626666 0.09401391 0.03996324 -0.067568384 0.09159506
-0.06582428 -0.03115903 0.028452408 -0.028638378 -0.068840705 -0.017325878 -0.04347267 -0.07236203
0.10801723 0.11348222 -0.060923938 -0.047046892 -0.105658926 -0.0880997 0.11826455 -0.0061860634
0.039315037 -0.058018714 0.06334516 0.00616013 0.058112178 -0.043808922 -0.061725743 0.045952078
0.02323271 0.053721536 -0.009497554 -0.06785633 -0.077478215 0.032923322 0.10781839 0.022412036
-0.10570076 -0.068087846 -0.038952935 0.09719798 -0.072726406 -0.11346374 -0.09267475 -0.012455593
0.051957715 0.066264495 -0.010823719 -0.0025248807 0.10665665 -0.0060889185 -0.0075585996 -0.045171037
0.079603076 0.020869868 -0.027942643 0.03759947 0.020490117 -0.083257794 0.11181735 -0.11606126
-0.097828045 -0.11385314 0.09693576 0.094305776 -0.10316186 -0.052166156 0.085816845 0.0026548621
0.026045026 -0.08174807 -0.0031331917 -0.060136236 -0.0326353 -0.070452556 0.032158915 0.11348359
0.005115667 -0.0026657605 -0.09548939 -0.096269764 -0.08905462 0.09160311 0.079419136 -0.030663764
0.021845846 0.0037424976 0.08767213 -0.052437518 0.037609663 0.06047743 -0.052879956 0.04255777
0.058297783 0.08416399 0.0103264805 0.09897766 -0.0520951 0.011727713 -0.039279975 0.095928766
0.043780345 0.10241977 -0.11616207 0.089003876 0.078882545 -0.09064485 -0.04725655 -0.113823146
-0.02160025 -0.07604043 0.04684274 0.016526608 -0.070156984 0.0452704 0.0131072495 0.03804917
0.0034095808 0.07039664 -0.04872225 0.029605368 0.057458717 -0.06790829 0.06723086 -0.021467973
0.06321613 0.06469527 -0.0388413 0.109977916 -0.11056479 -0.04719632 -0.03485679 0.068251476
0.109308586 -0.10813339 0.09946362 -0.016014265 0.069505036 0.07026774 -0.103338934 0.08955534
-0.09508818 -0.0059355935 0.015690338 0.031163175 -0.04026567 -0.061508074 -0.047422916 -0.07536376
0.061959032 0.04582943 0.067920364 0.111764975 -0.038548183 -0.022669863 -0.03040096 -0.114036486
0.002723413 0.061965927 0.06361251 -0.0061617424 -0.08351047 -0.04316613 0.00013059145 0.115579106
0.07324385 0.049681604 -0.087937124 -0.088643916 -0.114128895 -0.055610012 -0.01031125 -0.032496944
-0.005960786 0.002689322 0.08043776 -0.08603033 0.06359749 -0.09661085 0.05120774 -0.0632473
-0.047491815 0.1061174 0.021439428 -0.0967315 0.059115354 0.05922535 -0.061114572 0.01169023
00000000: 4655 cc3d 3d26 a4bd 3076 53bd b7d2 973c
00000010: a51b 9e3d a243 933d 87b0 69bd 6480 7e3c
00000020: 7366 b43d ef1f a23d fc6a 533d 6722 9ebd
00000030: 3ab7 813c d96a 803d 5f99 0dbd 5657 98bd
00000040: b593 933d 1038 143d 3a66 cbbd 979e ae3d
00000050: fc4d 4bbd 089c 95bd 392d 39bc a7e7 b7bd
00000060: 8744 4fbd ec71 e1bd f88b a4bc 8c21 9bbd
00000070: eed1 adbd 206f dc3b b456 213d f6ac eb3b
00000080: 0333 d13d 9f4d c73d 3e65 58bd 7f45 493c
00000090: 4bf1 3dbd 51c1 c93d eed4 e9bd 409a c0bd
000000a0: c4e0 1dbb fccf ab3d 930c e13d 7f02 a23d
000000b0: b4c5 2fbd bbb6 f1ba 388a dfbc 6795 1e3d
000000c0: 14ad e4bd c632 5b3d 650e e3bc b38e 503d
000000d0: e5b3 b1bd ff5d 49ba 2a81 2cbd da0f d93a
000000e0: 2522 993d 0c60 3d3d e99e d83d f315 b33b
000000f0: 0e79 1dbd 1985 62bd 9ed3 593d a33b ac3d
00000100: f4b6 e8ba 6555 b9bd ec04 ed3d 4667 86bd
00000110: 5d8a c03d 7fb0 233d 4b61 8abd 3196 bb3d
00000120: e1ce 86bd 3941 ffbc 0615 e93c 089b eabc
00000130: 5bfc 8cbd 00ef 8dbc 6610 32bd 8b32 94bd
00000140: 2338 dd3d 5e69 e83d 618b 79bd 3eb4 40bd
00000150: b563 d8bd 9e6d b4bd af34 f23d 76b4 cabb
00000160: ce08 213d 08a5 6dbd 1bbb 813d eada c93b
00000170: 0907 6e3d fc70 33bd 22d4 7cbd 3f38 3c3d
00000180: 8652 be3c 1d0b 5c3d a19b 1bbc 42f8 8abd
00000190: e6ac 9ebd 9bda 063d e3cf dc3d 7299 b73c
000001a0: a479 d8bd a471 8bbd 1d8d 1fbd bc0f c73d
000001b0: 95f1 94bd ad5f e8bd 42cc bdbd 8b12 4cbc
000001c0: 9dd1 543d aeb5 873d f855 31bc 7878 25bb
000001d0: cd6e da3d 8d85 c7bb 21ae f7bb 4405 39bd
000001e0: f006 a33d 49f7 aa3c f8e7 e4bc e701 1a3d
000001f0: e4da a73c 1083 aabd 7f00 e53d 87b1 edbd
00000200: 125a c8bd d62b e9bd 4186 c63d 6323 c13d
00000210: 8646 d3bd 2eac 55bd bec0 af3d 32fd 2d3b
00000220: 615c d53c 886b a7bd 3c56 4dbb 6a51 76bd
00000230: 98ac 05bd 6e49 90bd 11b9 033d 166a e83d
00000240: 53a1 a73b 0ab4 2ebb f18f c3bd 1529 c5bd
00000250: 4562 b6bd 699a bb3d 80a6 a23d 9332 fbbc
00000260: 0ff6 b23c b144 753b 728d b33d b9c8 56bd
00000270: 970c 1a3d 2eb7 773d a798 58bd 0e51 2e3d
00000280: a8c9 6e3d 2c5e ac3d 6630 293c cdb4 ca3d
00000290: ac61 55bd 9825 403c 0ae4 20bd 4d76 c43d
000002a0: 0553 333d 75c1 d13d 61e6 edbd aa47 b63d
000002b0: 2c8d a13d 02a4 b9bd 1690 41bd 1c1c e9bd
000002c0: 02f3 b0bc 16bb 9bbd 2cde 3f3d cf62 873c
000002d0: 77ae 8fbd 746d 393d cabf 563c 72d9 1b3d
000002e0: 4673 5f3b 1d2c 903d fb90 47bd f586 f23c
000002f0: d559 6b3d 8013 8bbd 55b0 893d 9add afbc
00000300: 7577 813d f47e 843d 0e18 1fbd 1a3c e13d
00000310: cb6f e2bd ee50 41bd fec5 0ebd 6ec7 8b3d
00000320: 2edd df3d 0a75 ddbd 95b3 cb3d 5930 83bc
00000330: a858 8e3d 88e8 8f3d 5da3 d3bd ca68 b73d
00000340: 97bd c2bd 5e7f c2bb 0689 803c ea49 ff3c
00000350: 9ded 24bd e4ef 7bbd 883e 42bd 5158 9abd
00000360: c1c8 7d3d a4b7 3b3d d519 8b3d 09e5 e43d
00000370: b3e4 1dbd 26b6 b9bc 6f0b f9bc f68b e9bd
00000380: 4a7b 323b fccf 7d3d 4747 823d 71e8 c9bb
00000390: 8a07 abbd f8ce 30bd 60ef 0839 bdb4 ec3d
000003a0: df00 963d f07e 4b3d 6118 b4bd f18a b5bd
000003b0: 69bc e9bd 53c7 63bd 84f0 28bc 841b 05bd
000003c0: b252 c3bb 563f 303b 8dbc a43d ab30 b0bd
000003d0: 673f 823d e9db c5bd 35bf 513d cd87 81bd
000003e0: c786 42bd 1454 d93d bda1 af3c 2a1b c6bd
000003f0: f122 723d 4896 723d 4653 7abd 6188 3f3c

down_blocks.3.conv1.bias f4 [32]
0.0001425981 -1.6669874e-05 -0.00012776053 -0.00027964977 -0.00014948827 2.1602918e-05 6.835566e-05 -7.410643e-05
-1.7575745e-05 -0.00022960805 0.0001270829 -0.0003047934 0.00012732955 0.0002835722 -0.00010165635 6.054811e-05
0.00016261694 6.0241677e-05 -4.0606683e-05 7.606136e-05 2.1746946e-05 0.00027578647 -3.6527683e-05 -2.0733738e-05
-0.00048763322 -0.00022494678 1.0188124e-05 -0.00029031516 -0.00041929728 -0.00039907094 0.00021545931 -0.00035890407
00000000: 6386 1539 48d6 8bb7 75f7 05b9 f59d 92b9
00000010: f4bf 1cb9 ea37 b537 2a5a 8f38 9669 9bb8
00000020: a06f 93b7 f1c2 70b9 8e41 0539 adcc 9fb9
00000030: c483 0539 6bac 9439 5630 d5b8 0af5 7d38
00000040: 2784 2a39 02ac 7c38 1851 2ab8 2283 9f38
00000050: 366d b637 6f97 9039 4d35 19b8 5ded adb7
00000060: 06a9 ffb9 b1df 6bb9 a9ed 2a37 7135 98b9
00000070: 21d5 dbb9 653a d1b9 ebec 6139 4a2b bcb9
