Models/123456789_bands_normalized_classweight_1_100_10.pt (torch, 167363 bytes, 110 tensors)

conv_final.weight f4 [3, 4, 1, 1]
0	0x3f511cde	0.8168467
1	0xbf62db83	-0.886162
2	0xbf3f0493	-0.74616355
3	0x3f0ff1ee	0.5622853
4	0xbd826890	-0.063676
5	0x3eb82330	0.35964346
6	0x3ed25bde	0.41085714
7	0xbf1987f0	-0.5997305
8	0xbf1302fa	-0.57426417
9	0x3ee3a6bc	0.44463146
10	0x3f1b99aa	0.6078135
11	0x3f21db73	0.6322548

conv_final.bias f4 [3]
0	0x3ed8d470	0.42349577
1	0x3e2e7d13	0.170399
2	0xbf180977	-0.5938944

down_blocks.0.conv1.weight f4 [4, 9, 3, 3]
0	0xbc81745b	-0.015802553
1	0xbcdec73a	-0.027194608
2	0xbda3c2bd	-0.07996128
3	0x3e6cfa34	0.2314232
4	0x3e3595cf	0.17732929
5	0x3d4192b5	0.04725905
6	0x3a0b3024	0.0005309603
7	0xbe1c654f	-0.15273021
8	0x3c94b305	0.01815177
9	0x3e672182	0.22571376
10	0xbdb2805c	-0.08715889
11	0xbe1bfaa9	-0.15232338
12	0xbd277007	-0.040878322
13	0xbe93c8c2	-0.28864104
14	0x3caaf365	0.020868013
15	0xbe5859c8	-0.21127999
16	0xbe04aeea	-0.1295735
17	0xbe57c4e9	-0.21071209
18	0x3d05da9c	0.032679185
19	0x3d821112	0.06350912
20	0xbcb318a4	-0.021862336
21	0xbe11f08f	-0.14251922
22	0xbe7a5880	-0.24447823
23	0xbcaae234	-0.020859815
24	0x3d8b89b7	0.068133764
25	0x3d14ed7a	0.036359288
26	0xbd153772	-0.03642983
27	0xbe890cc3	-0.2676755
28	0xbe99014d	-0.29883805
29	0xbe3d5b53	-0.18491869
30	0xb947fac0	-0.0001907153
31	0x3c90565b	0.017619302
32	0x3d8f05b7	0.06983512
33	0xbdfa43c5	-0.12219957
34	0x3ce3b5ad	0.02779659
35	0xbd53bbd3	-0.051692795
36	0x3e70af07	0.23504268
37	0x3d9cf0bd	0.07663105
38	0x3ea21aa0	0.31660938
39	0xbd917b71	-0.07103623
40	0x3e9b6e1a	0.30357438
41	0x3c6efd99	0.01458683
42	0x3de129d8	0.10994309
43	0x3e3b4a98	0.18290174
44	0x3e8a9218	0.27064586
45	0xbd64d110	-0.05586344
46	0xbd177042	-0.03697229
47	0x3dfe00ee	0.12402521
48	0xbe0aa3a4	-0.13538986
49	0x3de869c7	0.113483004
50	0xbdee3aa7	-0.11632281
51	0x3da63a0f	0.081165425
52	0x3e066af7	0.13126741
53	0xbdbbde30	-0.09173238
54	0x3c8fb8d5	0.01754419
55	0x3e7c7e46	0.24657544
56	0x3df95eb4	0.12176266
57	0x3dcce6df	0.10004973
58	0xbbb17e66	-0.005416679
59	0xbe124670	-0.14284682
60	0xbdfed2b8	-0.12442535
61	0xbda5aa4d	-0.08089123
62	0xbda45c4a	-0.08025415
63	0x3c8021e6	0.015641164
64	0xbdba3016	-0.09091203
65	0x3dd2cc55	0.102928795
66	0x3e032099	0.12805404
67	0xbe1c7d10	-0.15282083
68	0x3dcb0738	0.09913486
69	0xbe29b85f	-0.16574238
70	0x3de71df7	0.11285012
71	0xbdb90f2c	-0.09036097
72	0xbbb929ae	-0.0056507206
73	0xbd1e957a	-0.03871677
74	0xbe8ad763	-0.27117452
75	0xbd60716a	-0.05479566
76	0xbd8dd717	-0.06925791
77	0x3c6b5876	0.014364352
78	0xbc804789	-0.01565911
79	0x3ce49331	0.027902218
80	0xbe532168	-0.20618212
81	0xbe0fe0c6	-0.14050588
82	0x3da3f8d0	0.080064416
83	0x3e394fb8	0.18096817
84	0xbc80367e	-0.015650984
85	0x3e5aae4c	0.21355551
86	0xbe53d5e4	-0.20687062
87	0x3e3c57cd	0.18392868
88	0xbe88024a	-0.26564246
89	0xbe34d4d8	-0.17659318
90	0xbe52c7e8	-0.2058407
91	0x3e03c882	0.12869456
92	0xbd577da7	-0.052610066
93	0xbdfcfdad	-0.12353072
94	0xbd8d067a	-0.06886001
95	0x3e02eff7	0.12786852
96	0x3db155a7	0.08658915
97	0xbe864bf5	-0.26229826
98	0xbdbb2267	-0.09137421
99	0xbe459c86	-0.1929799
100	0xbdc4e5b4	-0.09614125
101	0x3b9bd2f6	0.004755373
102	0x3d066a8e	0.032816462
103	0xbd2778a3	-0.040886533
104	0xbe29cca6	-0.16581973
105	0x3e016221	0.1263509
106	0xbde546f9	-0.111951776
107	0xbe23a803	-0.1598206
108	0x3e611176	0.21979317
109	0x3e199ad9	0.15000476
110	0xbe1ad22d	-0.15119238
111	0xbe08dcd7	-0.13365494
112	0x3da81626	0.082073495
113	0xbe123b32	-0.14280394
114	0xbcb880cf	-0.022522358
115	0x3d97d7f6	0.07414238
116	0xbd3e5a06	-0.04647257
117	0x3e087ea3	0.13329558
118	0xbdae72f7	-0.085180216
119	0x3ce34897	0.027744574
120	0xbdc55ac1	-0.096364506
121	0x3c8704e2	0.01648182
122	0xbe131949	-0.14365114
123	0xbd187f14	-0.037230566
124	0x3ca1ec12	0.019765887
125	0x3cf61eb8	0.030043945
126	0xbe102a9c	-0.14078754
127	0x3e35c66d	0.17751475
128	0xbdf57b3b	-0.11986395
129	0xbc650361	-0.013977856
130	0x3e5f6279	0.21814908
131	0xbe24c5e0	-0.16091108
132	0xbdd4c2ce	-0.103887185
133	0xbdb8e22e	-0.09027515
134	0x3dd62d30	0.104578376
135	0xbe117c16	-0.14207491
136	0xbdb855d9	-0.09000749
137	0x3de7666c	0.11298832
138	0xbccf29fe	-0.025288578
139	0xbd761f5c	-0.0600885
140	0xbdbf6499	-0.09345359
141	0x3e3f50a4	0.18683106
142	0xbe4df73f	-0.20113848
143	0x3e08acbe	0.13347146
144	0xbe02deb5	-0.12780268
145	0x3e1ba898	0.15201032
146	0x3e4290f4	0.19000608
147	0x3e446911	0.19180705
148	0xbdda6872	-0.106644526
149	0x3d94d4b0	0.072671294
150	0x3e01666e	0.1263673
151	0x3dc25595	0.0948898
152	0xbdc71bb5	-0.097220816
153	0x3c9955ba	0.018717635
154	0x3d30faa9	0.0432078
155	0xbe2f8196	-0.17139277
156	0x3cff703b	0.031181445
157	0xbdd95b43	-0.1061311
158	0xbe2c2879	-0.16812314
159	0xbd972ab9	-0.073811956
160	0x3de014bb	0.10941454
161	0x39d6a61a	0.00040941016
162	0xbcb1bbea	-0.02169605
163	0x3e175850	0.14779782
164	0x3e5d0edf	0.21587704
165	0xbe5b5a4e	-0.21421167
166	0xbddd801c	-0.108154505
167	0xbd2ac5db	-0.041692596
168	0x3d899086	0.06717019
169	0x3cfa8e3a	0.030585397
170	0x3e0e4bf0	0.13896155
171	0x3e4358e4	0.19076878
172	0x3d770c39	0.06031439
173	0xbcf9d078	-0.030494913
174	0xbcbffc43	-0.023435717
175	0xbe3dcd0b	-0.18535249
176	0x3d2afd95	0.04174574
177	0x3e2679ff	0.16257475
178	0x3e3e5315	0.18586381
179	0x3d312948	0.04325226
180	0xbd24f908	-0.040276557
181	0xbd15e296	-0.036593042
182	0x3d88442b	0.06653627
183	0xbcb304ae	-0.021852817
184	0xbd914fa9	-0.07095272
185	0x3d2a3f25	0.041564126
186	0x3e1dae38	0.1539849
187	0xbe424685	-0.18972214
188	0xbe6e6eac	-0.23284405
189	0xbd3e9a17	-0.04653367
190	0xbd10dcc5	-0.035366792
191	0x3e039d40	0.12852955
192	0xbe71f20e	-0.23627493
193	0xbcac54f9	-0.021036612
194	0x3e060bb5	0.13090403
195	0x3dce7ef1	0.10082806
196	0xbd832e7f	-0.06405353
197	0xbe7a6b0e	-0.244549
198	0x3e2fb3ef	0.17158483
199	0x3e2bf40d	0.16792317
200	0xbe4c67cb	-0.19961469
201	0x3e2e052c	0.1699416
202	0x3cf5b610	0.02999404
203	0x3dcf3ff5	0.10119621
204	0x3e138172	0.14404848
205	0x3e56fc17	0.20994602
206	0x3d6a38c9	0.05718306
207	0x3d2afa31	0.041742507
208	0xbe162758	-0.14663446
209	0xbdde0406	-0.10840611
210	0x3e689e01	0.22716524
211	0xbe368a0f	-0.17826103
212	0xbe2401d4	-0.16016322
213	0xbe1889f3	-0.14896373
214	0x3de5fbd1	0.11229671
215	0x3dc014f4	0.093789965
216	0x3c7e1be8	0.015509583
217	0xbbfbc8dd	-0.007683857
218	0x3e014885	0.1262532
219	0x3e2101c9	0.15723337
220	0xbe2722cd	-0.16321869
221	0x3dbdc60c	0.0926629
222	0xbe265560	-0.16243505
223	0x3dd3c2be	0.103398785
224	0xbe20f59d	-0.15718694
225	0xbce18be0	-0.027532518
226	0x3e110949	0.14163698
227	0x3e1c6b87	0.15275393
228	0x3df7742c	0.12082705
229	0x3cfd4cec	0.030920468
230	0x3dd26be0	0.10274482
231	0xbe1321ac	-0.14368314
232	0x3df768d1	0.12080539
233	0xbd3fa8ae	-0.046791725
234	0xbe1b52fa	-0.15168372
235	0x3e2881ae	0.16455719
236	0x3d69f777	0.057120766
237	0xbc572568	-0.013131477
238	0x3d188bde	0.037242763
239	0x3dc481bd	0.09595058
240	0x3de88b06	0.113546416
241	0xbd901bc9	-0.070365496
242	0xbdc7279c	-0.09724352
243	0xbd840d86	-0.06447892
244	0x3d78a430	0.060703456
245	0x3d3d3937	0.046197142
246	0x3d297f77	0.041381326
247	0x3e26a8b1	0.16275288
248	0xbd7d2e5b	-0.061811786
249	0x3df7d63e	0.1210141
250	0x3e3e669d	0.18593831
251	0xbd4754a4	-0.048664704
252	0x3e24eea3	0.16106658
253	0x3e47c277	0.19507776
254	0x3c899484	0.01679445
255	0xbce5b35b	-0.028039625

down_blocks.0.conv1.bias f4 [4]
0	0x3dd60d45	0.1045175
1	0xbcd7db3c	-0.026349656
2	0xbbd77128	-0.0065747686
3	0xbb997e65	-0.004684257

down_blocks.0.conv2.weight f4 [4, 4, 3, 3]
0	0xbddc12b3	-0.10745754
1	0x3e001b55	0.12510426
2	0x3da04d6b	0.07827266
3	0x3d704507	0.05865958
4	0x3e2955e8	0.16536677
5	0x3e549c30	0.20762706
6	0x3dcc15c8	0.09965092
7	0xbc515b0a	-0.012778053
8	0x3e597dee	0.21239445
9	0xbdcfde69	-0.10149843
10	0xbe69381d	-0.22775312
11	0xbd1da09a	-0.03848324
12	0x3e17c797	0.14822231
13	0xbe04efbb	-0.12982075
14	0xbe1fc56c	-0.15602654
15	0xbe23c15b	-0.15991728
16	0x3e89d275	0.26918378
17	0xbe11e74e	-0.14248392
18	0x3d36672b	0.044531982
19	0xbdc82d26	-0.097742364
20	0xbe519e1b	-0.20470469
21	0xbe624344	-0.22095972
22	0xbbe1b953	-0.0068885474
23	0x3e318648	0.1733638
24	0xbdf1772f	-0.117903106
25	0xbe632faa	-0.22186151
26	0x3e86e44d	0.26346055
27	0x3d764af3	0.06013007
28	0x3e8087ff	0.25103757
29	0x3e6cb34d	0.23115273
30	0xbcb365ab	-0.021899065
31	0xbc7e6052	-0.015525894
32	0x3e4ccc75	0.19999869
33	0x3d2a70ab	0.041611355
34	0x3e1c8cbf	0.15288065
35	0x3e809666	0.25114745
36	0xbe902856	-0.28155774
37	0xbe86b77f	-0.2631187
38	0xbe697445	-0.2279826
39	0xbd37eb2f	-0.044902023
40	0x3e660a58	0.22464883
41	0x3e84c727	0.2593319
42	0x3df49b65	0.11943702
43	0x3d85a660	0.06525874
44	0x3e80558e	0.25065273
45	0x3e87f163	0.2655135
46	0xbc6ef455	-0.0145846205
47	0x3d081edb	0.03323255
48	0xbe0f3514	-0.13985091
49	0xbe3283c0	-0.17433071
50	0x3da047c9	0.07826192
51	0xbd950822	-0.07276942
52	0x3e20506b	0.15655677
53	0x3dd43fe6	0.1036375
54	0xbdffc91f	-0.12489533
55	0x3e8611d4	0.26185477
56	0xbe5757a4	-0.21029526
57	0xbc2d02ea	-0.010559777
58	0xbde8ad3c	-0.11361167
59	0xbda87c27	-0.08226805
60	0xbd97dc13	-0.07415023
61	0xbddcea73	-0.10786905
62	0x3d54af32	0.05192489
63	0xbc2c3f2c	-0.010513108
64	0xbe6795cc	-0.22615737
65	0x3e110ad7	0.14164291
66	0xbd6b90b2	-0.05751104
67	0xbe2a8834	-0.1665352
68	0x3e39bb9c	0.18137974
69	0xbdd864cb	-0.105661
70	0x3e08de09	0.1336595
71	0xbe6e8aac	-0.23295087
72	0xbebfe44e	-0.3747887
73	0xbe56a3c5	-0.2096091
74	0x3e32dabc	0.17466253
75	0xbe6d7bca	-0.23191753
76	0xbe981bb8	-0.29708648
77	0x3e36f913	0.17868452
78	0xbe938b72	-0.28817326
79	0x3e47b6f8	0.19503391
80	0xbe4a0eae	-0.19732162
81	0xbe271bea	-0.16319242
82	0x3d817658	0.063214004
83	0x3e46e18f	0.19421981
84	0x3e99b869	0.30023506
85	0xbdf5239a	-0.11969681
86	0xbe33148c	-0.17488307
87	0xbe46a5c4	-0.19399172
88	0x3bac50e1	0.005258665
89	0xbe7e4391	-0.24830462
90	0x3d876985	0.06611923
91	0x3e040e01	0.12895967
92	0xbe0dfc5e	-0.13865802
93	0x3d5292db	0.051409584
94	0xbe1d9eb9	-0.15392579
95	0xbd3d5c0e	-0.04623037
96	0xbdc90bc5	-0.09816698
97	0xbe179464	-0.148027
98	0x3dbd526f	0.092442386
99	0x3da9e3c2	0.082953945
100	0xba855e12	-0.001017513
101	0xbdcb33b5	-0.09921972
102	0xbdfbaa9c	-0.122884005
103	0xbe2bad58	-0.16765344
104	0x3e3e17c4	0.18563753
105	0x3e10cebc	0.14141363
106	0xbdf7cafb	-0.12099262
107	0xbe334bff	-0.17509459
108	0xbd659cbd	-0.05605768
109	0x3db56d00	0.08858681
110	0xbd1b0f67	-0.037856486
111	0x3e49acd5	0.19694836
112	0x3dd59d30	0.10430372
113	0x3e2d970c	0.16952151
114	0xbdebf1bf	-0.11520719
115	0xbc3e6f3b	-0.011623199
116	0x3e2ff465	0.17183073
117	0xbdcbfc0e	-0.09960185
118	0xbd64702d	-0.05577104
119	0xbe21f694	-0.15816718
120	0xbe8ac2dd	-0.27101794
121	0xbe4b7eab	-0.19872539
122	0xbe965afa	-0.29366285
123	0xbd5c71fe	-0.05381965
124	0xbe566e92	-0.20940617
125	0xbe931aa3	-0.2873126
126	0xbd4993e3	-0.0492133
127	0x3da691f4	0.08133307
128	0xbe92ee87	-0.28697607
129	0xbd3ae5ba	-0.04562924
130	0x3e0ac869	0.13553013
131	0xbd06e77e	-0.032935612
132	0xbd8e84dc	-0.06958935
133	0x3b21030d	0.0024568469
134	0xbe71f01d	-0.23626752
135	0x3d5038bc	0.050835356
136	0xbe272af2	-0.16324976
137	0x3dfd2448	0.12360436
138	0x3d8d2c79	0.06893248
139	0xbd83a6bb	-0.06428286
140	0x3c089ba8	0.008337893
141	0xbe037232	-0.12836531
142	0x3d87ec42	0.066368595
143	0xbe424937	-0.18973242

down_blocks.0.conv2.bias f4 [4]
0	0x3cee3ac4	0.029080756
1	0x3c9b1bb2	0.018934105
2	0xbe1ac953	-0.15115862
3	0x3d329b31	0.043605033

down_blocks.0.norm1.weight f4 [4]
0	0x3f831067	1.0239381
1	0x3f8625a1	1.0480233
2	0x3f77a835	0.9674104
3	0x3f6e1148	0.9299512

down_blocks.0.norm1.bias f4 [4]
0	0x3e326eaf	0.17425035
1	0x3c6a5efe	0.014304874
2	0x3ca76f1f	0.020438729
3	0x3d7337de	0.05937945

down_blocks.0.norm1.running_mean f4 [4]
0	0x3f78ed29	0.9723688
1	0x3c91a33b	0.01777803
2	0x3a491b50	0.00076716114
3	0x3b89a3ee	0.00420045

down_blocks.0.norm1.running_var f4 [4]
0	0x3e15280a	0.14566055
1	0x3d7e828b	0.062136214
2	0x3a9732e8	0.0011535557
3	0x3b4e956d	0.003152217

down_blocks.0.norm2.weight f4 [4]
0	0x3f7ced37	0.9879946
1	0x3f88c67e	1.0685575
2	0x3f8770c3	1.0581287
3	0x3f8d0b49	1.1019069

down_blocks.0.norm2.bias f4 [4]
0	0x3cf20847	0.029544963
1	0x3cdccc14	0.02695278
2	0x3d8f668f	0.070019834
3	0xbd9a6352	-0.07538475

down_blocks.0.norm2.running_mean f4 [4]
0	0x3eca76b6	0.39543694
1	0x3dfc2ea5	0.12313584
2	0x3e3af217	0.18256412
3	0x3e8de3e3	0.27712926

down_blocks.0.norm2.running_var f4 [4]
0	0x3ef1d78c	0.47234762
1	0x3e305a9c	0.17222065
2	0x3ecf5c1e	0.40499967
3	0x3d7ba7b4	0.06143923

down_blocks.1.conv1.weight f4 [8, 4, 3, 3]
0	0x3d587b2b	0.052851837
1	0x3ddc35ca	0.10752447
2	0xbe250386	-0.16114625
3	0xbe2fc112	-0.17163494
4	0x3d764035	0.060119826
5	0xbd4b5551	-0.04964191
6	0xbcd6cbd5	-0.026220242
7	0xbe5fdd7d	-0.21861835
8	0x3dd2087b	0.10255524
9	0xbe0bd9ed	-0.13657351
10	0x3ccaf7b1	0.024776312
11	0xbe4e47cb	-0.20144574
12	0xbe5803d0	-0.21095204
13	0x3e48a817	0.19595371
14	0x3d87abb3	0.06624546
15	0x3e0512f1	0.12995507
16	0x3e181fa7	0.14855824
17	0x3ca35bd6	0.019941252
18	0xbdbe3d4d	-0.09289036
19	0x3d75ebb0	0.060039222
20	0x3d359878	0.04433486
21	0x3c946a71	0.018117161
22	0x3d9b18dd	0.07573102
23	0x3e039c35	0.12852557
24	0xbe5665c9	-0.20937265
25	0xbe4a763c	-0.19771665
26	0x3db250e2	0.087068334
27	0x3e3fd652	0.187341
28	0x3dfb1e75	0.122616686
29	0xbc274165	-0.010208462
30	0xbd35d06b	-0.044388216
31	0x3e302792	0.17202595
32	0xbe6b8d2f	-0.23003076
33	0xbdb25873	-0.087082766
34	0xbc893c37	-0.016752345
35	0x3dbffcca	0.093743876
36	0x3d805639	0.06266446
37	0x3da620fe	0.081117615
38	0x3d594453	0.053043675
39	0x3c90402e	0.017608728
40	0xbc720893	-0.014772552
41	0x3d235e3a	0.039884783
42	0x3e2a82c0	0.1665144
43	0xbdb63d36	-0.08898394
44	0x3c7844ed	0.015153152
45	0x3cf82156	0.030289333
46	0xbdfcf5e7	-0.1235159
47	0xbd8c38de	-0.06846784
48	0x3d6c2248	0.05764988
49	0x3adb196c	0.001671595
50	0xbe2f52ec	-0.17121476
51	0xbc448943	-0.011995616
52	0xbdca772b	-0.09886011
53	0xbe3bbe1f	-0.18334244
54	0xbd0ed839	-0.034874175
55	0xbe48a718	-0.19594991
56	0xbda07904	-0.07835582
57	0x3deb8e69	0.11501772
58	0xbdb0ca4a	-0.086323336
59	0x3e29e0bf	0.1658964
60	0x3e503da3	0.20336013
61	0x3e673b49	0.22581209
62	0x3e29030e	0.16505072
63	0x3dd0ec0a	0.10201271
64	0xbda73fb7	-0.081664495
65	0xbe06fc4b	-0.1318218
66	0x3e30e98e	0.17276594
67	0x3e00687f	0.12539862
68	0xbe3be257	-0.1834806
69	0xbe05ad40	-0.13054371
70	0xbdce6b9a	-0.10079117
71	0xbd577f69	-0.052611742
72	0xbd7b3771	-0.06133217
73	0xbe3e9260	-0.18610525
74	0xbe1827ba	-0.14858904
75	0xbe3f310b	-0.18671052
76	0x3e204f3b	0.15655224
77	0x3d886306	0.06659512
78	0x3de23858	0.11045903
79	0xbdec17eb	-0.115279995
80	0x3e20f547	0.15718566
81	0xbce490fe	-0.027901169
82	0xbe0e28f2	-0.13882807
83	0x3caf0595	0.021364966
84	0x3de3e519	0.11127681
85	0xbe534e21	-0.20635273
86	0xbe2c997a	-0.16855422
87	0xbc3b35a8	-0.011426367
88	0x3e5ccdd5	0.21562894
89	0xbd152d6d	-0.036420275
90	0x3e62994a	0.22128788
91	0x3e8571a2	0.26063257
92	0x3dfc9ec3	0.12334969
93	0x3d8e8ee4	0.06960848
94	0xbe0a810d	-0.13525791
95	0x3e0ec1b1	0.13941075
96	0x3a4640ad	0.0007562738
97	0x3d76beca	0.060240544
98	0xbe364aac	-0.17801923
99	0x3d512019	0.051056
100	0xbe61d398	-0.22053373
101	0x3dca2897	0.09871023
102	0xbe0ffc06	-0.14060983
103	0xbd47b291	-0.04875428
104	0xbe565a51	-0.2093289
105	0xbaba1bc0	-0.0014198944
106	0x3d85125c	0.064976424
107	0xbe3f1c2f	-0.18663095
108	0xbd9c04ff	-0.076181404
109	0x3d09fdbc	0.033689246
110	0x3de18fea	0.110137776
111	0xbda5c9b5	-0.08095113
112	0x3da2416f	0.07922637
113	0x3e689c8d	0.2271597
114	0x3e06a0df	0.13147305
115	0xbe06b38d	-0.1315443
116	0x3ceb3101	0.02870989
117	0x3e4c9d9a	0.19981995
118	0x3e2d1041	0.16900732
119	0x3e238186	0.15967378
120	0x3da5b0fa	0.08090396
121	0x3e081129	0.13287796
122	0x3cc05bc2	0.023481254
123	0x3db7907d	0.08963106
124	0xbda721ad	-0.0816072
125	0x3dd62e1b	0.10458013
126	0x3e4fc365	0.20289381
127	0x3e1f99dd	0.15586038
128	0x3e4f2251	0.20227934
129	0xbe213e4f	-0.15746425
130	0x3cbc7f3c	0.023009889
131	0xbdb43632	-0.087993994
132	0x3d8628c3	0.065507434
133	0x3d951bfe	0.0728073
134	0x3c896f31	0.016776653
135	0xbe19807e	-0.14990422
136	0x3e50f394	0.20405418
137	0x3d3615fe	0.044454567
138	0xbdd2efbe	-0.102996334
139	0xbe1579e2	-0.14597276
140	0x3e045e12	0.1292651
141	0xbdba3c2a	-0.09093507
142	0x3e22e70d	0.15908451
143	0x3da8a43b	0.082344495
144	0xbdb64833	-0.0890049
145	0xbd8f8e52	-0.07009567
146	0x3d1167da	0.03549943
147	0x3dc084a6	0.09400301
148	0x3e543aa0	0.20725489
149	0xbdfd1b53	-0.12358727
150	0x3e417b2d	0.18894644
151	0xbe72a333	-0.23695068
152	0x3e46c570	0.19411254
153	0xbde47cad	-0.111565925
154	0xbe41531a	-0.18879357
155	0xbd835a92	-0.06413759
156	0xbe336875	-0.17520316
157	0xbe68d118	-0.22736013
158	0x3e2f3a3b	0.17112057
159	0x3e3c9e86	0.18419847
160	0x3ba19be6	0.0049319146
161	0xbd0ef934	-0.034905627
162	0xbe6333e4	-0.22187763
163	0x3dd182f8	0.102300584
164	0x3dda5fb7	0.106627874
165	0x3d8fc474	0.07019892
166	0xbe25c968	-0.16190112
167	0x3db1068a	0.08643825
168	0x3c8de8b7	0.017322881
169	0x3e19573e	0.14974687
170	0xbcf7e9ce	-0.030262854
171	0xbe2f1725	-0.17098673
172	0xbdf11dd1	-0.11773265
173	0xbd918cec	-0.07106957
174	0xbd2bb69c	-0.041922197
175	0x3dfb29c6	0.12263827
176	0xbe4bea83	-0.19913678
177	0xbe74ebf1	-0.2391813
178	0xbe0d1cdf	-0.13780545
179	0xbe50def3	-0.20397548
180	0x3d9d36fd	0.07676504
181	0x3bcc523a	0.006235388
182	0xbd93b3dd	-0.072120406
183	0x3e4996b1	0.1968639
184	0x3e5d4eed	0.21612139
185	0x3c947a8e	0.018124845
186	0x3e6d4b30	0.23173213
187	0xbdd26008	-0.10272223
188	0xbe56576c	-0.20931786
189	0xbe1ebc08	-0.15501416
190	0xbde70bc9	-0.11281545
191	0xbdfee1e2	-0.124454275
192	0x3b90cf28	0.004419226
193	0xbdf60669	-0.120129414
194	0x3cf31561	0.02967328
195	0x3dfff7bd	0.12498424
196	0xbe59d6ba	-0.21273318
197	0x3daea38a	0.08527286
198	0xbda7dd88	-0.081965506
199	0xbe693dd7	-0.22777496
200	0x3dbbf79e	0.091780886
201	0xbe530713	-0.20608167
202	0x3d3e1207	0.04640391
203	0x3ddec6c9	0.10877759
204	0x3e3e3606	0.18575296
205	0xbe4ddf89	-0.20104803
206	0x3e218fd9	0.1577753
207	0xbe1a2be3	-0.15055804
208	0xbe3f0b6d	-0.18656702
209	0x3e2bea0e	0.16788504
210	0xbe4c3282	-0.19941142
211	0xbe58e29c	-0.21180195
212	0xbe547715	-0.20748551
213	0x3e6174ee	0.22017261
214	0x3e3f4e78	0.18682277
215	0xbdfb524c	-0.12271556
216	0x3e54d6c1	0.20785047
217	0xbdffc847	-0.12489372
218	0x3e1a05e3	0.15041308
219	0xbe051d56	-0.12999472
220	0xbe596494	-0.21229774
221	0x3dd123cc	0.10211906
222	0x3e350661	0.17678215
223	0x3da4fe44	0.0805631
224	0xbd26ead6	-0.0407513
225	0xbe1ef7fd	-0.15524288
226	0xbd5e941b	-0.054340463
227	0xbcceb13d	-0.025230998
228	0xbd40c619	-0.04706392
229	0xbe25c479	-0.1618823
230	0x3e69c5d6	0.22829375
231	0x3d743a5d	0.059625972
232	0xbd211d6a	-0.039334692
233	0x3e492490	0.19642854
234	0x3dad7029	0.084686585
235	0xbe1d7f59	-0.1538061
236	0xbe609fe3	-0.21935992
237	0x3e5f5f5c	0.2181372
238	0xbe3b95ef	-0.18318914
239	0xbe41d766	-0.18929824
240	0x3dbee05c	0.09320137
241	0xba62ffaf	-0.00086593156
242	0x3e54575d	0.20736451
243	0xbdc332f6	-0.095312044
244	0x3db6df6a	0.089293316
245	0x3d953450	0.072853684
246	0xbdc1a26e	-0.09454809
247	0xbc58215f	-0.01319155
248	0x3e62c341	0.22144796
249	0xbe284998	-0.16434324
250	0xbe3a3061	-0.18182518
251	0x3dc39cec	0.09551415
252	0x3e6d842b	0.2319495
253	0xbe6753f8	-0.22590625
254	0xbe30c0e3	-0.1726108
255	0xbe3dc629	-0.18532623

down_blocks.1.conv1.bias f4 [8]
0	0x3b8464b6	0.004040326
1	0x3c1410c6	0.009037202
2	0x3b6442cc	0.0034829853
3	0xbbc593a0	-0.006029561
4	0x3b7cfc4f	0.0038602536
5	0xbc4183cc	-0.011811208
6	0xbbec2df8	-0.0072076283
7	0x3c82e173	0.015976643

down_blocks.1.conv2.weight f4 [8, 8, 3, 3]
0	0x3e3cd8cf	0.18442081
1	0xbddcdeda	-0.10784693
2	0xbe113fdb	-0.14184515
3	0x3e02cc17	0.12773167
4	0xbba6d8ff	-0.005091786
5	0x3d36be64	0.044615164
6	0xbcc32c72	-0.023824904
7	0xbe3cec49	-0.1844951
8	0xbc0de0e9	-0.00865958
9	0x3e2945d9	0.16530551
10	0xbddf6156	-0.10907237
11	0x3dc5ebc9	0.09664113
12	0x3dc1509a	0.09439202
13	0x3e22fb23	0.15916114
14	0x3e34ebeb	0.1766812
15	0x3db0b4e3	0.086282514
16	0x3dd92edb	0.1060464
17	0xbc604099	-0.013687276
18	0x3dfb387d	0.12266634
19	0xbdc0af8c	-0.09408483
20	0x3dcaa8c2	0.09895469
21	0xbe25e619	-0.16201057
22	0x3c284a68	0.010271646
23	0xbdc580ab	-0.09643682
24	0x3e1d5669	0.15364994
25	0xbd2cdd31	-0.042203132
26	0x3e4a2953	0.19742326
27	0xbe53f538	-0.20699012
28	0x3e24a3df	0.16078137
29	0x3dd25d40	0.10271692
30	0x3d5d4fc6	0.054031156
31	0xbe463907	-0.19357692
32	0x3da8222c	0.08209643
33	0x3d250997	0.04029235
34	0xbe424f2e	-0.18975517
35	0x3dcc2582	0.099680915
36	0x3e42ba2b	0.1901633
37	0x3d7fe212	0.062471457
38	0x3e1f22a5	0.1554056
39	0x3d0612b0	0.032732666
40	0x3d02f6e5	0.03197374
41	0xbd61182c	-0.054954693
42	0xbbbaa606	-0.005696061
43	0xbd80633f	-0.0626893
44	0x3e035c84	0.1282826
45	0xbe07bb07	-0.13254939
46	0x3c49c135	0.012314131
47	0xbd89fa03	-0.06737139
48	0x3e02a03b	0.12756436
49	0xbd9ddf87	-0.0770865
50	0x3dffe307	0.12494474
51	0x3e2a251f	0.16615723
52	0x3b27b6a3	0.0025591038
53	0x3dd2a61f	0.10285591
54	0xbe2e1e6b	-0.17003791
55	0x3c8f9268	0.017525867
56	0xbd5b1dd0	-0.05349523
57	0xbdce5d00	-0.10076332
58	0x3df8345e	0.12119363
59	0xbca294e1	-0.019846382
60	0xbd769dd4	-0.06020911
61	0xbe290c1e	-0.16508529
62	0xbe28de4b	-0.16491048
63	0xbc8a05d6	-0.016848486
64	0x3e209410	0.15681481
65	0x3db83bf6	0.08995812
66	0x3e0ba799	0.13638152
67	0xbe0ecd04	-0.13945395
68	0x3d5c653e	0.05380749
69	0xbc94cebf	-0.01816499
70	0x3e4153d6	0.18879637
71	0x3ca9dbe8	0.020734742
72	0x3d3ee99f	0.046609517
73	0xbe09e400	-0.13465881
74	0x3e2246f1	0.15847374
75	0xbde474fb	-0.11155125
76	0x3d8e30ff	0.06942939
77	0x3e004b9d	0.12528844
78	0x3e36dcb8	0.17857635
79	0xbe297e36	-0.16552052
80	0xbe4aa09c	-0.1978783
81	0x3e2d45dc	0.1692118
82	0x3e190e56	0.14946875
83	0xbc5208c9	-0.012819477
84	0x3dc56498	0.09638327
85	0x3e116f4a	0.1420261
86	0x3e0f8f55	0.1401952
87	0xbdc83cdd	-0.09777234
88	0xbdbfcff7	-0.09365838
89	0x3b81bc68	0.0039592274
90	0xbd066089	-0.032806907
91	0x3b54f1fd	0.003249287
92	0x3df809cb	0.12111243
93	0x3df943fd	0.12171171
94	0x3e0f3912	0.13986614
95	0x3df8868e	0.12135039
96	0xbe3c90fd	-0.18414684
97	0x3e47b2cd	0.19501801
98	0x3e10287c	0.14077944
99	0x3da132f7	0.07871049
100	0x3de56ae7	0.11202031
101	0xbc2f5c1f	-0.010703116
102	0x3d597ef0	0.053099573
103	0xbe2d211b	-0.1690716
104	0x3d45bce2	0.048275836
105	0x3e04cc4a	0.12968555
106	0xbb15f97d	-0.0022884302
107	0xbc504cea	-0.01271365
108	0x3d234a3b	0.039865714
109	0x3e31b871	0.17355515
110	0x3cde6373	0.02714703
111	0xbe34b177	-0.17645822
112	0x3e21e5a3	0.15810256
113	0x3df1d74a	0.11808641
114	0xbcb78faa	-0.022407372
115	0xbc6f7e4e	-0.014617516
116	0xbd3029c1	-0.04300857
117	0x3d7e818f	0.062135275
118	0xbdf4f5f4	-0.11960974
119	0xbdda89ab	-0.10670789
120	0x3da0a57d	0.078440644
121	0x3dd1b8a2	0.10240294
122	0xbe53a408	-0.20668042
123	0x3c4d5652	0.012532787
124	0xbe03d388	-0.12873662
125	0x3e44e1e7	0.192268
126	0x3e48597f	0.1956539
127	0xbdec0a23	-0.11525371
128	0xbcca2cad	-0.024679506
129	0x3dcbf744	0.099592716
130	0x3e269c0c	0.16270465
131	0x3c42fa52	0.011900501
132	0x3c6feefa	0.014644379
133	0xbde5ecdb	-0.11226817
134	0xbc787f9e	-0.015167145
135	0xbe17e9b5	-0.14835246
136	0xbdea0367	-0.1142643
137	0x3bdafc9d	0.006682946
138	0x3e18e92f	0.14932702
139	0xbd288c90	-0.041149676
140	0xbda902e9	-0.08252508
141	0x3d6dd958	0.058068603
142	0x3d69c5c7	0.05707338
143	0x3daeb7b9	0.08531136
144	0xbd89d9e1	-0.0673101
145	0xbd991f28	-0.07476646
146	0xbe4ce2fd	-0.20008464
147	0xbe0f1946	-0.13974485
148	0xbd0441e7	-0.032289412
149	0xbe229a8e	-0.1587927
150	0xbe0ec256	-0.13941321
151	0xbd52d497	-0.051472273
152	0x3d7dd720	0.061972737
153	0x3e455c44	0.19273478
154	0x3d7e4790	0.062079966
155	0x3d028625	0.03186621
156	0x3e2770de	0.16351649
157	0x3c91f87a	0.017818678
158	0xbdbebd56	-0.09313457
159	0xbdd78165	-0.10522727
160	0xbd44e99e	-0.048074357
161	0xbe1ba8f2	-0.15201166
162	0xbe0afc45	-0.13572796
163	0x3d995bd1	0.07488216
164	0x3e0bdb4a	0.13657871
165	0x3ca54a2b	0.020176968
166	0xbc8ec09d	-0.01742583
167	0xbc9cc480	-0.019136667
168	0x3e08e659	0.1336912
169	0x3e1642e8	0.1467396
170	0x3e52a764	0.20571667
171	0xbe2483c7	-0.16065894
172	0x3e1178e2	0.1420627
173	0xba5f7ede	-0.00085256796
174	0xbd4602b5	-0.048342425
175	0xbe3aa650	-0.18227506
176	0x3e25e86b	0.16201942
177	0x3cb3057e	0.021853205
178	0x3e1cc8d4	0.15310985
179	0x3d61e3e9	0.055148993
180	0x3e2cbc32	0.16868666
181	0x3e358253	0.17725496
182	0x3e18bd4f	0.14915965
183	0xbd57bc6d	-0.05266993
184	0xbe491bf9	-0.19639577
185	0x3dca5f77	0.0988149
186	0xba1bef32	-0.00059484236
187	0x3d5816ad	0.052756
188	0x3d552e16	0.052045904
189	0xbd675473	-0.05647702
190	0x3e1f9c0e	0.15586874
191	0xbda85192	-0.08218683
192	0xbe26bbda	-0.16282597
193	0x3e050b16	0.1299251
194	0x3db709d2	0.0893742
195	0xbe1fead6	-0.15616927
196	0x3c7ba3fa	0.015358919
197	0x3dd11a89	0.10210139
198	0xbcd2ab02	-0.025716309
199	0x3da7fa9c	0.08202097
200	0x3e48dc10	0.19615197
201	0xbe382d94	-0.17986137
202	0x3d92ec23	0.07173946
203	0x3e4ca307	0.19984065
204	0x3d867bcd	0.06566582
205	0xbcdfa72b	-0.027301392
206	0xbd95faf1	-0.07323254
207	0xbe43cb2a	-0.1912047
208	0x3a18c67b	0.0005827916
209	0x3d7065c3	0.058690798
210	0x3d4375af	0.047719654
211	0xbe226800	-0.15859985
212	0x3dbe9846	0.093063876
213	0x3c8fabd2	0.017537985
214	0x3e3c6603	0.1839829
215	0xbdad3a99	-0.08458442
216	0x3ddf2e24	0.108974725
217	0x3e544c46	0.20732221
218	0x3da3d57e	0.07999705
219	0x3e31eefc	0.17376322
220	0xbe32273f	-0.17397784
221	0xba167a7b	-0.0005740297
222	0xbd499341	-0.049212698
223	0xbe572fcd	-0.21014328
224	0x3e32edc2	0.1747351
225	0xbce0cd82	-0.027441744
226	0xbd8e0e32	-0.06936301
227	0x3e40cd1f	0.18828247
228	0x3dd5ff2b	0.1044906
229	0xbe22bf88	-0.15893376
230	0x3e06561c	0.13118786
231	0x3e10596b	0.1409661
232	0x3d5618c3	0.05226971
233	0x3e3d294e	0.18472788
234	0x3c9d6c05	0.019216547
235	0xbe4bae37	-0.19890676
236	0xbe177ec5	-0.14794452
237	0xbde64cf2	-0.11245145
238	0xbca9efcf	-0.020744232
239	0x3bf6bbc5	0.007529708
240	0x3d8103bd	0.06299541
241	0x3df49310	0.119421124
242	0xbe04516e	-0.12921688
243	0x3e108297	0.14112316
244	0x3c432bfb	0.011912341
245	0x3dfb2ae0	0.12264037
246	0xbdc7306d	-0.09726033
247	0xbd9daa2d	-0.07698474
248	0xbd30b01b	-0.043136697
249	0xbc721d47	-0.014777488
250	0xbe1a2c91	-0.15056063
251	0x3d4835fb	0.048879605
252	0x3e07c089	0.1325704
253	0xbd358bc7	-0.044322755
254	0x3ba9aeef	0.0051783244
255	0x3e0c9072	0.13726977

down_blocks.1.conv2.bias f4 [8]
0	0xbb84cb2e	-0.004052541
1	0xbafbbf3f	-0.0019206776
2	0xbacea7c8	-0.0015766555
3	0x3c095864	0.00838289
4	0xbb416a71	-0.0029512907
5	0xbc3afe69	-0.011413195
6	0x3c33cd7f	0.010974287
7	0xba7c4cdf	-0.0009624492

down_blocks.1.norm1.weight f4 [8]
0	0x3f805451	1.0025731
1	0x3f7fb992	0.9989253
2	0x3f7fe2e2	0.9995557
3	0x3f80c8bc	1.0061259
4	0x3f804cf7	1.0023488
5	0x3f7eeae6	0.99577177
6	0x3f807e4a	1.003854
7	0x3f7da627	0.99081653

down_blocks.1.norm1.bias f4 [8]
0	0x3b80925e	0.0039236983
1	0xba339c1d	-0.0006851571
2	0x3b6d541d	0.0036213466
3	0x3a936cb7	0.001124761
4	0x3b6a869b	0.0035785798
5	0x3c292ec1	0.010326088
6	0x3b3b31a4	0.0028563524
7	0xbc08dd7b	-0.008353586

down_blocks.1.norm1.running_mean f4 [8]
0	0x3e3034f2	0.17207697
1	0x3e8d2ca9	0.27573135
2	0x3eb8d730	0.36101675
3	0x3f11702c	0.56811786
4	0x3eb0597f	0.3444328
5	0x3e4a65b1	0.19765355
6	0x3e611aa2	0.21982816
7	0x3e7458d4	0.2386201

down_blocks.1.norm1.running_var f4 [8]
0	0x3e8f9e00	0.28050232
1	0x3efdd02e	0.4957289
2	0x3f1bd25f	0.60867876
3	0x4001f49c	2.0305548
4	0x3ee87e86	0.4540903
5	0x3eb4e34c	0.35329664
6	0x3eaafd0e	0.3339619
7	0x3ddaa9d9	0.10676927

down_blocks.1.norm2.weight f4 [8]
0	0x3f7fef1b	0.9997422
1	0x3f81f947	1.0154198
2	0x3f7d2ed2	0.9889957
3	0x3f80adde	1.005306
4	0x3f80a1bf	1.0049361
5	0x3f8154f9	1.0104057
6	0x3f806c97	1.0033139
7	0x3f80fe04	1.007752

down_blocks.1.norm2.bias f4 [8]
0	0xbc1a95f2	-0.009435164
1	0xbab860a2	-0.0014066885
2	0xbbb4da4d	-0.0055191875
3	0x3b5a2e88	0.0033291895
4	0x3a313e6f	0.00067613175
5	0xbbecf621	-0.0072314893
6	0x3b8b1e78	0.0042455755
7	0xba10842f	-0.0005512861

down_blocks.1.norm2.running_mean f4 [8]
0	0x3ea20a2d	0.31648389
1	0x3ed9dc30	0.42550802
2	0x3ecb8f32	0.39757687
3	0x3eb21bba	0.3478678
4	0x3ea6e572	0.32596928
5	0x3e8e112e	0.27747482
6	0x3eecbc72	0.46237522
7	0x3e7277f4	0.23678571

down_blocks.1.norm2.running_var f4 [8]
0	0x3f38c57f	0.72176355
1	0x3f9ea6ba	1.2394631
2	0x3f6a1b62	0.9144803
3	0x3e808a5a	0.25105554
4	0x3f1f53b7	0.62237114
5	0x3e1cd63a	0.15316096
6	0x3f88c986	1.06865
7	0x3e9e5088	0.30920815

down_blocks.2.conv1.weight f4 [16, 8, 3, 3]
0	0x3dd36129	0.10321266
1	0x3c8bcbde	0.017064985
2	0x3d10975b	0.035300594
3	0x3ddb51eb	0.10708984
4	0xbe23c8a2	-0.15994504
5	0xbd9ade6d	-0.075619556
6	0xbc079fd2	-0.00827785
7	0xbe1a04d5	-0.15040906
8	0x3e1a5305	0.15070732
9	0x3d7828c8	0.060585767
10	0x3dc227fc	0.09480283
11	0x3dee9479	0.11649413
12	0x3d87a005	0.06622318
13	0x3ca242fa	0.019807328
14	0x3cdbdcfd	0.026838774
15	0x3de5cd3a	0.112207845
16	0xbde94cee	-0.11391626
17	0x3dedb8ef	0.11607539
18	0x3d98027b	0.07422348
19	0x3d3a7bf1	0.045528356
20	0x3bdf8033	0.0068207025
21	0x3d42a7db	0.04752336
22	0x3da31e1f	0.079647295
23	0xbe159242	-0.14606574
24	0xbcfb33df	-0.030664383
25	0xbc3d1a58	-0.011541925
26	0x3da8ac13	0.082359456
27	0xbdb52a65	-0.08845977
28	0xbb4085c6	-0.002937661
29	0xbde96f44	-0.11398175
30	0xbddd30e7	-0.10800343
31	0x3dafd263	0.0858505
32	0x3caf4c75	0.021398762
33	0x3e166260	0.14685965
34	0x3d892dfb	0.06698223
35	0x3cb11c92	0.021620069
36	0xbdb81858	-0.08989018
37	0x3d65092d	0.055916954
38	0x3df5e939	0.12007374
39	0x3c3a0121	0.011352808
40	0xbda40e80	-0.08010578
41	0xbe11ec14	-0.14250213
42	0xbe09b2de	-0.13447139
43	0xbb5e3985	-0.0033908796
44	0xbc85d860	-0.016338527
45	0xbdb455f8	-0.0880546
46	0x3e1963b9	0.14979447
47	0xbc2c9624	-0.010533843
48	0x3d68e909	0.056862865
49	0xbd1f3a10	-0.038873732
50	0x3da47d6d	0.080317356
51	0xbdafa6ef	-0.08576762
52	0xbcab65ec	-0.020922624
53	0xbd994dda	-0.07485552
54	0x3d57ddec	0.052701876
55	0xbcdea82b	-0.027179798
56	0xbdea2674	-0.114331156
57	0x3cacd15c	0.021095924
58	0xbd7b32df	-0.06132781
59	0xbd2887cd	-0.041145135
60	0x3df3b3c8	0.11899525
61	0xbe0cd12c	-0.13751668
62	0x3d5c1313	0.053729128
63	0x3dcdb746	0.10044722
64	0xbdb338e1	-0.08751083
65	0x3cdf70f5	0.027275542
66	0x3df93ecc	0.12170181
67	0xbdb4e7e4	-0.08833292
68	0x3ddba796	0.10725324
69	0x3dafd12f	0.085848205
70	0x3dcbe40a	0.099556044
71	0x3b9fc2ed	0.004875532
72	0x3df4f266	0.11960296
73	0x3d6dfc4f	0.05810195
74	0x3d3d4546	0.046208642
75	0xbde5539d	-0.111975886
76	0x3decbef4	0.11559859
77	0x3d77a398	0.06045875
78	0x3e2289f3	0.15872936
79	0x3d408665	0.04700317
80	0xbd9a0780	-0.07520962
81	0x3e070a23	0.1318746
82	0xbd81dbfb	-0.06340786
83	0x3e0dee8a	0.13860527
84	0x3e25b6f6	0.16183075
85	0xbce4ae44	-0.027915128
86	0xbd4465a5	-0.0479485
87	0xbdfa13c9	-0.12210805
88	0x3e10707f	0.14105414
89	0xbd77b4d0	-0.06047517
90	0xbda34d6c	-0.079737514
91	0x3e0c94bf	0.13728617
92	0x3d57cb10	0.05268389
93	0xbe2505a8	-0.16115439
94	0x3dc52fd4	0.09628263
95	0xbc2957a5	-0.0103358375
96	0xbd45c0d2	-0.04827959
97	0xbdd0fe23	-0.10204723
98	0x3e049c16	0.12950167
99	0xbe03a5cd	-0.12856217
100	0xbe27716f	-0.16351865
101	0xbd673530	-0.056447208
102	0xbddb445a	-0.107063964
103	0x3d019086	0.03163197
104	0xbd5ed672	-0.05440373
105	0x3d4b5dd6	0.049650036
106	0x3dbb867a	0.09156509
107	0xbe2ae03d	-0.16687103
108	0x3d8fef98	0.07028121
109	0x3d444497	0.047916975
110	0x3ccb6d40	0.024832368
111	0xbcf1db13	-0.029523408
112	0x3e2d8ba8	0.16947806
113	0xbd367d5e	-0.044553153
114	0xbe1715b5	-0.14754374
115	0x3d98c2e1	0.07459045
116	0x3d4b5f92	0.04965169
117	0x3e0e3285	0.13886459
118	0x3daa1150	0.08304083
119	0xbd9bdf35	-0.07610933
120	0x3dceffbd	0.10107372
121	0xbd519ec7	-0.051176812
122	0xbe1b5435	-0.15168841
123	0xbd016a0b	-0.03159527
124	0xbe1b1d22	-0.15147832
125	0xbd741e34	-0.059599116
126	0x3dbf2b63	0.09334447
127	0x3b600c43	0.0034186996
128	0xbe1e1984	-0.15439421
129	0x3d5d2002	0.053985603
130	0xbdcacb80	-0.09902096
131	0xbdc39d5b	-0.095514975
132	0xbd51c50c	-0.05121331
133	0xbdd5f240	-0.10446596
134	0x3cb8de46	0.022566926
135	0xbd7741e5	-0.060365576
136	0x3d719703	0.058981907
137	0x3d1158d6	0.03548511
138	0xbda59595	-0.08085171
139	0x3dfe6812	0.124221936
140	0xbd7daac4	-0.061930433
141	0x3d3ed922	0.046593793
142	0xbe1470b6	-0.14496121
143	0x3ca5788c	0.020199083
144	0x3dadba01	0.08482743
145	0xbe132d94	-0.14372855
146	0x3ce76e79	0.02825092
147	0xbde4508d	-0.11148176
148	0x3db6d0af	0.08926522
149	0xbdbfe180	-0.093691826
150	0xbd15a085	-0.036530036
151	0xbe23057f	-0.15920065
152	0x3dfb375b	0.122664176
153	0x3e1f289d	0.15542836
154	0xbdc3ed13	-0.09566703
155	0xbe14a6a4	-0.14516693
156	0x3d954294	0.072880894
157	0xbe0d3afe	-0.13792035
158	0xbc1ade3d	-0.0094524
159	0x3da18017	0.07885759
160	0xbe1d9f2b	-0.15392749
161	0x3dbcb9b6	0.09215109
162	0x3cb49f49	0.02204861
163	0xbca83ec0	-0.020537734
164	0xbd0790bb	-0.03309701
165	0xbd97c38b	-0.07410344
166	0x3da298e6	0.07939319
167	0x3d598e0c	0.053113982
168	0x3d570618	0.052496046
169	0x3ddb7f6a	0.10717662
170	0xbd48c5e6	-0.049016856
171	0x3e07e0cc	0.13269347
172	0xbd30fffe	-0.043212883
173	0x3c279bf4	0.010230053
174	0xbd5c3f69	-0.05377141
175	0x3c27e391	0.010247127
176	0xbc527405	-0.012845044
177	0xbe2a7484	-0.1664601
178	0xbdab0458	-0.08350438
179	0xbdc9c979	-0.09852881
180	0xbd7b11f0	-0.061296403
181	0x39d410cf	0.00040448314
182	0x3e0dbdd6	0.13841948
183	0xbe27d8cd	-0.16391297
184	0x3d5773f7	0.052600827
185	0xbe06dbcf	-0.13169788
186	0x3def2f52	0.116789475
187	0xbc13112e	-0.008976264
188	0xbe228fbb	-0.15875141
189	0x3d99edfe	0.075160965
190	0x3d9c92cc	0.07645187
191	0x3dc4076a	0.095717266
192	0x3d372d44	0.044720903
193	0xbcfafba9	-0.030637579
194	0xbd027a1e	-0.03185474
195	0x3b836e7e	0.0040109744
196	0xbbae8bca	-0.0053267227
197	0xbe163e6b	-0.14672248
198	0x3d2d06ca	0.042242803
199	0x3e2e8760	0.17043829
200	0x3dbc35d1	0.09189952
201	0x3e0e52ee	0.13898823
202	0x3db4c1ab	0.08826002
203	0xbe1d569e	-0.15365073
204	0xbd8acb71	-0.067770846
205	0x3e28bbc1	0.16477872
206	0x3c9cdb58	0.01914756
207	0xbe143941	-0.14474966
208	0x3cc2ca84	0.023778208
209	0x3dff30d4	0.12460485
210	0x3e0ac71c	0.13552517
211	0x3caae18f	0.020859508
212	0x3dfa6fdd	0.122283675
213	0xbdc97ac4	-0.09837869
214	0x3d89c16b	0.06726345
215	0x3d81e082	0.063416496
216	0x3d51a3e1	0.051181678
217	0x3e078355	0.13233693
218	0x3dd6b2a9	0.104832955
219	0x3df6d5e7	0.120525174
220	0x3c276430	0.010216758
221	0xbd4e6de7	-0.05039778
222	0x3d51fcc9	0.051266465
223	0xbcb415f8	-0.021983132
224	0xbc8b084c	-0.01697173
225	0xbba4b676	-0.005026634
226	0xbdb5f204	-0.088840514
227	0xbdb845b9	-0.089976735
228	0xbc24d3e7	-0.010060287
229	0xbe002f1a	-0.12517968
230	0x3d7eca5b	0.0622047
231	0xbda4b4d7	-0.08042305
232	0x3dcb54fb	0.09928318
233	0xbdc1b0db	-0.09457561
234	0xbc77fa84	-0.015135411
235	0x3e18ce39	0.14922418
236	0x3dc6c98b	0.0970641
237	0x3da3dd84	0.08001235
238	0x3b2fd474	0.0026829513
239	0x3c1b92eb	0.009495477
240	0xbcdc073c	-0.026858918
241	0x3d367478	0.044544667
242	0x3d9433be	0.072364315
243	0x3dbf17cd	0.093307115
244	0xbc8ce748	-0.017200127
245	0x3deddbb2	0.11614169
246	0xbd61c7f6	-0.05512234
247	0xbcc0adf4	-0.023520447
248	0xbe25492d	-0.16141196
249	0xbdb1f3a9	-0.086890526
250	0xbdb5359a	-0.08848114
251	0xbd8c1781	-0.068404205
252	0x3d8808b3	0.06642284
253	0xbdc66bf8	-0.09688562
254	0x3e03f125	0.12884958
255	0xbc53b692	-0.012921946

down_blocks.2.conv1.bias f4 [16]
0	0x3a67e7b7	0.0008846479
1	0xbb205691	-0.002446566
2	0x3c0eeb81	0.008723141
3	0xbb044ff5	-0.002018926
4	0xbb51ac98	-0.0031993743
5	0xb9b81a71	-0.00035114915
6	0xbc132d59	-0.00898298
7	0xba8ced5b	-0.001075189
8	0x3b5dfac5	0.0033871394
9	0x3b0e6c72	0.002173212
10	0x3aa316b8	0.0012442684
11	0x3baee8a5	0.005337792
12	0x3ade7a16	0.001697364
13	0x394ff2f9	0.00019831573
14	0x3bda6b59	0.006665629
15	0xbc381135	-0.011234571

down_blocks.2.conv2.weight f4 [16, 16, 3, 3]
0	0x3bc236e7	0.005926955
1	0xbcd8577e	-0.026408907
2	0xbd156ee2	-0.0364827
3	0xbd52f677	-0.05150458
4	0x3d1d61d9	0.038423393
5	0x3d8a402a	0.067505196
6	0x3da80b78	0.082053125
7	0x3d6ac9ce	0.057321362
8	0xbd312245	-0.043245573
9	0xbdd14186	-0.10217576
10	0x3e1245e2	0.1428447
11	0x3d4cb3fc	0.049976334
12	0x3e0edeed	0.13952227
13	0xbd1b7cf3	-0.037960958
14	0xbc544ff6	-0.012958517
15	0x3d4935a3	0.049123418
16	0x3dc8b8b6	0.09800856
17	0x3da0c81f	0.0785067
18	0x3d3ff9fa	0.046869256
19	0x3dde8700	0.10865593
20	0xbd02e271	-0.031954233
21	0x3bf67222	0.00752093
22	0x3d9f7550	0.077860475
23	0xbd3d4454	-0.04620774
24	0x3dd0481b	0.10170003
25	0xbc078285	-0.008270864
26	0x3d108875	0.035286386
27	0xbce80eea	-0.028327424
28	0xbdffb66d	-0.12485967
29	0x3d05cdb0	0.032666862
30	0x3e127bdf	0.14305066
31	0x3e0c2004	0.13684088
32	0x3d3a5544	0.045491472
33	0x3782ffdb	1.561635e-05
34	0xbcb8c6fd	-0.022555823
35	0xbe009d74	-0.12560064
36	0x3d140e36	0.036146365
37	0x3e0839e1	0.13303329
38	0xbbe9c942	-0.0071345875
39	0x3e01d474	0.126787
40	0xbdcc85f2	-0.099864855
41	0xbded9b94	-0.1160194
42	0xbd91df29	-0.071226425
43	0xbd647c94	-0.05578287
44	0x3c7f5427	0.015584028
45	0xb9856fe6	-0.00025451108
46	0xbe0c56d2	-0.13704994
47	0x3ca03de6	0.019560765
48	0x3d91adcb	0.071132265
49	0xbdec1c05	-0.11528782
50	0xbe07068d	-0.13186093
51	0x3df3d7f4	0.11906424
52	0x3debfba0	0.11522603
53	0x3d3616dc	0.044455394
54	0xbc93b8de	-0.018032487
55	0xbd5d95ed	-0.05409806
56	0x3de0655f	0.10956835
57	0xbdfcb55a	-0.123392776
58	0x3ccb348d	0.024805332
59	0xbdbccd59	-0.092188545
60	0x3e03a942	0.12857535
61	0xbd8c8b31	-0.06862486
62	0xbd1e5582	-0.038655765
63	0x3d77779a	0.060416795
64	0xbc100913	-0.008791226
65	0x3ca1d1c8	0.019753352
66	0xbcd80c78	-0.026373133
67	0x3e05b54d	0.13057442
68	0x3cc5ab83	0.024129635
69	0xbd5ab5de	-0.0533961
70	0x3d84b7ad	0.06480346
71	0xbccf4dc7	-0.025305642
72	0x3d96c2e5	0.07361392
73	0xbcf0a5b0	-0.029375881
74	0x3c44312f	0.011974617
75	0xbdbc1fa1	-0.0918572
76	0xbce5d693	-0.028056419
77	0x3dcf5b66	0.10124855
78	0x3e019706	0.12655267
79	0xbdc10486	-0.09424691
80	0x3dbece71	0.09316719
81	0xbd6ce5f0	-0.057836473
82	0xbd340ab5	-0.043955524
83	0xbc3bf8fc	-0.011472937
84	0xbd0542c9	-0.032534394
85	0xbda4aa67	-0.08040314
86	0x3c865a0b	0.016400358
87	0x3d458caa	0.04822985
88	0x3dfede6c	0.12444767
89	0xbdda5cd4	-0.10662237
90	0xbcddf693	-0.027095115
91	0x3dee8ef5	0.11648361
92	0xbd721a98	-0.059107393
93	0x3d65ff8e	0.05615192
94	0xbd5aa3e2	-0.053378947
95	0x3d972544	0.07380155
96	0x3dd850df	0.105623
97	0x3d4159de	0.047204845
98	0x3d314563	0.043279063
99	0x3b830f74	0.003999645
100	0xbd972c07	-0.073814444
101	0x3cf01113	0.029305017
102	0x3d8bb4a2	0.06821562
103	0x3d91ab1b	0.07112714
104	0xbe15bc40	-0.14622593
105	0xbd801cc1	-0.06255484
106	0xbd9e1503	-0.077188514
107	0x3dde862e	0.108654365
108	0xbd9d06fc	-0.07667348
109	0x3e1166b6	0.14199337
110	0xbd59dd05	-0.053189296
111	0xbe022c6d	-0.1271226
112	0x3dc75efb	0.09734913
113	0x3d942663	0.07233884
114	0xbe061590	-0.13094163
115	0x3ded4a59	0.11586446
116	0x3d9d4578	0.07679266
117	0x3ce5b77f	0.0280416
118	0xbc875cf9	-0.016523825
119	0xbdad9ea5	-0.08477525
120	0xbdbc4df2	-0.091945544
121	0xbd7b9883	-0.061424743
122	0xbdb842c3	-0.08997109
123	0x3d21318f	0.039353903
124	0x3d3be6a7	0.045874264
125	0xbdc4ea00	-0.096149445
126	0xbd5e600b	-0.054290812
127	0xbdc53364	-0.096289426
128	0xbe146512	-0.1449168
129	0xbe10633f	-0.1410036
130	0xbde83083	-0.11337378
131	0x3cf899cd	0.030346775
132	0x3df69494	0.12040058
133	0xbd8c4bdb	-0.06850406
134	0xbe09881a	-0.13430825
135	0x3d9e0b53	0.07717004
136	0xbdb28aef	-0.08717906
137	0x3da37c7a	0.079827264
138	0x3db34baa	0.08754666
139	0x3d11f745	0.035636205
140	0x3d80e08a	0.062928274
141	0xbda15e4a	-0.07879312
142	0x3dcdc562	0.100474134
143	0x3d9610e7	0.073274426
144	0xbe0d8858	-0.13821542
145	0xbc88f27f	-0.016717194
146	0xbd61729c	-0.05504094
147	0x3ddc59d3	0.1075932
148	0x3d651cb8	0.05593559
149	0xbd96f751	-0.073713906
150	0x3d8b2733	0.06794586
151	0xbd53f327	-0.05174556
152	0xbd340571	-0.0439505
153	0xbd9ac6d6	-0.07557456
154	0x3a3cfb9e	0.0007209125
155	0x3e080d69	0.13286366
156	0xbd928550	-0.071543336
157	0xbc3e01d5	-0.0115971165
158	0xbdaf767d	-0.08567522
159	0x3ddaf720	0.106916666
160	0x3ca6a249	0.020341055
161	0x3cc754b4	0.024332382
162	0xbd9eb33c	-0.0774903
163	0x3c7b28b8	0.015329532
164	0x3ddfb6c3	0.10923531
165	0xbd3fb7e0	-0.046806216
166	0xbc243969	-0.010023453
167	0xbd0dd15e	-0.034623496
168	0xbdcbeab7	-0.09956878
169	0xbe10fdef	-0.14159368
170	0x3dc175e1	0.09446312
171	0xbd7e70a0	-0.062119126
172	0x3d1c8918	0.03821668
173	0xbdebdda5	-0.11516885
174	0x3da55942	0.08073665
175	0x3d9c30db	0.07626506
176	0x3d99165d	0.074749686
177	0xbd88d71b	-0.06681653
178	0x3dd462e5	0.10370425
179	0xbdbada45	-0.09123663
180	0xbdaf1825	-0.08549527
181	0xbc8aa426	-0.016923975
182	0xbdc6784d	-0.09690914
183	0xbda41f7b	-0.08013817
184	0xbd0831cb	-0.03325061
185	0x3c3e7f8d	0.01162709
186	0xbcde9323	-0.02716977
187	0xbd9e5db5	-0.07732717
188	0x3d8cf21c	0.06882116
189	0x3e04f014	0.12982208
190	0x3d07cf26	0.033156537
191	0xbddbbe1d	-0.107296206
192	0x3daad0da	0.083406165
193	0x3e088b0c	0.13334292
194	0xbaa11a62	-0.0012291188
195	0x3d69ab2f	0.05704802
196	0x3d8d0cd6	0.06887214
197	0xbc0fd308	-0.008778341
198	0x3ddadc8d	0.10686598
199	0x3cd5f791	0.026119025
200	0x3dd45ac8	0.10368878
201	0xbd79d5ed	-0.06099503
202	0x3dd844a2	0.10559966
203	0xbc18d8c3	-0.009329024
204	0x3c51e4b1	0.012810872
205	0x3d0373d9	0.032092903
206	0xbd350dce	-0.04420262
207	0xbc57ed3e	-0.013179122
208	0x3dd0ab75	0.10188953
209	0x3e138bb2	0.14408758
210	0xbe0ef963	-0.13962321
211	0xbd969a4b	-0.07353648
212	0xbdd9b2ec	-0.1062983
213	0xbe14e7b7	-0.14541517
214	0xbd5e82c4	-0.054323927
215	0x3de52a97	0.11189764
216	0x3de24b44	0.11049512
217	0xbc3edd20	-0.0116494
218	0xbcb9829a	-0.022645283
219	0x3e0a43d4	0.13502437
220	0xbdce526b	-0.10074314
221	0xbdb26938	-0.08711475
222	0xbddd1db6	-0.107966825
223	0x3da67ba2	0.0812905
224	0x3d72d50f	0.05928522
225	0xbe0b1aeb	-0.13584487
226	0xbcd509d8	-0.02600567
227	0x3db89988	0.09013659
228	0xbd77f0ed	-0.0605325
229	0x3c649626	0.013951814
230	0xbd1dc60f	-0.03851896
231	0x3e075ef7	0.1321982
232	0xbd859646	-0.06522803
233	0xbd060d16	-0.032727323
234	0xbd652b4b	-0.05594949
235	0x3dd354d0	0.10318911
236	0x3dce66ed	0.10078225
237	0x3e024640	0.12722111
238	0xbd8a5023	-0.06753566
239	0xbce641a3	-0.02810747
240	0x3db451bf	0.08804654
241	0x3d98727a	0.0744371
242	0x3d41d050	0.047317803
243	0x3e089c6b	0.13340919
244	0x3e149b73	0.14512424
245	0x3d0b2eeb	0.03398029
246	0x3da328c6	0.07966761
247	0xbd9a0e92	-0.0752231
248	0xbdee6f5f	-0.11642336
249	0xbdd2755b	-0.1027629
250	0xbd2108ac	-0.03931491
251	0xbd94c8c3	-0.07264855
252	0xbdd0edae	-0.10201584
253	0xbdb9c980	-0.09071636
254	0xbd0c9de4	-0.034330264
255	0x3de49add	0.1116235

down_blocks.2.conv2.bias f4 [16]
0	0x3b65b97d	0.0035053187
1	0x3aba0d94	0.001419472
2	0x3b383098	0.0028105136
3	0x3b204c9e	0.002445973
4	0xbb920434	-0.0044560675
5	0x3ba37c52	0.0049891854
6	0x3a3ebe74	0.00072763045
7	0x3b228c18	0.002480274
8	0xbb17b667	-0.0023149492
9	0x3a8f12c1	0.0010915623
10	0x3a7282c8	0.00092510553
11	0x3a63fc78	0.00086969836
12	0x3739cb18	1.1074146e-05
13	0x39b7ead5	0.00035079443
14	0x3ada895c	0.0016673016
15	0xbaeb15fc	-0.0017935629

down_blocks.2.norm1.weight f4 [16]
0	0x3f7f6ff1	0.99780184
1	0x3f7fa10a	0.998551
2	0x3f7f495c	0.9972131
3	0x3f802494	1.0011163
4	0x3f804eb1	1.0024015
5	0x3f80057a	1.0001671
6	0x3f7fc599	0.99910885
7	0x3f80124e	1.0005586
8	0x3f7f3067	0.9968323
9	0x3f7eb318	0.99492025
10	0x3f7fb00a	0.9987799
11	0x3f7ff3bb	0.9998128
12	0x3f805cd0	1.0028324
13	0x3f808e33	1.0043396
14	0x3f80212b	1.0010122
15	0x3f809551	1.0045568

down_blocks.2.norm1.bias f4 [16]
0	0xba2e0099	-0.00066376623
1	0x3b12f967	0.0022426487
2	0xb90a048d	-0.00013162401
3	0xb7cd7521	-2.4492447e-05
4	0xbb65dd6a	-0.00350746
5	0xba776820	-0.0009437818
6	0xbb4c7912	-0.0031200093
7	0xbb676b3b	-0.0035311717
8	0x3b48d77c	0.0030646017
9	0x37bb0e98	2.2298933e-05
10	0x3ac4abba	0.0015004792
11	0xba148c51	-0.0005666661
12	0x38912ecc	6.9228554e-05
13	0xbb97a471	-0.0046277572
14	0xba7a2550	-0.0009542303
15	0xbb4ef739	-0.0031580462

down_blocks.2.norm1.running_mean f4 [16]
0	0x3ead84c3	0.33890352
1	0x3e30ce10	0.17266107
2	0x3e6e20d1	0.23254706
3	0x3e5eb47e	0.2174854
4	0x3ef8704f	0.48523185
5	0x3eb9c154	0.3628031
6	0x3ea0a9b4	0.31379473
7	0x3ea67bb6	0.3251626
8	0x3e776516	0.24159655
9	0x3eb8d716	0.36101598
10	0x3ebc3aae	0.3676352
11	0x3e130985	0.143591
12	0x3ef31358	0.47475696
13	0x3ef53919	0.47895125
14	0x3ded4485	0.11585335
15	0x3e329618	0.17440069

down_blocks.2.norm1.running_var f4 [16]
0	0x3efa2c6a	0.4886201
1	0x3e96e0a2	0.29468256
2	0x3e62daad	0.2215373
3	0x3e97df00	0.29662323
4	0x3f629112	0.8850261
5	0x3f1bcba6	0.6085762
6	0x3ecb5b9e	0.39718336
7	0x3ef62aed	0.48079625
8	0x3dda22af	0.106511466
9	0x3e9f019b	0.31055912
10	0x3effd72e	0.49968857
11	0x3dddfdc3	0.10839417
12	0x3f10e20e	0.5659493
13	0x3f81dbc4	1.0145192
14	0x3d7fbb26	0.062434338
15	0x3dad9944	0.08476499

down_blocks.2.norm2.weight f4 [16]
0	0x3f80037a	1.0001061
1	0x3f805d6b	1.0028509
2	0x3f802592	1.0011466
3	0x3f7f867e	0.99814594
4	0x3f807679	1.0036155
5	0x3f7f9783	0.99840564
6	0x3f80240c	1.0011001
7	0x3f7e7521	0.99397475
8	0x3f81150f	1.0084552
9	0x3f7f9387	0.99834484
10	0x3f7f24cc	0.9966552
11	0x3f80465b	1.0021471
12	0x3f8012f8	1.0005789
13	0x3f80ad96	1.0052974
14	0x3f7f92a2	0.9983312
15	0x3f807f53	1.0038856

down_blocks.2.norm2.bias f4 [16]
0	0xb972f2ec	-0.00023169414
1	0x3a829fcb	0.0009965835
2	0x3b4ffa61	0.003173493
3	0x3b07abac	0.002070169
4	0x3968a645	0.00022187184
5	0xb970a12b	-0.00022948223
6	0x3abf630d	0.0014601663
7	0xba42b98c	-0.00074281613
8	0x3a0e5e41	0.0005430915
9	0x3a73343b	0.00092774973
10	0x3969409d	0.00022244682
11	0xb9a29156	-0.00031007332
12	0x39934308	0.00028087967
13	0x39c8d0ac	0.00038302445
14	0x3a9904e2	0.0011674429
15	0xba499442	-0.00076896336

down_blocks.2.norm2.running_mean f4 [16]
0	0x3e95bd07	0.2924578
1	0x3ea865ac	0.3289007
2	0x3e9b455c	0.30326355
3	0x3eb2aab6	0.34895867
4	0x3e82c9bb	0.25544533
5	0x3eb29604	0.34880078
6	0x3e8c627c	0.27418888
7	0x3eadeddd	0.33970538
8	0x3e85472f	0.2603087
9	0x3ea3f6c1	0.32024196
10	0x3ecb3d0a	0.39695007
11	0x3e97a2bb	0.2961634
12	0x3ee4d09c	0.44690406
13	0x3ea99845	0.33123985
14	0x3eeb74d2	0.45987564
15	0x3e8896ba	0.26677495

down_blocks.2.norm2.running_var f4 [16]
0	0x3ee9b6f1	0.45647386
1	0x3eaa338d	0.33242455
2	0x3ed0d99c	0.40791023
3	0x3e3971ea	0.18109861
4	0x3e39d2be	0.18146798
5	0x3e39f4f2	0.18159845
6	0x3e4c30c3	0.19940476
7	0x3e9fc4eb	0.31204924
8	0x3e6d9b79	0.2320384
9	0x3e555e76	0.20836815
10	0x3e3e3f0a	0.18578735
11	0x3e1732e9	0.14765514
12	0x3f8b9b31	1.0906736
13	0x3f1e5f31	0.61864
14	0x3e3e4aa0	0.18583155
15	0x3eba422c	0.3637861
