Models/2ce5db08-78e4-49b2-8314-3eb574c249e1.pt (torch, 166339 bytes, 110 tensors)

conv_final.weight f4 [2, 4, 1, 1]
000000 7e 4b 19 3f db 9f 09 3f c4 ba 9d bf c9 05 8e bf
       0.59880817 0.53759545 -1.2322621 -1.1095515
000010 f1 ac 06 bd 33 e6 44 3f 21 93 5e 3f 12 74 1b 3f
       -0.032879774 0.76913756 0.8694325 0.60723984

conv_final.bias f4 [2]
000000 7e 0e 2a 3f 81 0e 2a bf
       0.66428363 -0.6642838

down_blocks.0.conv1.weight f4 [4, 2, 3, 3]
000000 81 21 db bd e6 ca 06 3e ce 1d af 3e ae 9c 76 be
       -0.1069975 0.13163337 0.34202427 -0.24083206
000010 f8 a8 62 be 28 29 7c bd 8a 7b c0 3d 84 e9 78 be
       -0.22134769 -0.061562687 0.09398563 -0.24307829
000020 82 17 5c be da 90 64 3e f6 b5 cf 39 89 56 24 3e
       -0.21493343 0.22320881 0.00039617688 0.16048636
000030 e8 5b 13 3e 7b b9 15 3e 95 a0 75 39 64 80 15 3e
       0.14390528 0.14621536 0.00023424842 0.14599758
000040 bf ec 95 3d 79 d3 d3 3c 3d ec 0e be 78 4f 45 3e
       0.07320546 0.025857674 -0.13957305 0.19268596
000050 63 7c a0 3e 5f 77 a9 bb d9 d6 e3 3c b3 02 57 be
       0.313449 -0.005171701 0.027812408 -0.20997123
000060 71 41 fb 3d 58 cd 31 bc 96 33 43 3e b7 3a 86 3d
       0.12268341 -0.01085218 0.19062647 0.06554168
000070 a0 92 60 3e 1f 17 27 bd 37 9a bb 3d 44 ee 42 be
       0.21930933 -0.040793534 0.091602735 -0.19036204
000080 44 3b 8e 3e 36 25 d0 bd 5c 8c 00 3e 12 6c 0d be
       0.2777959 -0.101633474 0.12553543 -0.13810757
000090 ea f6 32 bc 09 7f 2e be 1e fc 42 3d 90 3b ba bd
       -0.010923127 -0.17040648 0.04760372 -0.09093392
0000a0 63 dc 15 3e d6 5f bd be 9d 05 0b 3e df e9 b1 be
       0.14634852 -0.3698718 0.1357636 -0.34748742
0000b0 0c 64 56 bd 56 2b 02 bd 60 f4 19 be e4 20 8e 3e
       -0.052341506 -0.03177961 -0.15034628 0.2775947
0000c0 8d da 6f 3e 88 59 10 bd 7c 03 44 3e 45 7c 04 3e
       0.23423214 -0.035241634 0.19141954 0.1293803
0000d0 21 e8 a4 bd 2a c6 78 3e e3 f4 1b 3e f0 b4 2d 3d
       -0.080520876 0.24294344 0.15230136 0.042408884
0000e0 d8 e0 05 3e 20 71 18 be 08 b9 a1 be 4b 53 aa be
       0.13074052 -0.14886904 -0.3158648 -0.33266672
0000f0 cc a1 a0 3e af 96 61 be 6b 59 dc 3d a9 c6 8e 3e
       0.3137344 -0.22030137 0.107592426 0.2788594
000100 24 3e 81 bd 78 96 59 3e 40 b6 05 3e 2e ee 27 3e
       -0.063106805 0.21248806 0.13057804 0.16399452
000110 81 f1 87 be 78 83 89 3e a9 7e 8c 3e c8 4d 0b 3e
       -0.2655144 0.26858115 0.27440384 0.1360389

down_blocks.0.conv1.bias f4 [4]
000000 44 12 04 bc 48 15 92 bc d0 cc b5 3d 5c d3 a5 3c
       -0.0080609955 -0.017832413 0.088769555 0.020242386

down_blocks.0.conv2.weight f4 [4, 4, 3, 3]
000000 0a 4d a1 bd c6 3c 10 3d d9 ba 28 3e a3 14 5c bc
       -0.07876022 0.035214208 0.16477527 -0.013432655
000010 06 31 47 3e ed 82 5d be 17 7b 91 3e 34 0e a1 3d
       0.19452295 -0.21631975 0.28414223 0.07864037
000020 09 ed 0b 3e 16 6a 8c 3e 59 5f 83 3e df a8 f0 3d
       0.1366464 0.27424687 0.25658682 0.117509596
000030 1e 51 2b be 45 52 bb 3d 83 10 fa bc 12 98 b2 3d
       -0.16730163 0.09146551 -0.030525452 0.08720411
000040 ab 35 45 3d 22 d2 5f 3d 38 58 a6 3d b0 76 f8 3d
       0.048146885 0.054643758 0.08122295 0.12132013
000050 8b 69 50 3e 4d 32 22 be da 71 55 be 08 07 4e 3d
       0.20352761 -0.158395 -0.20844212 0.050299674
000060 ed 15 54 3e ad eb 33 be 28 bb 30 3e c4 4f b9 3d
       0.20711489 -0.17570372 0.17258894 0.09048417
000070 e8 0a b4 3c 6e ff 1f be d2 5e 90 3a c1 b9 2f 3d
       0.021977857 -0.15624782 0.0011014587 0.042901758
000080 34 ed 59 3e 8c 69 22 be 48 17 15 be 21 a5 23 3e
       0.21281892 -0.15860575 -0.14559662 0.1598096
000090 3c ca 9c bc c1 15 c0 bc 23 c6 32 be 4a a9 28 3d
       -0.019139402 -0.023447873 -0.17458396 0.04117707
0000a0 4b 39 9b 3d d9 4c 32 3d 91 fc 85 3e 1e a0 a0 bd
       0.07579287 0.04353032 0.26169255 -0.0784304
0000b0 bc ff 05 bd bc 4b 51 bc bd 75 8c bd 08 43 5d be
       -0.03271459 -0.012774404 -0.06858394 -0.21607602
0000c0 ad 48 5c be 21 68 d2 bc 9c 3a a7 3d 45 df c6 3b
       -0.21512099 -0.025684418 0.08165476 0.0060690963
0000d0 e0 a5 0c 3e b0 e9 5b be 6c 5e 69 be 10 d5 51 3d
       0.13735151 -0.21475863 -0.22789925 0.051228583
0000e0 06 c4 4d 3e 53 46 90 3e 8b 5e 32 3c 0e 43 28 be
       0.20094308 0.28178653 0.010886799 -0.1643183
0000f0 a3 92 5a 3e c8 cd 30 be e5 4c 55 3e d1 79 fd 3d
       0.21345 -0.17266 0.20830114 0.1237675
000100 76 30 33 be d4 23 93 bc aa b3 e6 3d f0 41 13 be
       -0.17498955 -0.01796142 0.11264737 -0.14380622
000110 6d a0 79 be 72 4a ec 3d 80 d3 b1 3d 1a 45 66 be
       -0.24377604 0.11537637 0.086829185 -0.22487298
000120 31 07 a5 3d 34 21 68 be b7 ac 0e be 6b 2e 52 be
       0.08058012 -0.22668916 -0.13933073 -0.2052552
000130 08 8d a6 bd de 6d d5 3c 55 b5 ff 3d 70 ee 65 3e
       -0.08132368 0.026053365 0.12485758 0.22454238
000140 3d c2 47 be 5f 00 aa bd 27 be a8 3d 3a 59 56 3e
       -0.1950769 -0.08300852 0.08239394 0.20932475
000150 f5 91 17 3e 1a eb 28 be bb ed e7 bb dd 98 fc bd
       0.14801772 -0.16495934 -0.0070779 -0.12333844
000160 23 80 72 3d 5a 69 70 bc 64 3f 37 3e de 1d a4 bd
       0.059204232 -0.014673555 0.17895275 -0.08013509
000170 a3 b0 e0 3d 06 f3 47 be b9 f6 84 be 6d ea 8c be
       0.10971191 -0.195263 -0.25969484 -0.27522603
000180 55 82 6a be 86 a9 89 bb 80 33 aa 3d 20 f4 a3 3d
       -0.2290128 -0.004201117 0.08310604 0.080055475
000190 4b 0b 12 be 2e 91 ad ba d2 4e 67 3e f1 d2 c9 3d
       -0.1426212 -0.001324212 0.22588661 0.09854687
0001a0 eb 4f 6c 3e 27 66 54 be 0b 8c 81 3e 5e 8f 00 bb
       0.23077361 -0.20742093 0.25302157 -0.0019616704
0001b0 09 7d 2d 3e 92 13 ce bd 71 c4 47 be 99 3a b1 3d
       0.16942228 -0.100623265 -0.1950853 0.08653755
0001c0 ca 76 bf bd ec f7 8b 3e 53 37 19 3e f1 f9 e7 bd
       -0.09348829 0.27337587 0.14962511 -0.113269694
0001d0 45 ab 77 3d 9a 2f 30 be 8f d5 79 3e 1b f6 48 3e
       0.06046607 -0.17205659 0.24397872 0.19625132
0001e0 fb 93 0d 3e 6d f0 2a be 5a 91 f3 3d 9f 06 ab 3d
       0.13825981 -0.16693278 0.11892958 0.08350872
0001f0 32 1e ec 3d f3 40 6e be 75 ee 3f be 95 7b 04 3e
       0.11529197 -0.23266964 -0.18743308 0.12937768
000200 49 11 b6 3d 5b 5e 33 3e 38 df f9 bd 2a 93 7a be
       0.08890016 0.17516463 -0.12200779 -0.24470201
000210 b7 0f 52 3e 1c a3 8f 3e 7f 5b 99 3c 9b 7c 27 3c
       0.20513807 0.2805413 0.018720387 0.010222579
000220 d2 24 94 3e 29 39 02 3d b3 2d 00 3e 48 59 b4 bd
       0.28934342 0.031792793 0.12517433 -0.088060915
000230 f8 15 21 be 20 f9 2a be f4 a6 6e 3e c7 0a 0e 3e
       -0.15731037 -0.16696596 0.23305875 0.13871299

down_blocks.0.conv2.bias f4 [4]
000000 81 d0 d5 3b 6d 08 1f bb 09 71 ba be e7 e4 48 bc
       0.0065250997 -0.0024266497 -0.36414364 -0.012261606

down_blocks.0.norm1.weight f4 [4]
000000 41 4c 7f 3f d6 30 7c 3f d6 a7 73 3f 9a ca 71 3f
       0.9972573 0.9851202 0.9517797 0.9444977

down_blocks.0.norm1.bias f4 [4]
000000 07 07 d9 3d 61 70 88 bd 1c f7 81 3e eb 87 31 be
       0.105970435 -0.066620596 0.25383842 -0.17337005

down_blocks.0.norm1.running_mean f4 [4]
000000 f0 79 4f 3e d9 b7 4b 3e ec a7 54 3e 74 21 b7 3e
       0.20261359 0.19894351 0.20767182 0.3576771

down_blocks.0.norm1.running_var f4 [4]
000000 1b 13 28 3c bd c4 e3 3b 53 3a b3 3b 5d 08 c5 3c
       0.010258461 0.0069509433 0.0054695993 0.02405184

down_blocks.0.norm2.weight f4 [4]
000000 81 b9 7f 3f 01 d9 79 3f eb 8a 89 3f ad 42 80 3f
       0.9989243 0.97596747 1.0745519 1.0020348

down_blocks.0.norm2.bias f4 [4]
000000 f3 9d b6 3b dc 1e a7 3c b8 5b 8a bd f4 71 72 bc
       0.0055730282 0.020400457 -0.06755775 -0.014797676

down_blocks.0.norm2.running_mean f4 [4]
000000 75 37 1b 3f 8c a8 ab 3e c3 98 2f 3d 31 aa e6 3e
       0.60631496 0.3352703 0.042870294 0.4505172

down_blocks.0.norm2.running_var f4 [4]
000000 b9 21 1f 3f 45 d6 21 3e 08 38 5c 3d 6f a9 ba 3e
       0.6216083 0.15804394 0.053764373 0.36457393

down_blocks.1.conv1.weight f4 [8, 4, 3, 3]
000000 c7 e4 15 3e 02 d9 f6 3c ed 4d 27 be 8b e1 09 3e
       0.14638053 0.030132774 -0.1633832 0.13464944
000010 28 fe cb 3a 90 5e d9 bd 5a a2 05 be 91 96 02 3e
       0.0015563415 -0.106137395 -0.13050213 0.12752749
000020 d8 b4 30 bd ec 70 e7 3d 92 21 19 bd 26 54 1c be
       -0.043141216 0.11300835 -0.03738553 -0.15266475
000030 be b5 38 3c 14 a1 f8 bd ad bc 81 3d 81 07 c9 bd
       0.011273799 -0.12140098 0.06334815 -0.098158844
000040 4d 33 3a be 5d c7 26 be ee 8c 1d be a3 c7 eb 3c
       -0.18183632 -0.16286989 -0.15385792 0.028781718
000050 a4 25 c0 3c 96 32 67 3c 6a 51 6e 3e c2 1a 99 3d
       0.023455448 0.014111182 0.23273245 0.07475807
000060 53 5f f3 bd b6 65 3d be 07 08 02 bd 71 db e1 bd
       -0.11883416 -0.18495831 -0.031745937 -0.11028183
000070 1c fd 40 be 34 dc 9f bd a3 86 12 be cd b5 0c 3e
       -0.18846554 -0.07805672 -0.14309172 0.13741226
000080 ab 13 91 bd c4 4f 8f 3d b8 83 67 3e 46 fe 89 3d
       -0.070838295 0.06997636 0.2260884 0.06737952
000090 a1 d9 43 3e be 1a 5a 3e 3f e6 6b be 06 dd 28 bd
       0.19125988 0.21299264 -0.2303705 -0.04122641
0000a0 1c ad 6d be e2 85 68 3e 23 f5 8b bd 5c 79 4f be
       -0.23210567 0.22707322 -0.068338655 -0.20261139
0000b0 fc 4f 5a 3e c8 76 d1 bd 01 45 66 3d 7c d2 20 3e
       0.21319574 -0.10227734 0.05621815 0.15705293
0000c0 7d 06 5a bd f7 53 06 be 0f 8e 81 bd e0 25 21 3e
       -0.053228844 -0.13117968 -0.06325924 0.15737104
0000d0 2b c9 11 3e c8 19 2e 3e d5 93 5d be eb 56 0b 3c
       0.14236896 0.17002022 -0.21638425 0.00850461
0000e0 05 43 b6 3c cf 8d b2 3d 81 96 81 bd 86 96 60 3e
       0.022248754 0.08718454 -0.063275345 0.2193242
0000f0 f2 25 f4 3d 04 d3 14 3d da 81 21 bd bc e7 68 3e
       0.119213 0.036334053 -0.039430477 0.2274465
000100 7e c3 8e bd 6a 7d 59 be 50 3d 05 bd ff a8 e5 bc
       -0.06970881 -0.21239248 -0.032529175 -0.028034685
000110 4f 5a 3b be 16 a1 b7 bc 18 db 9b bb b0 95 b4 bc
       -0.18296169 -0.022415679 -0.0047563426 -0.022044033
000120 71 6f 1f 3d 7e 9d c3 3d d5 d8 ae 3d 9e 33 db 3d
       0.03892464 0.095515236 0.08537451 0.107032046
000130 95 8a 0d 3e c5 93 43 3d 33 c6 29 bc 40 e7 f0 3d
       0.13822396 0.047748346 -0.010362196 0.117628574
000140 a0 98 93 bc 38 46 27 bc 7a 5f bb bd 1b c6 4c 3e
       -0.018017113 -0.010209613 -0.0914907 0.19997446
000150 9e 5e 35 3d 36 e4 26 3e 2b 80 42 be a3 bb 0d 3e
       0.044279687 0.16297993 -0.18994205 0.13841109
000160 a9 ea c5 bc f4 6e 2c be 8c 15 39 be 5d ff 19 3c
       -0.024159746 -0.168392 -0.18074626 0.009399262
000170 69 02 e1 3b c3 a7 76 3c 14 23 2a be c1 d4 44 be
       0.0068667424 0.015054646 -0.16614944 -0.19221784
000180 9f 52 13 be 11 0a 15 be 7c a4 42 be 49 53 59 3e
       -0.14386986 -0.14554621 -0.19008058 0.21223177
000190 8f fb 6c be f0 f2 5a 3e 5d 8b 0c bc 48 fe b6 3d
       -0.23142837 0.21381736 -0.008578149 0.08935219
0001a0 14 98 23 be a0 4b 49 3d 07 ca fe 3d f1 13 b0 3b
       -0.15975982 0.049144387 0.124408774 0.005373471
0001b0 60 02 e5 bd a6 a4 ca 3d b4 cc 21 bd df 55 18 3d
       -0.111820936 0.098946854 -0.03950186 0.037191268
0001c0 12 aa 52 be 3b 97 65 3e 10 d3 8f 3d 94 ef 21 3c
       -0.20572689 0.22420971 0.07022679 0.00988378
0001d0 23 a2 3a 3d a1 95 2c 3e 1d b8 2a be 1f 4a 4d 3e
       0.045564782 0.16853954 -0.16671796 0.20047806
0001e0 3a 09 6f be d3 62 37 3d ae 79 8a 3d 94 ed 76 3d
       -0.23343363 0.04477198 0.0676149 0.060285166
0001f0 1b c8 88 bd da 08 3f 3e be 11 42 3e 07 6a 1c be
       -0.06678792 0.1865572 0.1895208 -0.15274821
000200 ab 95 48 3e fb 91 39 3e e3 92 91 bb 79 ea 0f 3e
       0.19588344 0.18122093 -0.004442559 0.14054288
000210 26 f7 01 3e 36 94 3c be 95 7d 84 3d d4 33 43 bd
       0.12691936 -0.18415913 0.06469265 -0.04765685
000220 da 4f 34 be 95 26 62 be 0a e3 22 bd 4c 03 9a 3c
       -0.17608586 -0.2208503 -0.039767303 0.0188004
000230 50 95 5d 3e c3 d6 48 3e 66 45 ad 3d 50 c6 4a bd
       0.2163899 0.19613175 0.08460502 -0.04950553
000240 4b 6d a1 bd 1f ed 4c be 9c 34 bc 3c 88 eb 0b be
       -0.07882174 -0.2001233 0.022974305 -0.13664067
000250 9e de 83 bd 35 9d 36 be 01 7c 9a bd 08 af e5 3d
       -0.06438945 -0.17833407 -0.07543183 0.11215025
000260 4e 8f 01 3e 1b f0 53 be 88 28 8e bd f7 7f f5 3d
       0.12652323 -0.20697062 -0.069413245 0.11987298
000270 df 84 13 3e 2e ab 32 3e 23 9f c8 bd b1 66 8d bd
       0.14406155 0.17448112 -0.09795978 -0.069043525
000280 a7 af 10 3c c1 9b 74 3d a5 64 8e bd 27 fc bc 3d
       0.008830941 0.05971885 -0.0695279 0.09227782
000290 04 8f 56 3e e8 20 4b 3e 6b a1 65 3d 71 11 d0 3d
       0.20952994 0.19836771 0.056062143 0.10159577
0002a0 d1 9e ef bd 4a bc 3d be ab 2f ef 3d e4 db ad 3d
       -0.11700214 -0.18528858 0.11679014 0.084892064
0002b0 ea 41 58 3e 0a 18 06 be c9 58 cd bd 53 a0 6b bc
       0.21118894 -0.13095108 -0.100267 -0.014381486
0002c0 2a 25 48 be bf 2b 59 3e 66 6f 48 3e aa 1d 8a 3c
       -0.19545427 0.21208094 0.19573745 0.016859848
0002d0 62 58 70 3e 9a 41 1d 3e 13 4b 22 3e e4 8a 58 3e
       0.23471215 0.15357056 0.15848951 0.21146733
0002e0 7a 3c b8 3d 26 d1 19 3e 36 b3 0a 3e a4 b4 1e be
       0.0899591 0.1502119 0.13544926 -0.15498596
0002f0 59 29 03 3c 1b 77 b4 3c b5 97 ba 3d b6 5b ba 3d
       0.0080054635 0.02202945 0.09110967 0.09099524
000300 bb 1a 4c 3b 59 31 06 be 2a c9 3b be 1d b7 38 3e
       0.0031143862 -0.13104762 -0.18338457 0.18038602
000310 2e e1 cd 3d 90 01 29 3e f1 41 4e be 50 f6 72 be
       0.10052715 0.16504502 -0.20142342 -0.23726773
000320 1a 2a 72 bd 5c 25 90 3d bc 5c 38 3e 29 86 1a be
       -0.059122182 0.07038376 0.18004125 -0.1509024
000330 6c bb 57 3d 03 ed 06 be e2 9d 32 be 6b dd 3a bd
       0.052668974 -0.1317635 -0.1744304 -0.045621317
000340 2a d7 3f be 08 b7 27 3e af fe d1 bd 40 e7 2a 3d
       -0.18734422 0.16378415 -0.10253655 0.041724443
000350 5d fd 3f 3d b5 51 6e be ac 1f 47 3e 85 51 36 be
       0.046872485 -0.23273356 0.19445676 -0.17804535
000360 1f be f2 3d 05 fc 5d 3e d2 23 f9 bd 7e 3a 42 3e
       0.11852669 0.21678169 -0.12165035 0.18967625
000370 bb f4 a3 bd 05 fa ea 3b f8 f2 22 3e 08 5a 16 3e
       -0.08005663 0.007170918 0.15912998 0.14682782
000380 89 fb 3e be fa 4d 86 bd ac c8 2c 3e 18 23 24 3e
       -0.1865064 -0.065578416 0.16873425 0.16029012
000390 2f 8a 33 3d 13 8c c3 3c 62 a8 6f be 94 33 ad bd
       0.043832954 0.023870504 -0.23404077 -0.08457103
0003a0 1a f6 2c 3d 39 cd 8b 3d b6 74 3c 3e a8 ee c0 bd
       0.04222689 0.068262525 0.18403897 -0.0942052
0003b0 ac d1 89 3d 43 fe 04 3e 2d b5 10 be a6 d0 1d bd
       0.06729445 0.12987618 -0.14131613 -0.03852906
0003c0 a6 b4 14 3e 82 e9 08 3e 53 5c 52 3e cc 72 a5 3c
       0.14522037 0.13370326 0.20543031 0.020196341
0003d0 2c 8c a4 3c db 38 52 3e 1f bc b3 bd 36 be 8b 3d
       0.02008637 0.20529501 -0.087761156 0.06823389
0003e0 f0 18 53 be c0 1d 47 bd 0f d9 44 be d9 03 e9 3d
       -0.20614982 -0.048612356 -0.19223426 0.11377687
0003f0 37 e9 21 be 96 58 4f 3e 80 f7 3e be 31 ea 21 3d
       -0.1581162 0.20248637 -0.18649101 0.039529983

down_blocks.1.conv1.bias f4 [8]
000000 3e 28 58 bb 3e 02 3b 3b cb 89 98 b9 b3 71 08 bb
       -0.003298297 0.0028535272 -0.00029094363 -0.0020819723
000010 e6 dc 68 bb bb a1 5d bb f1 3d 19 ba 19 b9 98 b9
       -0.0035532056 -0.0033818323 -0.0005845717 -0.00029129608

down_blocks.1.conv2.weight f4 [8, 8, 3, 3]
000000 03 2c 4c be fe 05 49 be 6b 6c b4 3d cf a8 48 3e
       -0.19938664 -0.19631192 0.088097416 0.19595645
000010 7e 72 b9 bd 34 23 23 be 1c bf 16 3e 44 24 4c be
       -0.09055041 -0.15931398 0.1472134 -0.19935709
000020 c8 e9 4a bd ce ee c2 3d a3 1e 2b 3d 1b 5d 96 bd
       -0.049539357 0.09518205 0.041777264 -0.07341977
000030 e1 69 4e be fc 89 26 be c7 4c aa bd a7 e8 29 3e
       -0.20157577 -0.16263574 -0.08315425 0.16592656
000040 1e ff ac bd 13 76 58 3b f0 9f c0 bc be 9c 3e 3e
       -0.08447097 0.0033029362 -0.023513764 0.1861448
000050 35 2a 51 3e c2 49 3f 3e 48 78 a5 bd 29 7a ad 3d
       0.20426257 0.1868048 -0.080795825 0.08470566
000060 df 01 39 be 4b 40 5c bd 41 6b 5a bc 45 00 33 3e
       -0.1806712 -0.053772252 -0.013331235 0.17480572
000070 69 b1 bf bd 6c 68 18 be aa e4 63 bd 1c 3f b6 3d
       -0.0936001 -0.14883584 -0.055637993 0.08898756
000080 a9 78 fc bd 55 be c2 bd 7e 35 a6 3c a5 78 da 39
       -0.123277016 -0.09508959 0.020289179 0.00041670087
000090 db aa 07 3d 1d 8a 20 3e f8 96 3a be 3e 7c 11 3e
       0.033121925 0.15677686 -0.18221653 0.14207551
0000a0 7c f9 51 3e c2 f3 6b 3d c3 ce a9 bc b7 dc a2 3d
       0.20505327 0.057605512 -0.020728474 0.07952254
0000b0 45 32 49 3e cd a4 f2 3c 1b 71 c4 3d 21 2e 0e be
       0.19648083 0.029619599 0.09591886 -0.13884784
0000c0 2e c4 91 3d 75 72 f4 bc 29 5a 46 be 55 60 23 3e
       0.071174964 -0.029839734 -0.19370331 0.15954717
0000d0 02 e5 e3 3d 3e 68 31 3e d1 c9 aa bd f5 68 24 3e
       0.11127664 0.17324921 -0.08339275 0.16055663
0000e0 c7 73 4d be ca cb 80 bd ec ae a8 3d 3e 1a af 3c
       -0.20063697 -0.0628887 0.08236489 0.021374818
0000f0 82 e9 bb bd c4 ed 01 bd a9 a2 20 3e 4d 25 ed ba
       -0.091753975 -0.03172089 0.1568705 -0.0018092782
000100 14 90 19 be 04 7e a9 bd 5c b0 da 3d 92 69 1b be
       -0.14996368 -0.08275989 0.10678169 -0.1517699
000110 83 3c d8 bd 59 24 19 be 5a 5e 38 3e b8 fd 2b bc
       -0.10558417 -0.14955272 0.18004742 -0.010497503
000120 ef db 67 bc cd 87 01 3e df 4c 4d 3e 4e 05 a5 3d
       -0.014151557 0.1264946 0.20048855 0.080576524
000130 38 23 7b 3d 9c 8e 51 be 4b df 3c 3e 87 54 eb bc
       0.061312884 -0.20464557 0.18444555 -0.02872683
000140 de 05 a9 bd 1f 6d 9d bd b9 26 df bd d6 5b aa 3d
       -0.08253072 -0.07686829 -0.10896058 0.083182976
000150 b4 f0 26 be cf 57 26 be eb 1b 53 bc 80 fc f2 3c
       -0.16302758 -0.16244434 -0.012885074 0.029661417
000160 c2 70 35 3d 91 1b 41 bd 49 64 10 bd 78 51 7a 3c
       0.044296987 -0.04714543 -0.03525189 0.015278213
000170 de 7b f8 bd bd b2 0a bd 6b e7 20 3e 12 64 1c bd
       -0.12133001 -0.033861864 0.15713279 -0.038181372
000180 7c bb 16 3e b2 3e 08 3d f6 97 c8 3d ae 74 3f 3d
       0.14719957 0.033262916 0.09794609 0.046742134
000190 33 bb d6 bd b5 52 68 bd 9b 5d f5 3d ac f6 1d 3d
       -0.10484924 -0.0567195 0.119807445 0.038565323
0001a0 ad 8c f5 bb 61 67 db 3d e4 63 1e bd 13 b5 91 bd
       -0.0074935765 0.10713077 -0.038669482 -0.07114615
0001b0 e5 5d 45 3e 8a 23 43 bc bf f7 a2 3a 91 c5 63 bd
       0.19274099 -0.011910329 0.0012433453 -0.055608336
0001c0 38 7a 3b be b1 77 07 be d6 bf 0a 3e a3 58 fb 3b
       -0.18308342 -0.13229252 0.13549742 0.0076704784
0001d0 ed 3c 1b 3d ee 95 e4 bd 87 78 63 bd 3e b1 f0 3d
       0.0378999 -0.11161409 -0.055534866 0.11752556
0001e0 6a 14 29 3e a1 ad 33 3e 31 1a 55 3d 7b 38 43 be
       0.16511694 0.17546703 0.05202693 -0.19064514
0001f0 d4 92 b9 3d 77 5f d6 bd 1b ff 9c 3d 3d 0d 95 bd
       0.09061208 -0.10467427 0.07665845 -0.072779156
000200 ce 07 4e 3d a6 3e 3d bd 7d d2 01 3d 2a ba 20 3e
       0.050300412 -0.046202324 0.031694878 0.15696016
000210 b9 73 e6 3d cf f2 9f bc 28 5b 47 bd eb 43 f4 bc
       0.11252541 -0.01952496 -0.048670918 -0.029817542
000220 74 11 f2 bd bf 27 db 3d 39 0a 44 3e ba 86 1a 3e
       -0.11819735 0.1070094 0.19144525 0.15090457
000230 7b f0 55 be 2d 39 41 be 53 47 d2 bd 31 6d 13 3e
       -0.20892517 -0.18869467 -0.1026751 0.14397122
000240 86 76 40 3d be 94 fc bd 43 2b 16 3e 81 12 2e be
       0.046988033 -0.12333058 0.1466494 -0.16999246
000250 09 27 05 be d1 ab 20 3e 16 06 07 be 2f 5d 0e 3d
       -0.13003172 0.15690543 -0.13185915 0.034756836
000260 12 91 30 bd 29 e0 56 bd d7 ac b5 bd 03 7e cb 3d
       -0.0431071 -0.05245987 -0.08870857 0.09936144
000270 75 4a 18 be c6 de e1 bd a4 91 09 3e 56 4b 32 3e
       -0.14872153 -0.11028819 0.13434464 0.17411551
000280 b9 07 28 3e cb 02 f6 3b 84 70 8f 3c 46 6f e7 bd
       0.16409196 0.007507657 0.017509706 -0.113005206
000290 76 c2 95 3d 45 3f 3c 3e bc bf 1a bd 7c 91 c7 bc
       0.07312481 0.1838351 -0.03778051 -0.024361365
0002a0 89 78 00 3e cb 64 71 3d f6 d6 d1 bd f9 27 fc 3d
       0.1254598 0.058934014 -0.10246079 0.12312312
0002b0 eb e1 4f 3e 5a c4 4d 3d d4 8f 7f bd dd 13 04 3e
       0.20301025 0.050236084 -0.062393025 0.12898202
0002c0 e0 10 75 3d 92 3a 8a 3d 24 a0 ed bd de 14 2d bd
       0.059830546 0.06749453 -0.1160281 -0.04225623
0002d0 bf 8a dd bd db e7 7c bd 7b 5a ac bd d9 31 3b be
       -0.10817479 -0.061744552 -0.08415695 -0.18280734
0002e0 1b 6e 23 3e af 5a 16 bd 01 e0 3b be 87 03 08 be
       0.1595997 -0.036707576 -0.1834717 -0.13282596
0002f0 8b fb 12 be 18 4b f7 bd d7 a5 83 bd a0 a5 66 3d
       -0.14353769 -0.1207487 -0.06428116 0.056310296
000300 ed 8f 14 be 32 31 d8 3b ed d3 04 3e a2 9d 19 3d
       -0.14508028 0.0065976614 0.12971468 0.037503846
000310 f8 74 f7 bc dc 6d b4 bd 7d 71 02 be b6 24 2f 3d
       -0.030207142 -0.088100165 -0.12738605 0.04275962
000320 36 a4 2a 3e 6c 8f 1c be 0a fe df 3c 49 87 33 3e
       0.16664204 -0.15289086 0.027342815 0.17532076
000330 b4 a0 13 be 4a f4 64 bd 76 e1 db bd 35 8d a8 3d
       -0.14416772 -0.055897035 -0.10736363 0.08230058
000340 7b d8 47 be 39 b6 3f 3e 5c a2 24 3e 75 0d 36 bd
       -0.19516174 0.18721856 0.1607756 -0.044446427
000350 b6 a0 0d be 24 97 67 3c 35 96 0a 3d ab a1 aa bd
       -0.13830838 0.014135156 0.033834655 -0.08331617
000360 52 ba 2c bb 63 87 2c 3e 88 92 2b be ae 5d ad 3d
       -0.0026356173 0.16848521 -0.16755116 0.084651336
000370 f7 b8 a2 bd 20 f6 19 3e a3 07 48 3d bd 14 71 bc
       -0.079454355 0.15035295 0.048835408 -0.014714417
000380 ed a3 1e be 8c 2b 15 bd fa d6 80 3d d0 1f 84 bd
       -0.1549222 -0.036418483 0.062910035 -0.0645138
000390 47 90 04 be 23 0c 96 bd 8a 2d d0 3b 06 1c bc 3d
       -0.12945662 -0.07326534 0.006353085 0.091850325
0003a0 c9 75 2f be ca b6 5f bd 4e 14 67 bc 24 48 4e 3e
       -0.17134775 -0.05461768 -0.014103962 0.20144707
0003b0 a2 7b 07 3e 03 6e 26 bc 9e bc 83 3d 9a 6e 9e 3d
       0.13230756 -0.010158065 0.0643246 0.07735939
0003c0 8e 1f d3 bd 21 c1 e6 bd 31 2b 50 3e a4 cd 5f bd
       -0.10308753 -0.11267305 0.20328976 -0.054639474
0003d0 a7 7e 16 be b6 0f 0f 3e df 1d 2e be 2c 2f b9 3d
       -0.14696752 0.13970837 -0.17003582 0.090422004
0003e0 97 7c 10 3e 33 6b 20 3d fb 7f ea bc 35 ca d8 3d
       0.14110027 0.039164733 -0.028625479 0.10585443
0003f0 c6 58 c7 bd 63 af 05 3e 47 d7 25 be bd 9e fe 3d
       -0.09733729 0.13055186 -0.16195403 0.12432621

down_blocks.1.conv2.bias f4 [8]
000000 0b ce 06 3a 64 96 f2 ba b2 9b 09 bb 71 18 0c b7
       0.0005142397 -0.0018507955 -0.0020997343 -8.350341e-06
000010 42 7a 46 3b 6f 80 c3 ba fd d6 c3 ba b6 28 85 b9
       0.0030285274 -0.0014915596 -0.0014941391 -0.0002539807

down_blocks.1.norm1.weight f4 [8]
000000 24 50 80 3f 1d 3d 80 3f bb 13 80 3f e2 8d 80 3f
       1.0024457 1.001865 1.0006021 1.0043299
000010 e4 64 7e 3f 6e 4b 80 3f e7 19 80 3f c8 6d 7e 3f
       0.99372697 1.0023019 1.0007905 0.9938626

down_blocks.1.norm1.bias f4 [8]
000000 9e 4a d3 ba 90 8b 09 3b 70 9b 28 b9 16 f7 f8 ba
       -0.001612026 0.0020987727 -0.00016079633 -0.0018994536
000010 37 34 30 3b 03 00 cd 3a a9 1b 4e b9 3c 6d 87 ba
       0.0026886591 0.0015640262 -0.00019655995 -0.0010332237

down_blocks.1.norm1.running_mean f4 [8]
000000 e3 75 25 3e 2f 9e 8f 3e 70 5d ff 3e 86 cd 76 3e
       0.16158251 0.28050372 0.49875975 0.24101838
000010 5e b2 6c 3e c0 88 c5 3e ce 99 8c 3e 64 9d 4e 3e
       0.23114917 0.38580894 0.27461094 0.20177227

down_blocks.1.norm1.running_var f4 [8]
000000 69 c8 b1 3d f8 74 51 3e 03 e4 03 3f 7c c5 e2 3e
       0.08680803 0.20454776 0.51519793 0.44291294
000010 b5 90 cb 3e e9 23 a4 3e 36 0b da 3e 53 7a 1e 3e
       0.3975884 0.32058647 0.42586678 0.1547635

down_blocks.1.norm2.weight f4 [8]
000000 87 4c 80 3f 1c a4 81 3f ce 4c 80 3f be e9 7f 3f
       1.0023354 1.0128207 1.0023439 0.9996604
000010 ee b3 7e 3f 70 ed 7f 3f 53 11 80 3f a1 4f 7f 3f
       0.994933 0.99971676 1.0005287 0.9973088

down_blocks.1.norm2.bias f4 [8]
000000 c7 42 5f b9 53 bd 72 bb 2c 65 53 bb 2b e7 b5 ba
       -0.00021291814 -0.0037039116 -0.0032256348 -0.0013878098
000010 e0 15 87 3a 7b 29 69 bb b6 3e b2 3a 59 59 9c 3a
       0.0010306202 -0.0035577703 0.0013599012 0.0011928483

down_blocks.1.norm2.running_mean f4 [8]
000000 7f 3a a0 3e 07 88 ac 3e fa f9 67 3e f0 89 b9 3e
       0.3129463 0.3369753 0.22653952 0.3623805
000010 d5 0c 83 3e 26 27 ba 3e e2 25 82 3e 2c 24 3f 3e
       0.25595728 0.36357993 0.25419527 0.18666142

down_blocks.1.norm2.running_var f4 [8]
000000 4e d5 b1 3e 7e 45 98 3e dd 96 f3 3d 9a 3d 9d 3e
       0.3473305 0.29740518 0.11894009 0.3071106
000010 78 1f 83 3e 11 04 94 3f 6b 0a 22 3e 23 c7 47 3e
       0.25609946 1.1563741 0.15824287 0.19509558

down_blocks.2.conv1.weight f4 [16, 8, 3, 3]
000000 fc 36 ec bc 75 0d 96 3d 05 e5 66 bc 0e 45 6a bd
       -0.028834812 0.073267855 -0.014092688 -0.057194762
000010 02 fb 73 bd ad 65 7d bc 3b bc a2 bd 68 d3 df 3d
       -0.05956555 -0.015466136 -0.07946058 0.109289944
000020 20 0a ab bd da 04 67 bd 63 9c 02 be e8 41 02 3e
       -0.083515406 -0.05640111 -0.1275497 0.12720454
000030 fb 5c 70 3d 1a 83 00 3d ee 41 f9 bd 2d 73 25 be
       0.058682423 0.03137503 -0.12170778 -0.16157217
000040 df 9c 9a bd a5 6c 37 3d 48 73 14 3e 55 30 57 bd
       -0.07549452 0.044781346 0.14497101 -0.052536327
000050 07 f2 53 3d f3 3e 17 3d 94 8c 0e be 41 da 5a 3d
       0.051744487 0.036925267 -0.13920814 0.0534308
000060 10 e1 08 3e 60 3f 99 bc 59 8d 60 3d 5d 8c 3b 3c
       0.13367105 -0.018706977 0.0548223 0.011447039
000070 85 d3 95 3d 2b 55 24 3c 62 74 c5 3d f4 67 98 3d
       0.07315735 0.010030071 0.09641339 0.074417025
000080 7c 3a 05 3e de df f9 3d 42 f1 fa bd fc eb 6e 3c
       0.13010591 0.122009024 -0.122530475 0.01458263
000090 ef 21 f1 3d be 94 82 3c 42 9e 07 be b1 e5 12 3e
       0.117740504 0.015940066 -0.13243964 0.14345433
0000a0 3a 5e ad 3c 5e e3 02 bd 96 39 00 bd 56 30 04 be
       0.021163095 -0.031955115 -0.03130492 -0.12909064
0000b0 a8 45 97 bc ea 66 ab 3b 94 67 30 3c 16 27 8a bd
       -0.018465832 0.005230774 0.010766882 -0.06745736
0000c0 ea f6 54 3d be 8c ae 3d 10 e5 b7 bd 86 56 45 3c
       0.051993288 0.08522938 -0.08979237 0.012044555
0000d0 a1 42 33 bd a1 b1 9d bd f0 98 b0 bd 54 54 ec 3d
       -0.043764714 -0.07699896 -0.086229205 0.11539522
0000e0 9d 6d f5 3d 8d c5 82 3d f9 a8 13 bd 29 53 f0 bd
       0.11983798 0.06385336 -0.036049817 -0.117346115
0000f0 48 fb 56 bc c3 50 95 bb 27 9e b4 bd 26 c9 bb 3d
       -0.013121434 -0.0045567467 -0.08819228 0.091692254
000100 52 da 02 3d d2 f5 9c 3d 62 69 84 3d af 9e 64 3d
       0.031946488 0.07664074 0.06465413 0.055815395
000110 e7 e4 56 3b 03 d0 89 bd 73 e9 5f 3d 99 9a b1 3c
       0.0032790245 -0.06729128 0.054665994 0.021680163
000120 9d 57 11 be 40 1a 09 be c4 f6 16 3d ae 18 d5 bc
       -0.14193578 -0.1338892 0.036856428 -0.026012745
000130 6c 44 3e 3d 13 b2 20 3e 79 a1 81 3d 74 d9 84 3d
       0.04645197 0.1569293 0.063296266 0.064867884
000140 a4 7d ed bc bf 82 f5 3d d2 9b 74 bd 01 04 de 3d
       -0.028990574 0.119878285 -0.059718914 0.108406074
000150 f9 57 af bd e0 f5 94 bd 69 92 1b bd 00 80 1d 3d
       -0.08561701 -0.072734594 -0.037981424 0.03845215
000160 db b5 98 bd cb 04 de bd 45 4f 12 bd 1d d4 1c be
       -0.07456561 -0.10840758 -0.03572013 -0.1531529
000170 16 9a 1b be 37 17 d1 3c 83 e9 21 3e 5a f3 17 3e
       -0.15195498 0.025523765 0.15811734 0.14838925
000180 04 1d ea bc a0 37 62 bb ac 0e 08 bd 2e 9a 00 be
       -0.028578289 -0.0034518018 -0.033217117 -0.12558815
000190 5e 8a e3 bd 5a 41 29 be 56 68 ea 3d 13 17 90 3d
       -0.11110376 -0.16528836 0.11445682 0.07035651
0001a0 6a 0e c2 3d ea d7 05 be 3e f4 24 bd 38 d8 0f 3e
       0.094754055 -0.13070646 -0.04027199 0.14047325
0001b0 86 67 ea 3d 3e af 1d 3e c7 80 cd 3c ce 33 b1 bc
       0.11445527 0.15398881 0.02508582 -0.021631148
0001c0 8a d1 4a 3d dc 24 13 be 4e de 1f be 32 76 e9 3d
       0.04951624 -0.1436953 -0.15612146 0.11399497
0001d0 9d d5 df bd fc 17 0d 3e 66 af 11 3b 4c 2c a6 bd
       -0.109294154 0.1377868 0.002222979 -0.08113918
0001e0 bd 8f 07 bd 5d 87 08 be 06 73 cb 3d d2 65 a5 3d
       -0.033096064 -0.13332887 0.09934048 0.08076061
0001f0 a7 3e 29 3e d2 3f b1 3d 9b 51 be bc e9 1e 18 3e
       0.16527806 0.08654751 -0.023232272 0.14855541
000200 32 65 2a bd c2 d5 03 be 7b 8b a8 bd 2f b3 9e 3d
       -0.041600414 -0.12874511 -0.08229729 0.0774902
000210 cc 50 c8 3c aa 03 14 be 65 50 16 3e 13 2b 17 3d
       0.02445259 -0.14454523 0.14679106 0.036906313
000220 35 56 52 bd b5 e5 b2 3c 9d 20 15 3d 1c 04 e1 bd
       -0.051351745 0.021838048 0.036408056 -0.10987112
000230 07 ce cd 3d 45 30 e1 3d df f5 85 3d fd 0d c4 bd
       0.10049062 0.10995535 0.06541037 -0.095729806
000240 d9 7e 77 bb 9c f6 84 bd b8 89 ba bd 3e 6f 91 bd
       -0.0037764816 -0.064923495 -0.09108299 -0.07101296
000250 8c 19 4a 3d 62 0e 25 3e 79 51 87 ba 2f d5 bd 3d
       0.04934077 0.16118768 -0.0010323963 0.09269177
000260 b3 7a da bd 61 2a 14 3d 99 17 01 be 7f d6 3f 3d
       -0.10667934 0.03617323 -0.12606658 0.04683542
000270 7e f7 08 be b3 e0 f6 bd d7 58 c0 3d 75 72 e7 3c
       -0.13375661 -0.12054577 0.09391945 0.02825282
000280 fa 92 97 bd e1 37 ec 3d a5 d3 e2 3d 94 d5 8b bd
       -0.074010804 0.115340956 0.11075524 -0.06827846
000290 cd 91 08 3e 09 27 c6 3d 70 b5 03 be 8c 05 1a be
       0.13336869 0.09675414 -0.12862182 -0.15041178
0002a0 21 8a f0 bd d9 0e 05 3e fa 94 47 bd cb fe 15 3e
       -0.11745096 0.12993945 -0.04872606 0.14647977
0002b0 d8 d1 29 bd fb e0 24 3d 11 fd 9a 3d 03 de 7c 3c
       -0.04145989 0.04025362 0.075678 0.015433791
0002c0 71 4e 00 bd 26 7c c5 3d b1 19 73 bd cb f2 29 3e
       -0.031324808 0.0964282 -0.059350673 0.16596524
0002d0 4e ee 0f ba 26 71 0d 3e 0a da d2 bd 71 90 6f 3c
       -0.0005490527 0.13812694 -0.10295494 0.01462184
0002e0 8f af ba bd e2 bc 99 bd ef 46 0d be 4d 5a 22 be
       -0.091155164 -0.0750673 -0.1379659 -0.1585476
0002f0 9a a9 fc bc 04 d3 ca 3d fe 23 85 3d c8 dc f1 3d
       -0.030842591 0.09903529 0.065010056 0.11809689
000300 7e b6 ee bd de d8 65 3d cc 92 26 be 96 35 85 3d
       -0.11655901 0.056115024 -0.16266936 0.06504361
000310 05 2b 97 3d fe bd ab bd d8 c3 37 bd ed a4 1f 3e
       0.07381252 -0.083858475 -0.044864506 0.15590258
000320 7c 09 1a 3d 7e fd eb bd 46 43 f3 3d 29 e1 c8 3d
       0.0376067 -0.11522959 0.11878066 0.09808571
000330 d1 87 0e be 0a 23 08 be 8b fc 9e bd cd 79 11 3e
       -0.13918997 -0.13294616 -0.077630125 0.1420662
000340 29 18 22 be b5 9d 00 be cb db 02 be 8a 69 68 bb
       -0.15829529 -0.1256016 -0.12779157 -0.0035463297
000350 2e 19 90 3d 99 ca c8 bb 9a a0 f8 3d 9d 75 0b 3e
       0.07036053 -0.006127667 0.12140007 0.13619085
000360 65 88 15 3d 41 0c ff 3d ae a2 11 be fd fd f3 3d
       0.03650703 0.12453509 -0.14222214 0.11913679
000370 aa 9c 01 3e bd 73 6b 3d 28 ce 02 bd c2 46 27 3e
       0.12657419 0.057483424 -0.031934887 0.16335586
000380 d4 b0 42 bd db cd f1 3d dd 89 12 be 66 48 0f 3e
       -0.047531918 0.11806842 -0.14310403 0.13992462
000390 13 17 d8 bd e2 46 d6 3d 78 de 60 bb c1 f1 56 bd
       -0.10551276 0.104627386 -0.003431229 -0.05247665
0003a0 57 d9 76 3d 80 25 20 be e1 f0 c1 3c 4b bf db bd
       0.060265865 -0.15639305 0.02367443 -0.107298456
0003b0 5e 0c a6 bd 9c 7e 63 3d 83 db 00 be 2f 15 29 3e
       -0.081078276 0.055540666 -0.12583737 0.16511987
0003c0 c2 eb 19 be 4d e1 fd 3c 1c c5 9a bd 5f f1 59 3d
       -0.1503134 0.03099122 -0.07557127 0.053208705
0003d0 a3 38 33 3d 6c 2d 2d bd b1 64 bc 3d e9 9b 80 3d
       0.043755185 -0.042279646 0.09198893 0.062797375
0003e0 74 bf 0f bc 63 b1 88 bd a7 f5 d5 3d 7a 9f cc bd
       -0.008773673 -0.06674459 0.10447245 -0.09991355
0003f0 cc 0e fc 3d 39 fb 8f 3d ca 06 8f 3d 24 7a a5 bc
       0.1230751 0.07030339 0.06983717 -0.020199843

down_blocks.2.conv1.bias f4 [16]
000000 13 c4 b1 b9 a6 d6 80 b9 ec bf ec 39 c9 b1 89 ba
       -0.00033906157 -0.00024573988 0.0004515642 -0.0010505255
000010 f9 70 36 b9 9a 78 cb b8 c1 15 26 3a 2e 4d e9 39
       -0.00017398958 -9.702258e-05 0.0006335639 0.00044498726
000020 06 33 58 39 64 ae e5 39 a9 7c 64 39 21 b2 28 3a
       0.00020618373 0.00043808215 0.00021790214 0.00064352347
000030 10 53 92 b9 42 e6 f4 b7 bd 68 98 38 c6 f7 9e b9
       -0.00027909176 -2.9194289e-05 7.267434e-05 -0.00030320714

down_blocks.2.conv2.weight f4 [16, 16, 3, 3]
000000 ab a6 bd bd b6 ef 04 be 2b 8e 9c bd c3 8e f3 3c
       -0.09260305 -0.12982067 -0.07644304 0.02973116
000010 2b 66 ff bd e1 5c 07 3e 71 b5 df b9 cc b4 91 bc
       -0.12470659 0.13219024 -0.0004266906 -0.017786406
000020 ca 07 64 bd 17 c1 a0 bc 07 65 bd 3d ca 47 e4 3d
       -0.05567149 -0.019623322 0.09247785 0.11146505
000030 00 19 5f bd 01 91 d9 bd 0e 63 73 bd cb 3f 1a 3d
       -0.0544672 -0.106233604 -0.059420638 0.037658494
000040 5d 0d 8b 3d bc e4 c1 bd 01 c7 06 3e 4b 0e f2 3d
       0.06789658 -0.09467456 0.13161851 0.118191324
000050 e9 74 51 bc 6c 69 bc bc c2 4a 47 3b 96 5e 0c be
       -0.012784221 -0.022999488 0.003040955 -0.13707957
000060 06 ff 39 bd 9d 72 69 3d 06 81 a8 bd 9e 9e f3 bd
       -0.045409225 0.05699407 -0.08227734 -0.11895488
000070 bb 9c d7 bd 02 d5 bb bd ea 9d 1d bc 86 8f 01 3e
       -0.10527941 -0.091714874 -0.009620169 0.12652406
000080 ed 57 ff 3d 58 e6 d0 bd 4c 42 fd bd 67 9e e4 3d
       0.124679424 -0.102001846 -0.12366161 0.11163025
000090 74 10 c9 bd 9b 46 16 bd 38 75 bf 3d be b7 5c bd
       -0.09817591 -0.03668843 0.093485296 -0.053886168
0000a0 da 39 5c 3b 72 36 05 3a 2d 7b 0d 3e 05 4f 08 be
       0.0033603818 0.00050816603 0.13816519 -0.13311394
0000b0 4d b6 73 bd e1 70 20 bb 3f 88 24 3d c6 76 09 3e
       -0.059500027 -0.0024481344 0.040168997 0.13424215
0000c0 85 0c 9d 3c c0 47 8d 3d 91 03 98 bc 26 f7 40 3d
       0.019171009 0.06898451 -0.018556388 0.0471107
0000d0 96 55 ca bc 3d 3f 10 3e 1f 70 c2 3d 9b 06 38 bd
       -0.024699014 0.14086623 0.09494042 -0.044928174
0000e0 04 fc 6c bd e6 af 7b bc a0 04 5d bd a9 b6 98 3d
       -0.05785753 -0.015361762 -0.05395949 0.07456715
0000f0 2a de 9d 3a ae 26 4d 3d 9a 67 b8 bc 0b b8 26 bd
       0.001204436 0.050085716 -0.022510339 -0.04070286
000100 bd 75 bf 3d d4 42 bb 3d e0 3a 10 be 9a da 03 be
       0.09348629 0.09143606 -0.14084959 -0.12876359
000110 f2 34 dc 3d d6 4a 57 3d e1 f5 f6 3d 88 73 60 3d
       0.10752286 0.052561603 0.120586164 0.05479768
000120 c0 bf 2d 3d 3e 50 4e 3d 54 ea a9 3c c2 36 5f 3d
       0.042419195 0.050369494 0.02074162 0.05449558
000130 c8 e1 d5 ba 76 b3 03 bd 13 09 ef 3d a5 c7 fa 3d
       -0.0016317898 -0.03215357 0.11671653 0.122451104
000140 a1 26 d4 bd d2 87 85 ba e6 c0 29 3d a3 1c a4 bd
       -0.103589304 -0.0010187572 0.041443728 -0.080132745
000150 0f 22 af 3a 54 c4 e1 3d 7c 88 4c bc c0 7e b7 3d
       0.0013361591 0.11023775 -0.012483712 0.089597225
000160 c1 c6 94 bd 59 1c ae 3d 54 21 00 3a ec f6 4d 3d
       -0.07264472 0.08501501 0.0004887779 0.05028431
000170 07 d6 a3 bd d9 ad 00 3e 94 b6 11 3e 94 30 f1 3d
       -0.07999807 0.12566318 0.14229804 0.11776844
000180 3c 9b aa 3c 2e 34 03 bc 5b f6 25 3d f4 a1 08 3e
       0.020825975 -0.008008046 0.040518146 0.1334303
000190 18 84 b3 bd 16 ca c3 3d 18 0d fb bd 93 5a 89 bd
       -0.08765429 0.09560029 -0.12258357 -0.06706729
0001a0 ce 55 4e bd ca 7f 8a 3d 81 f9 f0 3c 95 f0 7c 3d
       -0.0503748 0.06762655 0.029415848 0.061752874
0001b0 2f 6b 13 be 55 d5 06 be 9b 07 e5 3d d0 f9 63 3d
       -0.14396356 -0.13167317 0.11183091 0.05565816
0001c0 d5 c9 be bd 8c c7 20 3c 06 b2 a4 3d b6 d6 ec 3d
       -0.0931584 0.009813201 0.08041768 0.1156439
0001d0 40 fb 12 be d6 42 73 3d 89 d4 a7 3d e9 ae 59 3d
       -0.14353657 0.05938991 0.08194835 0.053145323
0001e0 46 60 91 3c 25 c4 07 3e 0d de 84 3d 32 1b 04 be
       0.017746102 0.13258417 0.06487665 -0.12900999
0001f0 55 f8 73 bd c4 b8 0c 3e 42 59 ee bd 40 d5 ce 3d
       -0.059563 0.13742357 -0.11638118 0.10099268
000200 86 2a 27 bd 40 3e fd bd a1 28 8b 3d 34 22 fb bd
       -0.040812038 -0.12365389 0.06794859 -0.12262383
000210 1e 83 7e bd 35 68 c1 bc 4c 56 7f 3d 49 0e bc bd
       -0.06213676 -0.02360926 0.06233816 -0.09182412
000220 47 55 c4 bc b0 c4 89 3d e4 14 63 3d 61 44 0c be
       -0.023966445 0.06726968 0.055439845 -0.1369796
000230 7c ed 35 bc a4 e5 bf 3d 4d 08 ee 3d c2 d7 a0 bd
       -0.011103984 0.09369972 0.11622677 -0.078536525
000240 07 bd 0e 3e 64 ab 7d bd 66 4b b8 bd 6b 36 dd 3d
       0.13939296 -0.06193103 -0.08998756 0.10801395
000250 04 f5 06 3e 99 e9 24 3d 41 d0 04 3e 88 c6 22 bd
       0.13179404 0.04026184 0.12970068 -0.039740115
000260 34 c3 af bd cf d7 ad bd c6 71 72 bc 4f 44 a4 bd
       -0.08582154 -0.08488428 -0.0147976335 -0.08020841
000270 ca a0 fd bd ee 6f 81 3d d9 84 ef bd a4 dc 0d 3e
       -0.12384184 0.06320177 -0.116952606 0.13853699
000280 fa 74 48 3d 35 d3 62 3c 07 b4 dd 3d e7 e1 9f 3d
       0.048939683 0.013844301 0.10825353 0.07806759
000290 04 43 d4 3d 72 76 a4 bd e3 d2 af bb 4a 36 04 3d
       0.10364345 -0.08030404 -0.005365716 0.032278337
0002a0 d1 af 7d bd de 6e 05 3e 3e d8 45 3c 39 b6 f9 bd
       -0.06193525 0.13030574 0.012075482 -0.12192959
0002b0 7f aa c0 bd 30 be ab 3d 72 a9 6c 3c ea 68 d4 3d
       -0.094075195 0.08385885 0.014444696 0.10371573
0002c0 dc 73 50 3d 75 42 3d bd c3 73 3f bd 97 ea af 3c
       0.050891742 -0.046205956 -0.04674126 0.021474166
0002d0 82 35 aa 3d eb 5e d4 bb a4 a7 87 3d 45 ec 6b b9
       0.08310987 -0.0064810417 0.06623772 -0.00022499364
0002e0 1f 51 cd 3d 19 72 c8 bd 68 ba d2 bd 9e 6e de bd
       0.10025238 -0.097873874 -0.102894604 -0.10860942
0002f0 43 4a e0 bd 7b 31 5e 3c bb c3 d0 bd 55 66 34 3d
       -0.10951664 0.013561602 -0.101935826 0.044042904
000300 21 42 e1 bd c0 f5 08 be df 90 94 3d 2e d8 ce 3c
       -0.10998941 -0.13374996 0.072541945 0.025249567
000310 8c 63 09 be 60 c8 cc 3c 5d ca 80 bc 6d 00 42 3d
       -0.1341688 0.02499789 -0.015721494 0.047363687
000320 3c da 0e 3e 85 0c b0 3d 50 15 ba 3d 43 63 67 3c
       0.13950437 0.08596138 0.09086096 0.014122787
000330 51 1a 97 3d 98 69 74 bd 96 90 85 bd 1b 9b 81 bd
       0.07378066 -0.059671015 -0.06521718 -0.06328412
000340 b4 91 f4 3c e9 17 0d be ed 88 92 3d 8f ed f4 3c
       0.029854633 -0.13778652 0.07155023 0.029898433
000350 ef d9 91 bd 12 0b e7 3d a9 d8 a9 bd ec 4c a5 3d
       -0.07121646 0.11281408 -0.08293278 0.08071312
000360 ab bc ea 3c 12 12 a7 bd 05 1a 01 3e 77 10 c3 3d
       0.028654417 -0.081577435 0.12607582 0.09524625
000370 4b 23 fe bd 99 db 8b 3d 39 d2 01 3e 59 2c c4 3d
       -0.12409075 0.06828994 0.1267785 0.09578771
000380 91 d4 05 3e cf e8 9c bd 38 23 3c 3c 46 0e c9 3d
       0.13069369 -0.07661592 0.011483006 0.098171756
000390 00 35 c8 3a 50 92 ae 3c 53 2b 88 3c 00 89 03 be
       0.0015274584 0.021310002 0.016622221 -0.1284523
0003a0 fd 75 94 b8 80 a4 b2 bd b8 8b 46 3d 70 16 08 3e
       -7.079167e-05 -0.08722782 0.04847309 0.13289809
0003b0 47 11 c7 bd ea 08 8a 3d 19 58 78 3c 35 2d ac bc
       -0.09720092 0.067399815 0.015157723 -0.02101765
0003c0 24 d5 8a bc 21 dd 63 bd 8e 33 e1 bc 19 5a 02 be
       -0.016947336 -0.055630807 -0.027490404 -0.12729682
0003d0 b3 9f 0f 3e 6f 27 3f 3d 6d 94 fd bd 33 45 8a bd
       0.14025764 0.046668466 -0.123818256 -0.0675148
0003e0 56 50 a1 bd a6 3f 36 3c 1e f5 bb bd 34 35 51 3d
       -0.07876651 0.011123573 -0.09177612 0.05107613
0003f0 c8 22 f3 3c e6 dd ff 3d d0 fe b4 3d 16 4e 93 bd
       0.02967967 0.12493496 0.08837664 -0.07192628

down_blocks.2.conv2.bias f4 [16]
000000 82 6c ed 39 63 0f aa 39 dc f5 d6 39 6a a6 df 36
       0.00045285007 0.0003243639 0.0004100044 6.665291e-06
000010 d4 6d 26 3a c6 9a e4 b9 7d a8 71 39 e0 82 37 b9
       0.0006348763 -0.00043602864 0.00023046318 -0.00017500995
000020 5c 05 16 b8 ea f2 17 b9 21 df f4 38 83 6f 36 ba
       -3.5767778e-05 -0.00014490975 0.00011676388 -0.00069593656
000030 74 1d 01 ba b0 53 1d 39 df 11 28 3a 88 21 3f 3a
       -0.00049253483 0.00015003863 0.00064113544 0.00072910683

down_blocks.2.norm1.weight f4 [16]
000000 96 fc 7f 3f 01 d3 7f 3f 05 1f 80 3f e7 e5 7f 3f
       0.9999479 0.9993134 1.0009466 0.9996018
000010 fe fb 7f 3f 62 1b 80 3f a1 f1 7f 3f da c6 7f 3f
       0.99993885 1.0008357 0.9997807 0.999128
000020 61 ff 7f 3f 49 24 80 3f 99 8c 7f 3f 7e da 7f 3f
       0.9999905 1.0011073 0.9982391 0.9994277
000030 41 e7 7f 3f f4 1d 80 3f ae ff 7f 3f 85 27 80 3f
       0.9996224 1.0009141 0.9999951 1.001206

down_blocks.2.norm1.bias f4 [16]
000000 8c a6 8e b9 79 1f d2 b9 26 79 3f ba 00 4b c9 37
       -0.00027208438 -0.0004007777 -0.00073041243 2.3995992e-05
000010 e8 6d 15 ba 43 54 cb 38 43 ba 35 3a 78 2a 58 b9
       -0.0005700276 9.695489e-05 0.0006932357 -0.00020615186
000020 be cd 82 38 94 4d c5 b9 0c 43 0e 3a 37 ec 06 39
       6.2372055e-05 -0.00037632568 0.0005426861 0.00012867233
000030 69 7b 59 38 f6 22 81 b9 83 22 50 b8 b9 c1 67 37
       5.1851766e-05 -0.00024630845 -4.9623206e-05 1.38137775e-05

down_blocks.2.norm1.running_mean f4 [16]
000000 1b e6 ae 3e b5 66 9a 3e 5b 1e 5b 3e 0e ab 05 3f
       0.34159932 0.30156484 0.21398298 0.52214134
000010 18 aa 9e 3e 68 d0 2c 3e 94 3a 02 3e 83 2a e5 3e
       0.30989146 0.16876376 0.12717658 0.44758996
000020 67 3b ba 3e 73 cb 74 3e 49 25 b8 3e 9e 1e 1e 3f
       0.36373445 0.23905735 0.35965946 0.6176547
000030 35 f2 93 3e c0 f7 c9 3e 6f 65 29 3f db 98 da 3e
       0.28895727 0.3944683 0.661704 0.42694744

down_blocks.2.norm1.running_var f4 [16]
000000 eb bf 9c 3e 23 88 be 3e 29 33 20 3e ff 24 49 3f
       0.30615172 0.3721324 0.15644516 0.78572077
000010 aa 22 85 3e 2f 24 24 3e 81 4c dc 3d e8 d6 2c 3f
       0.2600301 0.16029428 0.107567795 0.6751542
000020 97 9f f1 3e 09 a5 81 3e 75 97 c9 3e 2d af a4 3f
       0.4719207 0.25321224 0.39373365 1.286596
000030 4f 7a 8a 3e 02 9a d2 3e 91 2e 8b 3f 31 de 22 3f
       0.2704644 0.41133124 1.0873586 0.6362029

down_blocks.2.norm2.weight f4 [16]
000000 d4 e0 7f 3f e4 10 80 3f 3e fd 7f 3f a1 fc 7f 3f
       0.99952435 1.0005155 0.9999579 0.99994856
000010 de e1 7f 3f 96 ca 7f 3f a1 2b 80 3f 7c 23 80 3f
       0.9995402 0.99918497 1.0013314 1.0010829
000020 61 ea 7f 3f 4c 0b 80 3f cf 9b 7f 3f e0 0a 80 3f
       0.9996701 1.0003448 0.9984712 1.0003319
000030 17 22 80 3f e8 10 80 3f 03 b6 7f 3f 7b da 7f 3f
       1.0010403 1.0005159 0.998871 0.9994275

down_blocks.2.norm2.bias f4 [16]
000000 61 bc 03 3a a7 9e be 39 05 75 79 b9 b3 ef b8 b9
       0.0005025324 0.0003635783 -0.00023790084 -0.00035273805
000010 26 0d 9a b9 90 ef 80 b9 2b 66 09 3a ff b5 3f b7
       -0.00029382965 -0.0002459255 0.00052413595 -1.1426861e-05
000020 19 18 7f 39 76 22 d3 38 c6 39 b4 39 32 dc 41 39
       0.00024327672 0.00010067683 0.0003437532 0.00018487943
000030 43 55 84 b9 a5 e9 9d 39 30 03 4f 39 b3 a4 ee 39
       -0.00025240527 0.00030119452 0.00019742246 0.00045517608

down_blocks.2.norm2.running_mean f4 [16]
000000 3c 7c 8d 3e 6e 3b 86 3e aa cd 8f 3e 74 0b 9c 3e
       0.27633846 0.26217216 0.28086597 0.30477488
000010 46 62 96 3e e5 ae 85 3e e2 37 a5 3e 1d 01 a2 3e
       0.29371852 0.26109996 0.32269198 0.31641474
000020 d7 48 9d 3e ad 8e d0 3e 4c 8b 92 3e d7 c3 b7 3e
       0.30719635 0.40733853 0.286219 0.358916
000030 9a 1b 9b 3e 90 59 b1 3e fc 55 93 3e e8 41 e0 3e
       0.30294496 0.34638643 0.28776538 0.43800282

down_blocks.2.norm2.running_var f4 [16]
000000 55 e5 9b 3e 1d 01 80 3e 4e ea 4d 3e 72 77 4e 3e
       0.30448404 0.2500085 0.20108911 0.20162752
000010 23 7a 97 3e a9 3f 59 3e 99 38 e4 3e 2e c1 4b 3e
       0.2958537 0.2121569 0.4457443 0.19897911
000020 6e 8e 50 3e 86 27 59 3e 3c 94 80 3e 3c d8 87 3e
       0.20366833 0.21206483 0.25113094 0.2653216
000030 ad d3 c0 3e f2 70 e5 3e 0f fb 94 3e 39 a1 83 3e
       0.37661496 0.44812733 0.29097793 0.2570894

down_blocks.3.conv1.weight f4 [32, 16, 3, 3]
000000 a4 fe cb bc 8a 4e 7e 3c 7f e9 1b bc 3d eb 4d bc
       -0.024901696 0.015521655 -0.009516119 -0.012568292
000010 6b 72 b4 3d 65 53 74 3d 43 a5 03 bd e1 92 83 3d
       0.08810886 0.059649844 -0.032140028 0.06424499
000020 69 e3 48 3d 9f 93 ae 3d da 5b ec bc 19 7e ed bc
       0.049045 0.0852425 -0.028852392 -0.028990792
000030 e7 b0 cc 3d f6 77 be 3d ea 16 57 3d bd 84 e5 bd
       0.09994679 0.093002245 0.052512087 -0.112069584
000040 94 d3 15 3d 41 d6 ef bd 98 dc a8 3d 96 16 ba bc
       0.03657873 -0.117107876 0.082452 -0.022715848
000050 9c 88 0d 3d 9e 50 9d bd 8a 25 d0 bd c9 fa af 3d
       0.03455411 -0.07681392 -0.1016341 0.08592755
000060 13 06 ab 3d 0d a1 ee 3d 07 bb 7c 3b 61 db d0 bb
       0.08350768 0.11651812 0.0038563625 -0.0063738083
000070 7d fe eb 3b f8 89 a7 3d b5 8f 3f bd 6d b4 9c bd
       0.007201968 0.08180612 -0.04676791 -0.07651601
000080 ab 55 3e bc 5e 02 f5 bc 4b 50 b8 3b 00 d1 96 3c
       -0.0116171045 -0.029908355 0.005624806 0.018410206
000090 e8 b1 ca bd 5e 4f 28 bc 94 a0 9f 3c a4 fa 6d bd
       -0.09897214 -0.010272829 0.01948575 -0.058100358
0000a0 20 cd 47 bd 6e e0 ed ba 42 76 ed bd 1f 21 2b 3d
       -0.048779607 -0.001814855 -0.115948215 0.041779634
0000b0 18 c7 6e bc 7f 74 ad bd b3 12 72 bd a0 96 bd 3d
       -0.014573835 -0.084694855 -0.059099864 0.09257245
0000c0 34 32 b1 bd 2e 3c 84 3d 78 99 b7 3d bd 66 56 3d
       -0.086521536 0.06456791 0.08964819 0.052344073
0000d0 58 5b cd bd 65 13 5c bd 48 4b 30 3d ae e7 b3 bc
       -0.10027188 -0.053729434 0.043040544 -0.02196106
0000e0 de 4f b5 3d b6 ae e5 3b 8a 06 6e bd 1f 93 c7 3d
       0.08853124 0.0070093526 -0.058111705 0.09744858
0000f0 ab 40 f3 3b 8b a2 1f 3c 31 a9 e0 3b 07 48 da 3d
       0.0074234805 0.009743343 0.0068561067 0.106582694
000100 7b fb ad bc 54 cb 86 bd 9e 9c 8f bd 58 98 5e 3d
       -0.02123808 -0.065817505 -0.07012294 0.054344505
000110 a9 68 2a bd b5 3c 97 3d 4b 35 dd bd ea cf 0a 3c
       -0.041603718 0.07384626 -0.108011805 0.008472422
000120 1c ee 40 bc fd f1 c5 bc 4a 68 ba bd 22 22 81 bd
       -0.01177552 -0.02416324 -0.09101923 -0.063053384
000130 2f 98 a8 bd b3 03 c3 bd 76 b9 1a bc b8 83 3b bb
       -0.08232152 -0.0952219 -0.009443631 -0.0028612446
000140 10 a8 b6 3d b1 1e 9d bd 3f c2 ae 3d 00 40 b0 bd
       0.08918774 -0.076718695 0.08533143 -0.08605957
000150 09 9f 91 bc 3c 0e 9c bd 80 a9 be bd 4f dc 27 3c
       -0.01777603 -0.076199025 -0.09309673 0.010245397
000160 89 78 25 bd 0c 54 bd bd d6 aa 88 bd 09 5b 10 b9
       -0.040398154 -0.09244546 -0.06673209 -0.00013766823
000170 85 d7 6d 3b 44 5b 2b bd 72 7f a3 bd c6 e3 ab bd
       0.003629179 -0.041835085 -0.07983293 -0.08393054
000180 27 39 d3 3d 70 9d 82 3d 86 95 af 3d f2 fa 1d bd
       0.10313635 0.06377685 0.08573441 -0.0385694
000190 d4 91 96 3d 74 b3 bf 3c a3 41 63 bc 7f e4 b0 3c
       0.07352033 0.023401 -0.0138706295 0.02159333
0001a0 d3 29 7d 3c fd 13 5d 3c bd b4 8f 3d 7a c2 4b ba
       0.015451866 0.013493535 0.07016895 -0.0007772815
0001b0 a3 30 c0 3d 28 4e a6 3d 35 86 d0 bc f9 fb bc bd
       0.09384277 0.08120376 -0.02545462 -0.092277475
0001c0 73 e3 c6 3d cd a7 5d bd b9 c3 c1 3d e9 fb f8 3c
       0.09711351 -0.054115105 0.09461159 0.030393558
0001d0 66 5c f9 bc 31 60 9a bb 8c 72 32 bc a0 63 87 3d
       -0.030439567 -0.004711174 -0.010891568 0.06610799
0001e0 55 1f 9a 3d 32 95 19 3c 29 a8 25 bd 95 61 21 3d
       0.07525507 0.00937395 -0.040443573 0.039399702
0001f0 2c 45 0d ba e3 cb 5f 3d 78 57 86 bd 14 8d 83 3d
       -0.00053890306 0.0546378 -0.06559652 0.06423393
000200 96 a2 05 bd e1 5a be 3d 24 4b d2 3d d8 3e be bd
       -0.032625757 0.092946775 0.10268238 -0.0928933
000210 b0 92 55 bd ed 29 57 bc 9d 03 cc bc 73 00 b5 3d
       -0.052141845 -0.0131325545 -0.024904067 0.08837976
000220 1d 8e 52 3b ab 5c 90 3d 57 ae a6 3d ca 03 8e 3d
       0.0032128163 0.07048925 0.081387214 0.069343165
000230 a8 f4 c6 bd 2e 6c d0 3d 88 cb dd bd d8 14 ba 3d
       -0.09714633 0.10176884 -0.10829836 0.09086007
000240 2b 92 ea 3d 61 37 50 3d dc f5 a5 3b ff 69 15 bd
       0.114536606 0.050834063 0.005064709 -0.03647804
000250 45 12 aa bd d8 67 1a bc 4e af 7e bb b7 7c 87 3c
       -0.08304266 -0.009424172 -0.0038861814 0.01653896
000260 03 a7 5f bd ca cf 24 3c b7 53 b8 3d e8 56 68 bd
       -0.054602634 0.010059306 0.09000342 -0.056723505
000270 12 6c ca bd 0f b2 92 3d 93 9b 56 3d ef bb eb b8
       -0.09883894 0.07162868 0.05239446 -0.000112406786
000280 d8 91 4d 3d 41 68 eb 3d ee c2 a0 bb 6c f8 17 3d
       0.050187916 0.11494494 -0.00490605 0.037102148
000290 6e db 30 3d f4 24 d1 3d 5f 08 c6 3d dc b7 30 3d
       0.043178014 0.102121264 0.096695654 0.043144092
0002a0 8e 32 c4 3d c6 8c 0c bd f9 d4 a4 bd 35 1c 5f 3d
       0.09579955 -0.03431394 -0.08048434 0.05447026
0002b0 ae 9c 43 3d 9a a4 4a 3d ed 4c 2e 3c 9d 77 bc 3c
       0.047756843 0.049473383 0.010638458 0.023006255
0002c0 35 f6 05 3d 75 5b 96 bd 52 13 35 bc 49 c8 bf bd
       0.032705504 -0.07341663 -0.01105197 -0.09364373
0002d0 f9 93 47 bc 8e 7f 3b bd 58 c1 c1 bd 0f 24 6b bd
       -0.0121812755 -0.045775943 -0.094607055 -0.057407435
0002e0 99 ec b9 3c 3e b9 95 3c ed 65 3c 3d 88 e3 94 3d
       0.022695826 0.018276807 0.04599564 0.07269961
0002f0 d5 10 bf bd 00 98 72 3d c6 cc ab 3d 2a 6c df 3d
       -0.09329382 0.05922699 0.08388667 0.109093025
000300 a9 12 9b 3d 5f 42 20 bd 53 72 d5 3d 85 42 aa 3d
       0.075719185 -0.039125796 0.10422196 0.08313469
000310 60 f8 8b bd 41 63 92 3d ca 20 26 3b 54 55 9c bd
       -0.06834483 0.071478374 0.0025349134 -0.076334625
000320 d0 85 85 3d fe b1 b9 bb 24 a1 e4 3d 7d d1 3c 3d
       0.06519663 -0.0056669703 0.11163548 0.04609822
000330 5a 46 e4 bd 26 66 cb bd c5 de 1a 3d aa d8 e0 3d
       -0.11146231 -0.09931593 0.037810106 0.109788254
000340 93 57 f7 3b 7b 51 81 3d 68 aa 80 3d e8 a5 ad bd
       0.0075482815 0.06314369 0.062825024 -0.0847891
000350 22 d8 f9 ba 18 0d 12 3d 16 4d 38 bd dd d1 d3 3d
       -0.0019061605 0.03565702 -0.04499539 0.103427626
000360 13 8a 41 3d 11 bc 73 bd 77 0d 8b 3c a1 54 7d bd
       0.04725082 -0.059505526 0.016974194 -0.061848287
000370 14 2a 01 3d 41 e7 66 3d a8 2c 99 bb ef ca b2 bb
       0.03153427 0.056372885 -0.004674513 -0.0054563205
000380 83 36 ae 3d af 34 a8 3d 71 f0 b8 bd c9 9f 10 bd
       0.08506491 0.082131736 -0.090302356 -0.035308633
000390 8b d6 b2 bd a8 78 7b 3d 97 0d 11 3d 00 61 78 3d
       -0.08732327 0.061394364 0.03541335 0.06063938
0003a0 a3 a4 6f bc 89 5d 49 bd b7 eb 3a bd a8 41 d0 3d
       -0.014626655 -0.049161468 -0.04563495 0.10168773
0003b0 38 17 35 bd 81 0f aa bd 70 9b f6 bc 4d f2 e9 bb
       -0.044211596 -0.083037384 -0.030103415 -0.00713948
0003c0 18 40 6d 3b ba e4 7a bc db 4f 64 3d b9 6e cc ba
       0.0036201533 -0.015313322 0.05574022 -0.0015596963
0003d0 b0 79 6b bd e7 c6 e9 bc a9 71 86 bd e9 f1 d0 bd
       -0.057489097 -0.028537227 -0.06564648 -0.10202391
0003e0 7a ea b5 3c 4e 42 9a bd 5c c6 33 3d e4 8a 8e bc
       0.022206534 -0.07532178 0.043890342 -0.017400213
0003f0 85 3a 52 bc 22 0e 09 3c 1d 29 a7 bd 4c ac c0 3c
       -0.012831335 0.008365186 -0.081621386 0.023519658

down_blocks.3.conv1.bias f4 [32]
000000 22 61 8e 39 dc 80 de 38 80 8b 38 b7 42 82 35 ba
       0.0002715672 0.00010609787 -1.09997345e-05 -0.0006924012
000010 73 44 87 38 08 76 91 38 26 04 f1 34 f0 18 4e 38
       6.450051e-05 6.936124e-05 4.4892766e-07 4.9137452e-05
000020 17 d3 59 38 75 6b 4c b9 41 d1 dc b8 27 29 29 b9
       5.1933424e-05 -0.00019494987 -0.00010529394 -0.00016132426
000030 56 f8 ac b8 b6 ef 27 b9 15 34 86 b7 9b 86 05 b6
       -8.247855e-05 -0.0001601566 -1.5998297e-05 -1.9896895e-06
000040 8d 02 c5 b9 1f ec a0 39 ea a2 12 39 f1 ab 75 38
       -0.0003757667 0.00030693502 0.00013984335 5.8572685e-05
000050 80 72 4d 37 9d bd c6 38 12 77 e1 37 e8 5c c6 37
       1.2245611e-05 9.476694e-05 2.6877537e-05 2.3646702e-05
000060 f2 e8 24 b7 db e1 6b 39 7f 7e 10 b9 ed 09 37 39
       -9.829399e-06 0.00022495484 -0.00013780034 0.00017455938
000070 e3 5e 18 b9 8d dc 61 39 ca c5 c2 35 24 50 20 b9
       -0.00014531198 0.00021539834 1.451169e-06 -0.00015288644
