Models/3583866b-2e23-46fc-860b-ad194d8da0b9.pt (torch, 166339 bytes, 110 tensors)

conv_final.weight f4 [2, 4, 1, 1]
0.47181216 0.62731934 0.77235967 -1.2987211 -0.17136209 0.089047216 -0.343912 0.96029603
00000000: 5d91 f13e 0098 203f 5db9 453f 7e3c a6bf
00000010: 8b79 2fbe 635e b63d 3c15 b0be f6d5 753f

conv_final.bias f4 [2]
0.79932785 -0.7993278
00000000: c0a0 4c3f bfa0 4cbf

down_blocks.0.conv1.weight f4 [4, 2, 3, 3]
-0.03494948 0.26010686 0.18135422 -0.08714815 0.008349046 0.08603712 0.23120731 0.3054425
0.15934755 0.21420135 -0.29158017 -0.31307927 0.25977308 -0.122102685 0.029385444 -0.21000607
0.3172732 0.30343097 0.34235236 0.17029463 0.30588865 0.17264825 0.13738053 -0.11742563
-0.020733988 0.012755768 -0.15456618 -0.26549113 0.3217568 -0.16653736 -0.21049833 -0.21793713
0.0016790611 0.004513829 -0.09524899 -0.2862 0.07454172 0.2548182 0.29994124 0.09566902
0.36182427 -0.22239028 0.26725185 0.10350718 -0.08774675 0.12928589 -0.17350782 0.076390035
-0.17963049 -0.16210301 0.058577407 -0.18873537 -0.19732444 -0.14136307 0.24901782 0.033932995
-0.08299646 0.066963546 0.25507256 0.16519016 0.034441404 0.015564574 0.052874446 0.006623871
0.3157591 0.31172594 0.27746496 0.015972221 0.31450257 -0.004976859 -0.28797036 0.052460887
00000000: 3027 0fbd ba2c 853e ecb4 393e bb7a b2bd
00000010: 70ca 083c 3b34 b03d 9cc1 6c3e f662 9c3e
00000020: 012c 233e 9957 5b3e ff49 95be ed4b a0be
00000030: fa00 853e f910 fabd beb9 f03c d50b 57be
00000040: a271 a23e 4e5b 9b3e cf48 af3e b761 2e3e
00000050: 709d 9c3e b4ca 303e 7bad 0c3e d97c f0bd
00000060: 53da a9bc 92fd 503c 9946 1ebe 74ee 87be
00000070: 4fbd a43e c588 2abe e08c 57be e92a 5fbe
00000080: f113 dc3a bee8 933b e711 c3bd ce88 92be
00000090: 54a9 983d 8877 823e e691 993e 1fee c33d
000000a0: 0841 b93e 47ba 63be 3cd5 883e 93fb d33d
000000b0: 91b4 b3bd 8563 043e 09ac 31be 6172 9c3d
000000c0: 0ef1 37be 55fe 25be ddee 6f3d d843 41be
000000d0: 6b0f 4abe 7bc1 10be 87fe 7e3e 53fd 0a3d
000000e0: 0cfa a9bd 2f24 893d df98 823e 9c27 293e
000000f0: 6e12 0d3d 8e02 7f3c e092 583d 0f0d d93b
00000100: 2dab a13e 8b9a 9f3e e30f 8e3e 2dd8 823c
00000110: 7b06 a13e eb14 a3bb da70 93be 3ae1 563d

down_blocks.0.conv1.bias f4 [4]
-0.011655323 0.007834542 -0.08651416 0.0010516108
00000000: f8f5 3ebc 735c 003c 562e b1bd 34d6 893a

down_blocks.0.conv2.weight f4 [4, 4, 3, 3]
0.09575814 0.008122497 0.043368537 0.13654284 0.25582045 -0.12027813 -0.042027727 0.085093774
-0.12685853 -0.07720292 0.25226527 -0.020971058 -0.004663194 -0.16820487 0.25132406 -0.031036051
0.2941164 -0.0850458 -0.09907056 -0.08414229 0.08354145 -0.09757392 0.0070997216 -0.11132357
0.21019308 0.33248293 0.3290589 -0.24550265 -0.036049243 -0.24789648 0.025187965 0.15340313
-0.11498751 -0.123790465 -0.1030734 -0.06267355 -0.022188287 -0.24183539 -0.262517 0.21558124
-0.047480594 -0.2401589 -0.28230062 0.17839204 -0.1077468 -0.28882253 -0.18976383 -0.05827306
-0.12473574 0.24166472 -0.15916228 0.24004027 -0.008972352 -0.19186057 -0.1391983 -0.11606014
0.08343054 -0.04139595 -0.23412307 -0.21335186 0.18570538 -0.029093407 0.25492457 -0.051887915
0.05350088 -0.24703026 -0.105644085 0.014467541 -0.021086166 0.06382269 0.022248078 0.06759311
0.29368505 0.19416633 -0.16434556 0.15514001 -0.25488433 -0.015391955 -0.17047195 0.22649397
-0.044541024 -0.0825568 0.05484676 -0.22812986 -0.25004387 0.12016617 -0.19129483 -0.19297439
0.23192741 0.10968466 -0.17288558 -0.17196214 0.03163784 -0.2927324 0.021308426 -0.17767861
0.11544151 -0.28046128 0.09528307 0.16944239 -0.10342737 -0.06801722 -0.22689304 -0.0964665
0.20684947 -0.13208118 0.012630391 0.20695442 -0.2947666 -0.052301355 -0.21439041 0.041254546
-0.2398687 -0.21100558 -0.00025208064 -0.23247783 0.0034095477 0.24977471 0.2070382 -0.018667804
0.18640795 0.061930057 0.16841076 0.20925122 0.14330256 -0.2604436 -0.3005814 0.10904444
-0.06162708 -0.17481129 -0.23857252 0.22108914 -0.250707 -0.074331336 0.07376007 -0.20772141
0.17614686 -0.29407883 -0.18327875 0.103204444 -0.18720622 -0.24003203 0.29620466 -0.24693987
00000000: d81c c43d 3914 053c 35a3 313d e3d1 0b3e
00000010: e6fa 823e 6154 f6bd 4425 2cbd a545 ae3d
00000020: 34e7 01be 911c 9ebd ea28 813e 7fcb abbc
00000030: b5cd 98bb e63d 2cbe 8cad 803e 513f febc
00000040: 6d96 963e 7e2c aebd 81e5 cabd cb52 acbd
00000050: c817 ab3d d6d4 c7bd c8a4 e83b 9dfd e3bd
00000060: db3c 573e 343b aa3e 687a a83e 0c65 7bbe
00000070: 5fa8 13bd 93d8 7dbe fe56 ce3c b615 1d3e
00000080: 927e ebbd db85 fdbd 2618 d3bd fd5a 80bd
00000090: 36c4 b5bc b2a3 77be a168 86be 54c1 5c3e
000000a0: 037b 42bd 37ec 75be b589 90be 67ac 363e
000000b0: 5baa dcbd 8ce0 93be 7351 42be bbaf 6ebd
000000c0: 7475 ffbd f576 773e 70fb 22be 1ecd 753e
000000d0: c600 13bc 1977 44be 008a 0ebe f0b0 edbd
000000e0: a2dd aa3d cd8e 29bd f5bd 6fbe e978 5abe
000000f0: 8d29 3e3e 4c55 eebc 7985 823e 6c88 54bd
00000100: bd23 5b3d 80f5 7cbe ed5b d8bd 4409 6d3c
00000110: e5bc acbc 78b5 823d 9a41 b63c 426e 8a3d
00000120: e35d 963e 8ad3 463e 344a 28be 06dd 1e3e
00000130: 3380 82be 8a2e 7cbc 3390 2ebe 09ee 673e
00000140: a670 36bd 8a13 a9bd ffa6 603d e09a 69be
00000150: c005 80be ae19 f63d cbe2 43be 149b 45be
00000160: 617e 6d3e 5aa2 e03d eb08 31be d816 30be
00000170: ae96 013d 05e1 95be 028f ae3c 62f1 35be
00000180: 996c ec3d 9f98 8fbe c523 c33d 4e82 2d3e
00000190: bbd1 d3bd 9d4c 8bbd a656 68be 3a90 c5bd
000001a0: 59d0 533e 4a40 07be b3ef 4e3c dceb 533e
000001b0: a6eb 96be f239 56bd 2989 5bbe 87fa 283d
000001c0: 24a0 75be d911 58be b129 84b9 ab0e 6ebe
000001d0: b872 5f3b f1c4 7f3e d201 543e 39ed 98bc
000001e0: bae1 3e3e 5faa 7d3d df73 2c3e f445 563e
000001f0: e8bd 123e dd58 85be cee5 99be b152 df3d
00000200: ad6c 7cbd bb01 33be 5b4c 74be 3165 623e
00000210: ab5c 80be 073b 98bd 850f 973d ecb4 54be
00000220: d85f 343e 8091 96be 6dad 3bbe da5c d33d
00000230: fdb2 3fbe f5ca 75be 23a8 973e cedd 7cbe

down_blocks.0.conv2.bias f4 [4]
-0.002586316 -0.0005086934 0.17432351 0.0052861418
00000000: 2f7f 29bb d659 05ba dd81 323e 5f37 ad3b

down_blocks.0.norm1.weight f4 [4]
0.9776878 0.9914206 1.043353 0.9643256
00000000: bf49 7a3f becd 7d3f 978c 853f 0bde 763f

down_blocks.0.norm1.bias f4 [4]
0.008613349 -0.037791442 -0.10448612 -0.0066941194
00000000: 011f 0d3c 33cb 1abd d2fc d5bd 585a dbbb

down_blocks.0.norm1.running_mean f4 [4]
0.31232563 0.01196442 0.015576666 0.5389679
00000000: 25e9 9f3e 6a06 443c 4635 7f3c cdf9 093f

down_blocks.0.norm1.running_var f4 [4]
0.019379802 0.0026380194 0.005145895 0.045924813
00000000: 64c2 9e3c 9fe2 2c3b e59e a83b a81b 3c3d

down_blocks.0.norm2.weight f4 [4]
1.0546982 1.0178472 1.0570092 1.0342231
00000000: 5a00 873f d148 823f 144c 873f 6c61 843f

down_blocks.0.norm2.bias f4 [4]
-0.0698655 0.014281583 0.060934536 0.0030152067
00000000: a515 8fbd 4dfd 693c 7e96 793d c69a 453b

down_blocks.0.norm2.running_mean f4 [4]
0.27325964 0.42156002 0.47158834 0.69207364
00000000: b0e8 8b3e b7d6 d73e 0774 f13e bd2b 313f

down_blocks.0.norm2.running_var f4 [4]
0.81989896 0.2678561 0.0673212 1.0344648
00000000: e6e4 513f 6f24 893e b3df 893d 5869 843f

down_blocks.1.conv1.weight f4 [8, 4, 3, 3]
-0.022285884 -0.056051765 0.15944518 -0.06473251 0.13841851 0.22166386 -0.06087966 0.18059428
0.19032364 0.19696414 0.2320832 0.16123404 0.13968371 -0.044454865 -0.0602162 -0.009321897
-0.09468446 0.039478205 -0.21366549 0.0051263557 -0.21550055 -0.18108292 0.1922233 -0.016353754
-0.22287062 -0.17706463 -0.20225917 0.11738133 0.10869279 -0.09613333 0.2283228 -0.14851686
0.23632422 0.17232843 0.23163928 0.13817108 0.18083456 0.03746543 0.1881639 -0.19442043
-0.12781459 0.1755217 -0.18111743 -0.18121022 -0.22127993 0.19013615 -0.05912238 0.21348888
-0.082395144 -0.03286634 -0.013880109 0.16944346 -0.09037451 0.21053158 -0.21226935 -0.17846066
-0.12171912 0.14806351 0.13840872 0.05113504 0.10208364 -0.1901846 -0.11961589 0.2350722
-0.123149455 0.03594635 -0.20363916 0.11552564 -0.1121561 0.088613376 -0.18109307 -0.12420171
0.1990215 0.20649557 0.20775194 0.0074135596 0.1774227 -0.0077256477 0.05360468 -0.14983466
0.1182933 -0.19086607 0.07416814 -0.12631075 -0.16240795 0.034272935 -0.16639528 -0.019051041
-0.072767615 0.032671012 -0.10111511 0.18020262 -0.025618214 0.15616493 0.21415824 0.014138981
0.14259502 -0.19142815 0.03891291 0.14703222 0.15921287 -0.0062353364 0.12680852 -0.2323926
-0.10476814 -0.19602624 0.11932072 -0.19840993 -0.20031561 0.069934495 0.2042144 -0.07490378
0.14884885 0.1487362 0.13178109 -0.08014779 -0.19081274 -0.041606992 0.18360023 0.11907013
0.23604295 0.019024132 0.15223968 0.07566825 0.20385638 -0.18458126 0.1243214 -0.16788141
0.19584113 0.19167514 0.13353904 0.07694865 0.020239666 0.0044059376 0.07882088 0.189291
0.041585654 0.15076783 0.17460765 -0.021507375 0.0028501828 0.11625748 0.09784096 0.07892287
-0.22204813 -0.017884824 -0.18262327 0.21312505 0.056735422 -0.09507931 -0.13759808 -0.11540556
0.18025556 0.14671329 -0.0075289523 0.10100186 -0.21144708 0.13819264 -0.058291927 0.21687944
-0.23104434 0.025841953 -0.18873526 -0.22115234 0.051720638 0.18537885 -0.20090166 -0.23815013
0.07875858 0.10231469 -0.040879395 -0.05289186 -0.06379126 -0.12764943 -0.19417565 0.002146185
-0.016283823 -0.02025674 -0.18735187 -0.020392556 0.07746148 -0.19130082 0.20891744 -0.20990272
0.0014406774 0.086435065 -0.17170435 0.19785906 0.21217282 -0.1099994 -0.080716215 -0.051935952
-0.20514095 -0.23106542 0.17545892 -0.23630357 -0.19637355 -0.2122298 -0.12307396 0.11652452
0.028731165 0.20652838 -0.056902613 -0.22723158 0.03451833 0.022199644 -0.18837343 -0.174062
-0.18741487 -0.0559315 0.005102138 0.20336655 0.06227502 -0.116807126 -0.14777227 -0.055481717
0.09679308 -0.015911285 0.13900751 0.13051021 -0.11127689 0.14282657 0.16810778 0.2075144
-0.22036709 0.16139671 0.22112873 -0.048027523 -0.16201906 -0.010204967 -0.053642407 -0.13907608
-0.22228938 0.23886871 0.009531186 -0.06260066 0.059987172 0.093096934 0.1491853 -0.20156047
-0.19155788 -0.05839454 -0.09516546 -0.08637697 0.04206563 -0.22338735 0.17572133 0.060839344
-0.08426757 -0.102862716 0.22156452 0.036609765 0.13710542 0.2134588 -0.13103962 0.078846164
00000000: e390 b6bc 8996 65bd 9945 233e 7a92 84bd
00000010: 95bd 0d3e dafb 623e f35c 79bd b5ed 383e
00000020: 33e4 423e f8b0 493e 38a7 6d3e 891a 253e
00000030: 3f09 0f3e 4e16 36bd 43a5 76bd dfba 18bc
00000040: ede9 c1bd e6b3 213d 20cb 5abe fdfa a73b
00000050: 2dac 5cbe cd6d 39be 2fd6 443e 4ff8 85bc
00000060: 3238 64be 6e50 35be 071d 4fbe 9f65 f03d
00000070: 539a de3d 8de1 c4bd 74cd 693e ce14 18be
00000080: fafe 713e dd76 303e d932 6d3e b87c 0d3e
00000090: b22c 393e 5a75 193d 0aae 403e 2616 47be
000000a0: d4e1 02be f6bb 333e d976 39be 2c8f 39be
000000b0: 3597 62be 0db3 423e 4f2a 72bd d49c 5a3e
000000c0: c9be a8bd db9e 06bd 6669 63bc 9682 2d3e
000000d0: 4516 b9bd 9795 573e 235d 59be 64be 36be
000000e0: e047 f9bd f69d 173e 04bb 0d3e fa72 513d
000000f0: 3a11 d13d c0bf 42be 2df9 f4bd c4b6 703e
00000100: c835 fcbd 7b3c 133d c986 50be b598 ec3d
00000110: 19b2 e5bd ee7a b53d 7670 39be 775d febd
00000120: 4bcc 4b3e 9373 533e edbc 543e 72ed f23b
00000130: 4cae 353e 6e27 fdbb 9590 5b3d 426e 19be
00000140: c243 f23d 6572 43be 77e5 973d 9b57 01be
00000150: 454e 26be c761 0c3d 8663 2abe ee10 9cbc
00000160: 3007 95bd 0ad2 053d 7015 cfbd 0987 383e
00000170: 4add d1bc b3e9 1f3e 4c4c 5b3e 2fa7 673c
00000180: 6e04 123e be05 44be 2563 1f3d 9d8f 163e
00000190: b308 233e cb51 ccbb 18da 013e 53f8 6dbe
000001a0: ae90 d6bd 1abb 48be 6c5e f43d f92b 4bbe
000001b0: 891f 4dbe d139 8f3d 941d 513e 2767 99bd
000001c0: d56b 183e 4d4e 183e 9ff1 063e 8624 a4bd
000001d0: 6a64 43be 186c 2abd b301 3c3e 0adb f33d
000001e0: 3eb5 713e 7fd8 9b3c b8e4 1b3e f5f7 9a3d
000001f0: babf 503e df02 3dbe 389c fe3d 1be9 2bbe
00000200: 948a 483e 7d46 443e 75be 083e 4197 9d3d
00000210: a8cd a53c af5f 903b d76c a13d 80d5 413e
00000220: b855 2a3d e262 1a3e 59cc 323e 3c30 b0bc
00000230: 22ca 3a3b 6718 ee3d d760 c83d 50a2 a13d
00000240: 9660 63be 3283 92bc 9801 3bbe 743d 5a3e
00000250: 6763 683d f1b8 c2bd 83e6 0cbe c059 ecbd
00000260: ea94 383e 023c 163e 6eb5 f6bb 10da ce3d
00000270: 9585 58be 5f82 0d3e 84c3 6ebd a515 5e3e
00000280: e396 6cbe 81b2 d33c d143 41be c275 62be
00000290: 05d9 533d f4d3 3d3e 2ab9 4dbe a1dd 73be
000002a0: 2e4c a13d 5d8a d13d 2771 27bd 23a5 58bd
000002b0: fea4 82bd 88b6 02be fbd5 46be 02a7 0c3b
000002c0: a765 85bc 76f1 a5bc 2bd9 3fbe 4a0e a7bc
000002d0: 20a4 9e3d 5de4 43be 74ee 553e bdf0 56be
000002e0: 1dd5 bc3a de04 b13d 44d3 2fbe 919b 4a3e
000002f0: d543 593e 5e47 e1bd 8b4e a5bd cbba 54bd
00000300: 7810 52be 6a9c 6cbe 81ab 333e 90f9 71be
00000310: 2616 49be c552 59be 330e fcbd 68a4 ee3d
00000320: 9f5d eb3c 2d7c 533e b712 69bd 65af 68be
00000330: 1863 0d3d 07dc b53c f7e4 40be 4f3d 32be
00000340: afe9 3fbe 6e18 65bd d62f a73b 523f 503e
00000350: 1714 7f3d 9338 efbd 9d51 17be cc40 63bd
00000360: 733b c63d 6258 82bc fc57 0e3e 78a4 053e
00000370: 23e5 e3bd 2141 123e 7224 2c3e a87e 543e
00000380: e9a7 61be 2e45 253e 926f 623e 82b8 44bd
00000390: 53e8 25be bc32 27bc 24b8 5bbd f669 0ebe
000003a0: d49f 63be 009a 743e b128 1c3c c634 80bd
000003b0: 1cb5 753d 9ba9 be3d 08c4 183e de65 4ebe
000003c0: c027 44be 1d2f 6fbd 1ce6 c2bd 69e6 b0bd
000003d0: 034d 2c3d a7bf 64be 4bf0 333e ad32 793d
000003e0: 7a94 acbd b0a9 d2bd cfe1 623e 1ff4 153d
000003f0: 5d65 0c3e f294 5a3e 402f 06be 197a a13d

down_blocks.1.conv1.bias f4 [8]
0.00060154323 -0.00087602355 -0.0047308425 -0.0009585211 0.00084958 0.0025892677 -0.0039661936 -0.0023895025
00000000: e2b0 1d3a f2a4 65ba 2f05 9bbb 4345 7bba
00000010: 59b6 5e3a b4b0 293b d8f6 81bb 3399 1cbb

down_blocks.1.conv2.weight f4 [8, 8, 3, 3]
-0.08743564 0.10002326 -0.07080434 0.042165652 -0.008011506 0.10936463 0.10994403 0.072903775
-0.019313147 0.09280016 -0.16995725 0.20558779 -0.18238382 -0.13032846 0.044716474 -0.009963855
0.08115939 -0.16298266 0.02103637 -0.18696137 -0.06476625 -0.13914853 0.13233137 0.03974786
-0.024972921 -0.14223246 -0.08675278 0.010780278 -0.12725066 -0.12837237 0.18843831 0.0738034
0.08556303 -0.06083157 -0.037515532 0.060084026 0.098666385 0.023523713 0.0604766 0.19015472
0.1451809 -0.06512762 0.09341464 0.19818008 -0.02259718 0.20799142 -0.044433467 0.122433536
0.043851126 -0.017901385 -0.00079884834 -0.13650647 -0.02790094 0.1074449 -0.042931605 -0.023524921
-0.15071642 -0.15818478 0.20830584 -0.05175742 0.11338134 0.06702479 0.017400755 -0.10284107
-0.083947875 0.06475962 0.11312944 0.028546384 0.18112977 0.1899365 -0.16723041 -0.154656
-0.14706342 0.07787551 0.17556989 -0.13760051 -0.15245794 0.06331128 -0.1411101 -0.080283925
-0.10968007 0.17237087 -0.06706529 -0.027937012 0.055395663 0.21133815 -0.03550146 -0.10332824
-0.14970979 -0.079479605 0.15899757 0.015951617 0.16838104 -0.19475725 0.17936471 -0.19341499
-0.069348104 -0.07039384 -0.115687415 -0.035578568 -0.062386215 -0.053730585 -0.12389524 0.089604884
-0.18510108 0.20414168 0.08473175 0.13368239 0.1942972 -0.034980368 0.10490956 0.095984235
0.05160247 0.12742102 0.056295324 -0.022971563 -0.06976413 0.03176064 -0.1630966 -0.01942603
0.021832548 -0.054871216 -0.035576884 0.083569124 -0.09996752 0.061717685 -0.14055984 -0.17483504
-0.1558467 0.18482924 -0.1585065 -0.15627684 -0.1672377 -0.063535064 0.18222374 -0.027589768
-0.17803735 0.020386836 0.10447354 0.04531325 0.18865238 -0.0687603 -0.03248995 0.008359832
-0.056858446 -0.14170706 -0.040813517 0.063241854 -0.04144877 -0.04695643 -0.15961878 -0.043893635
0.017219372 0.17971401 -0.20410691 0.077548906 0.17536889 -0.117010236 -0.13163239 0.06628382
-0.052870627 -0.055697545 0.12084954 0.07545191 0.16383074 0.03349891 -0.0317609 0.19414984
0.030056112 0.0090684965 -0.11839548 0.10418625 -0.13295117 0.09245024 0.01184528 0.15468651
0.103481 0.1039516 -0.19634397 0.13875096 -0.022867426 0.12519121 0.13438042 -0.014334808
0.08740546 -0.17140263 -0.085965715 0.080618806 -0.0054538166 -0.1396712 -0.0819167 0.18378071
0.09848905 -0.11854612 0.104078375 -0.0139005305 0.0378925 0.046678793 -0.097091086 0.07782919
-0.10661137 0.0049329395 0.18923984 0.054824024 0.19712238 -0.026691113 0.1428185 -0.19417611
-0.10463559 0.1501997 0.07161244 -0.17929249 -0.07638941 0.050596014 -0.07649708 0.088376336
0.05868741 -0.20518816 -0.09628658 0.13433386 -0.11617351 -0.16560829 0.12034523 -0.13777775
0.16198607 -0.119735435 -0.08317823 0.1497878 -0.094502114 -0.20810533 0.0673143 -0.08929592
0.14354718 -0.19190289 -0.03470683 -0.14422399 0.13948067 -0.16635378 0.032624654 0.13309574
0.18907772 0.016528724 -0.013360518 -0.12435628 0.05380075 0.047649767 -0.07641735 -0.041168194
-0.02523224 0.006153454 -0.09324157 0.16688345 0.09296519 -0.10141502 0.12784748 -0.00024852908
00000000: 7511 b3bd ffd8 cc3d de01 91bd e4b5 2c3d
00000010: b142 03bc 90fa df3d 562a e13d 934e 953d
00000020: 9b36 9ebc 030e be3d 4609 2ebe 9b85 523e
00000030: d3c2 3abe d374 05be 9f28 373d 703f 23bc
00000040: e536 a63d ede4 26be 7754 ac3c cd72 3fbe
00000050: 2ba4 84bd f47c 0ebe e081 073e a7ce 223d
00000060: 0394 ccbc 63a5 11be 71ab b1bd c39f 303c
00000070: ff4d 02be 0c74 03be f9f5 403e 3d26 973d
00000080: ab3b af3d 862a 79bd e3a9 19bd ab1a 763d
00000090: 9a11 ca3d cdb4 c03c 50b6 773d ebb7 423e
000000a0: 4daa 143e a161 85bd 2d50 bf3d b8ef 4a3e
000000b0: b91d b9bc b4fb 543e deff 35bd 6fbe fa3d
000000c0: 3d9d 333d eda5 92bc ce69 51ba 5ac8 0bbe
000000d0: 8390 e4bc 120c dc3d 0dd9 2fbd 56b7 c0bc
000000e0: 6855 1abe 31fb 21be 204e 553e 97ff 53bd
000000f0: 7a34 e83d 4b44 893d 078c 8e3c 579e d2bd
00000100: ddec abbd b1a0 843d 68b0 e73d 1bda e93c
00000110: 157a 393e b77e 423e 733e 2bbe 245e 1ebe
00000120: cb97 16be 327d 9f3d 98c8 333e 26e7 0cbe
00000130: ef1d 1cbe 58a9 813d 2b7f 10be e66b a4bd
00000140: f29f e0bd fd81 303e 8759 89bd 29dc e4bc
00000150: 90e6 623d 0769 583e fb69 11bd c29d d3bd
00000160: 864d 19be 34c6 a2bd 42d0 223e f7ac 823c
00000170: 146c 2c3e 726e 47be 62ab 373e 940e 46be
00000180: 6106 8ebd a52a 90bd 86ed ecbd d5ba 11bd
00000190: b088 7fbd 9a14 5cbd cabc fdbd c482 b73d
000001a0: 238b 3dbe 840a 513e d787 ad3d 09e4 083e
000001b0: d8f5 463e 9347 0fbd d3da d63d 6293 c43d
000001c0: 1d5d 533d a87a 023e ed95 663d dc2e bcbc
000001d0: 7fe0 8ebd 7217 023d cc02 27be 5623 9fbc
000001e0: 2cda b23c a4c0 60bd 11b9 11bd 4a26 ab3d
000001f0: c5bb ccbd afcb 7c3d ebee 0fbe f507 33be
00000200: 4796 1fbe e043 3d3e 874f 22be 0907 20be
00000210: 5c40 2bbe ac1e 82bd dc98 3a3e f003 e2bc
00000220: 6c4f 36be 4b02 a73c 39f6 d53d 639a 393d
00000230: 172e 413e 33d2 8cbd 2f14 05bd adf7 083c
00000240: 67e4 68bd a81b 11be 132c 27bd f284 813d
00000250: 2fc6 29bd 6355 40bd 1b73 23be d0c9 33bd
00000260: a40f 8d3c f306 383e 6701 51be f6d1 9e3d
00000270: e793 333e 10a3 efbd a4ca 06be d0bf 873d
00000280: df8e 58bd 1c23 64bd f77f f73d 8886 9a3d
00000290: 3fc3 273e 2736 093d b817 02bd 37cf 463e
000002a0: 3c38 f63c 0894 143c 5479 f2bd 9a5f d53d
000002b0: 5a24 08be 8d56 bd3d b512 423c 2466 1e3e
000002c0: d9ed d33d 94e4 d43d 650e 49be bb14 0e3e
000002d0: 7854 bbbc 2032 003e 059b 093e 8bdc 6abc
000002e0: a201 b33d 2c84 2fbe cb0e b0bd 791b a53d
000002f0: eeb5 b2bb f805 0fbe f1c3 a7bd 0331 3c3e
00000300: a1b4 c93d 4fc8 f2bd 0b27 d53d 0dbf 63bc
00000310: 2b35 1b3d 4332 3f3d b1d7 c6bd e964 9f3d
00000320: 1057 dabd 7fa4 a13b 17c8 413e 288f 603d
00000330: 73da 493e 52a7 dabc 033f 123e 1ad6 46be
00000340: 2f4b d6bd f3cd 193e 8ba9 923d 7398 37be
00000350: 0d72 9cbd c43d 4f3d 80aa 9cbd a7fe b43d
00000360: 3662 703d d81c 52be e631 c5bd d18e 093e
00000370: 61ec edbd 3895 29be 8f77 f63d 9c15 0dbe
00000380: addf 253e da37 f5bd 5959 aabd f961 193e
00000390: 538a c1bd 9019 55be 14dc 893d c8e0 b6bd
000003a0: 08fe 123e 3182 44be c028 0ebd 74af 13be
000003b0: 05d4 0e3e a558 2abe 6ea1 053d 404a 083e
000003c0: 979d 413e 3f67 873c 13e6 5abc 81ae febd
000003d0: 2d5e 5c3d 672c 433d b380 9cbd fb9f 28bd
000003e0: d8b3 cebc eaa2 c93b 70f5 bebd 7fe3 2a3e
000003f0: 8964 be3d aeb2 cfbd 73ea 023e 024d 82b9

down_blocks.1.conv2.bias f4 [8]
-0.0021395038 -0.0014952914 -0.0036588016 0.0017965698 0.0019469849 0.0023748453 -0.0011745102 0.008243498
00000000: eb36 0cbb a7fd c3ba 81c8 6fbb e17a eb3a
00000010: f931 ff3a 4ba3 1b3b 06f2 99ba bd0f 073c

down_blocks.1.norm1.weight f4 [8]
0.99339914 0.9994295 0.99602306 1.0026352 1.0067971 0.99134725 1.0030336 1.0071367
00000000: 684f 7e3f 9dda 7f3f 5efb 7e3f 5a56 803f
00000010: bade 803f efc8 7d3f 6863 803f dbe9 803f

down_blocks.1.norm1.bias f4 [8]
0.002561832 -0.0003349581 -0.002252549 -0.0023420306 -0.0029221252 0.0014499638 -0.0022654769 -0.0033405907
00000000: 69e4 273b 519d afb9 809f 13bb c17c 19bb
00000010: 2081 3fbb b60c be3a 6578 14bb d0ed 5abb

down_blocks.1.norm1.running_mean f4 [8]
0.9274998 0.20494515 0.4851615 0.7591742 0.10150815 0.50519705 0.23676087 0.22791336
00000000: a070 6d3f 24dd 513e 1767 f83e 3e59 423f
00000010: 81e3 cf3d 9854 013f 7171 723e 1f62 693e

down_blocks.1.norm1.running_var f4 [8]
2.3490508 0.14248602 0.6634408 1.1395354 0.040551614 0.56076217 0.4674624 0.20534828
00000000: d956 1640 dbe7 113e 42d7 293f 4cdc 913f
00000010: 7319 263d 1c8e 0f3f 3b57 ef3e d246 523e

down_blocks.1.norm2.weight f4 [8]
1.0087174 1.0023282 1.0045463 1.0022725 1.0133871 0.998206 1.0015423 0.9843132
00000000: a71d 813f 4a4c 803f f994 803f 774a 803f
00000010: abb6 813f 6e8a 7f3f 8a32 803f f3fb 7b3f

down_blocks.1.norm2.bias f4 [8]
-0.00083871506 -0.0014873291 -0.0004994302 -0.00011556678 -7.8772464e-05 0.00081744965 -0.00253258 0.00305516
00000000: 37dd 5bba 7cf2 c2ba 32ec 02ba 715c f2b8
00000010: a532 a5b8 1e4a 563a a4f9 25bb 1439 483b

down_blocks.1.norm2.running_mean f4 [8]
0.24121964 0.3584537 0.2573964 0.37798938 0.5923992 0.35827118 0.2608317 0.3235587
00000000: 4802 773e 3e87 b73e 76c9 833e d387 c13e
00000010: 79a7 173f 526f b73e bc8b 853e 7ca9 a53e

down_blocks.1.norm2.running_var f4 [8]
0.23451942 0.20421442 0.2855428 0.16732444 0.62627137 0.2169934 0.40606678 0.20550103
00000000: dc25 703e 961d 513e aa32 923e 1957 2b3e
00000010: 5253 203f 8533 5e3e fce7 cf3e dd6e 523e

down_blocks.2.conv1.weight f4 [16, 8, 3, 3]
0.07501091 -0.10758044 -0.018442137 -0.032020926 0.015686044 -0.14250866 0.10821934 -0.095558695
-0.0896098 -0.059528075 -0.11559808 0.102159314 0.060298353 -0.09755488 -0.16041617 -0.09173831
-0.12720011 -0.16768274 0.048161615 -0.15536742 -0.06775464 0.11514197 0.1532985 0.10743967
0.08380141 -0.11116891 -0.032108486 -0.14910972 0.15085395 -0.16069786 0.03886477 -0.15242282
-0.119381204 0.008807111 -0.022359557 0.13395773 -0.064939976 0.05575013 0.13029075 -0.11199221
-0.16158618 0.10611415 -0.074459806 -0.014911601 0.16019611 0.10240633 -0.037758254 -0.031775158
-0.049818724 -0.14256647 0.15510549 0.10395753 -0.047785528 -0.03642747 0.056958444 -0.113186456
-0.008354318 0.07368326 0.11194428 -0.039182015 -0.037378628 -0.07045323 0.11261993 -0.03859534
-0.1454226 0.0795881 0.052339755 0.1497961 0.12738988 -0.002668839 -0.00750244 -0.103372075
-0.0685123 0.062613025 0.014103046 -0.1366446 0.10236401 0.15023263 -0.09743315 0.08208477
-0.05781171 0.085123256 0.058033664 -0.010988592 -0.06324155 0.059475042 -0.027831865 -0.089427724
-0.0814027 -0.04391627 0.13089839 -0.11516948 0.019820744 -0.04743629 0.034120083 -0.023303574
0.15431042 -0.12208409 -0.070791304 0.12441994 0.14025095 -0.0986914 -0.10027994 0.10901945
-0.07271205 0.023121566 0.12014591 -0.081578344 0.027049273 -0.0051908814 -0.13082874 0.14484768
0.08343613 -0.07418582 -0.0595182 0.05576689 0.115496136 -0.03594098 0.067584135 -0.02439178
0.0075776037 0.10754901 -0.074785 0.053419985 -0.11392425 -0.04686788 0.018002147 0.14564498
0.028133035 0.027119344 0.08072362 -0.06926218 0.06535983 -0.04848894 -0.03052666 0.08150684
-0.1379277 0.10207664 -0.010213423 0.03734607 0.09329134 -0.027218172 0.035426263 -0.15703382
-0.0602179 0.13114317 0.14856178 0.049032636 -0.14865726 0.03779041 0.06574193 0.13135175
0.15162064 0.14834112 -0.00060842774 -0.13708507 -0.0008626741 -0.023924062 -0.09046611 0.13318281
-0.06720038 0.14957908 -0.060169056 0.14001213 -0.038895145 -0.15715463 -0.036025297 -0.16528195
-0.14594215 -0.08927238 -0.12171093 -0.12786135 -0.13091393 -0.034744244 -0.010267341 0.16428316
-0.05807162 -0.13100979 -0.04606899 -0.15806127 0.12881735 0.04810598 -0.11689957 -0.1247269
0.1317661 -0.10318571 0.116372935 -0.13084053 0.15021712 0.12765697 -0.010878026 0.075269125
-0.03859978 0.11816567 0.02608054 0.14452505 -0.16416207 -0.10254262 -0.03114321 -0.039254524
0.14072631 0.15121794 0.14468999 -0.16507931 0.012046777 -0.017132934 0.065174446 0.13475752
0.1193971 0.13589491 -0.08241713 -0.014153877 -0.09869568 0.018262126 0.076578274 -0.057177126
0.124638855 -0.0036252735 0.05999224 -0.030572282 -0.087495044 -0.019811885 0.02150718 -0.019106518
0.14054911 0.16500308 0.1285536 0.03749447 -0.16309576 0.0024702693 -0.0882117 0.005977975
-0.06267408 -0.13025354 -0.122286774 0.08306971 0.11995944 -0.040028416 -0.07324999 0.055711962
0.04174494 -0.020863503 -0.13524392 -0.026647639 0.010148379 -0.00015320841 0.044303913 -0.0054514282
0.13542584 -0.11893192 0.045917466 0.06423222 -0.001344839 -0.07135878 -0.0146519635 0.0038798288
00000000: 529f 993d 2253 dcbd f713 97bc 6028 03bd
00000010: 0580 803c caed 11be 1aa2 dd3d 47b4 c3bd
00000020: 5885 b7bd b6d3 73bd b0be ecbd e738 d13d
00000030: 68fb 763d daca c7bd 2344 24be 4ce1 bbbd
00000040: bf40 02be 06b5 2bbe 1d45 453d a318 1fbe
00000050: f2c2 8abd 8ecf eb3d 48fa 1c3e 5409 dc3d
00000060: 13a0 ab3d 87ac e3bd 3084 03bd 38b0 18be
00000070: 7579 1a3e fb8d 24be aa30 1f3d ba14 1cbe
00000080: 227e f4bd b34b 103c 642b b7bc 372c 093e
00000090: 40ff 84bd 405a 643d f06a 053e 2c5c e5bd
000000a0: d976 25be 6052 d93d 627e 98bd ca4f 74bc
000000b0: 730a 243e 69ba d13d 66a8 1abd ab26 02bd
000000c0: b80e 4cbd f2fc 11be f9d3 1e3e afe7 d43d
000000d0: c2ba 43bd f934 15bd 424d 693d 4dce e7bd
000000e0: 8de0 08bc 40e7 963d 0b43 e53d 527d 20bd
000000f0: 551a 19bd c849 90bd 47a5 e63d 2616 1ebd
00000100: a9e9 14be 16ff a23d 3662 563d 2664 193e
00000110: 7e72 023e b0e7 2ebb 07d7 f5bb bdb4 d3bd
00000120: 2d50 8cbd 423b 803d 7610 673c 90ec 0bbe
00000130: 39a4 d13d 95d6 193e 088b c7bd 0f1c a83d
00000140: f9cb 6cbd 1a55 ae3d b5b4 6d3d 7f09 34bc
00000150: c984 81bd 1a9c 733d a7ff e3bc e225 b7bd
00000160: 75b6 a6bd 8ce1 33bd 3a0a 063e fadd ebbd
00000170: 1d5f a23c 8e4c 42bd 80c1 0b3d 23e7 bebc
00000180: 8d03 1e3e 3907 fabd 08fb 90bd e2cf fe3d
00000190: f29d 0f3e b71e cabd 925f cdbd 9745 df3d
000001a0: 0eea 94bd 7069 bd3c 0f0f f63d 8c12 a7bd
000001b0: 7096 dd3c 4518 aabb f8f7 05be f352 143e
000001c0: 90e0 aa3d bcee 97bd 5bc9 73bd d36b 643d
000001d0: 3d89 ec3d d936 13bd 8d69 8a3d 45d1 c7bc
000001e0: 8c4d f83b a842 dc3d e128 99bd eace 5a3d
000001f0: 1e51 e9bd 89f8 3fbd 3d79 933c f523 153e
00000200: 4077 e63c 6329 de3c 6d52 a53d 54d9 8dbd
00000210: 60db 853d 579c 46bd 0c13 fabc 0fed a63d
00000220: eb3c 0dbe 8f0d d13d 3356 27bc 31f8 183d
00000230: 880f bf3d a5f8 debc 211b 113d 79cd 20be
00000240: 0ba7 76bd 654a 063e 9420 183e 72d6 483d
00000250: 9c39 18be 1eca 1a3d b4a3 863d 1381 063e
00000260: 7142 1b3e bce6 173e e57e 1fba 0760 0cbe
00000270: 1425 62ba 65fc c3bc 4c46 b9bd 1361 083e
00000280: 5aa0 89bd 422b 193e d473 76bd 575f 0f3e
00000290: 8450 1fbd 25ed 20be 438f 13bd ac3f 29be
000002a0: dc71 15be 70d4 b6bd 9443 f9bd 16ee 02be
000002b0: 4d0e 06be fb4f 0ebd 5938 28bc d839 283e
000002c0: 82dc 6dbd 6e27 06be d6b2 3cbd d0da 21be
000002d0: b2e8 033e c70a 453d 0b69 efbd d170 ffbd
000002e0: b1ed 063e 0853 d3bd ef54 ee3d 0ffb 05be
000002f0: 84d2 193e 82b8 023e bf39 32bc b326 9a3d
00000300: ce1a 1ebd d800 f23d dba6 d53c 60fe 133e
00000310: 1a1a 28be dd01 d2bd 0c20 ffbc 5ac9 20bd
00000320: 8f1a 103e e0d8 1a3e 9d29 143e 8d0a 29be
00000330: d85f 453c 5e5a 8cbc 2e7a 853d e0fd 093e
00000340: 7786 f43d 0928 0b3e 50ca a8bd aae5 67bc
00000350: f620 cabd 749a 953c 12d5 9c3d 9032 6abd
00000360: a842 ff3d ff95 6dbb 6cba 753d b972 fabc
00000370: 9a30 b3bd 894c a2bc d32f b03c 4685 9cbc
00000380: 1bec 0f3e 91f6 283e 8ea3 033e cd93 193d
00000390: 9302 27be 3ee4 213b 56a8 b4bd e4e2 c33b
000003a0: 455b 80bd 2f61 05be 7d71 fabd 7420 aa3d
000003b0: 4bad f53d d6f4 23bd 1704 96bd 3a32 643d
000003c0: befc 2a3d f0e9 aabc 627d 0abe 264c dabc
000003d0: 6345 263c 92a6 20b9 0578 353d e5a1 b2bb
000003e0: 12ad 0a3e 9492 f3bd f413 3c3d 2f8c 833d
000003f0: 4f45 b0ba 8d24 92bd ca0e 70bc ba44 7e3b

down_blocks.2.conv1.bias f4 [16]
2.950908e-06 0.00018232131 -0.00069971127 -0.00014723964 2.97241e-05 0.0014241695 7.213534e-05 -0.00082549173
0.00050028256 -0.0010821857 -4.5453282e-05 0.0009738398 0.0002529554 6.356611e-05 -3.9721588e-05 0.00045834985
00000000: 3708 4636 812d 3f39 d46c 37ba 5764 1ab9
00000010: 0558 f937 33ab ba3a 5e47 9738 d065 58ba
00000020: 6525 033a 20d8 8dba 17a5 3eb8 4849 7f3a
00000030: 199f 8439 cc4e 8538 bb9a 26b8 ad4e f039

down_blocks.2.conv2.weight f4 [16, 16, 3, 3]
0.10160636 -0.11576286 -0.06435043 0.035548963 0.11073259 0.07230176 0.0023652012 -0.1110324
0.07897496 0.14345491 -0.10637698 -0.07611615 0.11748081 0.05021423 -0.07428683 -0.12182223
0.09414887 0.08344645 0.008754546 -0.10113264 -0.110393636 0.06096363 0.05252886 0.12393242
-0.030074589 -0.035599716 -0.022539945 0.07490549 -0.13037604 -0.1167176 0.121111624 0.13658524
0.088365234 -0.012025763 -0.056574423 0.116640784 0.054137107 -0.11550595 -0.1296538 0.05015475
-0.022925517 -0.08114574 -0.012412243 0.12393708 -0.017130813 0.022969602 -0.087236434 -0.0048943544
-0.1292293 -0.019454012 0.0071787033 -0.087933935 -0.07962238 0.02259415 -0.073322535 0.06284953
-0.007719154 0.13173924 0.018404488 -0.06494878 -0.14127113 -0.08875193 -0.11306922 -0.09910177
-0.10739852 -0.13625444 -0.09509411 0.08133182 0.07178736 -0.11847882 0.13804561 0.08784401
-0.011704334 0.11771239 0.00031761068 -0.12474807 -0.11103456 0.05830673 -0.09874028 -0.006390793
-0.11730898 -0.033391364 -0.10298647 0.012132544 -0.06510805 -0.13280366 -0.12884602 -0.027273474
-0.0044756643 0.111469544 -0.058901787 0.016249109 0.07236217 0.054949857 -0.016340807 0.10044946
-0.07748695 0.13555248 -0.13204825 -0.012086202 -0.13194308 0.004467214 -0.029125893 -0.11855703
-0.028044859 0.1287352 0.02019159 0.07843352 0.04088116 -0.061110437 0.11029354 0.072508
0.03544981 -0.021761673 0.087343834 0.06665911 -0.056948323 0.05353041 0.13629258 0.12503392
-0.06612469 -0.059711058 0.10300566 -0.14097835 0.088315845 -0.06740387 -0.012724598 0.07328363
-0.12263594 -0.035517935 -0.14360352 0.050610468 -0.07892674 0.024207504 0.08620442 0.09891041
0.041719116 0.009127873 0.0035286436 -0.1429278 -0.09497012 0.021926994 0.08128584 -0.022922337
-0.10115193 -0.14299285 -0.08651359 0.0032448987 0.13977149 -0.038247425 -0.08269271 -0.012964316
-0.00035511493 -0.090426415 -0.12338089 0.064552136 0.14159402 0.014000911 0.0953098 -0.01757045
0.0014791226 0.0323609 0.11681351 -0.10744356 0.116822235 -0.07739415 0.12274637 -0.086027995
-0.049969833 0.054645225 0.008154107 0.027710052 0.10913278 -0.03875586 0.049031142 -0.0071965447
0.12290086 -0.0013681736 -0.009521469 0.14091535 -0.019990247 -0.11271081 -0.021825565 0.12359235
-0.04652966 0.12318402 -0.1288536 0.14501564 -0.12978189 0.061228976 0.00030852237 -0.016598612
0.059332587 0.022940496 0.06728483 -0.062338565 -0.015932953 -0.072741024 0.08689683 0.10877316
0.041977238 -0.07822553 0.10033849 0.09351159 0.09651597 -0.13777682 -0.012628602 -0.020734984
-0.02718014 -0.10770468 0.04110183 0.007419353 0.07647357 -0.07267912 -0.0085571 0.10987252
-0.023716237 -0.10787766 -0.05448525 -0.113177784 0.11489247 0.016813928 0.014644407 -0.13750418
0.13466893 -0.14145441 0.086231515 -0.09139302 0.14471899 -0.12071492 0.0125913 0.07003188
0.02832267 0.050562732 -0.14059356 -0.042936083 -0.024110414 0.061155524 -0.014768929 -0.010897345
0.13965954 0.038235966 -0.12204081 -0.12197102 0.07313759 0.04865031 -0.029969854 0.096881956
-0.11988018 0.07432737 0.13109261 -0.13997304 0.0043845987 -0.014535644 -0.12382721 -0.055396028
00000000: ff16 d03d 1415 edbd 29ca 83bd ca9b 113d
00000010: c5c7 e23d f212 943d 7e01 1b3b f464 e3bd
00000020: a0bd a13d d8e5 123e 2ddc d9bd c9e2 9bbd
00000030: c799 f03d 70ad 4d3d b223 98bd ef7d f9bd
00000040: 1fd1 c03d f9e5 aa3d 3a6f 0f3c a11e cfbd
00000050: 0f16 e2bd 00b5 793d 8028 573d 48d0 fd3d
00000060: fc5e f6bc 02d1 11bd b1a5 b8bc 0d68 993d
00000070: 4c81 05be a309 efbd 5f09 f83d 00dd 0b3e
00000080: d5f8 b43d b507 45bc 95ba 67bd 5de1 ee3d
00000090: dfbe 5d3d 628e ecbd f7c3 04be 116f 4d3d
000000a0: 4bce bbbc bd2f a6bd b85c 4bbc b9d2 fd3d
000000b0: eb55 8cbc bf2a bc3c 04a9 b2bd d260 a0bb
000000c0: b054 04be 055e 9fbc 543b eb3b b516 b4bd
000000d0: 0f11 a3bd 5e17 b93c 202a 96bd 41b7 803d
000000e0: f5f0 fcbb a7e6 063e 02c5 963c de03 85bd
000000f0: 61a9 10be 92c3 b5bd d690 e7bd def5 cabd
00000100: c1f3 dbbd 4986 0bbe b3c0 c2bd 4c91 a63d
00000110: 4005 933d 06a5 f2bd d45b 0d3e 8fe7 b33d
00000120: 89c3 3fbc 3213 f13d fc84 a639 eb7b ffbd
00000130: 1666 e3bd 0ad3 6e3d 5838 cabd db69 d1bb
00000140: b13f f0bd 62c5 08bd 92ea d2bd 94c7 463c
00000150: 5f57 85bd affd 07be 36f0 03be 9f6c dfbc
00000160: 98a8 92bb 254a e43d 0043 71bd da1c 853c
00000170: 9e32 943d 1a13 613d 28dd 85bc 72b8 cd3d
00000180: 7ab1 9ebd 45ce 0a3e a837 07be 3505 46bc
00000190: 161c 07be b561 923b 6d99 eebc 07ce f2bd
000001a0: 55be e5bc 29d3 033e d568 a53c c1a1 a03d
000001b0: 0173 273d f04e 7abd 94e1 e13d 137f 943d
000001c0: d233 113d 8945 b2bc 53e1 b23d 9284 883d
000001d0: a542 69bd b442 5b3d 4890 0b3e e408 003e
000001e0: 626c 87bd 9593 74bd a2f4 d23d a15c 10be
000001f0: f0de b43d 0a0b 8abd d57a 50bc ba15 963d
00000200: 8d28 fbbd 417b 11bd cd0c 13be ec4c 4f3d
00000210: 58a4 a1bd d14e c63c f18b b03d 8b91 ca3d
00000220: aae1 2a3d 138d 153c d140 673b aa5b 12be
00000230: b27f c2bd 3da0 b33c 3179 a63d a0c7 bbbc
00000240: be28 cfbd b86c 12be 092e b1bd 5ea8 543b
00000250: 4220 0f3e 55a9 1cbd cc5a a9bd 4868 54bc
00000260: b82e bab9 7c31 b9bd 1faf fcbd e933 843d
00000270: 06fe 103e 1464 653c c931 c33d e8ef 8fbc
00000280: 1edf c13a dd8c 043d ec3b ef3d 5f0b dcbd
00000290: 7f40 ef3d d380 9ebd 7362 fb3d 722f b0bd
000002a0: 2bad 4cbd acd3 5f3d ce98 053c 3100 e33c
000002b0: 0281 df3d 77be 1ebd e1d4 483d fed0 ebbb
000002c0: 72b3 fb3d 4a54 b3ba efff 1bbc 1d4c 103e
000002d0: 96c2 a3bc edd4 e6bd 87cb b2bc fc1d fd3d
000002e0: e295 3ebd e747 fc3d 33f2 03be fb7e 143e
000002f0: 8be5 04be 3ccb 7a3d 2cc1 a139 d0f9 87bc
00000300: ba06 733d b5ed bb3c a1cc 893d b956 7fbd
00000310: d385 82bc 3ff9 94bd f7f6 b13d 76c4 de3d
00000320: 53f0 2b3d b534 a0bd 447e cd3d 0183 bf3d
00000330: 2aaa c53d 5e15 0dbe 32e8 4ebc 6adc a9bc
00000340: e3a8 debc 4594 dcbd 645a 283d 0b1e f33b
00000350: 2d9e 9c3d cad8 94bd 1433 0cbc d804 e13d
00000360: 8e48 c2bc f6ee dcbd ed2b 5fbd c1c9 e7bd
00000370: be4c eb3d 5dbd 893c 18ef 6f3c e5cd 0cbe
00000380: a7e6 093e 6dd9 10be 269a b03d 432c bbbd
00000390: 3731 143e 6239 f7bd bd4b 4e3c e06c 8f3d
000003a0: f204 e83c de1a 4f3d c2f7 0fbe bfdd 2fbd
000003b0: 3483 c5bc 377e 7a3d 61f9 71bc c78a 32bc
000003c0: e902 0f3e 519d 1c3d 88f0 f9bd f1cb f9bd
000003d0: 29c9 953d 8c45 473d 5783 f5bc 0c6a c63d
000003e0: bd83 f5bd f338 983d 243d 063e 1855 0fbe
000003f0: aeac 8f3b e926 6ebc 1f99 fdbd f2e6 62bd

down_blocks.2.conv2.bias f4 [16]
0.00045167588 -0.00049475493 0.0005776712 -0.0001477356 0.00014861528 2.3758696e-06 5.5911107e-05 -4.893146e-05
0.00036769276 0.00025732708 -0.0007456589 -3.1683638e-05 3.2844214e-06 -0.0003946218 0.00037687382 -0.00010769763
00000000: e9ce ec39 71b2 01ba dc6e 173a 79e9 1ab9
00000010: 9cd5 1b39 2171 1f36 1882 6a38 c13b 4db8
00000020: e3c6 c039 dbe9 8639 5278 43ba 0ce4 04b8
00000030: ee69 5c36 3ee5 ceb9 2697 c539 badb e1b8

down_blocks.2.norm1.weight f4 [16]
1.0025927 0.99953735 0.99995065 1.0004696 0.9990835 1.000723 1.0008343 0.9984303
1.0029622 1.0002434 0.9993589 0.99950457 0.998848 0.9985973 0.9987073 1.0001347
00000000: f554 803f aee1 7f3f c4fc 7f3f 630f 803f
00000010: f0c3 7f3f b117 803f 571b 803f 2199 7f3f
00000020: 1161 803f fa07 803f fcd5 7f3f 88df 7f3f
00000030: 81b4 7f3f 13a4 7f3f 48ab 7f3f 6a04 803f

down_blocks.2.norm1.bias f4 [16]
0.00043506405 -8.324651e-06 -0.00013460522 0.00019838031 -0.00048017898 -0.00017388376 -0.00051520154 0.00047469675
-0.0008569969 -0.0009089616 -0.00017549313 -6.049348e-05 0.00036545054 0.0003543006 -0.0003256208 -0.00034257828
00000000: 4f19 e439 1baa 0bb7 d024 0db9 4f04 5039
00000010: 88c0 fbb9 9154 36b9 970e 07ba b8e0 f839
00000020: 17a8 60ba 6147 6eba 9404 38b9 61ba 7db8
00000030: f199 bf39 6cc1 b939 15b8 aab9 149c b3b9

down_blocks.2.norm1.running_mean f4 [16]
0.20289457 0.3141994 0.29339495 0.281203 0.39263812 0.30533555 0.59571993 0.5255414
0.24659307 0.21660656 0.35487348 0.18349344 0.9996863 0.33924252 0.33694667 0.557913
00000000: 98c3 4f3e bede a03e dd37 963e d7f9 8f3e
00000010: dd07 c93e f154 9c3e 1a81 183f e289 063f
00000020: e582 7c3e 1cce 5d3e fab1 b53e b4e5 3b3e
00000030: 71eb 7f3f 32b1 ad3e 4684 ac3e 63d3 0e3f

down_blocks.2.norm1.running_var f4 [16]
0.18160048 0.31604707 0.27085623 0.18518451 0.31468397 0.23412293 0.50372744 0.61351883
0.31332055 0.14935157 0.5169104 0.15377553 1.197331 0.40363804 0.32990757 0.47961575
00000000: 7af5 393e ecd0 a13e abad 8a3e 02a1 3d3e
00000010: 421e a13e ecbd 6f3e 48f4 003f 920f 1d3f
00000020: 8d6b a03e 9eef 183e 3d54 043f 5577 1d3e
00000030: 2442 993f a5a9 ce3e a5e9 a83e 3290 f53e

down_blocks.2.norm2.weight f4 [16]
1.0025029 1.0004961 0.9997481 1.0005887 0.99955565 0.9995115 0.99872535 1.0004623
1.0010514 1.0001837 0.99943805 0.9994762 1.0002949 1.0000392 0.9996336 0.99976504
00000000: 0452 803f 4210 803f 7eef 7f3f 4a13 803f
00000010: e1e2 7f3f fcdf 7f3f 77ac 7f3f 260f 803f
00000020: 7422 803f 0506 803f 2cdb 7f3f acdd 7f3f
00000030: aa09 803f 4901 803f fde7 7f3f 9af0 7f3f

down_blocks.2.norm2.bias f4 [16]
-0.00024923217 0.0004116337 -0.00024050075 -0.00010885269 -0.0004042227 -0.00010453218 -0.00040996505 0.0005344538
-0.000105769075 0.000391859 -5.39463e-05 -3.230964e-05 -0.0006579407 -0.00010716907 0.00013032762 0.0001540896
00000000: 60ab 82b9 8ad0 d739 ee2e 7cb9 d847 e4b8
00000010: daed d3b9 4938 dbb8 94f0 d6b9 961a 0c3a
00000020: 57d0 ddb8 6d72 cd39 6644 62b8 3684 07b8
00000030: a779 2cba f5bf e0b8 8ea8 0839 1d93 2139

down_blocks.2.norm2.running_mean f4 [16]
0.3224117 0.3152393 0.27755105 0.3188102 0.32734904 0.36967984 0.4968303 0.41348818
0.4524382 0.56259227 0.27069825 0.3509747 0.2831927 0.2542667 0.34513226 0.46894032
00000000: 2513 a53e 0c67 a13e 2c1b 8e3e 173b a33e
00000010: 4b9a a73e ad46 bd3e 8b60 fe3e b9b4 d33e
00000020: fba5 e73e 0c06 103f f698 8a3e f5b2 b33e
00000030: a2fe 903e 3f2f 823e 2db5 b03e f218 f03e

down_blocks.2.norm2.running_var f4 [16]
0.2631942 0.31278437 0.1763326 0.3277769 0.32769904 0.25191757 1.019422 0.7712122
0.5923382 0.41308698 0.22267692 0.41710204 0.19458234 0.25434086 0.2122332 0.69496065
00000000: 64c1 863e 4625 a03e 8890 343e 60d2 a73e
00000010: 2bc8 a73e 57fb 803e 6c7c 823f 2a6e 453f
00000020: 7aa3 173f 2380 d33e 6b05 643e 668e d53e
00000030: 9840 473e f738 823e a953 593e f1e8 313f

down_blocks.3.conv1.weight f4 [32, 16, 3, 3]
0.047897045 0.08236723 -0.00035385345 0.0743335 0.0700364 -0.07460556 0.009820286 0.101389684
-0.06683289 0.09902754 -0.0074324985 0.03328451 -0.041726306 -0.11114238 -0.099236034 0.0050030076
-0.058697697 -0.078536324 -0.0028493167 -0.025637148 -0.09340378 0.04310644 -0.11127406 0.09244188
0.027488222 0.06149445 0.11607048 -0.07709673 -0.037066936 0.04809248 0.030968694 0.00043807304
-0.053030927 -0.0565099 -0.09358245 0.11730988 -0.010876517 0.08815803 0.104308516 0.097342305
0.073175274 -0.014435575 0.1157603 0.03186951 -0.029583137 0.117163464 0.021017509 0.11249198
0.07106718 0.106911436 -0.03552771 0.06673065 0.002464141 -0.0062260316 -0.0442237 0.05887095
-0.030006977 0.03073885 0.07893403 -0.05980578 0.057407383 -0.023916056 0.0639877 -0.10539199
-0.08669997 0.11276718 0.10129115 0.06621005 -0.032308433 -0.07585611 0.012262459 0.069204986
-0.09999814 0.044030398 0.11258537 0.04810128 -0.01467124 -0.006780634 -0.048307125 0.048641026
-0.08094041 0.072673164 -0.07916793 -0.027506948 -0.05631734 -0.016060771 -0.08640937 0.07948253
-0.08794506 -0.007323368 0.09155946 -0.1111327 0.06898427 0.10210334 0.06118754 -0.036974702
-0.10881563 0.060088307 0.094052084 -0.10358956 -0.021803722 0.028850567 -0.104980834 -0.09037151
0.09306661 -0.10777873 -0.033949606 -0.0019418476 0.09409657 -0.11042129 -0.0048555564 -0.046793357
-0.0033812465 0.103895485 -0.026956009 0.10316582 -0.07168307 -0.014471441 -0.056876794 0.07384324
-0.002803098 0.092585795 0.03547517 0.08858552 -0.11469678 -0.019067837 0.056169875 0.086582474
-0.07949404 0.042904288 0.07463034 -0.061820935 -0.033699136 0.09683026 -0.11568462 -0.02137437
0.10525708 -0.036196332 -0.02592666 0.104117684 0.0697381 0.08316006 0.025293136 0.111011684
0.008215207 0.02984982 0.06988225 -0.031784624 -0.02182394 -0.0053847074 -0.05302867 -0.047318004
-0.08372416 -0.07552178 0.10352627 0.08608007 -0.077706866 -0.009999352 0.036504604 0.07245977
-0.004540736 -0.11722491 0.08183068 0.056930017 -0.090128966 0.06933729 0.06747925 -0.028634058
-0.062179532 0.103458405 0.09925201 -0.047527738 -0.040255237 -0.10590837 0.09898846 0.05723104
-0.08899002 0.034064014 0.11373681 -0.110405825 0.03966281 0.062029734 0.06271764 -0.100229435
0.06266906 -0.027035026 0.04433497 -0.06748957 -0.002488014 0.017615737 -0.08127856 -0.025757778
-0.008479371 0.11236985 -0.08407268 0.08366998 0.031992152 0.108017094 -0.0723091 0.089428544
0.04676211 0.007126163 0.06514795 0.05372024 0.084481664 -0.08007187 0.08211255 -0.055940595
0.009945835 -0.07526035 0.08554169 0.06156642 0.035710044 -0.01953568 -0.048610356 0.042500306
-0.0039512897 0.056401063 0.056706212 -0.07164243 -0.034751907 -0.048038352 -0.01647793 -0.031823263
-0.04552186 -0.029012622 -0.058774486 -0.09796125 -0.10147602 0.006314082 -0.07254938 -0.017348554
0.099033095 -0.058489572 0.03923758 -0.0522177 -0.06125642 0.06414527 -0.08684163 0.061255265
0.027338432 -0.029916627 0.027501972 0.0717028 0.0054838727 0.1040443 -0.0034887576 -0.0061391094
0.11611079 0.024809847 -0.0142972125 0.09620902 -0.096347354 0.01952993 -0.06508024 -0.019470336
00000000: b12f 443d 26b0 a83d 6885 b9b9 293c 983d
00000010: 3e6f 8f3d cdca 98bd 44e5 203c 65a5 cf3d
00000020: afdf 88bd f3ce ca3d 518c f3bb 5755 083d
00000030: 34e9 2abd 9e9e e3bd 433c cbbd 45f0 a33b
00000040: ff6c 70bd a7d7 a0bd 9abb 3abb ff04 d2bc
00000050: 7b4a bfbd 6190 303d a8e3 e3bd 2b52 bd3d
00000060: fb2e e13c 9be1 7b3d 5cb6 ed3d e4e4 9dbd
00000070: 80d3 17bd 9ffc 443d 0fb2 fd3c 2bad e539
00000080: f536 59bd ed76 67bd 28a8 bfbd 2a40 f03d
00000090: 6b33 32bc 328c b43d b49f d53d 675b c73d
000000a0: ebdc 953d 3183 6cbc bc13 ed3d 9a89 023d
000000b0: 5658 f2bc 66f3 ef3d e92c ac3c 3262 e63d
000000c0: ab8b 913d 62f4 da3d 8185 11bd 14aa 883d
000000d0: 6d7d 213b bd03 ccbb e923 35bd aa22 713d
000000e0: 31d1 f5bc 0ad0 fb3c 2aa8 a13d e8f6 74bd
000000f0: 0124 6b3d 9beb c3bc fc0b 833d c1d7 d7bd
00000100: c18f b1bd 7bf2 e63d bc71 cf3d 2299 873d
00000110: d955 04bd 735a 9bbd 7be8 483c 58bb 8d3d
00000120: d3cb ccbd 3859 343d 2993 e63d d905 453d
00000130: a45f 70bc 1530 debb b1dd 45bd d03b 473d
00000140: 16c4 a5bd abd5 943d cc22 a2bd 4056 e1bc
00000150: 03ad 66bd e191 83bc 65f7 b0bd bdc7 a23d
00000160: 8a1c b4bd ddf8 efbb 8783 bb3d 8b99 e3bd
00000170: a047 8d3d 8e1b d13d c99f 7a3d c972 17bd
00000180: bbda debd 281f 763d 619e c03d c326 d4bd
00000190: b89d b2bc 0658 ec3c 3100 d7bd b314 b9bd
000001a0: b599 be3d 18bb dcbd be0e 0bbd 9885 feba
000001b0: b4b5 c03d 8f24 e2bd 5c1b 9fbb 64aa 3fbd
000001c0: e797 5dbb 28c7 d43d d9d2 dcbc 9a48 d33d
000001d0: 93ce 92bd 9f19 6dbc a4f7 68bd 203b 973d
000001e0: 2eb4 37bb 9f9d bd3d 694e 113d 536c b53d
000001f0: 25e6 eabd 2734 9cbc 6212 663d 2752 b13d
00000200: c5cd a2bd 68bc 2f3d cbd7 983d f337 7dbd
00000210: 1b08 0abd f14e c63d 0fec ecbd 4e19 afbc
00000220: 0691 d73d 9b42 14bd 2664 d4bc a73b d53d
00000230: d9d2 8e3d d24f aa3d 8d33 cf3c 185a e33d
00000240: 1399 063c 9c87 f43c 6d1e 8f3d 9830 02bd
00000250: 1fc8 b2bc 3372 b0bb 9734 59bd 86d0 41bd
00000260: 9377 abbd 2aab 9abd 9505 d43d bf4a b03d
00000270: c724 9fbd 52d4 23bc da85 153d ca65 943d
00000280: 74ca 94bb 9d13 f0bd d896 a73d 732f 693d
00000290: 8995 b8bd b600 8e3d 9032 8a3d f991 eabc
000002a0: f7af 7ebd 00e2 d33d a344 cb3d 72ac 42bd
000002b0: ade2 24bd 7de6 d8bd 76ba ca3d 186b 6a3d
000002c0: 6640 b6bd b586 0b3d d8ee e83d 731c e2bd
000002d0: 7875 223d e412 7e3d 1b72 803d 1745 cdbd
000002e0: a358 803d 8f78 ddbc 9698 353d f937 8abd
000002f0: f30d 23bb e14e 903c 6075 a6bd fa01 d3bc
00000300: 0fed 0abc 2a22 e63d 4c2e acbd 2b5b ab3d
00000310: 340a 033d 1138 dd3d cb16 94bd 5026 b73d
00000320: a089 3f3d 9782 e93b 4a6c 853d c109 5c3d
00000330: b904 ad3d b8fc a3bd a02a a83d f721 65bd
00000340: dbf3 223c 1922 9abd 7b30 af3d 122d 7c3d
00000350: b244 123d 4a09 a0bc a71b 47bd cd14 2e3d
00000360: d279 81bb cd04 673d c644 683d 44b9 92bd
00000370: 0458 0ebd ddc3 44bd b9fc 86bc 1c59 02bd
00000380: 2175 3abd e1ab edbc 84bd 70bd e89f c8bd
00000390: a9d2 cfbd 5ce6 ce3b c594 94bd 8e1e 8ebc
000003a0: ddd1 ca3d c392 6fbd 96b7 203d 3ae2 55bd
000003b0: 03e8 7abd 985e 833d 06da b1bd cde6 7a3d
000003c0: d9f4 df3c b713 f5bc d14b e13c ebd8 923d
000003d0: 0fb2 b33b 2e15 d53d a4a3 64bb 952a c9bb
000003e0: 7ecb ed3d 053e cb3c db3e 6abc 3c09 c53d
000003f0: c351 c5bd 3bfd 9f3c ca48 85bd 4180 9fbc

down_blocks.3.conv1.bias f4 [32]
-0.00016535161 -6.7313274e-05 -9.056708e-05 2.0647336e-05 0.00017565442 0.00012782772 -0.00016943141 -0.00024332822
9.637171e-05 1.1686038e-06 0.00010804528 -1.7171333e-05 9.9254095e-05 -0.00024959177 -7.209107e-05 0.00016771516
3.3037857e-05 -8.356954e-05 5.737532e-05 -7.193348e-05 -0.00012497808 -0.00012635197 0.00025607547 -1.5760923e-05
-0.0002599423 -0.00022036713 0.00031171006 -0.00013009337 -2.6665955e-05 7.470327e-05 0.00024684376 2.0415273e-05
00000000: 3c62 2db9 8a2a 8db8 d5ee bdb8 d133 ad37
00000010: e02f 3839 7e09 0639 66a9 31b9 ec25 7fb9
00000020: 2b1b ca38 ecd8 9c35 5e96 e238 280b 90b7
00000030: a326 d038 a4db 82b9 992f 97b8 b2dc 2f39
00000040: 2192 0a38 0e42 afb8 48a6 7038 feda 96b8
00000050: 8c0c 03b9 597d 04b9 de41 8639 5336 84b7
00000060: dd48 88b9 5a12 67b9 046d a339 ac69 08b9
00000070: b4b0 dfb7 03aa 9c38 cf6a 8139 7741 ab37
