Models/74967120-6bbc-4622-ae6f-330fa8d09711.pt (torch, 167363 bytes, 110 tensors)

conv_final.weight f4 [2, 4, 1, 1]
0	0x3f82eb26	1.0228012
1	0x3e304bcb	0.17216413
2	0x3f27a51a	0.654863
3	0x3f614d28	0.88008356
4	0xbf7f546d	-0.997382
5	0x3f47c7b2	0.78039086
6	0xbf0829d2	-0.5318881
7	0xbf74db5e	-0.9564723

conv_final.bias f4 [2]
0	0x3f2bca90	0.6710596
1	0xbf2bca90	-0.6710596

down_blocks.0.conv1.weight f4 [4, 9, 3, 3]
0	0x3d4efa0c	0.050531432
1	0xbde4bb50	-0.111685395
2	0xbe18b789	-0.14913763
3	0xbde04094	-0.10949817
4	0xbe2c9029	-0.16851868
5	0xbe3a8a5b	-0.18216841
6	0x3d5b0192	0.053468294
7	0xbdb6e4ef	-0.08930384
8	0xbe4421ed	-0.19153567
9	0xbd1979df	-0.03746974
10	0xbe24d6e3	-0.16097598
11	0x3d520dd8	0.051282734
12	0xbdbd5465	-0.092446126
13	0xbe172fc8	-0.14764321
14	0xbdb50e41	-0.08840609
15	0xbe04b1ce	-0.12958452
16	0xbc3bcdca	-0.011462638
17	0x3d204025	0.039123673
18	0x3e23a246	0.15979871
19	0x3d8054c4	0.06266168
20	0x3d54cabd	0.05195116
21	0xbd789695	-0.06069048
22	0x3e0c4d09	0.13701262
23	0xbd9c87be	-0.07643078
24	0x3dde72ba	0.10861726
25	0xbd9faddc	-0.07796833
26	0x3dd06f49	0.10177476
27	0xbe3b455c	-0.18288177
28	0x3cf7186a	0.030163009
29	0x3d228385	0.039676208
30	0x3c419e2c	0.011817496
31	0xbd91bbd7	-0.07115906
32	0xbe655b3c	-0.22398084
33	0xbe61b635	-0.22042163
34	0xbe60bee1	-0.21947815
35	0x3dd3aa91	0.10335267
36	0xbdc39733	-0.09550323
37	0x3d5f8600	0.05457115
38	0xbe38afc5	-0.18035801
39	0xbda9b438	-0.08286327
40	0xbddece62	-0.10879208
41	0xbd90deca	-0.07073744
42	0x3e15a802	0.14614871
43	0x3e0871aa	0.1332461
44	0x3d89072d	0.06690822
45	0xbdd5540a	-0.1041642
46	0xbdd2911e	-0.10281585
47	0x3e253cfd	0.16136546
48	0x3e0f9eb5	0.14025386
49	0xbd952c55	-0.07283846
50	0x3e4102e2	0.18848756
51	0xbe3f3ade	-0.186748
52	0x3ddb3e0a	0.107051924
53	0xbdcc46b9	-0.09974427
54	0x3dfd373a	0.12364049
55	0xbd07f7e2	-0.033195384
56	0xbce02636	-0.02736197
57	0x3e564792	0.2092574
58	0xbe3d7e62	-0.18505242
59	0xbdbbeda4	-0.09176186
60	0x3dc0a4ad	0.094064094
61	0x3dfe5d73	0.12420168
62	0xbe43d6af	-0.19124864
63	0xbdd55385	-0.10416321
64	0x3d4a9f5b	0.04946838
65	0xbe27e779	-0.16396894
66	0xbda4dc64	-0.08049849
67	0xbdf40e02	-0.11916734
68	0x3e248662	0.16066888
69	0xbd9ba379	-0.07599539
70	0x3cce1676	0.025157195
71	0x3b90728a	0.0044081854
72	0xbd59390f	-0.05303293
73	0xbd4a5c5b	-0.049404483
74	0x3e36b60e	0.17842886
75	0xbe238545	-0.15968807
76	0xbbc5885d	-0.0060282187
77	0x3e393e0b	0.18090074
78	0x3e37cf46	0.17950162
79	0x3c320bea	0.010867098
80	0x3e1d3990	0.1535399
81	0xbe392cf5	-0.18083556
82	0x3e2247b9	0.15847673
83	0x3dc4f587	0.09617143
84	0x3d6f8a05	0.058481235
85	0xbd0752bc	-0.033037886
86	0xbda76455	-0.08173434
87	0xbd90d184	-0.07071212
88	0x3da7bc51	0.081902154
89	0xbe1af9c4	-0.1513434
90	0x3d5b2e6d	0.053511072
91	0x3dce10d3	0.10061803
92	0xbc52a20c	-0.012856018
93	0xbe21b57f	-0.15791892
94	0x3dab592e	0.08366619
95	0xbdd22d3d	-0.10262535
96	0xbdc2957c	-0.09501168
97	0xbdb230c4	-0.087007076
98	0xbe46f98f	-0.19431137
99	0x3e22573d	0.15853591
100	0xbb52f501	-0.003218949
101	0xbd9e6851	-0.077347405
102	0xbd15cdeb	-0.03657333
103	0x3d820372	0.063483134
104	0x3d5aee35	0.05344983
105	0x3e35c1ce	0.17749712
106	0xbd98a084	-0.07452491
107	0xbd6c6fbc	-0.057723746
108	0xbd83f03a	-0.06442304
109	0xbe40cc5d	-0.18827958
110	0xbe25120b	-0.16120164
111	0x3dd98fb1	0.1062311
112	0xbe53534b	-0.20637242
113	0x3e1219ea	0.14267698
114	0x3dd36e77	0.10323804
115	0x3dad596b	0.08464321
116	0x3d962759	0.07331724
117	0x3e58c7db	0.21169989
118	0x3db1de65	0.086849965
119	0xbdd7e8fe	-0.105424866
120	0x3da94238	0.08264583
121	0x3dc96fbf	0.09835767
122	0xbd6203fd	-0.055179585
123	0xbe4bbb1d	-0.19895597
124	0x3dea643d	0.114449
125	0x3dfb4e28	0.122707665
126	0xbdbc4351	-0.09192527
127	0x3e193b8b	0.1496412
128	0xbd4831e8	-0.04887572
129	0x3e42cc3c	0.19023222
130	0x3e196733	0.14980774
131	0x3c2df4d2	0.010617452
132	0xbde92e21	-0.113857515
133	0xbe536e7b	-0.20647614
134	0xbd2a6f3b	-0.041609984
135	0x3deab1db	0.114597045
136	0xbe142e69	-0.14470829
137	0xbe23e269	-0.16004337
138	0x3dc04963	0.093889974
139	0xbe1fe4e9	-0.15614666
140	0xbe299943	-0.16562371
141	0xbdc818d8	-0.097703636
142	0xbe502140	-0.20325184
143	0x3da378ef	0.079820506
144	0xbe17d72c	-0.14828175
145	0xbdab86d3	-0.08375325
146	0xbdf99922	-0.12187411
147	0x3e413721	0.18868686
148	0x3e39d780	0.18148613
149	0xbe6fa9ea	-0.23404661
150	0xbe02915b	-0.12750761
151	0x3ce4ade0	0.027914941
152	0x3d43a8f4	0.047768548
153	0xbdcaa51b	-0.098947726
154	0x3e33c108	0.17554104
155	0xbe5dffa3	-0.21679549
156	0x3d906e70	0.07052314
157	0x3e4db81c	0.20089763
158	0xbd8e0049	-0.06933648
159	0xbdfda296	-0.123845264
160	0x3e6635d0	0.22481465
161	0x3bf2b753	0.007407108
162	0xbe49ff4b	-0.19726293
163	0xbdf59895	-0.11991993
164	0xbe1f6509	-0.15565886
165	0x3e007197	0.12543331
166	0xbe175bc6	-0.14781103
167	0xbe35f435	-0.17768939
168	0x3e56c080	0.2097187
169	0x3cd9afd1	0.026573094
170	0x3d5d8714	0.0540839
171	0x3c014ce9	0.007891872
172	0x3db7df36	0.08978121
173	0x3e0eab18	0.13932455
174	0xbd8fd14c	-0.07022342
175	0xbe18a8c1	-0.14908125
176	0x3e28964b	0.16463582
177	0xbe23ae4e	-0.1598446
178	0xbe143fe8	-0.14477503
179	0xbe4bfd39	-0.19920816
180	0x3e339d57	0.17540489
181	0xbd9cf296	-0.07663457
182	0x3db711ae	0.08938919
183	0xbdfa1887	-0.122117095
184	0xbe559354	-0.20856982
185	0x3e2e7992	0.17038563
186	0xbdf4f915	-0.11961571
187	0x3e4ad02f	0.19805978
188	0x3e116c26	0.14201412
189	0xbe5a3148	-0.21307862
190	0xbe22769c	-0.15865558
191	0x3d81cb34	0.06337586
192	0x3df11a40	0.11772585
193	0x3d3dc394	0.046329096
194	0xbe42b0d2	-0.19012764
195	0x3de67e15	0.11254517
196	0xbe1fa8ef	-0.15591787
197	0xbdf7ad8e	-0.1209365
198	0x3e597efe	0.2123985
199	0x3e0c2a5a	0.13688031
200	0x3d2e958e	0.042623095
201	0x3d9df2ac	0.077123016
202	0xbe67ff8b	-0.22656076
203	0x3e4d7279	0.20063199
204	0xbd5e8265	-0.054323573
205	0xbe413b09	-0.18870176
206	0xbe5c31a7	-0.21503316
207	0xbe653901	-0.22385027
208	0xbd4d4f7b	-0.050124627
209	0x3e23e7b3	0.16006355
210	0xbd9be6ba	-0.07612367
211	0x3d8f2ace	0.06990586
212	0x3e08d8b5	0.13363917
213	0x3df7b5ea	0.12095244
214	0xbc74bcdc	-0.014937606
215	0x3d37133e	0.044696085
216	0xbe5800e0	-0.21094084
217	0x3c844a0c	0.01614859
218	0xbd7f07cc	-0.062263295
219	0x3ca2a6b1	0.019854875
220	0xbe66f081	-0.22552682
221	0x3dd2480e	0.102676496
222	0xbd6b3de7	-0.05743208
223	0xbdf95547	-0.121744685
224	0xbd761ee0	-0.06008804
225	0xbe3750ec	-0.17901963
226	0xbe0db8b7	-0.13839994
227	0xbe513d37	-0.20433508
228	0x3e4fefef	0.20306371
229	0xbd9866ed	-0.074415065
230	0xbdeb5e95	-0.114926495
231	0xbd463cdf	-0.048397895
232	0xbe3cbedd	-0.18432184
233	0x3e641588	0.22273839
234	0x3e2ab6fc	0.16671365
235	0x3e5d1190	0.21588731
236	0x3e5210ee	0.2051427
237	0x3e4bd8b6	0.19906887
238	0xbe4349a5	-0.19071062
239	0xbbd59bef	-0.006518833
240	0x3e4fc8a2	0.20291379
241	0xbe1174c8	-0.14204705
242	0xbd6f3a77	-0.058405366
243	0xbd491cfc	-0.049099907
244	0xbcba7136	-0.022759061
245	0xbe4688f9	-0.19388188
246	0x3b8bab59	0.0042623696
247	0x3d72d64b	0.059286397
248	0xbd38b3c7	-0.045093324
249	0xbde3967b	-0.11112686
250	0xbd336b6b	-0.043803614
251	0x3dfd5a6f	0.123707645
252	0x3c7c0f45	0.0153845
253	0x3d7fb82f	0.06243151
254	0x3e5a9017	0.21344028
255	0xbddde549	-0.10834748

down_blocks.0.conv1.bias f4 [4]
0	0xbcc041ee	-0.023468938
1	0xbe9af9d1	-0.3026872
2	0xc02621cc	-2.5958128
3	0xbce31fa7	-0.027725054

down_blocks.0.conv2.weight f4 [4, 4, 3, 3]
0	0xbe8a75c1	-0.27042964
1	0x3d4f23ec	0.050571367
2	0xbe743167	-0.2384697
3	0x3deaa2c9	0.1145683
4	0xbd9041e4	-0.07043818
5	0xbd8daba3	-0.06917503
6	0x3dd40a9b	0.10353585
7	0xbe566aea	-0.20939222
8	0xbc636c44	-0.013880793
9	0x3db20274	0.08691874
10	0x3e0f9bcb	0.14024274
11	0xbe74b41a	-0.23896828
12	0xbe293d6d	-0.16527338
13	0xbe92477c	-0.28570163
14	0x3e50f06e	0.20404217
15	0xbc70bb83	-0.014693144
16	0x3df6040a	0.12012489
17	0xbe4663a6	-0.1937395
18	0xbe6d9885	-0.23202713
19	0x3dff131c	0.12454817
20	0xbe88931d	-0.2667474
21	0xbc95fe32	-0.018309686
22	0x3dd570a8	0.10421878
23	0x3e0a399e	0.13498542
24	0x3cd16131	0.02555904
25	0xbdb9230b	-0.09039887
26	0xbc05053c	-0.008118924
27	0xbc7f6d33	-0.01559
28	0xbdf77bb7	-0.120841436
29	0xbcaa239b	-0.020768931
30	0xbe70c7ca	-0.23513713
31	0x3e8a0793	0.26958904
32	0x3d07401c	0.033020124
33	0x3e370a44	0.1787501
34	0xbcc63576	-0.024195414
35	0x3e06d65b	0.13167708
36	0x3df4cf5b	0.119536124
37	0xbd0259a0	-0.031823754
38	0xbdc769ec	-0.09737
39	0xbcb2a8f8	-0.021809086
40	0xbe0ce6fe	-0.13759992
41	0xbe14f5c0	-0.14546871
42	0xbcc05d10	-0.023481876
43	0x3d8a427e	0.06750964
44	0x3e7a6dac	0.24455899
45	0x3ddd5722	0.10807635
46	0x3c4024d8	0.011727534
47	0x3d77de5b	0.06051479
48	0xbd74b065	-0.059738535
49	0x3e78ca24	0.2429586
50	0xbe4dd9e4	-0.2010265
51	0x3e8fef21	0.28112128
52	0xbb4b7781	-0.0031046572
53	0x3e65122b	0.22370212
54	0x3e7ce564	0.2469688
55	0x3e7277ce	0.23678514
56	0xbe6c8465	-0.2309738
57	0x3e85c160	0.26124096
58	0xbdfa1141	-0.12210322
59	0xbe5fefb3	-0.21868782
60	0x3db83435	0.08994333
61	0xbe3cb50d	-0.1842844
62	0xbe22b907	-0.15890895
63	0x3db2e552	0.08735146
64	0x3cc7bced	0.024382079
65	0x3e08c041	0.13354589
66	0xbe7ab5fa	-0.24483481
67	0xbe8ff4be	-0.2811641
68	0xbd6bcfb5	-0.05757113
69	0x3d355d86	0.044278644
70	0xbd9b822a	-0.07593186
71	0xbded97f4	-0.116012484
72	0x3dc1e7ba	0.094680265
73	0xbda0cfa5	-0.07852105
74	0x3d42efbc	0.04759191
75	0x3e181c99	0.14854659
76	0x3e3f11a6	0.18659076
77	0x3e1dee61	0.15422966
78	0xbde32cab	-0.11092504
79	0xbd2e200b	-0.042511027
80	0xbe487731	-0.19576718
81	0xbdc994e1	-0.098428495
82	0x3e4792e1	0.19489624
83	0xbd1e554f	-0.038655575
84	0xbce3ca9f	-0.027806578
85	0x3d9412ff	0.07230186
86	0xbe19d06f	-0.15020917
87	0x3d7413ac	0.059589073
88	0xbcd0e558	-0.025499985
89	0xbdfeffe4	-0.12451151
90	0x3d19dd63	0.037564646
91	0xbd204926	-0.03913226
92	0x3e75de87	0.24010669
93	0xbd8a7f36	-0.06762545
94	0x3e24a171	0.1607721
95	0x3cf9b919	0.03048377
96	0x3dae6b30	0.08516538
97	0xbc9c4842	-0.019077424
98	0xbe071b1c	-0.13193935
99	0x3e92bbe4	0.28658974
100	0x3e432c6d	0.19059916
101	0xbe654e66	-0.22393188
102	0xbbeb6807	-0.007184032
103	0x3d947891	0.07249559
104	0x3e0ca276	0.13733849
105	0xbd95e531	-0.073191054
106	0x3b823334	0.003973389
107	0x3df2c2e9	0.118535824
108	0xbe8a2f7a	-0.26989347
109	0x3e423899	0.18966903
110	0xbd03c083	-0.032166015
111	0xbe67adcc	-0.22624892
112	0xbd7e3ef3	-0.06207175
113	0x3e41cba0	0.18925333
114	0x3dc305e1	0.09522606
115	0x3d5d3e98	0.054014772
116	0x3e6fc7bb	0.23416035
117	0x3d144824	0.03620161
118	0x3e3a91c7	0.18219672
119	0xbce87ee6	-0.028380822
120	0x3d41cc17	0.047313776
121	0x3e8bb710	0.27288103
122	0x3d6e5053	0.058182072
123	0x3e0b2a23	0.13590293
124	0x3d488368	0.048953444
125	0x3e693526	0.22774181
126	0x3e6cecc7	0.23137198
127	0xbe349827	-0.17636167
128	0xbd94bc0b	-0.07262429
129	0xbde199fb	-0.110156976
130	0xbe7f1348	-0.24909699
131	0x3e387fdd	0.18017526
132	0xbe3dc36a	-0.18531576
133	0xbe54a4db	-0.20766012
134	0x3e795546	0.24348935
135	0x3cc4a9b7	0.024006708
136	0xbc703240	-0.014660418
137	0x3e2d5476	0.1692675
138	0x3d2e0d7a	0.04249332
139	0x3cf18e8c	0.029486917
140	0x3ceed68f	0.029155044
141	0x3e5d34c9	0.21602167
142	0x3e41b265	0.18915708
143	0xbe77c333	-0.24195556

down_blocks.0.conv2.bias f4 [4]
0	0xbb95a176	-0.004566367
1	0x3e097ecb	0.13427274
2	0x3e05ce77	0.13067041
3	0x3cc95e8a	0.024581213

down_blocks.0.norm1.weight f4 [4]
0	0x3f7e395b	0.9930627
1	0x3f804bb1	1.0023099
2	0x3f8003a1	1.0001107
3	0x3f80769c	1.0036197

down_blocks.0.norm1.bias f4 [4]
0	0x3d37634f	0.044772442
1	0x3ddfbcc6	0.109246776
2	0x3de44e25	0.111477174
3	0x3d19d4eb	0.03755657

down_blocks.0.norm1.running_mean f4 [4]
0	0x3e382dc9	0.17986216
1	0x3b55bc7b	0.0032613564
2	0x32cd9eaf	2.3937302e-08
3	0x39367791	0.00017401415

down_blocks.0.norm1.running_var f4 [4]
0	0x3c1e9252	0.00967844
1	0x3ae8f256	0.0017772417
2	0x32a82d1b	1.9578286e-08
3	0x382eeee6	4.1707324e-05

down_blocks.0.norm2.weight f4 [4]
0	0x3f801146	1.0005271
1	0x3f84cc63	1.0374874
2	0x3f7c5c53	0.98578376
3	0x3f7e6c47	0.9938397

down_blocks.0.norm2.bias f4 [4]
0	0xbc46350e	-0.01209761
1	0x3cad8b6f	0.021184651
2	0x3cb5162d	0.0221053
3	0x3c322372	0.010872709

down_blocks.0.norm2.running_mean f4 [4]
0	0x3d5e8037	0.054321494
1	0x3e2c35a1	0.16817333
2	0x3e5ada33	0.21372299
3	0x3dfd7c2e	0.12377201

down_blocks.0.norm2.running_var f4 [4]
0	0x3d778137	0.060425963
1	0x3d963555	0.07334391
2	0x3dc8acf4	0.09798613
3	0x3e57209b	0.21008532

down_blocks.1.conv1.weight f4 [8, 4, 3, 3]
0	0x3e200dfa	0.15630332
1	0x3dda50f5	0.106599726
2	0x3da45f2e	0.080259666
3	0x3c8e4c53	0.017370379
4	0x3e1df07c	0.15423769
5	0x3e11e83e	0.1424875
6	0x3d8567ee	0.06513964
7	0xbe15a90c	-0.14615268
8	0x3cf63f49	0.030059474
9	0xbdbc2f0e	-0.091886625
10	0xbdc2ebc7	-0.09517627
11	0x3b2e244b	0.0026571925
12	0xbe3ede30	-0.18639445
13	0x3e5df039	0.21673669
14	0x3d611145	0.05494811
15	0x3e11afbf	0.14227198
16	0x3dfbddde	0.12298177
17	0x3be8a757	0.0071000266
18	0x3becc50a	0.0072256373
19	0x3de5883e	0.11207627
20	0x3e246a55	0.16056187
21	0xb84a83b9	-4.828323e-05
22	0xbdb04c22	-0.08608271
23	0x3d3cc4f6	0.046086274
24	0xbe2bd1a9	-0.16779198
25	0xbe34a4df	-0.17641018
26	0x3e3bd8f3	0.18344478
27	0x3c706fba	0.014675075
28	0xbe10eaee	-0.14152119
29	0x3e08df5c	0.13366455
30	0x3e4e4fe6	0.20147666
31	0xbe49049f	-0.19630669
32	0xbe21697d	-0.15762897
33	0x3d38fe30	0.045164287
34	0x3dad1244	0.084507495
35	0x3d805d3f	0.06267785
36	0x3ddc04aa	0.10743077
37	0xbe4094d9	-0.18806781
38	0xbe3f748f	-0.18696807
39	0x3e4b7d0a	0.19871917
40	0xbe158087	-0.1459981
41	0x3d39d893	0.045372557
42	0x3e4cfe2a	0.20018831
43	0xbd47758f	-0.048696097
44	0x3e37ef6e	0.17962429
45	0xbde74ec8	-0.11294323
46	0xbe1302dd	-0.14356561
47	0xbc204a69	-0.009783366
48	0xbd9b9b3f	-0.0759797
49	0x3e617195	0.22015984
50	0xbe3ac8fd	-0.18240733
51	0xbe2da179	-0.16956128
52	0x3c893e38	0.016753301
53	0xbccf8ceb	-0.02533575
54	0xbe2e9e71	-0.17052628
55	0xbdfeb987	-0.1243773
56	0x3d67e450	0.05661422
57	0xbe07b84d	-0.13253899
58	0x3e3f7d62	0.18700173
59	0x3e5cc830	0.2156074
60	0x3d9d82e5	0.07690982
61	0xbe6c73f5	-0.23091109
62	0xbe2de5aa	-0.16982141
63	0xbaf3a9b2	-0.0018590002
64	0xbde8ee04	-0.11373523
65	0xba86c71f	-0.0010282731
66	0xbe06e949	-0.13174929
67	0xbdd7668a	-0.10517605
68	0x3d276cf5	0.040875394
69	0xbe283749	-0.1642734
70	0x3df50ad4	0.11964956
71	0xbdfb2df7	-0.122646265
72	0x3e474a17	0.19461857
73	0xbe4bb13b	-0.19891827
74	0x3e6b51a1	0.22980358
75	0x3e384fa2	0.17999128
76	0x3d47d8de	0.048790805
77	0xbdbbc88a	-0.09169109
78	0x3e3a9d74	0.18224126
79	0x3dd0ec9c	0.1020138
80	0xbe0a795a	-0.13522854
81	0xbe6f0288	-0.2334081
82	0xbdbc1f94	-0.091857105
83	0xbdc8ab56	-0.09798305
84	0xbdef46b5	-0.11683408
85	0xbe0cd9fd	-0.13755031
86	0x3e0266f8	0.12734592
87	0xbd4cd6b7	-0.050009456
88	0xbd2cc14d	-0.042176533
89	0x3bcc616a	0.0062371986
90	0xbde25f6f	-0.11053359
91	0xbe720508	-0.23634732
92	0xbdcac416	-0.09900682
93	0x3b82420a	0.0039751576
94	0x3e406687	0.18789111
95	0xbe2c3af6	-0.16819367
96	0x3e36a2a0	0.17835474
97	0x3d2c1c07	0.042018916
98	0xbe2faa12	-0.1715472
99	0x3d325d08	0.043545753
100	0x3cb52dad	0.022116506
101	0xbda11299	-0.07864875
102	0xbdf69e1e	-0.12041877
103	0xbdade955	-0.0849177
104	0xbdd60396	-0.10449903
105	0x3e394e0a	0.18096176
106	0x3e44d5a9	0.1922213
107	0x3e41ab12	0.18912914
108	0xbc7a5f3a	-0.015281493
109	0x3e5b85cf	0.21437763
110	0x3bef632e	0.0073055243
111	0x3e0afabb	0.13572209
112	0x3e57d43c	0.21077055
113	0xbdcf15b0	-0.101115584
114	0xbcffcdab	-0.031226
115	0x3e578d3c	0.2104997
116	0xbe6dbd8b	-0.23216836
117	0xbe41b43d	-0.18916412
118	0xbe6a7458	-0.22895944
119	0x3dc709ae	0.09718643
120	0xbe5b745d	-0.21431108
121	0xbe48a6f0	-0.19594932
122	0x3d270c21	0.04078305
123	0xbd8b2011	-0.067932256
124	0xbdedbbe9	-0.11608107
125	0xbdaa6f5b	-0.083220206
126	0xbe5e0881	-0.21682931
127	0x3d3c34fd	0.04594897
128	0xbe11e6cb	-0.14248197
129	0xbe2dd5d8	-0.16976106
130	0xbe5b7264	-0.21430355
131	0xbe00a4a0	-0.125628
132	0x3e17c9df	0.14823101
133	0xbd77d2cb	-0.060503762
134	0x3d8dfb35	0.069326796
135	0xbd0149bf	-0.03156447
136	0xbe678a35	-0.22611316
137	0x3e519998	0.20468748
138	0xbd8a8ab3	-0.06764736
139	0xbe52f4fa	-0.20601264
140	0xbe0f61fb	-0.1400222
141	0x3e3df167	0.18549119
142	0x3e10c45a	0.14137402
143	0x3e5d3e99	0.2160591
144	0x3e36f406	0.17866525
145	0xbde7385b	-0.11290046
146	0x3e0c06b7	0.13674437
147	0xbe57ea9c	-0.2108559
148	0x3e2132fb	0.15742104
149	0x3c8dcf45	0.017310748
150	0x3e209b99	0.15684356
151	0x3c6ac17e	0.014328359
152	0xbe56e63e	-0.20986268
153	0x3de89d6a	0.11358149
154	0x3e40337f	0.18769644
155	0xbdf98589	-0.12183673
156	0xbe44a72d	-0.19204397
157	0x3e654469	0.22389378
158	0xbe26ae3b	-0.16277401
159	0xbe15a625	-0.1461416
160	0x3e1f1d7e	0.15538594
161	0xbe47b800	-0.19503784
162	0xbe2e8d38	-0.17046058
163	0xbe24dded	-0.16100283
164	0xbe34255a	-0.17592373
165	0xbd78eac8	-0.06077078
166	0xbdd94516	-0.1060888
167	0xbd12a86e	-0.03580516
168	0xbe361150	-0.17780042
169	0xbda08202	-0.07837297
170	0xbe44d578	-0.19222057
171	0xbe67566d	-0.22591563
172	0xbe14fa06	-0.14548501
173	0x3c740bb5	0.014895369
174	0x3e321667	0.17391358
175	0xbd1e4635	-0.038641173
176	0xbe1b7f99	-0.15185393
177	0x3e435201	0.19074251
178	0x3d72b3ca	0.05925349
179	0xbcde523b	-0.02713882
180	0xbe433516	-0.1906322
181	0xbd9c38bd	-0.076280095
182	0x3e21d309	0.1580316
183	0xbd15bef9	-0.03655908
184	0x3c739e42	0.014869275
185	0xbe0fffff	-0.14062499
186	0x3e5b540d	0.21418782
187	0x3e5903b7	0.21192823
188	0xbe384af4	-0.17997342
189	0x3e7235cb	0.23653333
190	0xbe0a3fdd	-0.13500924
191	0x3e50d4e5	0.20393713
192	0xbe4c7ac4	-0.19968706
193	0x3e26b1f5	0.16278823
194	0x3d1ea704	0.038733497
195	0x3e0be002	0.13659671
196	0x3d44fe9d	0.04809438
197	0x3e1f3307	0.15546809
198	0x3e6445e3	0.22292285
199	0xbe54a0f4	-0.20764524
200	0xbe60aafb	-0.21940224
201	0xbddf5dc2	-0.10906555
202	0x3d8f559e	0.06998752
203	0x3b370b7e	0.0027930434
204	0x3dea0894	0.114274174
205	0x3d2abd07	0.041684177
206	0x3dba0f8d	0.09084997
207	0xbd6abd1f	-0.057309266
208	0x3dd9373d	0.10606239
209	0xbe4c3d50	-0.19945264
210	0x3da65c38	0.08123058
211	0xbe19c9e4	-0.15018421
212	0x3e6823f8	0.22669971
213	0x3e6081e7	0.21924554
214	0xbccf6c34	-0.02532015
215	0xbe4beec4	-0.199153
216	0x3d540f6c	0.05177252
217	0xbdebd6db	-0.1151559
218	0xbd89b3ed	-0.06723771
219	0xbe453786	-0.19259462
220	0x3df971bc	0.12179896
221	0x3e386b39	0.18009652
222	0x3e696aff	0.22794722
223	0x3d0fb9ac	0.03508918
224	0xbd213735	-0.03935929
225	0x3e1c7500	0.15279007
226	0x3e0bca8f	0.13651489
227	0x3be1ff99	0.0068969247
228	0x3df49eda	0.11944361
229	0x3dee4ad9	0.1163537
230	0xbe68177f	-0.22665213
231	0x3e2bac88	0.16765034
232	0xbdade9ec	-0.08491883
233	0xbd99784e	-0.074936494
234	0x3e643254	0.22284824
235	0xbe096abe	-0.13419625
236	0x3d56727f	0.052355286
237	0x3df5447d	0.11975954
238	0x3cffdfc1	0.031234624
239	0xbe34665b	-0.1761717
240	0xbcde4f98	-0.027137563
241	0xbe6f0dc8	-0.23345101
242	0xbd99d6b8	-0.075116575
243	0x3da26ac2	0.07930519
244	0xbd484563	-0.048894297
245	0x3e2106c1	0.15725233
246	0xbe2942ec	-0.16529435
247	0xbe6db7a5	-0.23214586
248	0x3e4d7ea4	0.20067841
249	0xbdb731fe	-0.08945082
250	0x3deb4ddd	0.114894606
251	0x3e57caa4	0.21073395
252	0x3c22adbc	0.009929117
253	0xbe1a2199	-0.15051879
254	0x3e38f389	0.18061651
255	0x3de13590	0.10996544

down_blocks.1.conv1.bias f4 [8]
0	0x3ad0670c	0.0015899851
1	0xbaa9f8d6	-0.0012967836
2	0x3b733039	0.00371076
3	0x3b0bc7b3	0.0021328747
4	0xbca69921	-0.02033669
5	0x3c00971c	0.007848527
6	0x3c026bcc	0.007960271
7	0xbb33ae35	-0.0027417068

down_blocks.1.conv2.weight f4 [8, 8, 3, 3]
0	0x3e0b5f60	0.13610601
1	0xbdbabff3	-0.09118643
2	0xbc8e9a7c	-0.017407648
3	0x3dccc41d	0.09998343
4	0x3d36086f	0.044441637
5	0xbd4e9e9f	-0.05044424
6	0x3dd75164	0.10513571
7	0x3d38e14a	0.045136727
8	0x3d64013b	0.055665236
9	0x3e1eac44	0.15495402
10	0xbe01cb9c	-0.12675327
11	0xbdde85f0	-0.1086539
12	0xbe22e3fa	-0.15907279
13	0x3e40db26	0.18833598
14	0xbb7770c5	-0.0037756425
15	0xbe008ef5	-0.12554534
16	0xbcb39158	-0.021919891
17	0xbddab467	-0.1067894
18	0x3d842eeb	0.064542614
19	0xbda8dcc4	-0.08245233
20	0xbc3a6e6e	-0.011378868
21	0xbd7257a7	-0.059165623
22	0x3a4d1154	0.00078227115
23	0x3c1579b0	0.009123251
24	0x3e4cc6d3	0.1999772
25	0xbc1b54f4	-0.009480704
26	0xbe3af2bf	-0.18256663
27	0xbe2e8139	-0.17041482
28	0x3de589de	0.11207937
29	0x3e460c47	0.19340621
30	0x3e073f5f	0.13207768
31	0xbe04659f	-0.1292939
32	0x3cff8e13	0.031195676
33	0xbe25c87c	-0.1618976
34	0x3d631634	0.055441096
35	0xbe480609	-0.19533552
36	0x3e3e2ef0	0.18572593
37	0xba980855	-0.0011599163
38	0x3c3000fe	0.010742424
39	0xbe2e79e3	-0.17038684
40	0x3d58a7e9	0.052894507
41	0xbe22b305	-0.15888603
42	0xbddc5066	-0.10757522
43	0xbd24f0d1	-0.040268723
44	0x3bd0fe1f	0.00637795
45	0xbe031ea0	-0.12804651
46	0x3d674cf7	0.056469884
47	0xbe05f843	-0.13082986
48	0xbe205fb7	-0.15661512
49	0xbdeb8b64	-0.11501196
50	0xbda696c9	-0.08134229
51	0xbd9a2769	-0.07527048
52	0xbc847eab	-0.016173681
53	0xbd1c580f	-0.038169917
54	0x3dac6601	0.08417893
55	0x3e248762	0.1606727
56	0xbd476aa2	-0.048685677
57	0xbe50654c	-0.20351142
58	0xbda5b6c6	-0.08091502
59	0xbe3e979a	-0.18612519
60	0x3e4230dc	0.18963951
61	0x3d87b71b	0.066267215
62	0x3e3b2ee1	0.18279602
63	0x3e11b551	0.14229323
64	0x3e4d6247	0.20057021
65	0x3e184b73	0.14872532
66	0xbc625750	-0.013814762
67	0xbc9fd79a	-0.019511987
68	0xbd7062ab	-0.058687847
69	0x3d97ce7e	0.07412432
70	0x3dcef7c1	0.10105849
71	0xbd350c7c	-0.04420136
72	0x3d3e2b6c	0.04642813
73	0x3d243f2d	0.04009931
74	0x3d458349	0.048220906
75	0x3d3c36d1	0.045950714
76	0x3e34800c	0.17626971
77	0x3e2c8ec6	0.16851339
78	0x3e496587	0.19667636
79	0x3e4673c9	0.19380106
80	0x3e226430	0.15858531
81	0x3dbe53cd	0.092933275
82	0xbe49458c	-0.19655436
83	0xbe211c78	-0.15733516
84	0xbe515fd2	-0.20446709
85	0x3dfbd0b5	0.12295667
86	0xbe4295af	-0.19002412
87	0xbddd0441	-0.10791827
88	0xbd0ead73	-0.034833383
89	0x3dc56722	0.09638812
90	0x3cb6af21	0.022300305
91	0x3e472665	0.1944824
92	0xbe2cbde4	-0.16869313
93	0x3e2c8b72	0.16850069
94	0xbd606bad	-0.054790188
95	0x3cf3249b	0.02968054
96	0xbd27a5f5	-0.040929753
97	0xbe275215	-0.16339906
98	0x3e4a9162	0.19782022
99	0xbe19b5ef	-0.15010808
100	0x3da25c1b	0.07927724
101	0xbdcee801	-0.10102845
102	0xbe101540	-0.14070606
103	0x3e45ab6f	0.19303678
104	0x3e123a15	0.14279969
105	0xbd4255a6	-0.047444962
106	0x3bc5ca73	0.0060360967
107	0xbd897dc4	-0.06713441
108	0xbe14e8f2	-0.14541987
109	0xbe15c006	-0.14624032
110	0xbe03bb98	-0.1286453
111	0xbda2b311	-0.079443105
112	0xba9cb59d	-0.001195598
113	0x3d63288d	0.055458594
114	0x3e3e1ed6	0.1856645
115	0xbe4c2cea	-0.19939008
116	0x3e11e209	0.14246382
117	0x3dbbd5e6	0.09171657
118	0x3d8002e1	0.06250549
119	0x3e477508	0.19478238
120	0x3c497015	0.012294789
121	0xbdc18439	-0.094490476
122	0x3e0fba4c	0.1403591
123	0x3a849569	0.0010115328
124	0x3d183510	0.03715998
125	0xbe4d40bc	-0.20044225
126	0xbdd26e7a	-0.10274978
127	0x3e38df84	0.18054014
128	0x3da1e484	0.07904914
129	0x3e290eed	0.165096
130	0xbe286690	-0.16445374
131	0x3e4d9a18	0.20078313
132	0x3e1348ad	0.14383192
133	0x3e0f26fc	0.13979715
134	0x3da43db6	0.08019583
135	0xbe1dec24	-0.15422112
136	0x3d9d12cb	0.076696
137	0xbc6b228a	-0.0143514965
138	0x3d468826	0.048469685
139	0x3ca96425	0.020677635
140	0xbe35605b	-0.17712538
141	0x3e16687f	0.146883
142	0xbe39e9b3	-0.18155555
143	0xbe434a92	-0.19071415
144	0xbe4f49dd	-0.2024302
145	0xbd41d38f	-0.0473209
146	0x3e4a74ba	0.1977109
147	0x3dc5b5b4	0.09653798
148	0xbe3f4a28	-0.18680632
149	0xbe43cc47	-0.19120894
150	0xbcbd6c67	-0.02312298
151	0xbdbfa890	-0.093583226
152	0x3e2a2e62	0.16619256
153	0xbd21c78e	-0.03949695
154	0x3d2d0dc1	0.042249445
155	0xbde9058e	-0.113780126
156	0xbcb5c6a1	-0.02218944
157	0x3e40f7d8	0.18844545
158	0x3c7347e2	0.014848681
159	0x3daeaa1e	0.08528541
160	0x3e2b13d5	0.16706784
161	0xbc8e007e	-0.017334219
162	0x3d70146a	0.05861322
163	0x3e3bd050	0.18341184
164	0x3cbc3bca	0.022977728
165	0x3e1a4b28	0.15067732
166	0x3e118857	0.14212166
167	0x3e418878	0.18899715
168	0x3de0c5fb	0.10975262
169	0x3c91001d	0.01770025
170	0xbd230dc4	-0.03980805
171	0xbdad3b32	-0.08458556
172	0x3c0b5e36	0.008506348
173	0xbe12301e	-0.14276168
174	0xbd421062	-0.047378905
175	0x3e1580f6	0.14599976
176	0xbb697d9c	-0.0035627848
177	0xbe1dd838	-0.15414512
178	0x3df96245	0.121769466
179	0x3d4b6814	0.049659804
180	0xbe0b87cf	-0.13626026
181	0x3d1567d1	0.03647596
182	0xbe3d4fae	-0.18487427
183	0xbcc565ad	-0.024096334
184	0xbe3253bf	-0.17414759
185	0xbe4f1201	-0.20221712
186	0xbd0ef5b4	-0.03490229
187	0x3da32c4e	0.07967435
188	0x3d82739b	0.06369706
189	0xbe26203d	-0.16223235
190	0xbe23b562	-0.15987161
191	0x3d8d69af	0.06904923
192	0xbcb2afb8	-0.021812305
193	0x3e2548c7	0.16141044
194	0x3e1a649d	0.15077443
195	0x3df729fe	0.12068556
196	0x3e354a4e	0.17704126
197	0xbdc555c7	-0.09635501
198	0x3db846cd	0.08997879
199	0xbe2e57ce	-0.17025682
200	0x3e31f2a8	0.17377722
201	0x3dd93b5b	0.10607024
202	0xbbbeb64e	-0.0058200723
203	0x3e03b813	0.12863187
204	0x3e3c442f	0.18385385
205	0xbc37f2c1	-0.011227311
206	0xbe172cbb	-0.14763157
207	0x3df09674	0.11747447
208	0x3e385e14	0.18004638
209	0xbdd44a84	-0.10365775
210	0x3e2d7bf5	0.16941817
211	0x3d3b05e0	0.0456599
212	0xbe406f95	-0.18792565
213	0x3dbe38c6	0.092881724
214	0x3cb14e3c	0.02164375
215	0xbd0cfd08	-0.034420997
216	0x3e211f9d	0.15734716
217	0xbe2ed286	-0.17072496
218	0x3c9a9817	0.01887135
219	0xbce775a7	-0.028254343
220	0xbd3cd447	-0.04610088
221	0xbd2da399	-0.042392347
222	0xbe0afa84	-0.13572127
223	0x3ddf8b92	0.10915293
224	0x3e231a2c	0.15927953
225	0x3e29c679	0.16579618
226	0xbe1e7d78	-0.1547755
227	0xbcd1e3ce	-0.025621321
228	0xbe30fda3	-0.17284255
229	0x3d77868f	0.06043106
230	0xbe073bbc	-0.1320638
231	0x3d83dc0a	0.064384535
232	0x3e0ff061	0.14056541
233	0xbc9aa9c6	-0.018879782
234	0x3e16818d	0.14697857
235	0xbe24974b	-0.16073339
236	0xbdc55b72	-0.096365824
237	0xbd71cd35	-0.05903359
238	0xbe4a3c43	-0.1974955
239	0xbdca631c	-0.09882185
240	0xbcff8067	-0.031189157
241	0xbde621d3	-0.1123692
242	0xbe057dfe	-0.13036343
243	0x3de01614	0.10941711
244	0xbde13bd7	-0.10997742
245	0xbe2eeac0	-0.17081738
246	0xbc763a8b	-0.015028606
247	0x3e0031c0	0.12518978
248	0x3dae8d71	0.085230716
249	0xbd53cc99	-0.05170879
250	0xbdf2289d	-0.118241526
251	0xbda30305	-0.0795956
252	0x3da267c5	0.07929949
253	0x3e19908e	0.1499655
254	0x3e3b5f15	0.1829799
255	0xbdec5798	-0.11540145

down_blocks.1.conv2.bias f4 [8]
0	0x3ae4f62c	0.0017468384
1	0x3a3045ed	0.0006724287
2	0x3a955ff9	0.00113964
3	0xba6503c6	-0.0008736219
4	0xba4bf962	-0.00077809964
5	0x3a1e117b	0.00060298265
6	0xb94f16c3	-0.00019749538
7	0xbac99015	-0.0015378023

down_blocks.1.norm1.weight f4 [8]
0	0x3f803b80	1.0018158
1	0x3f7fdcae	0.99946105
2	0x3f8048d5	1.0022227
3	0x3f7fa2ff	0.9985809
4	0x3f7fdb3c	0.999439
5	0x3f8040ad	1.0019737
6	0x3f7fd909	0.99940544
7	0x3f7f419e	0.997095

down_blocks.1.norm1.bias f4 [8]
0	0x3b1a6cd2	0.0023563397
1	0xbab2ee59	-0.0013651355
2	0x3b1caa07	0.0023905055
3	0xb88f2f07	-6.827531e-05
4	0xba69061c	-0.0008889155
5	0xba6e52fb	-0.00090913445
6	0x3b2ba52e	0.0026190984
7	0x3ac93de8	0.0015353533

down_blocks.1.norm1.running_mean f4 [8]
0	0x3e1cad32	0.15300444
1	0x3dc81507	0.09769636
2	0x3db6c951	0.08925117
3	0x3dfa1aea	0.12212165
4	0x3de9d929	0.11418373
5	0x3de1a80b	0.1101838
6	0x3dbfde75	0.09368602
7	0x3e1b6e8c	0.15178889

down_blocks.1.norm1.running_var f4 [8]
0	0x3ee56d37	0.44809887
1	0x3d520b7b	0.05128048
2	0x3e5c709f	0.21527337
3	0x3e0dcfaa	0.13848749
4	0x3e14b207	0.14521037
5	0x3e8641d6	0.26222104
6	0x3e639eed	0.22228594
7	0x3f2e8a04	0.68179345

down_blocks.1.norm2.weight f4 [8]
0	0x3f8100ca	1.0078366
1	0x3f819833	1.0124573
2	0x3f7f2751	0.9966937
3	0x3f80769f	1.00362
4	0x3f806de4	1.0033536
5	0x3f809bec	1.0047584
6	0x3f8080a7	1.0039262
7	0x3f8091d2	1.0044501

down_blocks.1.norm2.bias f4 [8]
0	0x3a89c833	0.0010511935
1	0xbadd50af	-0.0016885007
2	0x3bdd5958	0.0067550354
3	0xb9456076	-0.00018823319
4	0x3a867134	0.0010257126
5	0x3b157bdf	0.0022809429
6	0xb7532665	-1.25855195e-05
7	0x3ae2b34b	0.0017295865

down_blocks.1.norm2.running_mean f4 [8]
0	0x3e1936fa	0.14962378
1	0x3e4b51e5	0.19855459
2	0x3e2236be	0.15841195
3	0x3e1c3425	0.15254267
4	0x3da30dc0	0.07961607
5	0x3e428b6d	0.18998499
6	0x3e5d9863	0.21640162
7	0x3e3b7bf9	0.1830901

down_blocks.1.norm2.running_var f4 [8]
0	0x3e30d1e7	0.17267571
1	0x3f41ce70	0.75705624
2	0x3f2b809e	0.6699313
3	0x3ea78b1e	0.32723325
4	0x3e2c658d	0.16835614
5	0x3f0f2d0a	0.559281
6	0x3e88adac	0.26695
7	0x3e9c8299	0.30568388

down_blocks.2.conv1.weight f4 [16, 8, 3, 3]
0	0xbde59e84	-0.11211875
1	0x3daa2542	0.083078876
2	0xbdab89de	-0.083759055
3	0xbc2a18cd	-0.0103818895
4	0x3dffcaba	0.12489839
5	0xbd668d96	-0.05628737
6	0xbe0675af	-0.1313083
7	0x3d02f8b8	0.031975478
8	0x38f53f59	0.0001169431
9	0x3e025378	0.12727153
10	0x3e08e881	0.13369943
11	0x3ba80f54	0.0051287804
12	0x3c95628f	0.018235473
13	0x3e2c34d1	0.16817023
14	0x3df6189f	0.12016415
15	0xbd9d2064	-0.07672194
16	0xbdfafd4b	-0.12255343
17	0x3e090131	0.1337936
18	0x3d9357f0	0.07194507
19	0x3d8df486	0.06931405
20	0xbdbaae8b	-0.09115323
21	0xbdad6074	-0.084656626
22	0x3d513a62	0.05108107
23	0xbcaa8fbf	-0.020820497
24	0x3cd47d11	0.025938543
25	0xbe04928d	-0.1294653
26	0xbd90ce72	-0.07070626
27	0x3d864e9e	0.06557964
28	0x3e1b76d9	0.15182056
29	0xbe03d763	-0.12875132
30	0xbe209133	-0.15680389
31	0xbd59fa2d	-0.0532171
32	0xbdc328fa	-0.095293
33	0xbd64e209	-0.055879626
34	0x3de43de3	0.111446165
35	0xbd0e7bee	-0.034786157
36	0x3dc383aa	0.09546597
37	0xbdb18b0a	-0.08669098
38	0x3d2c031c	0.041995153
39	0xbdf8bead	-0.121457435
40	0x3dd52e1d	0.10409186
41	0xbc8148aa	-0.01578172
42	0x3d4e9e7e	0.05044412
43	0xbdecc4eb	-0.115609966
44	0x3dab1255	0.08353106
45	0xbded196c	-0.115771145
46	0x3cc9adef	0.02461907
47	0x3df06457	0.11737888
48	0xbd9b6c0b	-0.07588967
49	0xbda840c9	-0.08215482
50	0x3b3a8919	0.0028463064
51	0x3d52ad16	0.0514346
52	0xbe29f520	-0.16597414
53	0x3dced0a4	0.10098389
54	0x3e25cd30	0.16191554
55	0xbd9f28ed	-0.07771478
56	0xbd42a82f	-0.047523674
57	0xbe282476	-0.16420159
58	0x3da62cf1	0.08114041
59	0xbdbb4b63	-0.09145238
60	0xbd569fbd	-0.052398432
61	0xbd40d0b9	-0.047074053
62	0x3dd54518	0.10413569
63	0xbd22eeb8	-0.03977844
64	0xbddbb3ee	-0.10727678
65	0x3dff9660	0.12479854
66	0x3db5cd6d	0.088770725
67	0xbd36872d	-0.044562507
68	0xbdc37fb3	-0.09545841
69	0xbd97974b	-0.07401904
70	0x3e12ebe1	0.14347793
71	0xbe020e2e	-0.12700722
72	0xbe0c628a	-0.13709465
73	0x3e0401d5	0.12891324
74	0xbca55af3	-0.02018497
75	0x3d842402	0.064521804
76	0x3d9f657b	0.07783028
77	0xbdbb86a2	-0.091565385
78	0x3dc45c03	0.09587862
79	0x3dac09dc	0.08400318
80	0x3e0455e8	0.12923396
81	0x3d73d310	0.059527457
82	0xbe266dfc	-0.16252893
83	0xbe057b2d	-0.13035269
84	0x3dac6501	0.084177025
85	0x3e1b578c	0.15170115
86	0xbe197cca	-0.1498901
87	0xbdbad8fc	-0.09123418
88	0xbb0febed	-0.002196069
89	0xbe150be7	-0.14555322
90	0x3d826859	0.06367559
91	0x3d503464	0.050831214
92	0x3d33842d	0.043827225
93	0x3ca11d0a	0.019667167
94	0xbe295aaa	-0.16538492
95	0xbddc5cfa	-0.10759921
96	0xbd5d3bcb	-0.0540121
97	0xbde57599	-0.112040706
98	0x3e08b07b	0.13348572
99	0x3c5a8b22	0.013338836
100	0xbdfecce3	-0.12441423
101	0xbdd6bef1	-0.10485638
102	0x3e170a06	0.14749917
103	0xbde81ae6	-0.113332555
104	0x3cf326bd	0.029681558
105	0x3df58b80	0.11989498
106	0xbe1ff81a	-0.15621987
107	0x3d6994a0	0.057026505
108	0x3defd7ac	0.11711058
109	0xbd7b6795	-0.06137808
110	0x3e057d6f	0.1303613
111	0x3c86e63a	0.016467202
112	0x3d9884ba	0.074471906
113	0x3cff68f9	0.031177985
114	0x3ddde799	0.10835189
115	0x3e16fb79	0.14744367
116	0xbde5de08	-0.1122399
117	0xbda0244c	-0.07819423
118	0xbd382b73	-0.04496331
119	0x3cb581bd	0.02215659
120	0xbc547419	-0.012967133
121	0xbdc97e1c	-0.098385066
122	0x3d6a8c98	0.057262987
123	0x3b68dc73	0.0035531789
124	0x3e20d050	0.15704465
125	0x3e263e51	0.1623471
126	0xbd981c8a	-0.074273184
127	0x3c090d5a	0.008365
128	0xbdf1afda	-0.11801119
129	0x3bccfe59	0.0062559065
130	0x3e0dcedc	0.13848442
131	0xbc843cf9	-0.016142355
132	0x3dd8ed76	0.10592167
133	0x3dd71f59	0.10504026
134	0x3cc3c22a	0.023896296
135	0x3e16aa37	0.1471337
136	0xbc0eebb4	-0.008723188
137	0x3da7d814	0.081955105
138	0xbb9f22db	-0.00485645
139	0xbcd311f9	-0.025765406
140	0xbdea0390	-0.11426461
141	0x3d40fcb1	0.047115985
142	0x3d9d5fdc	0.07684299
143	0x3ce27824	0.027645178
144	0x3ca0a410	0.019609481
145	0xbdfe18e3	-0.124070905
146	0xbdd193fb	-0.10233303
147	0xbd116a42	-0.035501726
148	0xbd33c5d3	-0.04388983
149	0x3c9a140c	0.018808387
150	0xbd319f73	-0.043364953
151	0xbd4fec80	-0.050762653
152	0xbde2d47b	-0.11075684
153	0x3d2b93ce	0.041889004
154	0xbe1319a7	-0.14365254
155	0xbcbd8a0e	-0.023137119
156	0xbde90f58	-0.1137988
157	0x3dbc4b11	0.09194005
158	0x3e115575	0.14192756
159	0x3dfc1316	0.12308328
160	0xbe0d0304	-0.13770682
161	0x3e01bce1	0.12669708
162	0xbde184e1	-0.11011673
163	0xbe1f8fa5	-0.1558214
164	0xbdbdd552	-0.09269203
165	0xbe19d613	-0.15023069
166	0xbe1801f8	-0.14844501
167	0x3d4c9961	0.04995096
168	0x3c9a125c	0.018807583
169	0x3df53d7c	0.11974618
170	0xbc783096	-0.015148303
171	0x3d5022cd	0.05081444
172	0x3dc2be02	0.09508897
173	0x3dacfcd7	0.08446663
174	0xbe0b7c2a	-0.13621584
175	0xbdb0d9bd	-0.0863528
176	0xbe1535cc	-0.14571303
177	0xbdb8b71e	-0.09019302
178	0x3dd66482	0.10468389
179	0x3e1eafb0	0.15496707
180	0xbdff3b58	-0.12462491
181	0xbdaaffc6	-0.08349566
182	0x3ddbb49a	0.107278064
183	0xbd5621cf	-0.052278336
184	0x3e0e32f6	0.13886628
185	0xbdfef6dd	-0.12449429
186	0xbdaed59f	-0.08536839
187	0xbe0b5aa5	-0.13608797
188	0x3d792acb	0.060831826
189	0x3de4b28e	0.11166869
190	0xbd16aeaf	-0.036787685
191	0xbdaee3ce	-0.08539544
192	0xbe264a86	-0.16239366
193	0x3ca4bdc9	0.020110028
194	0x3d45873f	0.048224684
195	0x3e0fb6fa	0.14034644
196	0xbd5713ec	-0.052509233
197	0xbd32b5be	-0.043630354
198	0xbdb122b9	-0.08649201
199	0xbda55f03	-0.08074763
200	0x3d95ce67	0.07314759
201	0x3ddb61d7	0.10712021
202	0x3d93b3c6	0.072120234
203	0xbdfa1153	-0.122103356
204	0x3dd0edae	0.10201584
205	0xbe11d190	-0.14240098
206	0xbda4ccb9	-0.0804686
207	0x3b24057b	0.002502768
208	0x3d2b74b9	0.041859362
209	0xbdc94aff	-0.098287575
210	0x3e1a7c5a	0.15086499
211	0xbd7e19ba	-0.062036254
212	0xbde04c73	-0.109520815
213	0xbdcfc025	-0.101440705
214	0x3dcfa50a	0.101389006
215	0x3e04232e	0.12904045
216	0x3ddb27ff	0.10700988
217	0x3d3d6a81	0.04624415
218	0xbdf1f298	-0.11813849
219	0xbe02c7bd	-0.12771507
220	0x3e08f0fd	0.1337318
221	0xbe1b3d79	-0.15160169
222	0x3d80695a	0.06270094
223	0x3cee7331	0.029107662
224	0xbdca4b69	-0.098776646
225	0xbd999d43	-0.075006984
226	0xbd50262c	-0.050817654
227	0x3d8bfaf4	0.06834975
228	0xbcf32669	-0.029681401
229	0xbdfd6a6c	-0.12373814
230	0x3df35288	0.11880976
231	0xbd9e95b8	-0.077434
232	0x3d3f53bb	0.04671071
233	0xbcf975f8	-0.03045176
234	0xbc9467fd	-0.018115992
235	0x3debb2a6	0.11508684
236	0x3d319c78	0.04336211
237	0xbd0443bc	-0.03229116
238	0xbdc4fda6	-0.09618692
239	0xbdd1f0e2	-0.10251023
240	0xbc9aeb7e	-0.01891112
241	0xbd3e99f9	-0.04653356
242	0x3dee5ec3	0.11639168
243	0x3dfa68ca	0.12227018
244	0xbd5beffd	-0.053695668
245	0xbd1c75f5	-0.03819843
246	0xbe29b5fc	-0.16573328
247	0xbd974b37	-0.07387393
248	0xbe18f420	-0.14936876
249	0x3cf8de73	0.03037951
250	0xbcbe7453	-0.023248827
251	0xbd0ce903	-0.034401905
252	0x3e1eb175	0.15497382
253	0x3e22ebad	0.15910216
254	0x3b8bd6d7	0.0042675543
255	0x3d24957a	0.040181614

down_blocks.2.conv1.bias f4 [16]
0	0x39e15e30	0.0004298552
1	0xbabf6814	-0.0014603161
2	0xba41444c	-0.0007372543
3	0xbaae7cdb	-0.0013312356
4	0xb9bc6017	-0.00035929747
5	0xb99d652b	-0.0003002075
6	0x3a17b590	0.0005787248
7	0x3ac47c6c	0.0014990694
8	0xbabd8eda	-0.0014462129
9	0xbb4ca9a1	-0.0031229036
10	0xb89d1520	-7.490278e-05
11	0x39f65fa8	0.00046992046
12	0x399c39b9	0.00029797645
13	0x39af7393	0.0003346471
14	0xb97f969d	-0.00024374803
15	0x3a568bc9	0.0008184282

down_blocks.2.conv2.weight f4 [16, 16, 3, 3]
0	0xbc805a0a	-0.015667934
1	0x3defe7cd	0.11714134
2	0xbdc9c455	-0.098519005
3	0x39cd110d	0.0003911335
4	0x3d982ad1	0.074300416
5	0xbd2c6d68	-0.042096525
6	0xbd1cc819	-0.038276765
7	0x3dbbaef0	0.09164226
8	0xbd390f5d	-0.045180667
9	0x3d802a02	0.06258012
10	0xbe07a70e	-0.1324732
11	0x3b9b0320	0.004730597
12	0xbcd92aed	-0.026509726
13	0xbd095472	-0.0335278
14	0xbd7460c4	-0.059662595
15	0x3dd774d3	0.10520329
16	0xbe00f570	-0.12593627
17	0x3dcc4969	0.099749394
18	0xbdd0d27a	-0.10196395
19	0x3e132a53	0.14371614
20	0xbdbb6bdf	-0.09151434
21	0xbded8082	-0.115967765
22	0xbd660e92	-0.05616624
23	0xbb949062	-0.0045338133
24	0x3d16fbf8	0.03686139
25	0x3de411d3	0.11136212
26	0xbdd40412	-0.10352339
27	0x3caf9779	0.021434532
28	0xbdc20329	-0.09473259
29	0xbb7e1f59	-0.003877601
30	0x3d12ae85	0.035810966
31	0xbd2ebaad	-0.042658497
32	0x3e025e67	0.12731324
33	0xbc42ca70	-0.011889085
34	0xbdf30764	-0.11866644
35	0xbc9ad25b	-0.018899133
36	0xbdafde04	-0.08587268
37	0x3dac99cc	0.08427772
38	0xbe0d4305	-0.13795097
39	0x3d354fc0	0.04426551
40	0x3d6e4414	0.058170393
41	0xbcce93d0	-0.025216967
42	0x3dfe1cd4	0.12407842
43	0x3e112756	0.14175162
44	0xbe02b550	-0.12764478
45	0xbcfa7e1f	-0.030577717
46	0xbdc22caf	-0.09481179
47	0xbda111cb	-0.07864722
48	0x3e09f688	0.1347295
49	0x3d605104	0.054764763
50	0x3e1198ba	0.14218417
51	0xbd590052	-0.05297882
52	0x3dca0c78	0.098656595
53	0xbe0975e2	-0.13423875
54	0x3d820eba	0.06350465
55	0xbda809f3	-0.08205023
56	0xbccad9c4	-0.024762042
57	0x3df17cb2	0.11791362
58	0xbc8bcbbe	-0.017064925
59	0x3d49a8cb	0.04923324
60	0x3d6200ac	0.055176422
61	0x3c4fabc4	0.012675229
62	0x3df12531	0.11774672
63	0xbd8194a1	-0.06327177
64	0x3cb517b9	0.022106038
65	0xbc186b26	-0.00930289
66	0x3e1591c0	0.1460638
67	0x3d8e367d	0.069439866
68	0xbd72f0e3	-0.05931176
69	0xbd4b7344	-0.049670473
70	0xbdf30f8c	-0.118682
71	0x3b25c539	0.0025294556
72	0xbe0f68c3	-0.14004807
73	0x3d54d236	0.051958285
74	0x3dd5fd86	0.104487464
75	0xbdd096ce	-0.10185014
76	0x3d6a91d2	0.05726797
77	0xbe13af81	-0.14422418
78	0x3d8aee3f	0.06783723
79	0x3ddd3b8e	0.10802375
80	0xbe0eda3c	-0.13950437
81	0xbdf892d1	-0.12137378
82	0xbd93b592	-0.07212366
83	0x3dcf2250	0.101139665
84	0x3e0574b2	0.13032797
85	0x3dd76162	0.10516621
86	0xba28f353	-0.00064449495
87	0x3da71115	0.08157555
88	0xbccb9334	-0.024850465
89	0x3da98a67	0.08278351
90	0xbd7c4d6b	-0.06159727
91	0x3b01bfe7	0.001979822
92	0xbdd2f32f	-0.1030029
93	0xbd1325c1	-0.035924677
94	0xbcc210ac	-0.02368959
95	0xbdf2b6c5	-0.11851267
96	0xbc992a8f	-0.018697051
97	0xbd3f3fea	-0.046691813
98	0x3cc22370	0.023698539
99	0xbd64987e	-0.05580949
100	0x3dcfdb8e	0.101492986
101	0xbdf17077	-0.11789029
102	0x3dc4cbe2	0.096092
103	0xbe08156b	-0.1328942
104	0x3d31ecb8	0.043438643
105	0xbdffdf35	-0.12493745
106	0x3d218b79	0.039439652
107	0xbdcff46c	-0.10154042
108	0xbdfa7573	-0.12229433
109	0xbdd8234c	-0.10553607
110	0xbdfedd81	-0.12444592
111	0xbd84721a	-0.06467076
112	0xbd642ad2	-0.0557049
113	0xbd36a291	-0.04458863
114	0xbdf36e93	-0.11886325
115	0xbc2e578d	-0.010640991
116	0x3dfb5857	0.12272709
117	0xbd5a7c54	-0.053341225
118	0x3d655eda	0.05599866
119	0xbb7c0614	-0.0038455771
120	0x3d9c8632	0.07642783
121	0xbca6398f	-0.020291118
122	0xbddc42f0	-0.10754955
123	0xbe0c3904	-0.13693625
124	0x3d5f8751	0.054572407
125	0x3db0f2c5	0.086400546
126	0x3df36c49	0.11885888
127	0xbdb61732	-0.08891143
128	0xbde9609e	-0.113953814
129	0xbde42fac	-0.11141905
130	0x3dd3ac11	0.103355534
131	0x3d9f2c91	0.07772172
132	0xbdc05629	-0.09391434
133	0x3d05d261	0.032671336
134	0x3d2ecc97	0.04267558
135	0xbde64a3e	-0.11244629
136	0x3d95d082	0.0731516
137	0x3d0ce539	0.03439829
138	0x3a108522	0.00055130024
139	0xbe1383f5	-0.14405806
140	0xbd8ed377	-0.069739275
141	0xbe1236d2	-0.14278725
142	0x3d03f31f	0.03221428
143	0x3d00ed25	0.03147616
144	0x3da3e638	0.08002895
145	0xbde3db05	-0.11125759
146	0xbdf1d4ff	-0.11808204
147	0xbd80e343	-0.06293347
148	0xbc231f0a	-0.009956131
149	0xbd336b30	-0.043803394
150	0xbe0b8f3a	-0.13628855
151	0xbc1268f0	-0.008936152
152	0xbdf6e58d	-0.12055502
153	0xbd27a9cc	-0.040933415
154	0xbd9a5071	-0.07534874
155	0x3dbe8e66	0.09304504
156	0xbdbcdb3b	-0.092215024
157	0xbdae2bf9	-0.08504481
158	0xbda9e397	-0.082953624
159	0xbdb4a6b2	-0.08820857
160	0x3c90aeb4	0.01766143
161	0xbd4c41ba	-0.04986737
162	0xbe053d0f	-0.13011573
163	0xbcd87c39	-0.026426421
164	0x3dcb3d56	0.09923808
165	0xbd9e2c87	-0.07723337
166	0xbbb2c119	-0.005455148
167	0x3dd3d784	0.10343841
168	0xbd85aa41	-0.06526614
169	0xb99858a4	-0.00029057742
170	0x3db51681	0.08842183
171	0xbddccfde	-0.10781835
172	0x3d981451	0.0742575
173	0xbce2d710	-0.02769044
174	0x3dca80bc	0.098878354
175	0xbd5100ed	-0.051026274
176	0xbc92fcc6	-0.017942797
177	0xbe115807	-0.14193736
178	0x3d9d3cd1	0.076776154
179	0x3dbcf9fa	0.09227367
180	0x3dc9d6f6	0.09855454
181	0xbdf21d0f	-0.11821949
182	0xbd5978c4	-0.053093687
183	0x3d7997c5	0.060935754
184	0x3d6a1594	0.057149485
185	0x3dc8dd16	0.09807794
186	0xbd9a2378	-0.075262964
187	0xbaebd649	-0.0017992939
188	0xbc0956bd	-0.008382496
189	0x3cef95ed	0.029246295
190	0x3d23398c	0.039849803
191	0x3e052ff7	0.13006578
192	0x3cf4e04b	0.029892107
193	0xbd4deffc	-0.050277695
194	0x3c7bf3b8	0.015377931
195	0x3d5e1ecd	0.054228593
196	0x3dec3b89	0.11534793
197	0x3e09b020	0.13446093
198	0xbb816497	-0.003948759
199	0xbcd6a322	-0.026200835
200	0xbdf7b100	-0.12094307
201	0xbdbb742d	-0.09153018
202	0xbe05ad57	-0.13054405
203	0x3df38c72	0.11892022
204	0xbe02952c	-0.12752217
205	0x3d482f3c	0.04887317
206	0x3d8dfa9d	0.06932566
207	0xbd835351	-0.06412376
208	0xbe0e1f7a	-0.13879195
209	0xbe113a15	-0.14182313
210	0x3da77be4	0.08177927
211	0x3d5e4df7	0.05427357
212	0xbdd6b093	-0.104828976
213	0xbe0d4877	-0.13797174
214	0xbc991e9e	-0.018691357
215	0x3df167df	0.1178739
216	0x3da358e9	0.07975943
217	0x3dd7cb3b	0.1053681
218	0x3c959f8b	0.018264553
219	0x3e0c5271	0.13703324
220	0xbcd1c29e	-0.025605496
221	0xbc30eb8e	-0.010798348
222	0x3ca5b680	0.020228624
223	0x3cd27ba4	0.025693722
224	0xbda82d9f	-0.082118265
225	0x3dbd6f93	0.09249797
226	0x3dc0a8c3	0.09407189
227	0xbd3c0603	-0.04590417
228	0x3dad3017	0.08456438
229	0xbd712105	-0.05886938
230	0xbdbd4edb	-0.09243556
231	0x3cae7725	0.021297047
232	0xbb0c1e4f	-0.002138037
233	0xbd7c912b	-0.06166188
234	0x3d252d65	0.040326495
235	0x3c0fc229	0.008774319
236	0x3e0574e8	0.13032877
237	0xbd4e27bb	-0.05033086
238	0xbde2a430	-0.110664725
239	0x3c5bcebf	0.013415991
240	0xbc9398f5	-0.018017272
241	0x3dbab75d	0.09117005
242	0x3d268e49	0.040663037
243	0xbdcb6beb	-0.09932693
244	0xbe020d77	-0.12700449
245	0x3b80e5dd	0.003933652
246	0x3cb14281	0.021638157
247	0xbc85c9b0	-0.016331524
248	0xbd09aa88	-0.033609897
249	0x3e0abdfb	0.13549034
250	0xbd16bb1c	-0.036799535
251	0x3dcdf29e	0.10056041
252	0xbc7e7b41	-0.015532316
253	0x3de2f507	0.110818915
254	0x3dce6e3c	0.10079619
255	0x3d16880e	0.036750846

down_blocks.2.conv2.bias f4 [16]
0	0xb9c76d13	-0.00038037504
1	0xba0384ab	-0.00050170225
2	0x399bcbd8	0.0002971578
3	0xba877945	-0.0010335824
4	0xba581a71	-0.0008243686
5	0x39944b75	0.0002828498
6	0x3a112a2e	0.00055375963
7	0xb93f3400	-0.00018234551
8	0x39f3d504	0.0004650728
9	0xb972957e	-0.00023134609
10	0x3a50344f	0.0007942365
11	0x39cbd481	0.00038877505
12	0xb9df4db1	-0.0004259176
13	0x3a57582e	0.0008214739
14	0x3a412998	0.00073685637
15	0x3a1c19f8	0.00059547974

down_blocks.2.norm1.weight f4 [16]
0	0x3f7fbe0d	0.9989937
1	0x3f7fa7eb	0.998656
2	0x3f7fe788	0.99962664
3	0x3f8008f9	1.0002738
4	0x3f8000b0	1.000021
5	0x3f7ff821	0.9998799
6	0x3f7fe688	0.9996114
7	0x3f8003a0	1.0001106
8	0x3f8000d1	1.0000249
9	0x3f803441	1.0015947
10	0x3f800168	1.0000429
11	0x3f8017d4	1.0007272
12	0x3f7fe991	0.9996577
13	0x3f8005ed	1.0001808
14	0x3f8008b2	1.0002654
15	0x3f800a1c	1.0003085

down_blocks.2.norm1.bias f4 [16]
0	0x3ab52769	0.0013820949
1	0xb9de38af	-0.00042385372
2	0x3a040d77	0.0005037407
3	0xb9e0d250	-0.00042881304
4	0x3a26d195	0.00063636276
5	0xb9534bb6	-0.00020150733
6	0x3a2175cc	0.00061592157
7	0x39aeea00	0.0003336221
8	0xb9c24e8c	-0.00037061085
9	0xba41a4e2	-0.0007386935
10	0xb8b51fe2	-8.636691e-05
11	0xb9db1019	-0.0004178293
12	0x3a660c72	0.0008775658
13	0x3a881e3e	0.001038499
14	0x3a379f59	0.00070046406
15	0x3a112a98	0.0005537658

down_blocks.2.norm1.running_mean f4 [16]
0	0x3e1ea8db	0.15494101
1	0x3e5cbe1f	0.215569
2	0x3e1ab2d9	0.15107287
3	0x3e10a7a0	0.14126444
4	0x3e9869b2	0.2976814
5	0x3e26b0c6	0.16278371
6	0x3ded9d04	0.11602214
7	0x3e09a066	0.13440093
8	0x3e0896cb	0.13338773
9	0x3e0c8b33	0.13724975
10	0x3e7b7412	0.24555996
11	0x3e4db02f	0.2008674
12	0x3e0ca234	0.1373375
13	0x3e90d732	0.2828918
14	0x3e82b992	0.25532204
15	0x3e2c5993	0.16831045

down_blocks.2.norm1.running_var f4 [16]
0	0x3eb55f60	0.35424328
1	0x3f18638e	0.5952691
2	0x3d0f4023	0.034973275
3	0x3e559338	0.20856941
4	0x3f5310f3	0.8244774
5	0x3d04fa90	0.032465518
6	0x3d826365	0.06366614
7	0x3e2fcf9a	0.17169037
8	0x3d20c4ce	0.039250188
9	0x3d41fda6	0.04736104
10	0x3f32229b	0.69584054
11	0x3ecd0dfb	0.4004973
12	0x3e4dec03	0.20109563
13	0x3f4f7098	0.8103118
14	0x3f56404b	0.83691853
15	0x3d3f89fa	0.046762444

down_blocks.2.norm2.weight f4 [16]
0	0x3f800f99	1.000476
1	0x3f800bd3	1.0003608
2	0x3f80255a	1.0011399
3	0x3f80138e	1.0005968
4	0x3f802862	1.0012324
5	0x3f7ffd36	0.99995744
6	0x3f801dde	1.0009115
7	0x3f8021dc	1.0010333
8	0x3f802f82	1.0014498
9	0x3f7f9e3e	0.99850833
10	0x3f7ffdb4	0.99996495
11	0x3f800989	1.000291
12	0x3f7fd9d9	0.99941784
13	0x3f800b82	1.0003512
14	0x3f802583	1.0011448
15	0x3f7fbd5f	0.9989833

down_blocks.2.norm2.bias f4 [16]
0	0xb8874011	-6.449235e-05
1	0xb9c71cba	-0.0003797764
2	0x3a0eef27	0.00054525066
3	0x38836eab	6.26718e-05
4	0xb9364b52	-0.00017384932
5	0xb9c29a9e	-0.00037117762
6	0x3a897584	0.0010487293
7	0xba889507	-0.001042039
8	0xba266d46	-0.00063486805
9	0xba98250c	-0.001160772
10	0xba22c8c7	-0.0006209728
11	0x3a93b6e4	0.0011269716
12	0xb923b589	-0.00015612518
13	0x3a8e070a	0.0010835838
14	0xb8551435	-5.0801977e-05
15	0x3a8a9519	0.0010572999

down_blocks.2.norm2.running_mean f4 [16]
0	0x3e8a2b15	0.26985994
1	0x3e8e6b82	0.27816397
2	0x3e3a4eb9	0.18194093
3	0x3e87a682	0.26494223
4	0x3e979cef	0.29611918
5	0x3e3879a1	0.18015148
6	0x3ea1aa84	0.31575406
7	0x3e906a56	0.28206128
8	0x3ed64495	0.418492
9	0x3e5f6290	0.21814942
10	0x3e64956d	0.22322626
11	0x3e63bf3a	0.22240916
12	0x3e7488f7	0.23880373
13	0x3e5caefe	0.21551129
14	0x3e53e6ec	0.20693558
15	0x3ea908ca	0.33014518

down_blocks.2.norm2.running_var f4 [16]
0	0x3e13f7f5	0.14450057
1	0x3e096aca	0.13419643
2	0x3eb34248	0.35011506
3	0x3f0507c0	0.5196495
4	0x3e3c940c	0.1841585
5	0x3e85b9c2	0.26118284
6	0x3e81d270	0.25355864
7	0x3e99dfe6	0.30053633
8	0x3fb3ac5e	1.4036977
9	0x3e09202c	0.13391179
10	0x3eb64d70	0.35605955
11	0x3ec5dafc	0.38643634
12	0x3ee48d7a	0.44639188
13	0x3eb17660	0.34660625
14	0x3e814b3d	0.25252715
15	0x3f5c4371	0.8604041
