Models/838839bb-7e47-42d3-850c-09aa40f368d2.pt (torch, 166211 bytes, 110 tensors)

conv_final.weight f4 [2, 4, 1, 1]
-0.93604326 0.44455534 -0.08660117 -0.61373043 1.157073 0.19011696 -0.9347218 -0.6318588
00000000: 88a0 6fbf c29c e33e f45b b1bd 701d 1dbf
00000010: f81a 943f 05ae 423e ee49 6fbf 80c1 21bf

conv_final.bias f4 [2]
1.0875487 -1.0875487
00000000: cc34 8b3f cc34 8bbf

down_blocks.0.conv1.weight f4 [4, 1, 3, 3]
0.17495872 -0.22137344 0.20052882 -0.1836831 0.09152372 -0.17240113 0.0055632503 -0.28271553
-0.09900878 0.3129148 0.19272321 -0.03321116 0.12540513 -0.25213274 0.262573 0.3544412
0.2450726 -0.09625017 0.19916336 -0.10702581 0.3224717 0.16191776 0.08835246 -0.13054293
0.16937293 0.1606065 -0.22779758 0.3185719 0.22499071 0.27458292 -0.12473203 -0.13145013
-0.15545414 -0.19521888 -0.011536652 0.24299091
00000000: 6128 333e b8af 62be 6d57 4d3e 6c17 3cbe
00000010: ca70 bb3d ec89 30be ed4b b63b 17c0 90be
00000020: 1ec5 cabd 5e36 a03e 3c59 453e 6d08 08bd
00000030: 346a 003e 8b17 81be f86f 863e 5179 b53e
00000040: 50f4 7a3e cf1e c5bd 7bf1 4b3e 5930 dbbd
00000050: 031b a53e c5cd 253e 22f2 b43d 0cad 05be
00000060: 1970 2d3e 0876 243e c543 69be db1b a33e
00000070: f763 663e 2296 8c3e 8273 ffbd dd9a 06be
00000080: 5f2f 1fbe 75e7 47be 3a04 3dbc 9cd2 783e

down_blocks.0.conv1.bias f4 [4]
-0.05645117 -5.0897892e-05 -0.05167927 0.10496102
00000000: 5839 67bd 327b 55b8 a4ad 53bd cef5 d63d

down_blocks.0.conv2.weight f4 [4, 4, 3, 3]
-0.20499898 -0.048906766 0.07858549 -0.24554847 -0.10047918 0.2660432 0.1369368 -0.04755984
0.07566056 0.0016578251 -0.24115686 -0.19992903 0.10552242 0.24906936 -0.03882637 -0.18859962
0.10429812 -0.23237596 -0.036175456 0.20692915 0.25000766 -0.014382083 -0.04147356 -0.045594685
0.1022676 -0.17783584 0.050776478 -0.021215951 -0.2739475 -0.15939082 -0.031895913 0.24752417
0.15343255 0.21761695 0.22620958 0.13381718 -0.07372878 0.20917381 0.11629965 -0.0049414597
-0.21399814 0.20203473 -0.22988649 0.19352451 0.11197693 0.014751203 -0.03228799 -0.2520097
-0.18278114 -0.0036470122 -0.15756582 -0.032020103 -0.035719827 -0.25753704 0.06929834 0.013442349
-0.0743621 -0.15748057 -0.25102866 0.19879657 -0.06728901 0.09930825 -0.20276472 -0.161063
-0.2627449 -0.0017617074 -0.28397956 -0.02313789 -0.21473648 0.23889656 -0.2736322 -0.18766467
-0.10444243 -0.09944276 -0.02480761 -0.0347154 0.056880713 -0.17903554 -0.038096275 0.057142045
-0.17234023 0.06242997 -0.16989674 0.027760215 -0.10724581 0.083338894 -0.08216693 0.13472094
0.042343404 0.03332881 0.31059954 0.23326434 0.034901693 -4.767136e-05 -0.14533277 -0.11214002
-0.25188947 -0.24783146 0.085462086 -0.10449249 0.13537008 -0.21716891 -0.19649298 -0.048972093
0.28172746 -0.17408445 -0.19146252 0.18343028 -0.06572805 -0.18864459 -0.14296035 0.0781952
-0.118554935 -0.2766726 -0.27727044 -0.07161854 0.056023512 0.057047516 -0.15138869 0.17441298
-0.29753134 0.19632125 -0.14954259 -0.07542008 0.17226228 0.12124463 0.20477587 0.26585227
-0.006236723 0.12559517 -0.22408092 -0.036328647 -0.21818511 -0.08053269 0.17931758 -0.23579335
-0.049953297 0.07332552 0.20980623 0.16778354 -0.18292883 -0.22867943 0.29463878 -0.07748395
00000000: 41eb 51be 7652 48bd 6ef1 a03d 0f71 7bbe
00000010: 07c8 cdbd d036 883e 2939 0c3e 1bce 42bd
00000020: ecf3 9a3d 614b d93a d3f1 76be 32ba 4cbe
00000030: 231c d83d 0a0c 7f3e 6608 1fbd 4220 41be
00000040: 419a d53d f7f3 6dbe b72c 14bd 3ce5 533e
00000050: 0101 803e d4a2 6bbc 2ee0 29bd 7ec1 3abd
00000060: ad71 d13d 991a 36be fffa 4f3d 13cd adbc
00000070: d942 8cbe 5937 23be 4aa5 02bd fa76 7d3e
00000080: 6c1d 1d3e fad6 5e3e 7ca3 673e 5f07 093e
00000090: 1dff 96bd a931 563e 832e ee3d f8eb a1bb
000000a0: 5422 5bbe 31e2 4e3e 5d67 6bbe 4a2b 463e
000000b0: 2954 e53d 08af 713c 6940 04bd 6a07 81be
000000c0: fb2a 3bbe b602 6fbb ef58 21be 8327 03bd
000000d0: f44e 12bd e5db 83be 4aec 8d3d 4c3d 5c3c
000000e0: 284b 98bd 9642 21be d486 80be 5491 4b3e
000000f0: d2ce 89bd 2062 cb3d 8ea1 4fbe b3ed 24be
00000100: 8086 86be 17e9 e6ba c565 91be ac8b bdbc
00000110: e1e3 5bbe 4da1 743e 8519 8cbe 2b2b 40be
00000120: eae5 d5bd a5a8 cbbd 5439 cbbc bc31 0ebd
00000130: c0fb 683d 1855 37be d70a 1cbd c70d 6a3d
00000140: f579 30be 91b6 7f3d 69f9 2dbe 6469 e33c
00000150: b1a3 dbbd 95ad aa3d 2347 a8bd 49f4 093e
00000160: 4770 2d3d ca83 083d e706 9f3e d9dc 6e3e
00000170: 14f5 0e3d bcf2 47b8 1dd2 14be aba9 e5bd
00000180: a8f7 80be 88c7 7dbe bf06 af3d 2900 d6bd
00000190: 749e 0a3e 8761 5ebe 7535 49be f696 48bd
000001a0: 953e 903e 3243 32be c00e 44be 26d5 3b3e
000001b0: 6e9c 86bd 0c2c 41be 3364 12be ce24 a03d
000001c0: eecc f2bd 08a8 8dbe 64f6 8dbe beac 92bd
000001d0: e978 653d a8aa 693d a305 1bbe 5199 323e
000001e0: 0756 98be 7008 493e b121 19be d875 9abd
000001f0: 8665 303e 1b4f f83d c4b0 513e ca1d 883e
00000200: 6d5d ccbb 059c 003e 7875 65be 59cd 14bd
00000210: eb6b 5fbe 53ee a4bd 079f 373e d073 71be
00000220: d49b 4cbd b12b 963d 72d7 563e 73cf 2b3e
00000230: b251 3bbe f12a 6abe e5da 963e e8af 9ebd

down_blocks.0.conv2.bias f4 [4]
-0.0020989217 -0.010687053 -0.19291668 -4.029495e-05
00000000: 108e 09bb c018 2fbc f38b 45be 6002 29b8

down_blocks.0.norm1.weight f4 [4]
0.99866736 1.0117743 0.99819297 0.9655114
00000000: aaa8 7f3f d281 813f 9389 7f3f c12b 773f

down_blocks.0.norm1.bias f4 [4]
0.083239935 0.017468162 0.04051158 0.066203944
00000000: b379 aa3d 6419 8f3c 78ef 253d ef95 873d

down_blocks.0.norm1.running_mean f4 [4]
9.77368e-08 0.66925746 0.33159682 0.3683855
00000000: 60e3 d133 7554 2b3f 0fc7 a93e 069d bc3e

down_blocks.0.norm1.running_var f4 [4]
1.9095954e-09 0.014174523 0.0051396033 0.003661648
00000000: f539 0331 423c 683c 1e6a a83b 42f8 6f3b

down_blocks.0.norm2.weight f4 [4]
1.0062922 1.0251969 1.0259829 1.0065775
00000000: 2fce 803f a739 833f 6853 833f 88d7 803f

down_blocks.0.norm2.bias f4 [4]
0.001041627 -0.0071313763 -0.047495186 3.682576e-05
00000000: 3487 883a 52ae e9bb 508a 42bd 5c75 1a38

down_blocks.0.norm2.running_mean f4 [4]
0.14606279 0.5163803 0.054892354 0.06309683
00000000: 7c91 153e 8031 043f ced6 603d e938 813d

down_blocks.0.norm2.running_var f4 [4]
0.089800045 1.9007941 0.048788536 0.027386716
00000000: 16e9 b73d 394d f33f 7dd6 473d 1b5a e03c

down_blocks.1.conv1.weight f4 [8, 4, 3, 3]
0.080531806 0.20456986 0.07392112 0.029558321 0.015042246 0.014916235 0.08109951 -0.015438633
0.07696339 0.20368348 -0.036668614 0.11814914 -0.22949353 0.07991522 0.07787658 -0.047474112
-0.17763086 0.042147685 0.0032279636 -0.104024865 0.10590193 0.20867978 -0.15261967 0.14314656
0.07011332 -0.1499004 0.20794615 0.09978876 -0.14714472 -0.048665848 -0.22370785 -0.023755083
-0.055237867 0.17875403 0.02215155 -0.058519863 -0.19589871 0.18340339 0.10773832 -0.040156323
0.1775779 0.11724286 0.052669976 0.18068707 -0.17839095 0.018841075 -0.08733899 0.072884895
-0.118853495 -0.18704623 0.06643849 0.044442683 -0.077384725 -0.19790146 -0.037137117 0.16622782
-0.0038614466 -0.019438975 0.01779869 0.03843284 -0.007823359 -0.002178333 0.027214386 -0.098301895
-0.11083087 0.0745092 0.105391145 0.07513998 0.069260724 0.07787908 -0.07819473 -0.004833427
0.032252934 -0.16035973 0.0021626097 0.11603576 0.04685738 -0.1298461 -0.0117423935 -0.19599554
-0.017056683 -0.20417762 0.20180027 -0.04369559 -0.07890687 -0.15218048 0.040050734 0.11272154
-0.06753622 -0.20810997 0.0754262 0.2019724 -0.061351042 -0.06407157 -0.062332164 -0.228527
-0.04167062 0.00052109116 -0.16833769 -0.0022773657 0.16511433 0.17459616 -0.17729153 -0.08603861
-0.0103535345 -0.16521016 0.19509596 -0.015542956 -0.23561522 -0.104910806 -0.0676191 0.13906643
-0.06737357 0.10573742 -0.024951348 -0.09247822 -0.22386873 0.0042542657 -0.058704715 0.1129485
0.082768224 0.00838238 -0.12969187 -0.09878257 -0.049149644 -0.06487462 -0.12945603 0.104787625
0.030839056 0.02620265 0.10264811 -0.084395126 0.04715141 -0.2080082 0.14315559 -0.14904842
0.0076150834 -0.06389677 0.14159107 -0.20330915 0.21296237 -0.19898668 -0.016043382 -0.17847072
0.11610954 0.15308389 -0.09046215 -0.12530383 -0.177783 0.19214132 0.18394513 0.22859356
-0.09865805 0.17691018 0.15836705 0.071089 0.10753961 -0.046058986 0.029556079 0.22638759
-0.20775643 0.15231752 0.15477352 -0.19185539 0.10319416 -0.16156667 -0.13627271 0.22154622
-0.18177798 0.045493938 0.11885011 0.005156718 0.13845614 0.03336341 -0.17295931 0.2252578
-0.18112895 0.1801324 -0.11104199 -0.043082926 -0.124296986 0.18975794 0.003921105 -0.1658504
-0.23320684 -0.021835474 -0.2027878 -0.003832505 0.16555071 -0.06719183 0.100170664 -0.006092171
0.09716148 0.018754646 -0.11144021 -0.045209754 0.023062695 -0.11195195 0.03171986 -0.10736741
-0.051850587 -0.11661266 0.078926876 -0.033828963 -0.13251288 -0.012680021 -0.0054641697 -0.1135675
-0.11370366 -0.10550472 0.18716288 -0.07146727 0.22717139 -0.21577151 -0.07677047 0.22650518
0.15182827 -0.03788664 0.07147804 0.09687792 0.018851032 -0.02853001 0.07317289 -0.06522843
-0.22319037 0.04508828 -0.16439058 -0.11426739 0.0019783927 -0.15512101 -0.0039063515 -0.08983004
0.13348877 0.22966458 0.070278406 -0.10349881 -0.044978715 -0.1818666 -0.012593476 -0.07898122
-0.14601974 -0.1661518 0.20721643 0.20688285 -0.118195474 -0.1424896 0.18568069 0.1420373
0.20261553 -0.21684077 0.22084525 -0.110552534 0.12330688 -0.2028262 0.19286059 -0.12500124
00000000: dced a43d c37a 513e f563 973d 4b24 f23c
00000010: c173 763c 3963 743c 8017 a63d 52f2 7cbc
00000020: fb9e 9d3d 6792 503e d431 16bd 2df8 f13d
00000030: 5a00 6bbe 97aa a33d c27d 9f3d 3774 42bd
00000040: dde4 35be 0da3 2c3d 3e8c 533b fd0a d5bd
00000050: 1ce3 d83d 27b0 553e 5548 1cbe 0395 123e
00000060: 9397 8f3d 7e7f 19be d6ef 543e 0d5e cc3d
00000070: 1bad 16be d755 47bd ac13 65be 059a c2bc
00000080: 1a41 62bd 4c0b 373e 2b77 b53c 86b2 6fbd
00000090: ac99 48be 19ce 3b3e e9a5 dc3d f57a 24bd
000000a0: fbd6 353e 061d f03d 79bc 573d 0806 393e
000000b0: 1eac 36be 9958 9a3c c9de b2bd ad44 953d
000000c0: 7669 f3bd 0c89 3fbe e710 883d 8809 363d
000000d0: e27b 9ebd aea6 4abe 171d 18bd a037 2a3e
000000e0: 5310 7dbb 7c3e 9fbc 8fce 913c c16b 1d3d
000000f0: 8c2d 00bc 5dc2 0ebb b4f0 de3c 8152 c9bd
00000100: 4cfb e2bd 4898 983d 50d7 d73d fde2 993d
00000110: 91d8 8d3d 117f 9f3d 8f24 a0bd b961 9ebb
00000120: a71b 043d 5735 24be 92ba 0d3b 28a4 ed3d
00000130: 86ed 3f3d 60f6 04be 2b63 40bc 0eb3 48be
00000140: 75ba 8bbc f013 51be bba4 4e3e 26fa 32bd
00000150: ed99 a1bd 33d5 1bbe 3d0c 243d 8dda e63d
00000160: 6e50 8abd c81a 55be 0d79 9a3d dad1 4e3e
00000170: 3b4b 7bbd f537 83bd 0350 7fbd fb02 6abe
00000180: d0ae 2abd d699 083a b760 2cbe db3f 15bb
00000190: bb13 293e 56c9 323e e98b 35be 0335 b0bd
000001a0: dfa1 29bc da2c 29be 3cc7 473e e2a7 7ebc
000001b0: 1e45 71be 7adb d6bd e27b 8abd 6e67 0e3e
000001c0: 27fb 89bd dc8c d83d c566 ccbc 3965 bdbd
000001d0: d83d 65be 5e67 8b3b 5b74 70bd 8b51 e73d
000001e0: 6382 a93d 4056 093c f2cd 04be 844e cabd
000001f0: 2351 49bd fcdc 84bd 1f90 04be e59a d63d
00000200: 30a2 fc3c f1a6 d63c 2c39 d23d 5ad7 acbd
00000210: d621 413d 1a00 55be 6197 123e 26a0 18be
00000220: f387 f93b 4fdc 82bd 40fd 103e 4630 50be
00000230: cf12 5a3e 2ac3 4bbe 696d 83bc 07c1 36be
00000240: d7ca ed3d 06c2 1c3e 3844 b9bd a64f 00be
00000250: bf0c 36be b2c0 443e 1d5c 3c3e 6e14 6a3e
00000260: 3b0d cabd f127 353e f92a 223e 1c97 913d
00000270: ba3d dc3d 59a8 3cbd 971f f23c 26d2 673e
00000280: 1abe 54be 20f9 1b3e f37c 1e3e bd75 44be
00000290: 7657 d33d bc71 25be 138b 0bbe 03dd 623e
000002a0: 0224 3abe da57 3a3d b067 f33d b0f9 a83b
000002b0: 72c7 0d3e 12a8 083d 3f1c 31be fba9 663e
000002c0: de79 39be a174 383e fc69 e3bd b977 30bd
000002d0: 6b8f febd e84f 423e 9d7c 803b b0d4 29be
000002e0: c6cd 6ebe 4fe0 b2bc 9ba7 4fbe c42a 7bbb
000002f0: 2086 293e df9b 89bd 4726 cd3d d6a0 c7bb
00000300: 99fc c63d 58a3 993c c43a e4bd dd2d 39bd
00000310: faed bc3c 1047 e5bd afec 013d 72e3 dbbd
00000320: 4861 54bd 9ed2 eebd 6aa4 a13d 3d90 0abd
00000330: 75b1 07be ddbf 4fbc c70c b3bb 1496 e8bd
00000340: 77dd e8bd dc12 d8bd a0a7 3f3e 6f5d 92bd
00000350: 9e9f 683e 35f3 5cbe d639 9dbd f9f0 673e
00000360: df78 1b3e 052f 1bbd 1463 923d ee67 c63d
00000370: 7b6d 9a3c c4b7 e9bc abdb 953d 7c96 85bd
00000380: 048c 64be 7dae 383d 0156 28be 0505 eabd
00000390: eca7 013b 0bd8 1ebe da00 80bb d0f8 b7bd
000003a0: 48b1 083e 312d 6b3e 20ee 8f3d 2ff7 d3bd
000003b0: 9a3b 38bd 3d3b 3abe de54 4ebc e8c0 a1bd
000003c0: 3386 15be b323 2abe 8b30 543e 19d9 533e
000003d0: 7810 f2bd cbe8 11be 1423 3e3e 3a72 113e
000003e0: 727a 4f3e 820b 5ebe 4225 623e 5e69 e2bd
000003f0: 5188 fc3d acb1 4fbe 3f7d 453e 5300 00be

down_blocks.1.conv1.bias f4 [8]
9.028622e-06 0.00030421352 0.00077467243 -0.002822461 0.0039178934 -0.008967807 0.00040581927 -0.0018806163
00000000: a379 1737 d97e 9f39 6313 4b3a 0af9 38bb
00000010: ac61 803b b5ed 12bc 24c4 d439 037f f6ba

down_blocks.1.conv2.weight f4 [8, 8, 3, 3]
-0.15705462 -0.053997237 0.13864592 0.17212062 0.1679903 0.10131823 -0.07571317 0.10006225
-0.021371486 -0.11328275 0.09018135 0.013621795 -0.0625282 0.12911749 -0.03892179 0.09699603
-0.10091696 -0.19204703 0.19929601 -0.19066018 0.11195454 -0.006670227 0.018965775 -0.0826499
0.05567263 -0.08538118 0.06674966 0.0701189 -0.1025987 0.06752494 0.16874939 -0.10487556
-0.009303721 0.15246396 -0.16510634 0.19523786 -0.015902536 -0.13520618 0.023395149 0.032688238
0.005689934 -0.12667708 0.041769017 0.18602708 0.022550022 -0.06999552 0.0013469241 0.11595748
0.18304966 -0.040511753 0.051518477 -0.20164698 -0.027143937 0.011938078 -0.007304491 0.059359632
0.041268446 0.0680046 -0.030459719 0.029193884 0.033819914 -0.046126604 0.05826431 0.034100253
0.15612788 0.03564828 -0.062772706 -0.007207231 0.18924041 0.07485181 0.17803785 0.13188863
-0.1717243 -0.044303603 -0.1810318 0.018518453 0.17689382 0.118493356 0.18108054 -0.15911987
-0.10180254 -0.16562209 -0.16028187 -0.19450161 0.063426636 0.058078498 0.05330619 -0.113115005
0.033015095 0.15058963 -0.19483045 -0.10188032 -0.053802527 0.12215345 -0.05750138 -0.19738805
0.027238453 0.18860994 -0.084916346 -0.15114196 0.05639451 0.13378473 0.06938522 0.15536578
-0.0074826134 -0.004883052 -0.018954908 0.13325576 -0.013646026 0.10833315 0.19747177 -0.01506074
-0.009567913 -0.115809195 -0.153957 -0.14902802 0.047690887 -0.05390935 0.00043767388 0.18020341
-0.005657956 -0.11789427 0.03486035 0.09901551 0.16645275 0.14136755 0.06539298 -0.014463826
0.076434426 0.08121454 -0.13341777 0.10332354 0.13121563 -0.03639032 0.109587796 0.14865597
-0.06231764 0.16265322 -0.0804696 0.17049417 -0.05394218 0.11637643 0.17608288 -0.04717995
-0.070466176 -0.047210675 -0.07560446 0.19054967 0.03983643 -0.16908066 -0.051247958 -0.07201657
-0.12792869 -0.03748389 0.018880678 0.15972178 0.18495694 -0.011423872 0.12362009 0.0919526
0.057790063 -0.07248223 0.15113746 -0.09733718 -0.060729135 0.017410852 0.2023506 -0.15148576
0.0820307 -0.09291131 0.12872304 0.1222746 -0.14584553 0.11668411 -0.09021799 -0.039371658
-0.20448412 -0.13307488 -0.19258973 0.17091447 0.09434087 -0.15696849 0.11302311 0.19173604
0.008189365 5.5784614e-05 0.07215417 0.023474157 0.03752581 -0.040569272 0.005665507 -0.1897005
-0.034706693 -0.015959134 0.04509838 -0.15861568 -0.013581418 0.014465593 0.19658798 -0.0428949
-0.06153909 0.11183538 -0.04817139 -0.1815973 0.15158814 -0.17505121 -0.017621493 0.14245042
-0.15665188 -0.07184789 -0.16828261 -0.18601428 -0.09386941 0.04208292 -0.04187856 0.15599881
0.18218108 0.0530157 -0.16041133 -0.0039769774 0.18149032 -0.17975144 -0.11661494 -0.18304469
-0.15079984 0.040688556 -0.07124842 0.0043338556 -0.09213268 0.0011931951 -0.11734769 0.007516243
-0.02645036 -0.028901035 0.19088489 0.06381994 0.14939825 -0.19299434 0.1301828 0.085059345
-0.006358557 0.10656017 -0.0030245124 -0.13036318 -0.033716552 0.13243017 0.09087273 -0.16840118
-0.07142978 -0.19447151 -0.018629054 -0.050782662 0.18951847 -0.1713363 0.0071437447 -0.061397962
00000000: edd2 20be 352c 5dbd 32f9 0d3e 6340 303e
00000010: a605 2c3e ef7f cf3d 820f 9bbd 70ed cc3d
00000020: 4113 afbc c900 e8bd 00b1 b83d f32d 5f3c
00000030: c90e 80bd 6037 043e 746c 1fbd dba5 c63d
00000040: 8dad cebd faa7 44be 4114 4c3e 6c3c 43be
00000050: 6c48 e53d eb91 dabb 1d5e 9b3c 5a44 a9bd
00000060: fc08 643d 54dc aebd 0cb4 883d 7f9a 8f3d
00000070: 441f d2bd 844a 8a3d a4cc 2c3e ffc8 d6bd
00000080: a26e 18bc 831f 1c3e a311 29be 6fec 473e
00000090: 0946 82bc 7d73 0abe 2fa7 bf3c 1ae4 053d
000000a0: a072 ba3b a3b7 01be fd15 2b3d e27d 3e3e
000000b0: d3ba b83c d059 8fbd 468b b03a 1e7b ed3d
000000c0: 5f71 3b3e a7ef 25bd 0a05 533d 8c7c 4ebe
000000d0: f65c debc ee97 433c 835a efbb 1623 733d
000000e0: 1a09 293d ff45 8b3d a986 f9bc 0328 ef3c
000000f0: c086 0a3d 40ef 3cbd 8fa6 6e3d b5ac 0b3d
00000100: fddf 1f3e ee03 123d fa8e 80bd a32a ecbb
00000110: 3dc8 413e e84b 993d 8e4f 363e d00d 073e
00000120: 7fd8 2fbe b277 35bd 6660 39be 03b4 973c
00000130: a723 353e a5ac f23d 2d6d 393e 52f0 22be
00000140: da7d d0bd d698 29be ee20 24be 6e2b 47be
00000150: d3e5 813d b8e3 6d3d 9757 5a3d d7a8 e7bd
00000160: d63a 073d 2b34 1a3e a281 47be a1a6 d0bd
00000170: 0a60 5cbd 972b fa3d 9186 6bbd 1820 4abe
00000180: 2d23 df3c f722 413e 9fe8 adbd f5c4 1abe
00000190: eefd 663d ddfe 083e d719 8e3d 3518 1f3e
000001a0: b630 f5bb 0202 a0bb 5347 9bbc 3374 083e
000001b0: 9593 5fbc c5dd dd3d 0a36 4a3e 52c1 76bc
000001c0: bcc2 1cbc 5f2d edbd e7a6 1dbe cd9a 18be
000001d0: 8557 433d 0dd0 5cbd 9877 e539 3e87 383e
000001e0: 6066 b9bb 8d72 f1bd bac9 0e3d a5c8 ca3d
000001f0: 9772 2a3e a8c2 103e c1ec 853d aff9 6cbc
00000200: a789 9c3d cf53 a63d ab9e 08be 4b9b d33d
00000210: 645d 063e 040e 15bd 916f e03d 4539 183e
00000220: c840 7fbd 918e 263e 3fcd a4bd 0696 2e3e
00000230: 7af2 5cbd c456 ee3d 124f 343e c33f 41bd
00000240: 9250 90bd fb5f 41bd 83d6 9abd 741f 433e
00000250: 862b 233d 7b23 2dbe 61e9 51bd 6c7d 93bd
00000260: bdff 02be b588 19bd a7ab 9a3c 1b8e 233e
00000270: 5a65 3d3e 312b 3bbc 882c fd3d a551 bc3d
00000280: 46b5 6c3d 9071 94bd c7c3 1a3e b758 c7bd
00000290: 1dbf 78bd 34a1 8e3c ff34 4f3e 151f 1bbe
000002a0: b6ff a73d 4948 bebd f9cf 033e 1b6b fa3d
000002b0: 8858 15be 14f8 ee3d 36c4 b8bd 2d44 21bd
000002c0: 4964 51be c844 08be 3e36 45be 3404 2f3e
000002d0: c935 c13d 59bc 20be a978 e73d 7456 443e
000002e0: b02c 063c 46fa 6938 91c5 933d e04c c03c
000002f0: aab4 193d f72b 26bd b8a5 b93b d940 42be
00000300: 9b28 0ebd bbbc 82bc 14b9 383d 266c 22be
00000310: 9984 5ebc 1801 6d3c 5c4e 493e 90b2 2fbd
00000320: 6a10 7cbd f309 e53d 5d4f 45bd a5f4 39be
00000330: ec39 1b3e a040 33be f35a 90bc 86de 113e
00000340: 5a69 20be fd24 93bd 4752 2cbe 877a 3ebe
00000350: 9b3e c0bd 245f 2c3d da88 2bbd 27be 1f3e
00000360: ad8d 3a3e fe26 593d de42 24be 4e51 82bb
00000370: 99d8 393e c310 38be d0d3 eebd 1170 3bbe
00000380: 466b 1abe 0ba9 263d b1ea 91bd 0403 8e3b
00000390: 0fb0 bcbd fc64 9c3a fc53 f0bd d14a f63b
000003a0: 6dae d8bc ddc1 ecbc 5477 433e 07b4 823d
000003b0: dbfb 183e 4fa0 45be a44e 053e 9833 ae3d
000003c0: 715b d0bb 383c da3d e636 46bb ed7d 05be
000003d0: 5e1a 0abd c69b 073e 7b1b ba3d 5c71 2cbe
000003e0: c749 92bd 8a23 47be f59b 98bc 7b01 50bd
000003f0: 2111 423e c872 2fbe 1316 ea3b 6e7c 7bbd

down_blocks.1.conv2.bias f4 [8]
0.0013239346 -0.00057801994 0.0019664355 0.0043721735 -0.0011028101 0.0025890307 0.0030734385 0.0008626193
00000000: e087 ad3a 4386 17ba 50df 003b 7344 8f3b
00000010: 2b8c 90ba baac 293b be6b 493b 6721 623a

down_blocks.1.norm1.weight f4 [8]
1.00617 1.0029203 1.0036861 0.9996077 0.9912238 1.002228 0.99513716 0.998894
00000000: 2eca 803f b15f 803f c978 803f 4ae6 7f3f
00000010: d8c0 7d3f 0249 803f 4fc1 7e3f 84b7 7f3f

down_blocks.1.norm1.bias f4 [8]
-0.0019176272 -0.0023057554 0.0019784651 -0.001773034 0.0015218366 -0.0065586437 -3.883721e-05 -0.0017329284
00000000: e458 fbba 281c 17bb 23a9 013b 2665 e8ba
00000010: 5d78 c73a e4e9 d6bb 23e5 22b8 6e23 e3ba

down_blocks.1.norm1.running_mean f4 [8]
0.27097538 0.2918965 0.2310474 0.16343442 0.3235748 0.16790971 0.30833262 0.1524393
00000000: 49bd 8a3e 7573 953e b197 6c3e 5a5b 273e
00000010: 99ab a53e 86f0 2b3e c6dd 9d3e 0c19 1c3e

down_blocks.1.norm1.running_var f4 [8]
0.50135905 0.21065243 0.11738088 0.08302219 0.63735086 0.06196027 0.26567233 0.09026491
00000000: 1159 003f 45b5 573e 6365 f03d 8a07 aa3d
00000010: 6d29 233f 0dca 7d3d 3406 883e cfdc b83d

down_blocks.1.norm2.weight f4 [8]
1.0070628 1.000956 0.997356 1.0098614 0.99816275 0.99533266 0.9954807 1.0055354
00000000: 6fe7 803f 541f 803f b952 7f3f 2343 813f
00000010: 9887 7f3f 1fce 7e3f d3d7 7e3f 62b5 803f

down_blocks.1.norm2.bias f4 [8]
0.0006583353 -0.00062239834 0.0008612952 -0.0012598282 -0.0014056845 0.0017284238 0.0011878792 0.0006194966
00000000: 2294 2c3a 7228 23ba 8bc8 613a d220 a5ba
00000010: f23e b8ba 478c e23a 9db2 9b3a b765 223a

down_blocks.1.norm2.running_mean f4 [8]
0.2363236 0.29685605 0.30197847 0.3476321 0.26810378 0.369825 0.32364646 0.28667226
00000000: d0fe 713e 84fd 973e ec9c 9a3e d6fc b13e
00000010: e644 893e b459 bd3e fdb4 a53e b5c6 923e

down_blocks.1.norm2.running_var f4 [8]
0.34438184 0.2902101 0.25961572 0.17818792 0.18894799 0.62489635 0.20627308 0.4095886
00000000: d152 b03e 6b96 943e 5aec 843e e576 363e
00000010: 957b 413e 35f9 1f3f 4039 533e 99b5 d13e

down_blocks.2.conv1.weight f4 [16, 8, 3, 3]
-0.1362009 0.14587007 -0.06940922 0.1468352 -0.15760066 -0.07838127 0.16852462 0.052855864
-0.038548816 -0.043543495 -0.080052696 0.06624056 -0.14155081 0.16716024 0.04462501 -0.058607657
-0.15168424 0.050290465 -0.07935092 0.09528889 -0.08746588 -0.15465249 -0.059932176 -0.07399116
-0.118510135 -0.14800918 -0.07236552 0.06271133 0.15403624 0.04499618 0.13095772 0.055346288
0.08240306 -0.058350455 -0.12679036 -0.09051726 0.044396516 0.006870873 0.03512467 -0.14337303
-0.025953092 0.15320264 0.08709746 0.12305977 -0.040417995 0.09411942 -0.07447651 0.04561975
-0.0918903 -0.12226048 0.06895707 -0.09912796 0.07042804 -0.06722057 -0.008441969 -0.06011274
-0.026668549 0.1473598 0.087516926 0.07146119 -0.14680223 0.028249405 0.033552155 0.0039318562
-0.1093213 -0.0011802919 -0.07051012 -0.007241967 0.12566851 -0.118826106 0.033140663 -0.0601509
0.10339656 0.117372885 -0.11680658 0.0045247595 -0.16412361 -0.10093641 -0.059733436 -0.08497216
0.14149518 -0.018822508 -0.039294902 -0.041875597 -0.10505269 -0.16048016 0.005109435 0.0726618
0.13010243 -0.15579803 -0.15369695 0.06902671 0.004102189 0.1483451 0.025603704 0.11300945
0.0700363 0.005680107 0.007481444 0.06464544 0.08613418 0.030121708 -0.096321255 -0.031847652
0.06577616 -0.00439316 -0.15650254 -0.1119071 0.15728503 -0.045864888 0.03076158 0.03922011
0.026747124 0.06933589 -0.14878024 0.120209515 -0.14603305 -0.11432371 -0.013587517 -0.028856413
0.058947846 0.13106951 -0.120137714 0.05902289 -0.08969671 -0.15402246 -0.13044178 0.08732193
-0.07199957 -0.13232043 0.08239573 0.057258617 0.07476074 0.019318838 -0.014969927 -0.115489654
-0.06377998 -0.13871974 -0.16588973 0.03138405 0.0973241 -0.046804897 0.120829865 0.10471677
-0.10669089 -0.067321256 0.029218389 0.031824917 0.024787556 0.045582756 0.017199382 -0.05685597
-0.13498014 -0.14266819 -0.09091362 -0.028993808 -0.070731625 0.13482453 0.04247789 0.032227818
-0.12279172 0.072254814 0.11155569 -0.0034357747 0.0023536389 -0.061249875 -0.040739145 -0.014308066
-0.1486846 0.02270794 0.08333955 0.13950947 0.08465076 0.03504837 -0.11343052 -0.00085999805
0.019055508 0.10214439 0.01427757 0.15177172 0.10175785 -0.08119323 -0.00351963 0.07469715
0.10426746 -0.020732395 -0.07524117 0.05073306 0.1558569 0.0019728548 0.13025956 0.13727914
-0.10988157 0.044381663 -0.07079036 -0.027358642 -0.023502057 -0.1254234 0.045538284 0.12849599
-0.13398212 0.09519256 0.022081869 0.02625952 -0.06617424 -0.13862236 -0.15770411 0.033645853
-0.047923554 -0.019304808 -0.101976775 -0.052539334 -0.14055471 0.013917134 -0.049385633 -0.14210524
0.07358723 0.08084356 0.100736834 0.008511699 -0.032581445 0.105997786 -0.057839155 -0.124476075
-0.14862551 0.067832455 0.14174226 0.03473066 -0.16082092 0.014506579 0.11347171 -0.09410162
0.07485356 -0.012223122 0.13939625 -0.14492103 -0.14646249 -0.1481747 -0.023326585 0.15827435
0.13865454 -0.015670909 -0.09030476 -0.029265339 0.024069533 -0.10403138 -0.14993964 -0.13814457
-0.03311286 -0.0758269 0.02606506 0.16136259 -0.05798033 0.09283001 -0.14288858 -0.123184875
00000000: 4078 0bbe f75e 153e 6c26 8ebd f75b 163e
00000010: 1162 21be 5c86 a0bd b891 2c3e 647f 583d
00000020: 5de5 1dbd aa5a 32bd abf2 a3bd 21a9 873d
00000030: b2f2 10be 0e2c 2b3e b7c8 363d 950e 70bd
00000040: 1d53 1bbe 60fd 4d3d bc82 a2bd d226 c33d
00000050: 5021 b3bd 395d 1ebe 717b 75bd ad88 97bd
00000060: 71b5 f2bd b88f 17be 6034 94bd cc6e 803d
00000070: adbb 1d3e ea4d 383d c819 063e cab2 623d
00000080: efc2 a83d e300 6fbd 55d5 01be 1d61 b9bd
00000090: 1fd9 353d 0f25 e13b e3de 0f3d 61d0 12be
000000a0: 949b d4bc 27e1 1c3e 2760 b23d c306 fc3d
000000b0: 578d 25bd afc1 c03d 2487 98bd c6db 3a3d
000000c0: fb30 bcbd b463 fabd 5d39 8d3d 9a03 cbbd
000000d0: 943c 903d f0aa 89bd 2f50 0abc c738 76bd
000000e0: 0078 dabc 7de5 163e 133c b33d 3f5a 923d
000000f0: 5353 16be 4c6b e73c fc6d 093d cdd6 803b
00000100: d9e3 dfbd 06b4 9aba 9c67 90bd 064e edbb
00000110: 3faf 003e 1a5b f3bd 81be 073d ca60 76bd
00000120: 93c1 d33d 3261 f03d 4a38 efbd 6f44 943b
00000130: 0510 28be c0b7 cebd 0cab 74bd e205 aebd
00000140: 1de4 103e a931 9abc b1f3 20bd bf85 2bbd
00000150: dd25 d7bd e954 24be 0c6d a73b b6cf 943d
00000160: 9239 053e 8589 1fbe bc62 1dbe e05d 8d3d
00000170: a86b 863b c7e7 173e dcbe d13c 8071 e73d
00000180: 316f 8f3d 3120 ba3b e726 f53b d464 843d
00000190: 1e67 b03d cdc1 f63c 1444 c5bd af72 02bd
000001a0: a7b5 863d 7ff4 8fbb 3442 20be 8d2f e5bd
000001b0: 540f 213e d2dc 3bbd b6ff fb3c 44a5 203d
000001c0: c91c db3c faff 8d3d d959 18be 6830 f63d
000001d0: b089 15be 8d22 eabd 2d9e 5ebc 4964 ecbc
000001e0: 4c73 713d 1637 063e c30a f6bd fcc1 713d
000001f0: e9b2 b7bd 10b8 1dbe 8892 05be d7d5 b23d
00000200: 8374 93bd 027f 07be 18bf a83d 0388 6a3d
00000210: 291c 993d 8a42 9e3c 6d44 75bc d785 ecbd
00000220: 149f 82bd 8c0c 0ebe ffde 29be 908c 003d
00000230: dc51 c73d 7eb6 3fbd a675 f73d bf75 d63d
00000240: c180 dabd badf 89bd 675b ef3c d85a 023d
00000250: 460f cb3c fcb4 3a3d b8e5 8c3c cee1 68bd
00000260: 3c38 0abe 9c17 12be ec30 babd 6c84 edbc
00000270: bedb 90bd 710f 0a3e 4cfd 2d3d 5101 043d
00000280: 3a7a fbbd 55fa 933d 4f77 e43d bc2a 61bb
00000290: 823f 1a3b 26e1 7abd 17de 26bd 616c 6abc
000002a0: c740 18be 0006 ba3c edad aa3d 92db 0e3e
000002b0: 615d ad3d e18e 0f3d 434e e8bd 7e71 61ba
000002c0: 4c1a 9c3c 1431 d13d 78ec 693c 0c6a 1b3e
000002d0: 6b66 d03d a348 a6bd 98a9 66bb d2fa 983d
000002e0: 2e8a d53d fcd6 a9bc 0b18 9abd 78cd 4f3d
000002f0: f498 1f3e 034b 013b c362 053e e792 0c3e
00000300: 9709 e1bd 8cc9 353d 89fa 90bd 3b1f e0bc
00000310: 6387 c0bc fe6e 00be 5a86 3a3d 7494 033e
00000320: 9c32 09be 51f4 c23d 09e5 b43c 341e d73c
00000330: 5c86 87bd 05f3 0dbe 307d 21be 3cd0 093d
00000340: 7d4b 44bd 1e25 9ebc 33d9 d0bd 7c33 57bd
00000350: 93ed 0fbe b104 643c 9748 4abd 0984 11be
00000360: e7b4 963d 4f91 a53d 1d4f ce3d a774 0b3c
00000370: 1f74 05bd 5e15 d93d c0e8 6cbd 50ed febd
00000380: 4931 18be beeb 8a3d e224 113e bd41 0e3d
00000390: 3dae 24be 01ad 6d3c db63 e83d 5ab8 c0bd
000003a0: d34c 993d 7d43 48bc e4bd 0e3e 2e66 14be
000003b0: 43fa 15be 1cbb 17be 6517 bfbc ac12 223e
000003c0: 75fb 0d3e 4760 80bc b4f1 b8bd ddbd efbc
000003d0: 782d c53c 670e d5bd c789 19be c575 0dbe
000003e0: 5aa1 07bd 224b 9bbd 6586 d53c 3c3c 253e
000003f0: c87c 6dbd a91d be3d 6251 12be 5a48 fcbd

down_blocks.2.conv1.bias f4 [16]
-0.0001903641 -0.00066029915 -0.00012267617 0.0008493281 -0.0004324783 -0.00042230883 -0.00023467545 -0.0005494034
-0.0015712631 0.00036899647 -0.0005026676 0.00040460745 -5.1485417e-06 -0.00043175515 0.0001823858 -0.0013672229
00000000: 799c 47b9 ed17 2dba a2a2 00b9 72a5 5e3a
00000010: 41be e2b9 5569 ddb9 3613 76b9 d705 10ba
00000020: d7f2 cdba de75 c139 74c5 03ba 7e21 d439
00000030: a3c1 acb6 325d e2b9 d13e 3f39 6334 b3ba

down_blocks.2.conv2.weight f4 [16, 16, 3, 3]
-0.03877635 -0.041444387 0.13106126 0.098809905 0.02784815 -0.029620973 0.01207567 -0.025847806
-0.020411083 0.0756216 -0.009824634 -0.043941103 -0.07002971 -0.119124465 0.124572136 0.04749149
-0.12661815 0.13458575 -0.0892162 -0.034347847 -0.048751093 -0.10872624 -0.0454886 0.00015579107
0.032045916 -0.1278653 0.07283584 -0.066389196 -0.0061358856 0.11960619 0.013292329 -0.13068403
-0.09651201 0.11353918 -0.07202622 0.0692489 0.02178634 0.13131693 -0.06024628 -0.03377631
0.007406806 0.11542293 0.013884106 -0.066382185 0.07089538 0.11572933 -0.099985614 -0.10669092
0.087142445 -0.0075801844 0.082208954 0.086529076 0.12307475 0.10946291 0.0076345396 0.08994733
-0.010020219 0.093292885 -0.099089876 0.121428214 -0.06572697 0.08017147 0.070342496 0.06254654
-0.050750174 0.045968164 -0.0061019696 -0.080843225 -0.08392947 -0.08245901 -0.048676267 0.06245609
-0.062269736 -0.039191157 0.07482464 0.14374964 -0.08748082 -0.021209111 -0.003125042 0.10778866
-0.03960008 -0.056253176 0.093459696 -0.11064331 0.13104358 0.00052202266 -0.031699173 0.11997364
-0.018540697 0.06706698 0.07224511 0.09971808 -0.13302921 0.13669698 -0.056211133 -0.092683196
-0.06359826 -0.12683505 -0.006674718 -0.096542925 -0.051406823 0.07934796 0.049257822 -0.020272095
-0.10268113 -0.09658928 0.11731369 0.06782726 0.041388176 0.100336514 -0.065195695 0.029591694
-0.10827086 -0.11367231 0.11026737 -0.051075064 -0.11280706 0.007945401 0.085744195 -0.03252649
0.12029589 0.13623042 -0.05522611 -0.0455847 -0.054045353 -0.12111993 0.084545545 -0.022340054
0.088111065 0.13117853 0.016766138 0.11451321 -0.070017055 0.13807917 -0.0128872795 0.029809242
-0.124286585 0.10332515 0.024082582 -0.10283725 0.12952209 0.12473894 -0.09659589 -0.08066398
-0.038019452 0.038558323 0.12855597 -0.017855795 0.059585214 0.113893606 0.038005106 -0.01003564
0.026341729 0.13899024 -0.04244873 -0.07968895 -0.0072026094 -0.06868696 0.03409904 -0.031144183
-0.04684276 -0.10378521 -0.03757952 0.0024546073 -0.08966836 0.008043888 0.07045458 0.037251525
-0.015418197 -0.1008219 -0.06338101 0.07252469 -0.07881054 0.13928099 0.07280326 -0.019509962
0.12500891 0.0324009 0.14029717 0.08621074 -0.115212925 0.14012934 -0.0650157 -0.0069381217
0.078101955 0.057034157 0.13546664 0.10040125 -0.049044218 -0.0015700292 0.03896059 0.0622214
0.052205637 -0.11460083 0.018255644 -0.035875045 -0.026513226 0.11345348 0.0052799503 0.04172492
-0.11686567 -0.034329448 -0.038333435 -0.011843359 -0.039120525 -0.07364249 0.121260695 0.07735957
0.03589449 -0.0006041352 -0.061501678 -0.09407337 0.13314708 -0.07965305 0.10627701 0.054305438
-0.105258755 -0.112993576 0.07499506 -0.07329665 -0.12016819 0.097543195 0.14083293 0.12828352
-0.10330606 0.11020479 -0.03691399 0.04067497 -0.087971285 0.020848503 0.12810658 0.030046238
0.13416544 0.0346994 -0.05327693 0.009570758 -0.08665549 0.12504467 -0.014433667 -0.004147701
-0.087527595 -0.032156914 0.023565885 0.06383306 0.01450316 0.07178793 0.11752442 -0.035661638
0.096801564 -0.00225847 -0.11632487 -0.081441954 -0.03337325 0.12008481 -0.06927588 0.07189372
00000000: f3d3 1ebd 97c1 29bd ec34 063e d95c ca3d
00000010: ce21 e43c afa7 f2bc 08d9 453c c7be d3bc
00000020: 2535 a7bc 7fdf 9a3d 80f7 20bc 96fb 33bd
00000030: bd6b 8fbd 87f7 f3bd ad1f ff3d 7086 423d
00000040: 30a8 01be d9d0 093e fcb6 b6bd 54b0 0cbd
00000050: 3aaf 47bd ddab debd 4152 3abd d95b 2339
00000060: 9442 033d 1fef 02be f52a 953d 0ff7 87bd
00000070: 8a0f c9bb 17f4 f43d 12c8 593c 09d2 05be
00000080: 17a8 c5bd 3b87 e83d 7c82 93bd 5ed2 8d3d
00000090: 4479 b23c f277 063e cec4 76bd 0759 0abd
000000a0: cbb4 f23b db62 ec3d 297a 633c 62f3 87bd
000000b0: 9931 913d 8003 ed3d 42c5 ccbd c580 dabd
000000c0: bd77 b23d 3263 f8bb 2b5d a83d 2836 b13d
000000d0: 9d0e fc3d 172e e03d 292b fa3b 4e36 b83d
000000e0: d82b 24bc 5710 bf3d a2ef cabd 5baf f83d
000000f0: dd9b 86bd f130 a43d ba0f 903d 6618 803d
00000100: 6adf 4fbd 1d49 3c3d 08f3 c7bb 2291 a5bd
00000110: 37e3 abbd 45e0 a8bd c460 47bd f5d1 7f3d
00000120: 8d0e 7fbd e886 20bd a93d 993d 1b33 133e
00000130: 2529 b3bd bbbe adbc 81cd 4cbb 4dc0 dc3d
00000140: b233 22bd bb69 66bd cc67 bf3d f698 e2bd
00000150: 4a30 063e 59d8 083a fed6 01bd bdb4 f53d
00000160: a9e2 97bc 6a5a 893d 3ff5 933d fe38 cc3d
00000170: cf38 08be 4bfa 0b3e a53d 66bd b0d0 bdbd
00000180: ce3f 82bd 0ce1 01be 98b7 dabb 4cb8 c5bd
00000190: f68f 52bd 2f81 a23d 92c2 493d aa11 a6bc
000001a0: 7c4a d2bd 9ad0 c5bd 2942 f03d 05e9 8a3d
000001b0: a686 293d 3b7d cd3d 5285 85bd 486a f23c
000001c0: 1dbd ddbd 07cd e8bd dcd3 e13d 1634 51bd
000001d0: 6307 e7bd 6d2d 023c a79a af3d 7f3a 05bd
000001e0: b15d f63d fd7f 0b3e c634 62bd 06b7 3abd
000001f0: a95e 5dbd ba0d f8bd 3726 ad3d 7d02 b7bc
00000200: 9373 b43d aa53 063e 2459 893c e785 ea3d
00000210: 1a65 8fbd a064 0d3e 2b25 53bc 8332 f43c
00000220: f789 febd 239c d33d d648 c53c 569c d2bd
00000230: 70a1 043e 2177 ff3d 11d4 c5bd 2833 a5bd
00000240: 49ba 1bbd 55ef 1d3d 2da4 033e 5146 92bc
00000250: a00f 743d 0d41 e93d 3eab 1b3d 866c 24bc
00000260: 9cca d73c 7553 0e3e b8de 2dbd f633 a3bd
00000270: de03 ecbb c0ab 8cbd 6fab 0b3d 1622 ffbc
00000280: 32de 3fbd 578d d4bd fcec 19bd 7add 203b
00000290: 0ca4 b7bd 83ca 033c 7e4a 903d 0e95 183d
000002a0: 9b9c 7cbc b67b cebd e7cd 81bd d387 943d
000002b0: 6c67 a1bd ad9f 0e3e e019 953d 5bd3 9fbc
000002c0: 5602 003e ceb6 043d 10aa 0f3e 428f b03d
000002d0: c1f4 ebbd 117e 0f3e f426 85bd 2f59 e3bb
000002e0: ebf3 9f3d a69c 693d c4b7 0a3e 2c9f cd3d
000002f0: 97e2 48bd 70c9 cdba 2495 1f3d dedb 7e3d
00000300: 94d5 553d d7b3 eabd dc8c 953c b6f1 12bd
00000310: 4432 d9bc 4c5a e83d 6f03 ad3b c0e7 2a3d
00000320: 4557 efbd 099d 0cbd 8503 1dbd a60a 42bc
00000330: d83c 20bd e0d1 96bd 8757 f83d b26e 9e3d
00000340: 1a06 133d d45e 1eba 2fe9 7bbd 8aa9 c0bd
00000350: b557 083e 2321 a3bd c3a7 d93d 616f 5e3d
00000360: e791 d7bd 2d69 e7bd 0397 993d 8e1c 96bd
00000370: bd1a f6bd bac4 c73d 8236 103e c15c 033e
00000380: 2192 d3bd 0db3 e13d 2033 17bd cc9a 263d
00000390: 4a2a b4bd 7bca aa3c 5f2e 033e 8723 f63c
000003a0: aa62 093e f520 0e3d e938 5abd abce 1c3c
000003b0: 6f78 b1bd b60b 003e 307b 6cbc 70e9 87bb
000003c0: ab41 b3bd f8b6 03bd 3e0d c13c e8ba 823d
000003d0: a99e 6d3c 8d05 933d a5b0 f03d f011 12bd
000003e0: e63f c63d d702 14bb bc3b eebd 0acb a6bd
000003f0: 64b2 08bd 06ef f53d 83e0 8dbd 043d 933d

down_blocks.2.conv2.bias f4 [16]
-0.00021464578 0.00131445 -0.00016208416 0.00031857603 0.00016086418 5.3985943e-05 -0.00010508995 -0.000307544
0.0005738706 -0.0003993155 -0.00040514077 -0.00022987503 -0.00039585697 -0.00042312953 0.0001512783 0.00030739978
00000000: 8a12 61b9 a049 ac3a 23f5 29b9 8d06 a739
00000010: a6ad 2839 f76e 6238 bd63 dcb8 db3d a1b9
00000020: ce6f 163a 385b d1b9 1369 d4b9 9c0a 71b9
00000030: 068b cfb9 7cd7 ddb9 76a0 1e39 802a a139

down_blocks.2.norm1.weight f4 [16]
1.0006502 0.9988619 0.9996164 1.0008684 0.99892616 0.99967355 1.0001737 0.9974428
0.99881804 0.99976766 1.001658 1.0001386 1.0009265 1.0008825 1.0004003 1.0011761
00000000: 4e15 803f 6ab5 7f3f dce6 7f3f 751c 803f
00000010: a0b9 7f3f 9bea 7f3f b105 803f 6958 7f3f
00000020: 8ab2 7f3f c6f0 7f3f 5436 803f 8b04 803f
00000030: 5c1e 803f eb1c 803f 1e0d 803f 8a26 803f

down_blocks.2.norm1.bias f4 [16]
-0.00047936544 -0.00069880916 -0.00038570818 0.00018166823 0.00028241778 0.0006160552 -0.00032043504 0.0003227907
-0.00026423173 0.0002181154 -0.0003504448 0.00051122985 0.00045406658 0.000836405 0.000991823 -0.0003113579
00000000: 5753 fbb9 4a30 37ba e038 cab9 327e 3e39
00000010: 7911 9439 c47e 213a 1000 a8b9 3c3c a939
00000020: 9588 8ab9 e8b5 6439 e8bb b7b9 0e04 063a
00000030: c90f ee39 3042 5b3a 0f00 823a c03d a3b9

down_blocks.2.norm1.running_mean f4 [16]
0.27811882 0.18785544 0.37080342 0.34618223 0.33737344 0.3199852 0.36258358 0.20308945
0.3098788 0.43551543 0.39487803 0.13523732 0.16493943 0.22137661 0.39557126 0.15633148
00000000: 9765 8e3e 2d5d 403e f2d9 bd3e cc3e b13e
00000010: 36bc ac3e 1ad5 a33e 8ea4 b93e aef6 4f3e
00000020: 6fa8 9e3e e1fb de3e 742d ca3e a77b 0a3e
00000030: e2e5 283e 8db0 623e 5188 ca3e 5c15 203e

down_blocks.2.norm1.running_var f4 [16]
0.14991105 0.11717507 0.19951394 0.43860725 0.5568192 0.21933544 0.23860937 0.20819376
0.20149146 0.344125 0.25755325 0.13179237 0.22091098 0.16580798 0.32474455 0.06768975
00000000: 4882 193e 7cf9 ef3d 624d 4c3e 2191 e03e
00000010: b48b 0e3f 7899 603e 0456 743e bf30 553e
00000020: c753 4e3e 2731 b03e 05de 833e 94f4 063e
00000030: 7d36 623e 91c9 293e eb44 a63e eca0 8a3d

down_blocks.2.norm2.weight f4 [16]
0.99969846 0.99739033 1.0012832 1.000951 1.0014938 1.0007937 1.0002122 0.9977562
0.9994795 1.0014116 1.000494 0.99993485 0.9981168 1.0014201 1.0006262 1.0005004
00000000: 3dec 7f3f f954 7f3f 0c2a 803f 2a1f 803f
00000010: f330 803f 021a 803f f406 803f f36c 7f3f
00000020: e3dd 7f3f 412e 803f 3010 803f bbfb 7f3f
00000030: 9584 7f3f 892e 803f 8514 803f 6610 803f

down_blocks.2.norm2.bias f4 [16]
-0.00012191196 0.00012365295 -0.00039585924 -0.00028466922 0.0007981164 0.00015068919 0.00017298777 0.0003450344
-0.00021934355 0.00040247804 0.00028899158 -0.0007552748 4.0161063e-05 0.0001710203 0.00045344702 -0.000120699435
00000000: fcaa ffb8 d6a8 0139 548b cfb9 a83f 95b9
00000010: af38 513a 5202 1e39 0d64 3539 bce5 b439
00000020: 96ff 65b9 b003 d339 cb83 9739 a2fd 45ba
00000030: 9d72 2838 ea53 3339 a1bc ed39 0420 fdb8

down_blocks.2.norm2.running_mean f4 [16]
0.3277759 0.36082774 0.3723684 0.37357363 0.3590237 0.31797037 0.3626631 0.38506463
0.34585968 0.4259204 0.351308 0.36648682 0.3445362 0.41903716 0.35175416 0.42107025
00000000: 3ed2 a73e 6abe b83e 12a7 be3e 0b45 bf3e
00000010: f4d1 b73e 03cd a23e faae b93e 3127 c53e
00000020: 8514 b13e 3d12 da3e a4de b33e 29a4 bb3e
00000030: 0c67 b03e 0a8c d63e 1f19 b43e 8596 d73e

down_blocks.2.norm2.running_var f4 [16]
0.2980049 0.39292014 0.3125528 0.34255078 0.32011828 0.23211654 0.2680783 0.38831002
0.345129 0.341615 0.2723097 0.25271234 0.25145528 0.44774517 0.30042 0.4931511
00000000: 1994 983e d42c c93e ec06 a03e d162 af3e
00000010: 8be6 a33e f5af 6d3e 8f41 893e 92d0 c63e
00000020: c0b4 b03e 29e8 ae3e 2d6c 8b3e 8363 813e
00000030: bfbe 803e db3e e53e a6d0 993e 4d7e fc3e

down_blocks.3.conv1.weight f4 [32, 16, 3, 3]
-0.09023947 -0.07951682 -0.07656674 0.006719061 0.03433573 0.023443338 0.10027439 -0.04367163
-0.09849903 -0.0760529 -0.06873414 -0.0036741323 0.05772299 0.11052985 0.024620084 -0.06774987
-0.08749102 0.04350623 0.07519264 0.08355834 0.090171315 -0.0567079 -0.050279304 0.023182718
0.017905738 0.020393325 -0.074365176 0.090746745 -0.056169838 0.09002927 0.11515492 0.029040784
-0.11096952 0.01568947 0.053440128 0.082232736 0.0751344 0.010136458 0.089296825 0.059519626
0.06591137 0.058397222 -0.019536737 0.015768329 -0.089866504 0.09912431 -0.1038398 0.08997884
-0.06102424 -0.094316415 -0.07035783 -0.031843465 -0.064757235 -0.001613492 -0.112113826 -0.041616805
-0.05601885 -0.10142492 0.03088879 -0.03060065 -0.047728263 -0.08442085 0.06853676 -0.054785974
0.11247264 0.026862808 0.10791289 0.114935696 -0.07113072 0.10054488 -0.060872737 0.087774575
-0.10362475 -0.012439749 -0.07419312 -0.07535998 -0.101003 -0.069715746 0.014396127 -0.11242957
0.008862632 0.096753106 -0.117099136 0.056031175 0.105401754 -0.06921844 0.02489433 -0.07720686
0.08261043 -0.061767433 -0.023314537 -0.04691126 -0.10816803 0.032101836 -0.11006358 -0.06745697
-0.06441493 0.08429433 -0.06274855 0.048150104 0.013965432 0.051938415 0.0028076512 -0.1025876
-0.010397279 -0.07407905 -0.05966742 0.010028597 0.117052935 -0.082516484 0.043411065 0.037049826
-0.019349456 0.078852795 0.056174483 0.063302465 0.11531032 -0.058828894 -0.011578781 -0.03840919
-0.050215755 -0.104372375 -0.04202233 -0.08273882 0.027389817 0.045447253 0.03704928 -0.008040059
0.11186843 -0.007903055 -0.07212772 0.02319994 -0.06582458 -0.045151524 0.07961712 0.054144144
-0.0887221 0.008587928 0.042845037 -0.07091266 0.04116388 0.010832753 0.09709797 0.053105913
-0.08062697 0.040380877 -0.11166521 0.05112463 -0.015735658 -0.029063515 0.052542537 -0.045353215
0.11225258 0.08925624 -0.01685283 -0.1085919 0.08589918 -0.009810054 -0.0041759084 0.07574791
-0.02764551 -0.022374522 -0.040891495 -0.055409834 0.11165517 0.1124811 -0.03141725 0.09385114
-0.10105436 0.03147402 -0.04401447 -0.10459224 -0.05588978 -0.068939164 0.07284597 -0.0204038
0.10128313 -0.1166108 -0.06605446 -0.1062248 -0.10734554 0.011553807 -0.0907883 -0.11712467
0.08746264 -0.06967121 0.095458634 0.09010614 -0.042244244 -0.05112667 -0.06730678 -0.071269564
-0.07276369 0.037245188 -0.05427371 0.0980114 0.013545655 -0.085894994 -3.9650135e-05 -0.037045535
-0.088747695 -0.046594422 -0.01634732 -0.011117939 -0.009146659 -0.008889144 0.057733983 -0.083238795
0.109999835 0.015068129 0.06033061 -0.032489926 -0.10870517 0.045382455 0.06554586 -0.036048252
0.046421524 0.08720453 0.008970207 0.04756015 0.0067531955 -0.07133374 -0.017340079 0.08385188
-0.040188175 -0.02883166 -0.03378144 0.011600117 0.050337348 0.08454385 -0.10699852 -0.10797385
0.058648217 0.06370368 0.044294257 -0.0941855 -0.02573542 -0.038515 0.012657395 -0.1005682
-0.07937012 0.04556202 -0.08269866 -0.039841168 -0.040484253 0.011692123 0.05273847 0.069876924
0.013556598 -0.10659204 0.038796037 0.063341245 -0.05970233 -0.04428838 0.095822066 0.10308244
00000000: 79cf b8bd b7d9 a2bd 06cf 9cbd 922b dc3b
00000010: 9fa3 0c3d 3e0c c03c a95c cd3d 06e1 32bd
00000020: dcb9 c9bd 9fc1 9bbd 7cc4 8cbd b6c9 70bb
00000030: f16e 6c3d 795d e23d 0fb0 c93c 72c0 8abd
00000040: 7e2e b3bd 9733 323d 99fe 993d a320 ab3d
00000050: bdab b83d 8b46 68bd acf1 4dbd afe9 bd3c
00000060: 0eaf 923c e70f a73c c54c 98bd 6ed9 b93d
00000070: 5812 66bd 4461 b83d 58d6 eb3d f0e6 ed3c
00000080: fd43 e3bd 3487 803c 09e4 5a3d a369 a83d
00000090: 10e0 993d 6313 263c 41e1 b63d daca 733d
000000a0: 8afc 863d ed31 6f3d 820b a0bc 952c 813c
000000b0: ee0b b8bd b001 cb3d f6a9 d4bd d346 b83d
000000c0: 8ef4 79bd f728 c1bd c417 90bd 4b6e 02bd
000000d0: 719f 84bd cf7b d3ba ef9b e5bd 6276 2abd
000000e0: 0674 65bd deb7 cfbd 7d0a fd3c 37ae fabc
000000f0: b67e 43bd d7e4 acbd 005d 8c3d 4267 60bd
00000100: 0e58 e63d 640f dc3c 6f01 dd3d 6863 eb3d
00000110: fcac 91bd 79ea cd3d b155 79bd 28c3 b33d
00000120: 3739 d4bd 17d0 4bbc 90f2 97bd 5556 9abd
00000130: a9da cebd 21c7 8ebd bcdd 6b3c 7941 e6bd
00000140: 9334 113c 7e26 c63d acd1 efbd f280 653d
00000150: e0dc d73d 66c2 8dbd 32ef cb3c a11e 9ebd
00000160: a82f a93d d9ff 7cbd 21fe bebc 0526 40bd
00000170: 3387 ddbd 377d 033d 0469 e1bd e126 8abd
00000180: faeb 83bd 81a2 ac3d 5082 80bd 0b39 453d
00000190: 44cf 643c 60bd 543d 9200 383b 7319 d2bd
000001a0: 5959 2abc c2b6 97bd d365 74bd fc4e 243c
000001b0: 73b9 ef3d 67fe a8bd cdcf 313d 8fc1 173d
000001c0: c082 9ebc 937d a13d 3717 663d b9a4 813d
000001d0: d127 ec3d 91f6 70bd edb4 3dbc f452 1dbd
000001e0: 09af 4dbd 2fc1 d5bd 9b1f 2cbd f872 a9bd
000001f0: 9c60 e03c e626 3a3d fcc0 173d 74ba 03bc
00000200: 471b e53d d17b 01bc b3b7 93bd cd0d be3c
00000210: 0acf 86bd cef0 38bd 4d0e a33d 40c6 5d3d
00000220: efb3 b5bd 61b4 0c3c 477e 2f3d a83a 91bd
00000230: 759b 283d dc7b 313c 4ddb c63d 9685 593d
00000240: c11f a5bd 6b66 253d bbb0 e4bd 0f68 513d
00000250: 11e8 80bc 9c16 eebc d836 573d 4bc4 39bd
00000260: aee4 e53d facb b63d f20e 8abc 6e65 debd
00000270: e9eb af3d 59ba 20bc 0fd6 88bb b821 9b3d
00000280: d678 e2bc c64a b7bc d77d 27bd 6cf5 62bd
00000290: 77ab e43d 7e5c e63d 60af 00bd 0735 c03d
000002a0: 97f5 cebd e7ea 003d 8448 34bd 7534 d6bd
000002b0: afec 64bd fa2f 8dbd 4530 953d df25 a7bc
000002c0: 886d cf3d a5d1 eebd 9047 87bd 638c d9bd
000002d0: fad7 dbbd 2e4c 3d3c 37ef b9bd 0fdf efbd
000002e0: 9d1f b33d c8af 8ebd d17f c33d 9189 b83d
000002f0: 4d08 2dbd 336a 51bd 23d8 89bd c7f5 91bd
00000300: 2105 95bd 698e 183d 1c4e 5ebd 33ba c83d
00000310: 98ee 5d3c b7e9 afbd 024e 26b8 0fbd 17bd
00000320: 5ac1 b5bd cbd9 3ebd d1ea 85bc 0428 36bc
00000330: dedb 15bc c6a3 11bc 787a 6c3d 1a79 aabd
00000340: 9847 e13d 50e0 763c 3b1d 773d 2814 05bd
00000350: d1a0 debd f4e2 393d e83c 863d 55a7 13bd
00000360: 7f24 3e3d 4a98 b23d c6f7 123c 6fce 423d
00000370: e949 dd3b 6d17 92bd c80c 8ebc 89ba ab3d
00000380: 5b9c 24bd 6030 ecbc 685e 0abd 6b0e 3e3c
00000390: 892e 4e3d 5325 ad3d 0a22 dbbd 6521 ddbd
000003a0: 1d39 703d 1377 823d e56d 353d 54e4 c0bd
000003b0: 16d3 d2bc e8c1 1dbd f660 4f3c b3f6 cdbd
000003c0: cd8c a2bd 3e9f 3a3d ea5d a9bd 7e30 23bd
000003d0: d1d2 25bd 5190 3f3c 4b04 583d a21b 8f3d
000003e0: 7e1c 5e3c ed4c dabd 98e8 1e3d 0eb9 813d
000003f0: 6e8a 74bd bb67 35bd 5c3e c43d e31c d33d

down_blocks.3.conv1.bias f4 [32]
0.00014136915 -0.00020294753 8.623823e-05 0.00017910404 -0.0002485339 0.0001835796 -3.7861369e-06 -2.9934432e-07
-8.156336e-05 8.847401e-05 0.00016227053 -8.253968e-05 -0.00021866246 -0.00019210702 5.610609e-06 0.00021123537
0.00011774502 -0.000244603 0.00021207641 -4.4614233e-05 -0.00021258304 -0.00013191787 -9.2293085e-05 -1.0592669e-05
4.7998714e-05 -0.000117923635 0.00013731925 7.972981e-05 1.3355803e-05 0.000114301496 -7.697176e-05 7.7555786e-05
00000000: 7e3c 1439 50ce 54b9 ccda b438 e0cd 3b39
00000010: a84d 82b9 467f 4039 5615 7eb6 92b5 a0b4
00000020: ff0c abb8 1f8b b938 2a27 2a39 2719 adb8
00000030: c248 65b9 5670 49b9 c442 bc36 107f 5d39
00000040: e0ed f638 0f3e 80b9 d460 5e39 2b20 3bb8
00000050: d3e8 5eb9 6f53 0ab9 798d c1b8 2bb7 31b7
00000060: 3a52 4938 c54d f7b8 5bfd 0f39 9e34 a738
00000070: bd12 6037 26b5 ef38 e66b a1b8 72a5 a238

down_blocks.3.conv2.weight f4 [32, 32, 3, 3]
-0.026203066 -0.00856189 0.053735603 0.0031749364 -0.048694894 0.08481476 -0.008811718 0.08831039
-0.09568327 0.026116686 0.03878848 -0.09592648 -0.04978624 0.058266636 -0.03790542 -0.0012210887
-0.08959156 0.060459223 0.04512911 -0.009935775 0.045610294 0.066664636 0.015705789 -0.0019865322
-0.021823784 -0.09124608 -0.09299387 -0.017377486 -0.044570435 -0.068541385 -0.09499333 -0.049774334
0.03878505 0.091379605 0.039745864 -0.016768524 0.063326105 0.08002437 -0.011649659 0.054927066
-0.0390527 -0.011612546 -0.018326828 -0.06446151 -0.0873992 -0.046691123 -0.019805511 -0.05736193
0.09345027 -0.0652904 0.0115289455 0.09200558 0.08112485 0.05999147 -0.01613506 -0.058869366
0.07760043 0.08694047 -0.094187975 0.08695197 0.030352622 -0.07938389 0.044960808 -0.035858616
0.05092559 -0.033751182 0.05827496 -0.06427314 -0.061167996 0.04103697 0.03032044 0.08622128
-0.058605682 -0.029806264 -0.03276719 0.078832425 -0.042255662 0.04448614 0.048788853 0.097749256
-0.062824585 -0.09835939 -0.063815795 0.06395521 0.033043344 -0.07592448 -0.0075328154 -0.0021059827
0.09240924 -0.0011402594 -0.046658047 0.081832446 0.003840907 0.021277854 -0.05065447 0.082499474
0.006488864 0.0138607435 0.041661836 -0.007938767 -0.093367904 0.06664239 0.0026397428 -0.03672936
-0.05126527 0.030445728 0.023230152 -0.07559363 0.026642162 -0.086847864 0.05549521 0.07474449
-0.009719595 0.08493716 -0.018498018 -0.09835885 -0.09782539 0.001833683 -0.09382401 -0.01819646
0.0030901486 0.052909683 -0.095729746 -0.09790062 0.06654785 0.077824265 -0.035463996 -0.08449074
-0.07954576 -0.0052303826 0.024763336 0.07022582 -0.03556653 -0.0746579 -0.03035127 -0.017743994
-0.0042578476 0.09829907 0.060072836 -0.023367345 0.020116895 0.058757395 0.023535669 0.045714136
0.024013828 -0.039042015 0.029622301 0.07705758 0.09718466 0.0777717 -0.09203139 0.013522453
0.043220755 -0.06330587 -0.096912175 0.07311484 -0.071142405 -0.046612117 -0.04564301 0.10088885
-0.07294677 -0.043791957 0.038965702 0.08621448 0.06509271 -0.07801679 -0.012405466 -0.07657012
0.0809879 0.0763218 0.04059881 -0.09143975 -0.015298798 -0.070514835 -0.079478875 0.010747291
-0.08229501 -0.050225373 0.029449651 -0.034768824 -0.09279815 0.062911116 0.09388886 -0.025369013
-0.032488696 -0.03952763 -0.09363722 0.07725199 0.027610715 0.076864645 0.09454735 -0.029926239
0.046378177 0.029639147 -0.07577309 0.101061 0.03598101 -0.09607812 0.0039570476 -0.023320355
-0.024595957 0.04446394 -0.023496574 -0.006405623 -0.0818389 -0.09812252 -0.022963986 -0.06611462
0.02257208 0.07168762 0.052061424 -0.06700672 -0.041795958 0.0739972 0.039405856 0.024419593
-0.06885461 -0.07162683 -0.03429165 -0.09385821 -0.0067767287 -0.05152399 0.035649206 0.08276485
0.09371122 0.0154118035 -0.066097066 0.035245236 0.07356794 -0.04720861 -0.05031913 0.08399895
-0.046831116 -0.0035975485 0.04653644 -0.075625814 -0.06643711 -0.03354409 0.038902838 0.014531003
-0.03714274 0.055550665 0.08327105 -0.10024272 -0.0062751686 -0.09097808 0.033513103 0.027830038
0.04480338 0.08788555 0.063059375 0.08887165 0.006507998 -0.00044320917 -0.025322637 0.03337354
00000000: d0a7 d6bc 2b47 0cbc dd19 5c3d 9812 503b
00000010: 4c74 47bd 5cb3 ad3d 065f 10bc 14dc b43d
00000020: 97f5 c3bd a9f2 d53c abe0 1e3d 1a75 c4bd
00000030: a8ec 4bbd ffa8 6e3d b742 1bbd f00c a0ba
00000040: c87b b7bd 17a4 773d 4dd9 383d a9c9 22bc
00000050: dcd1 3a3d 7887 883d 6da9 803c 7b30 02bb
00000060: cbc7 b2bc 3adf babd 9273 bebd 3b5b 8ebc
00000070: 7d8f 36bd 6d5f 8cbd dd8b c2bd 2ce0 4bbd
00000080: 13dd 1e3d 3b25 bb3d 8fcc 223d 255e 89bc
00000090: 1eb1 813d d1e3 a33d 36de 3ebc 34fb 603d
000000a0: b9f5 1fbd 8c42 3ebc 2522 96bc 6504 84bd
000000b0: 5afe b2bd 313f 3fbd 2b3f a2bc 58f4 6abd
000000c0: db62 bf3d f9b6 85bd e7e3 3c3c 6c6d bc3d
000000d0: c924 a63d 9eb9 753d ac2d 84bc 0121 71bd
000000e0: f9ec 9e3d d80d b23d a0e5 c0bd e013 b23d
000000f0: 10a6 f83c 0594 a2bd d328 383d 7ce0 12bd
00000100: 5a97 503d ae3e 0abd b9b1 6e3d a3a1 83bd
00000110: 4b8b 7abd 6216 283d 9262 f83c c894 b03d
00000120: 830c 70bd 442c f4bc e436 06bd e572 a13d
00000130: 4614 2dbd 1937 363d d2d6 473d c330 c83d
00000140: 2daa 80bd a670 c9bd dbb1 82bd f3fa 823d
00000150: 7558 073d 4b7e 9bbd d6d5 f6bb 8704 0abb
00000160: 0e41 bd3d c274 95ba 821c 3fbd c597 a73d
00000170: bab7 7b3b e54e ae3c 107b 4fbd 7cf5 a83d
00000180: 89a0 d43b 2c18 633c 9aa5 2a3d 9a11 02bc
00000190: ac37 bfbd ce7b 883d 89ff 2c3b 8771 16bd
000001a0: 88fb 51bd 5269 f93c 294d be3c d5d0 9abd
000001b0: aa40 da3c 4bdd b1bd f24e 633d a413 993d
000001c0: f03e 1fbc 89f3 ad3d 2889 97bc 5d70 c9bd
000001d0: ae58 c8bd 3158 f03a cd26 c0bd be10 95bc
000001e0: 1784 4a3b d3b7 583d f50d c4bd 1f80 c8bd
000001f0: 3d4a 883d 5462 9f3d b242 11bd 7b09 adbd
00000200: e3e8 a2bd a163 abbb 7bdc ca3c 8ed2 8f3d
00000210: 36ae 11bd 3ee6 98bd 3aa3 f8bc da5b 91bc
00000220: 6a85 8bbb 0651 c93d ef0e 763d e06c bfbc
00000230: 30cc a43c 98ab 703d e0cd c03c bf3e 3b3d
00000240: a6b8 c43c 85ea 1fbd 78aa f23c 5dd0 9d3d
00000250: c008 c73d c546 9f3d f47a bcbd 478d 5d3c
00000260: 3f08 313d 82a6 81bd e479 c6bd 3cbd 953d
00000270: 1cb3 91bd 59ec 3ebd 2af4 3abd d09e ce3d
00000280: 1e65 95bd 325f 33bd 809a 1f3d 3891 b03d
00000290: 544f 853d 44c7 9fbd 4c40 4bbc ccd0 9cbd
000002a0: fcdc a53d 9b4e 9c3d f04a 263d c344 bbbd
000002b0: cfa7 7abc 156a 90bd d2c5 a2bd 6815 303c
000002c0: 498a a8bd 1fb9 4dbd 6540 f13c c169 0ebd
000002d0: f50c bebd 8bd7 803d cd48 c03d add2 cfbc
000002e0: de12 05bd b9e7 21bd dfc4 bfbd 4b36 9e3d
000002f0: de2f e23c 366b 9d3d 0ba2 c13d df27 f5bc
00000300: 0bf7 3d3d cccd f23c ec2e 9bbd 12f9 ce3d
00000310: d360 133d 9bc4 c4bd 1faa 813b 540a bfbc
00000320: 767d c9bc d21f 363d e37b c0bc 43e6 d1bb
00000330: 279b a7bd 76f4 c8bd f81e bcbc 1a67 87bd
00000340: 15e9 b83c f5d0 923d 5c3e 553d d23a 89bd
00000350: 3d32 2bbd d88b 973d 0968 213d 990b c83c
00000360: a503 8dbd 16b1 92bd 6775 0cbd bc38 c0bd
00000370: 520f debb d20a 53bd e704 123d 9e80 a93d
00000380: abeb bf3d ca81 7c3c e65d 87bd 4f5d 103d
00000390: caaa 963d d15d 41bd 6f1b 4ebd a407 ac3d
000003a0: fcd1 3fbd d9c4 6bbb fe9c 3e3d b5e1 9abd
000003b0: 2e10 88bd 8765 09bd 9558 1f3d 7213 6e3c
000003c0: fc22 18bd 1889 633d 038a aa3d 0e4c cdbd
000003d0: ee9f cdbb b752 babd 0945 093d d2fb e33c
000003e0: c083 373d 57fd b33d 4625 813d 5702 b63d
000003f0: 0b41 d53b 875e e8b9 6b71 cfbc b1b2 083d
