Models/9a12743d-2682-4347-8e8c-96501e78114b.pt (torch, 167235 bytes, 110 tensors)

conv_final.weight f4 [2, 4, 1, 1]
000000 0a 6f 92 bf c5 94 47 be e9 31 be 3d da 6e 5a bf
       -1.1440136 -0.19490345 0.09286863 -0.85325396
000010 58 40 82 3f 6b 19 97 3f 94 b8 1b 3f 53 49 4d bf
       1.0175886 1.1804632 0.6082852 -0.8019001

conv_final.bias f4 [2]
000000 e4 a0 3f 3f e5 a0 3f bf
       0.74854875 -0.7485488

down_blocks.0.conv1.weight f4 [4, 8, 3, 3]
000000 3c b1 30 bd d7 04 3e 3d 59 0a 1e 3d 26 9f df 3d
       -0.043137774 0.046391334 0.038584087 0.10919027
000010 f9 e3 15 be bd 9a 36 3e 55 b6 71 3d 4d 6b 55 be
       -0.14637746 0.17832465 0.059011776 -0.20841713
000020 4e 8d ee bd 73 26 85 3d 6a c0 4e be ff 0c f7 bd
       -0.116480455 0.06501474 -0.20190588 -0.12063026
000030 2a fe 00 3e 97 72 92 bd e7 75 7b bd 82 da b3 bd
       0.12596956 -0.071507625 -0.061391737 -0.087819114
000040 c0 18 16 3d b4 18 aa bc f1 13 57 3e 81 54 3b bc
       0.036644697 -0.020763732 0.21003701 -0.0114337215
000050 c2 d1 2d bc 67 20 6e be 5c d5 2e be a3 aa 28 be
       -0.010609092 -0.23254548 -0.17073578 -0.16471343
000060 45 72 2e be 04 f6 96 3c ea 84 b8 3d 9c 66 c4 3d
       -0.17035778 0.018427856 0.09009726 0.09589884
000070 2d 10 03 be 5f 43 b1 bd 24 89 97 bd 8f ab a1 bd
       -0.1279914 -0.08655428 -0.073992044 -0.0789405
000080 6c af 95 3d 43 6d 59 3e 47 b7 e7 bd 7f 23 af 3b
       0.0730885 0.21233086 -0.11314254 0.0053448076
000090 01 75 61 3e 3a 2a ab bc 6b 47 ee 3d b1 3e 4c be
       0.2201729 -0.020894159 0.11634716 -0.1994579
0000a0 4c 12 ed 3b c7 bf 07 3e aa 67 9d bd 58 46 38 3e
       0.007234847 0.13256751 -0.07685788 0.17995584
0000b0 92 9c a1 3d 56 c4 18 3d 10 f7 f1 bb 1a 25 e6 bb
       0.078911915 0.037296616 -0.0073841885 -0.007023466
0000c0 c3 12 61 3e e2 66 0f 3e 80 dc 46 3e 08 1e 70 bc
       0.21979813 0.1400409 0.19420052 -0.0146555975
0000d0 9d 79 2d 3e 56 98 97 3d b9 66 1a be df 34 1b 3d
       0.16940923 0.07402103 -0.15078248 0.03789222
0000e0 9e aa 39 3e 17 ba e2 bd 8d d5 e1 bd 4f 6d 69 bd
       0.18131492 -0.1107065 -0.1102706 -0.05698901
0000f0 c1 49 2a 3e 24 1e 0e 3e 49 9b 1e 3e 3a a2 4a bb
       0.16629697 0.13878685 0.15488924 -0.0030919448
000100 b6 a4 9d 3d 88 46 48 be 8d 79 a0 bd ab 35 f3 bd
       0.07697432 -0.19558156 -0.07835684 -0.11875471
000110 3d 00 10 3e 66 15 ab 3d 3a be c7 bc 82 78 f4 3d
       0.14062591 0.08353691 -0.0243827 0.119370475
000120 90 4b 11 bd 0c 79 2b bc a8 d5 39 bd cb f4 72 3c
       -0.035472453 -0.010465872 -0.045369774 0.014828871
000130 6d b8 77 3e 88 76 d2 3b 7e 45 c2 bd d6 34 93 bd
       0.24191447 0.0064228214 -0.09485911 -0.07187812
000140 ce 29 3b 3e fc 06 1e 3d c8 e6 fe bd bf a1 fc bd
       0.18277666 0.03858088 -0.12446362 -0.12335538
000150 b4 95 25 3e 31 05 2a be 51 1e 3f be bc 24 8e bd
       0.16170388 -0.16603543 -0.18663909 -0.069406
000160 a0 80 00 3d bf 0d 00 3e 1f 61 b6 3b 7b 3f 61 be
       0.031372666 0.12505244 0.005565777 -0.21996872
000170 26 e8 52 3e 94 5e e3 bd 2c 32 fd bc a3 84 6d 3d
       0.2059637 -0.11102024 -0.030907713 0.05798782
000180 a6 38 6d 3e 51 cf b8 3c 76 e7 52 bd ae a8 51 3e
       0.23166141 0.022559794 -0.05149027 0.20474502
000190 91 4e 0a 3e 24 64 7f bd ca f5 80 3c b0 6d 4b 3d
       0.13506533 -0.06235136 0.015742201 0.049665153
0001a0 1f fc 0d 3e ea e0 1f 3e 39 50 1e be b3 ba 1d 3a
       0.13865708 0.15613142 -0.1546029 0.0006016895
0001b0 c6 03 84 3d 17 5e c5 bc be 76 3d 3e a5 2e 49 3d
       0.06446032 -0.024092717 0.18502328 0.04911675
0001c0 3f 06 73 bd 77 73 0f 3d a9 0d 2a be fc 1a cd bd
       -0.05933213 0.035022225 -0.16606773 -0.100149125
0001d0 b6 33 26 3e 74 a2 ad bd 2e ec 75 bd b4 5b 71 3c
       0.16230664 -0.08478251 -0.06003969 0.014731336
0001e0 05 c8 10 3e 47 42 d4 bd 0e 60 17 be d4 da 11 3e
       0.14138801 -0.10364204 -0.14782736 0.14243633
0001f0 54 97 56 be ca e4 03 3e e8 61 81 b9 61 bc 11 3e
       -0.20956165 0.12880245 -0.00024677743 0.14232017
000200 f4 99 98 3d 5b fb 6d be 22 f1 dd bc 1c 15 c2 3d
       0.07451239 -0.23240416 -0.02709252 0.094766825
000210 86 02 83 3d c1 23 b6 3d fb c6 eb bd 30 ee 1c be
       0.06396966 0.08893538 -0.11512562 -0.15325236
000220 26 de 63 3e 41 5c e7 bd 7b 1a 33 bd 81 69 02 3e
       0.22252712 -0.11296893 -0.043726426 0.12735559
000230 c3 a2 15 bb 70 2f 11 3e 6b b0 72 3e 53 44 25 bd
       -0.002283261 0.14178252 0.2370011 -0.040348362
000240 94 3c 32 3e 40 23 0b be 4b 5a 99 bb ee 2e 2e 3e
       0.17405921 -0.13587666 -0.004679953 0.1701009
000250 77 f8 83 be 08 b7 af 3d 48 e0 bf bb e1 2d e8 3d
       -0.257755 0.08579832 -0.005855594 0.11336876
000260 56 d2 74 be 4a 10 34 be 45 03 04 3e 20 d2 a6 bc
       -0.23908362 -0.17584339 0.12891872 -0.020363867
000270 42 b9 80 be b2 ef 4c be 69 68 3b be 07 a4 58 be
       -0.2514134 -0.20013312 -0.18301548 -0.21156321
000280 9a 3a a0 3d c8 09 bd bb 30 95 15 be 31 f8 18 3e
       0.07823677 -0.0057689883 -0.14607692 0.14938428
000290 46 03 05 be f2 7a 58 be 26 8c 44 be ee fa 0c be
       -0.1298953 -0.2114065 -0.19194087 -0.13767597
0002a0 e1 4a 13 3d c9 71 37 be 29 83 19 bd 03 c2 f3 3d
       0.035960082 -0.179145 -0.0374786 0.11902239
0002b0 80 08 9a 3d 7a 2f db 3d 6f 52 4d 3d ab 5f dc bb
       0.075211525 0.10702415 0.050127443 -0.0067252717
0002c0 40 01 78 bd 66 8c 9f 3c f1 a7 ab 3c ac 96 3e 3e
       -0.060548067 0.019476127 0.020954104 0.18612164
0002d0 04 63 a0 3c d2 15 6d be 52 dd 8d bd c9 9e ee bd
       0.019578464 -0.23152855 -0.06926979 -0.116513796
0002e0 0e ed 4f 3e 1a e9 2d 3e 0b 1d 02 be 05 2c ff 3d
       0.20305273 0.16983452 -0.12706392 0.12459568
0002f0 41 ee c8 3c 7f c1 4a be 49 6c 0e 3e 5a aa 37 3c
       0.02452767 -0.19800375 0.13908495 0.011210049
000300 40 3d 8c bd 17 c1 68 3e 76 73 a6 bd f0 55 0a 3e
       -0.0684762 0.22729908 -0.08127491 0.13509345
000310 29 56 14 be bd 97 36 be 00 f6 e8 3d ac 93 98 bc
       -0.14485992 -0.17831321 0.11375046 -0.018625103
000320 7c 86 ff 3d 86 89 73 3c 6d 99 7c be da 81 72 be
       0.12476823 0.014864331 -0.24667902 -0.23682347
000330 de 34 1c be 0e 0e 85 bd 23 89 09 3e 19 1e f5 3c
       -0.15254542 -0.06496821 0.1343122 0.029921578
000340 0f 75 fc bd 87 4d 3b 3d 4d db f2 3d b8 52 16 3d
       -0.12327015 0.045728233 0.118582346 0.03669998
000350 9c 49 22 3e 92 e3 85 3d ab 24 5e 3e 0c ea 71 bd
       0.15848392 0.06537546 0.21693675 -0.059061095
000360 b5 37 af 3d 21 ec 09 bd 95 aa 11 3e f8 27 fe bd
       0.08555547 -0.033672456 0.14225228 -0.12409967
000370 77 f6 72 be 65 92 39 be 79 df e5 3d 36 2c 16 bc
       -0.23726831 -0.18122251 0.11224265 -0.009165814
000380 73 d3 3e 3e 13 2d 45 be 80 63 2d 3b 25 83 40 3e
       0.18635349 -0.19255476 0.0026457012 0.18800028
000390 e4 d2 88 bc 57 0c d0 bc 7f f5 1c be 7a 03 91 bc
       -0.016702123 -0.02539651 -0.15328024 -0.017701853
0003a0 1f 21 ee bd 15 15 2a bc 0c 33 e7 bd 8a 64 5c 3e
       -0.11627411 -0.010381003 -0.11289033 0.21522728
0003b0 4a 6e 59 bd 00 f3 37 3e 37 bc 2b 3e d9 64 23 be
       -0.053083695 0.17963791 0.16771017 -0.15956439
0003c0 15 a5 66 be d2 d5 51 be 97 46 12 be c0 bb da bc
       -0.22523911 -0.20491722 -0.1428474 -0.026700854
0003d0 81 dd 29 be da d8 24 3c f2 62 88 bb c5 8a 2d 3e
       -0.16588403 0.010061467 -0.004162186 0.16947468
0003e0 5c 38 6d 3e 9b 82 54 be cd ae 20 3d fc a3 ea 3d
       0.2316603 -0.20752947 0.039229203 0.11457059
0003f0 a4 7b 95 bd 2d b9 2e 3e 9c 4d 6a 3c 47 fa 57 be
       -0.07298973 0.17062826 0.01430073 -0.21091567

down_blocks.0.conv1.bias f4 [4]
000000 ef 81 55 bc c8 75 41 3b 6c df 7e 3e a5 14 19 bd
       -0.013031467 0.0029519666 0.24889916 -0.037373204

down_blocks.0.conv2.weight f4 [4, 4, 3, 3]
000000 3f f2 0b be 32 73 6a be bb d0 c1 bd 12 99 9c be
       -0.13666628 -0.22895506 -0.0946364 -0.30585533
000010 53 eb f7 3c 48 3c 19 3e fa 7c f7 bd d8 31 fd bd
       0.030263579 0.14964402 -0.12084384 -0.123630226
000020 37 3a b8 bc 7f 6b a9 bd 22 37 86 3d a1 d3 8a bd
       -0.022488697 -0.082724564 0.065534845 -0.06778646
000030 c7 af 1b be 90 50 e6 bd 6e 8a 89 be f3 3d 3d 3e
       -0.15203772 -0.11245835 -0.26863426 0.18480663
000040 f4 da 1e be c9 8e 01 3e 1f cc 87 3d 89 9e 20 be
       -0.15513211 0.12652124 0.0663073 -0.15685476
000050 9f 03 26 be fe 3f b9 bd 94 ec 45 ba 12 67 a1 3d
       -0.16212319 -0.09045409 -0.00075502065 0.07880987
000060 cc 13 33 be c6 4c d0 3c 2c b9 8a be 46 c0 08 3c
       -0.1748802 0.025427233 -0.270944 0.008346623
000070 d2 eb cf bb 89 ab 6a bd 72 be 56 3c 45 87 bd bd
       -0.0063452506 -0.057292495 0.013106929 -0.09254316
000080 c9 03 86 3d 4b bb 59 3d 06 31 7e 3e 2f 06 9f 3d
       0.06543691 0.053157132 0.24823388 0.07764851
000090 e0 8b 1c 3e c6 7c 04 be 9d b2 8c 3e 20 44 0b 3e
       0.15287733 -0.12938222 0.2748002 0.13600206
0000a0 ba c2 1b bd 88 81 1f bd af 70 84 3e 61 45 33 3d
       -0.038027503 -0.03894189 0.2586722 0.043767337
0000b0 73 04 3a be 5c ea 91 bd 64 29 53 be 4f 80 69 bd
       -0.1816576 -0.07124779 -0.20621258 -0.05700713
0000c0 4f c9 13 be bb e7 b8 bd 95 ac 82 be 2f 26 8f 3e
       -0.14432262 -0.09028574 -0.25522295 0.2795882
0000d0 e3 94 ff bd 6b 3e 61 be 29 23 33 3e 2f 8c a4 3d
       -0.1247957 -0.21996467 0.17493881 0.080345504
0000e0 ba c0 a0 3d 42 ce 52 3d 76 cb 8c 3d d8 d4 54 3e
       0.0784926 0.051466234 0.068747446 0.20784318
0000f0 93 57 81 3e b2 89 66 3e f2 62 42 be eb 6b 12 3d
       0.25262126 0.22513464 -0.18983057 0.03574745
000100 b3 78 4f be bc 77 8e 3e 70 80 20 3e 57 2a 8a 3e
       -0.20260887 0.27825725 0.15673995 0.26985428
000110 6f 51 35 3e 93 e8 7a be 57 9d 55 be ca dd 14 3e
       0.17706846 -0.24502783 -0.20860802 0.14537731
000120 ea 0e 02 be 9f c9 b8 bd 9c cb b8 bc d5 a7 86 be
       -0.12701002 -0.09022831 -0.022558026 -0.2629992
000130 7e 06 f2 bc e3 f7 8c be ef 84 fe bb d1 6d 04 be
       -0.029544111 -0.27532873 -0.0077673118 -0.12932517
000140 9c db 34 3e b6 88 88 3e a4 0c 84 3d 42 72 4f bc
       0.176619 0.26666802 0.064477235 -0.0126615185
000150 f8 d8 33 be 2a 7d 31 be 27 62 28 3e 9f 2c 38 3e
       -0.17563236 -0.17332903 0.16443692 0.17985772
000160 2d b2 10 be 3b 0e 21 3e cf 5e 81 be 59 97 56 3e
       -0.14130469 0.15728085 -0.25267646 0.20956172
000170 6f d4 38 3e 91 23 ce 3d 1d d6 53 be 1d 18 86 be
       0.18049787 0.100653775 -0.20687146 -0.26190272
000180 53 ed 7a 3c a9 b0 54 bd b1 0a 25 bd 9e 21 7e 3e
       0.015315372 -0.05192629 -0.0402934 0.24817511
000190 65 f9 7b be a3 d7 7f 3d e2 d2 3d 3e 63 09 16 be
       -0.24606855 0.062461507 0.18537477 -0.14652018
0001a0 6c 74 7a bc ad a6 04 3e e6 20 70 be dc b9 91 3e
       -0.015286546 0.12954207 -0.2345005 0.28462112
0001b0 f3 f1 87 3e 74 41 54 be a6 ef 68 3e 73 0f 1a be
       0.2655178 -0.20728093 0.22747669 -0.15044956
0001c0 23 d7 f7 bd 59 80 1c bd b2 2c 38 be 94 4e be 3d
       -0.12101581 -0.03820834 -0.179858 0.09292331
0001d0 86 c1 b7 bd 2f 13 5c be e3 ed e6 bd 97 07 06 be
       -0.089724585 -0.21491693 -0.11275842 -0.13088833
0001e0 2d 6c 00 be dd 3f 52 be 65 f1 a0 bb 9d df 24 be
       -0.12541266 -0.20532174 -0.004911589 -0.16100927
0001f0 ed df 26 3e 66 a1 33 3e 52 b4 b6 3d b9 3d 78 be
       0.16296358 0.17542037 0.08921112 -0.24242295
000200 1a a6 1c be 02 c9 d9 bd 4e 11 9c 3d e6 bd 33 3e
       -0.15297738 -0.10634042 0.07620488 0.1755291
000210 bc 34 6a 3e dc 69 53 3e 00 07 8f bc 84 c1 8c 3d
       0.22871679 0.20645851 -0.017459393 0.06872848
000220 b3 ef 88 be 14 2f 0f bb ea f0 da 3b 2f d5 5d 3e
       -0.26745376 -0.002184813 0.006681551 0.21663354
000230 4c 18 2b 3e 37 89 d2 3d 8e 98 1d be a5 40 8a bd
       0.16708487 0.10280078 -0.15390226 -0.06750611

down_blocks.0.conv2.bias f4 [4]
000000 f9 17 1e bd 92 44 84 bb 68 34 41 be 32 68 b2 bb
       -0.03859708 -0.0040364945 -0.18867648 -0.00544455

down_blocks.0.norm1.weight f4 [4]
000000 30 bc 82 3f 14 80 82 3f f6 5a 74 3f f0 25 78 3f
       1.021368 1.0195336 0.95451295 0.9693289

down_blocks.0.norm1.bias f4 [4]
000000 a7 b2 1b 3e 0f b5 e1 bc 78 48 83 3d f6 fe 2f bd
       0.15204869 -0.027552156 0.06410307 -0.04296776

down_blocks.0.norm1.running_mean f4 [4]
000000 7f 4c 9c 3e c2 2c e0 3e 3f 35 39 3e 41 ac 21 3e
       0.30527112 0.43784148 0.18086718 0.15788366

down_blocks.0.norm1.running_var f4 [4]
000000 e3 e6 88 3c 5b b7 6e 3c 1a fa 8c 3b 60 ad bb 3b
       0.016711658 0.014570083 0.0043022754 0.005727455

down_blocks.0.norm2.weight f4 [4]
000000 5d eb 82 3f 11 38 82 3f 4f 3b 86 3f c4 7a 84 3f
       1.0228077 1.017336 1.048685 1.0349965

down_blocks.0.norm2.bias f4 [4]
000000 80 b9 4c bd 37 79 2a bc 79 83 af bd 63 f0 90 3d
       -0.049981594 -0.010404876 -0.08569998 0.070771

down_blocks.0.norm2.running_mean f4 [4]
000000 76 18 76 3e c7 fe 25 3f f0 31 21 3e 16 e5 9e 3e
       0.24032769 0.64841884 0.15741706 0.31034154

down_blocks.0.norm2.running_var f4 [4]
000000 53 ec a5 3e da e8 fc 3e be 74 86 3e 03 8d 8f 3e
       0.32406864 0.49396402 0.26260942 0.2803727

down_blocks.1.conv1.weight f4 [8, 4, 3, 3]
000000 22 28 99 3d 5d 99 94 3d 67 66 32 3e 92 c2 19 be
       0.07478358 0.07255814 0.17421876 -0.15015629
000010 3e 57 6d be aa 4c 6f 3c 6a 0d 51 be d0 2f e7 3d
       -0.23177812 0.0146056805 -0.20415273 0.112884164
000020 99 d7 d0 3c 53 39 b7 bd f5 44 30 3e d8 d2 20 be
       0.02549343 -0.089464806 0.17213805 -0.1570543
000030 c3 2c 04 3e 4e e2 a1 3d 6c 37 44 be 63 48 df 3d
       0.129077 0.07904492 -0.19161767 0.109024785
000040 e7 df 6b 3c 34 2f 51 3e 91 0f 71 be 29 87 e9 bd
       0.014396644 0.20428163 -0.23541094 -0.11402733
000050 a5 e4 5f be ff 19 42 3e 96 28 9f bd 56 85 fa bc
       -0.21864565 0.18955229 -0.07771413 -0.030581158
000060 52 44 2f be c7 51 6f 3e 26 a5 2d be 3a f4 6c 3e
       -0.17115906 0.2337104 -0.1695753 0.2314004
000070 59 9c e0 3d 5d c1 04 3d 03 00 d3 3d df 78 43 3e
       0.10967321 0.032410968 0.103027366 0.19089077
000080 9a 4b 3f ba 18 76 b7 3d 44 b6 24 3d c5 e8 7a 3d
       -0.0007297337 0.089580715 0.040212885 0.061257143
000090 6d 64 61 3e 30 b6 00 3e 60 16 12 3e a1 bb 60 be
       0.22010966 0.12569499 0.14266348 -0.21946575
0000a0 6a f8 59 3e d1 dd 42 bd 79 18 fb bd 14 26 07 bd
       0.21286169 -0.04757482 -0.12260527 -0.0329953
0000b0 b5 66 68 be de 33 88 3d ce 2c cc ba 6c 44 73 be
       -0.2269543 0.06650518 -0.0015577318 -0.2375657
0000c0 a2 6e 6a bd c7 9d 55 3e f9 f9 5b 3e 88 56 69 3e
       -0.057234414 0.20860969 0.21482076 0.22786915
0000d0 45 18 f3 bd c9 77 51 3d 50 be 3e 3e 0f 0d bc 3d
       -0.118698634 0.051139627 0.18627286 0.09182178
0000e0 21 4e e9 bd f4 b3 20 3e 96 6e 46 3d 30 4f 2b 3e
       -0.11391855 0.15693647 0.048445307 0.16729426
0000f0 c1 d4 51 3e 42 a7 4c bd 2d 78 6b 3e 90 de fa bd
       0.20491315 -0.049964197 0.22995062 -0.12249482
000100 51 73 d4 bc bd 87 65 be 5a 93 54 bd 8a 7c 54 3e
       -0.025933893 -0.22415061 -0.051898338 0.20750633
000110 70 5f 48 be 4d 9e c8 3d 51 3f ae bd bc 5b ec 3d
       -0.19567657 0.097958185 -0.085081704 0.115409344
000120 71 a1 4e 3e b4 0e 4c 3e e8 36 2a 3c ed 92 5a 3e
       0.20178773 0.19927484 0.010389067 0.2134511
000130 0b 72 1f 3e 5f aa 95 bd c7 63 67 be 22 7f 4c 3d
       0.15570848 -0.07307886 -0.22596656 0.04992593
000140 17 ca 2c 3c 0a 06 65 3e 6c ce a4 bd 48 1e 34 be
       0.010546229 0.22365585 -0.08047184 -0.17589676
000150 13 e5 68 3e e9 10 f8 3d 38 0a 6f bd e7 97 cf 3d
       0.22743635 0.121126 -0.058359355 0.10136395
000160 78 71 c3 bc c8 02 f1 bd 0a 49 ef 3d 58 1f b6 bc
       -0.023857817 -0.117681086 0.11683853 -0.022231743
000170 b7 ec 63 3e b4 b6 3e 3e b2 8c 6a 3e 76 9a 8b 3d
       0.22258268 0.18624383 0.22905234 0.068165705
000180 3c 49 12 3e f8 de 44 3d 60 f4 13 be e6 0e 58 be
       0.14285749 0.048064202 -0.1444869 -0.21099433
000190 cf cb 36 be d8 11 29 be 5a 4f e6 3d fc 22 f9 3d
       -0.17851184 -0.16510713 0.11245604 0.12164876
0001a0 50 63 10 3e 94 47 65 3d 78 f8 13 be 8c 96 b9 3d
       0.14100385 0.055976465 -0.14450252 0.09061918
0001b0 1e 4e 5f be b8 d5 27 be 8e 1c 56 be 04 13 3c be
       -0.21807143 -0.16390121 -0.2090933 -0.18366629
0001c0 d0 8e 9a 3c ea be 13 bd 22 e7 16 bd 4a 4d ce bd
       0.018866926 -0.03607074 -0.03684152 -0.100733355
0001d0 b4 3a a2 3d 23 32 5e be 75 42 d4 3d 48 d9 54 3e
       0.07921353 -0.21698813 0.10364238 0.20786011
0001e0 49 69 4a be b8 4c 08 3b 58 c7 0f 3d 3b 1d 09 be
       -0.19766726 0.002079768 0.03510222 -0.13390057
0001f0 89 20 f4 bd d9 ad 98 3d 60 63 8e bd 52 4c 50 be
       -0.11920268 0.07455034 -0.06952548 -0.20341614
000200 88 4f 38 3d e1 36 08 be da 9e 24 be 44 6b 42 bd
       0.044997722 -0.13302185 -0.16076222 -0.047465578
000210 75 12 01 be 27 e2 4d be 54 da 49 3e 3a a8 4a bc
       -0.12604697 -0.20105802 0.19712192 -0.01236921
000220 4d c1 d5 bd a7 a1 02 bd 15 53 4b 3e d0 a3 20 be
       -0.1043726 -0.031892445 0.19855912 -0.1568749
000230 0d ce e3 bd 5c 1c 2c be 9d 27 68 be 6e 6d 3d 3e
       -0.111232854 -0.16807693 -0.22671361 0.18498775
000240 86 41 07 bd 50 53 61 be bb 42 0b bc 78 94 22 be
       -0.033021472 -0.22004437 -0.0084997965 -0.15876949
000250 d0 f7 58 3e 48 33 56 be ad 20 18 be c7 48 52 3e
       0.21188283 -0.20918 -0.14856215 0.20535575
000260 df 36 27 3e 8e 0e 3c be 64 9a dc 3d af 5b 47 3e
       0.16329525 -0.18364927 0.10771635 0.19468568
000270 51 b0 10 be f1 ff 86 3b 1c d9 15 be 8e e8 16 3d
       -0.1412976 0.004119866 -0.14633602 0.036842875
000280 5e c3 16 bd 9d 83 e1 3d 6f 93 18 bd 0e 3a d4 3d
       -0.03680741 0.11011431 -0.03724998 0.103626356
000290 33 3a 4f be 25 47 9e 3d e5 98 90 3d 08 5b 29 3e
       -0.20237045 0.077284135 0.07060412 0.16538632
0002a0 c2 30 03 3e 4b bf 52 bd d5 13 63 3e f3 d1 ed bc
       0.12811568 -0.051451962 0.22175534 -0.029030776
0002b0 a4 e2 e0 bd a8 86 3e 3e 14 67 e5 3c ce 8a e7 bd
       -0.10980728 0.18606055 0.028003253 -0.11305772
0002c0 95 fc 4d 3e ed f8 a5 3d 55 67 55 3e fa 37 f6 bd
       0.20115884 0.081041194 0.208402 -0.120223954
0002d0 e8 db 38 3e 60 6c 95 3d 49 bf 1a 3e c1 95 19 3e
       0.18052638 0.072960615 0.15112032 0.14998533
0002e0 ff 98 04 be 69 86 6d be 3d 2d 0b 3b 7e 34 53 3e
       -0.12948988 -0.23195805 0.002123668 0.20625493
0002f0 c2 37 4c bd fa d5 61 be 4a 42 12 be 2a d7 c8 3c
       -0.049857862 -0.22054282 -0.142831 0.02451666
000300 3f df ef 3d d6 63 b0 bd cd b1 cc 3c f8 7d 34 3e
       0.11712503 -0.08612792 0.024987126 0.17626178
000310 18 d3 45 3d 61 6e 36 be a6 b9 4d 3d 4c 62 98 bd
       0.048297018 -0.17815544 0.050225876 -0.07440624
000320 61 8d cf bc f9 d5 ef 3c 8c 6b b6 3d c9 8e 3a 3d
       -0.02533597 0.029276835 0.08907232 0.045546327
000330 b0 37 3a 3e 5d f6 21 be 1c 93 fc bd f9 cb 10 3e
       0.18185306 -0.15816636 -0.123327464 0.1414031
000340 13 86 07 be 91 55 1e be 39 8a 25 be 02 b5 58 3e
       -0.13234739 -0.15462328 -0.16166009 0.21162799
000350 d6 10 c4 bd 75 11 13 be de b7 99 3d f4 7c 69 bc
       -0.09573524 -0.14362128 0.07505773 -0.014250983
000360 24 5a bd 3c 00 89 81 bd f4 30 f2 3d 08 e8 a7 bb
       0.023114271 -0.06324959 0.11825743 -0.005124096
000370 da 61 42 3e 4c ad d6 3c 12 a7 32 bd da bc a5 bd
       0.1898264 0.026205681 -0.043616362 -0.08092661
000380 56 c4 f7 bd 58 38 c8 3b 6d 08 94 bd 12 42 17 3e
       -0.12097995 0.0061102323 -0.072281696 0.14771298
000390 10 2f bd 3d ef c1 62 be d9 ec 94 bd 61 f9 f9 bb
       0.09237492 -0.22144292 -0.072717376 -0.0076286052
0003a0 fe a7 c3 3c 2a ee 52 3e 01 55 15 be 22 b0 dc bc
       0.023883816 0.20598665 -0.14583208 -0.026939455
0003b0 b9 f5 44 be 74 4d ad 3d d1 fe bd 3d 46 c5 8f bd
       -0.19234361 0.08462039 0.09277118 -0.07020049
0003c0 7b fd 31 be 37 d4 f0 bc d4 35 37 be 93 eb 0a 3d
       -0.17381851 -0.029398067 -0.17891628 0.033916067
0003d0 42 c1 f2 bd a6 ef 48 3c 66 b8 2e be 97 57 25 3e
       -0.11853267 0.012264168 -0.1706253 0.16146694
0003e0 96 40 56 3e 48 e0 07 3e bf e3 f2 3d e8 56 6b be
       0.20923075 0.1326915 0.11859845 -0.22982371
0003f0 17 cb 5a 3e 9e fb 30 3d 8c d7 cf 3c 09 b9 27 bd
       0.21366535 0.04320871 0.025371335 -0.040947948

down_blocks.1.conv1.bias f4 [8]
000000 fc 32 0a 3a b4 12 2e ba f9 f2 2a 3a 3a b9 c0 b9
       0.00052718795 -0.000664036 0.0006521191 -0.00036759098
000010 47 f2 a5 ba 7f 79 0e bb b4 de 67 ba de ae 45 39
       -0.0012660705 -0.0021739898 -0.0008845136 0.00018852527

down_blocks.1.conv2.weight f4 [8, 8, 3, 3]
000000 a9 67 0f bd 2a ca 0f be fe 96 e1 3d ef a9 63 3c
       -0.035010967 -0.14041963 0.110151276 0.013895496
000010 19 15 82 3d b7 58 0c be 61 48 54 3d d6 2f 45 3e
       0.0635168 -0.13705717 0.05182684 0.19256529
000020 70 ee 2e 3e c2 58 3e be 88 4f 2d 3e 05 40 0a 3e
       0.17083144 -0.18588546 0.1692487 0.13500984
000030 22 da 22 be ee c9 35 be 1e 6c 40 3e 96 c3 2c bc
       -0.15903524 -0.17752811 0.18791243 -0.010544678
000040 5e e0 b6 bd 43 d4 47 3e f5 49 3c 3e 7c 14 a5 bd
       -0.089295134 0.19514565 0.18387587 -0.08060548
000050 72 0d 33 3d f0 e2 dc bd 60 e8 80 bc aa db 2c 3e
       0.043713994 -0.107854724 -0.015735805 0.1688067
000060 43 6c 9e 3d ff e4 48 be 62 b9 02 3e ea 7f 97 3d
       0.07735493 -0.19618605 0.1276603 0.073974445
000070 e3 31 87 bc da ee b5 bc 10 8f a9 3d 4c 06 1d 3e
       -0.01650328 -0.02220862 0.0827924 0.15334433
000080 96 50 8d 3d cf cc 7a bd 97 9c 94 3d 94 11 52 3b
       0.06900136 -0.061230477 0.0725643 0.0032053934
000090 c4 4a 67 3d f0 b9 cd 3d ad f5 1c 3e d6 72 f6 bd
       0.056467786 0.100452304 0.15328093 -0.12033622
0000a0 be 08 23 be ab 15 9f bb a5 4b 0a be 39 5a f0 3b
       -0.15921304 -0.004854878 -0.13505419 0.007334974
0000b0 4f 54 c3 bd f0 52 a7 3d c8 b8 53 3d 21 95 1e be
       -0.09537565 0.08170116 0.051689893 -0.15486576
0000c0 40 2b 2c 3e b9 e7 65 3d 92 72 a7 bd b5 bc 8a bc
       0.16813374 0.05612919 -0.081761494 -0.016935686
0000d0 68 ec ce bd da 04 18 3e 22 08 9e bd 5b 4d d6 3b
       -0.10103685 0.148456 -0.07716395 0.006539983
0000e0 c1 ae 94 3d 05 a0 fa bd df 40 21 3d 19 41 aa bb
       0.07259894 -0.122375526 0.039368507 -0.0051957485
0000f0 00 e7 99 bd c4 fb 29 3d 25 5b 08 bc 1b 57 1a 3e
       -0.07514763 0.041499868 -0.008322512 0.1507229
000100 0f 9b c5 bd c5 68 41 be ed 40 22 3d 6e 0f d3 bc
       -0.09648716 -0.18887623 0.0396127 -0.025764193
000110 2c f9 0f bd da 92 34 bc 2a 1c 42 bd 6d 28 2c be
       -0.03514974 -0.01102134 -0.04739014 -0.16812296
000120 34 56 57 bc 0d 0c 3f 3e 46 09 14 3e 50 df 2a 3e
       -0.013143111 0.18656941 0.14456663 0.1668675
000130 82 5b b1 bd 34 57 f8 3d a3 e4 ff 3c 4f 09 14 bd
       -0.08660032 0.12126008 0.031236952 -0.03614169
000140 01 cf e1 3d 99 0b 91 bd 29 33 a6 3d 7c 6f 57 bd
       0.11025811 -0.0708229 0.08115227 -0.052596554
000150 dc c9 0f 3e 65 d0 c5 bb 63 2c 2b 3e 4f d3 aa bd
       0.14041847 -0.0060368055 0.16716151 -0.08341085
000160 da 07 00 3d 2c bd 49 3d ac 71 22 be d5 4d 0a 3d
       0.031257488 0.049252674 -0.15863675 0.033765633
000170 84 b1 1b 3e 0d f1 a4 bd 27 25 3a be 0d a4 a3 3d
       0.15204436 -0.08053789 -0.18178235 0.079902746
000180 47 10 df 3d f0 12 36 3e dc a2 9a bc da 55 bb bd
       0.108917765 0.17780662 -0.018876486 -0.09147234
000190 82 d1 3e be d3 f6 46 be f4 59 96 bd 31 1b 46 3e
       -0.18634608 -0.19430093 -0.07341376 0.1934631
0001a0 f3 87 99 bd 3f ce 83 bc 0b 46 04 3d 28 3f 05 3d
       -0.074966334 -0.016089557 0.03229336 0.032530934
0001b0 6c c7 a3 bd 2e 48 67 bd 9d cc 50 be 69 a9 2b 3e
       -0.07997021 -0.05646532 -0.20390554 0.16763844
0001c0 16 bc c8 bb 39 26 d2 3c 4f 15 ca bd 6f 9d d0 3d
       -0.006125937 0.025652992 -0.098673455 0.10186278
0001d0 91 61 46 3e f2 c8 12 3e 13 bf e9 bd e5 2d da 3d
       0.19373156 0.14334467 -0.11413398 0.10653285
0001e0 cf 9b 3f be 27 f9 30 3e 09 e4 27 3b 3e 63 29 3d
       -0.1871178 0.17282544 0.0025618097 0.04135441
0001f0 2c 99 3d 3e 26 45 b4 bc 33 28 0d be 68 f2 22 3e
       0.18515462 -0.022005629 -0.13784866 0.15912783
000200 5a 99 04 3e 48 86 ca bd 19 68 20 3e 62 d7 9e 3c
       0.12949124 -0.09888893 0.1566471 0.019389812
000210 87 54 86 3d 48 16 24 be c6 14 83 bb aa b3 83 3d
       0.06559091 -0.16024125 -0.004000279 0.064307526
000220 bd bd 11 bd 21 9c 08 be be df 9c 3c 65 b9 44 be
       -0.03558134 -0.13340808 0.019149657 -0.19211347
000230 68 0c 46 be e8 50 85 bd 4b 69 d0 bd 89 b8 92 bc
       -0.1934067 -0.06509572 -0.10176333 -0.017910259
000240 36 e7 c1 3d 5a f1 49 be 41 1a fe 3c 22 e8 4d 3d
       0.09467928 -0.19720975 0.031018378 0.050270207
000250 db 29 a2 bc 08 91 81 3d 32 24 26 be 35 c8 f8 3c
       -0.019795349 0.06326491 -0.16224745 0.030368904
000260 1a 17 22 be 08 1a 29 3e a8 99 24 3c 81 1f 88 3b
       -0.15829125 0.16513836 0.0100464 0.004154146
000270 b0 61 ed bd 62 c0 0a 3d ed e8 8d bd f4 55 24 3e
       -0.11590898 0.033874877 -0.06929193 0.16048414
000280 d4 3d e6 bd 32 34 07 be 81 11 26 3e 16 6c 3c be
       -0.112422615 -0.13203505 0.16217615 -0.18400607
000290 f7 3f fd 3b 9d b5 02 3e dd 9c 4d 3e 67 ce 90 bd
       0.0077285725 0.12764592 0.2007937 -0.07070618
0002a0 42 bc 20 be 4d 17 20 3e 0f 65 43 be 84 83 3b 3e
       -0.15696815 0.15633889 -0.1908152 0.18311888
0002b0 e3 4d 02 bc ab 1d 81 bc ca 4d d1 bd 6d e2 fd 3d
       -0.00795314 -0.015761217 -0.10219915 0.12396703
0002c0 a2 9c 45 3e 90 ca 46 3e 8c 9f 4a 3e b1 b5 39 3e
       0.19298032 0.19413209 0.19787425 0.18135716
0002d0 b2 b9 7a 3d fe 20 1a 3d a9 d4 c1 bd 8c 02 76 3d
       0.06121225 0.03762912 -0.0946439 0.060061023
0002e0 a3 40 23 be 96 6d 2b be 03 18 09 bd a0 21 0a be
       -0.15942626 -0.16741022 -0.033470165 -0.1348939
0002f0 04 22 dc 3c 68 9e 83 3d af da 40 be 9f f8 d8 3d
       0.026871689 0.06426698 -0.18833421 0.10594296
000300 35 37 52 be 1b af 1e 3c cc 31 42 3e fc d4 09 3e
       -0.20528872 0.009685303 0.18964309 0.13460153
000310 e8 83 9a bd 73 b6 c1 3d 28 a7 fa 3d e9 3b 2a 3d
       -0.0754469 0.094586276 0.12238914 0.04156104
000320 8e b6 ea 3b c7 b4 e6 3c 50 dc 78 bd d2 b8 10 3d
       0.0071628755 0.028162373 -0.06075698 0.03533251
000330 a3 05 15 be f2 6a 44 be 0e de 8d 3d 90 18 e5 3d
       -0.14552931 -0.19181421 0.06927119 0.111863256
000340 63 fe 48 3e a8 f9 4b be d2 1e 16 3d 21 27 25 3e
       0.19628291 -0.19919455 0.036650486 0.16128208
000350 3a 67 8d bd 79 16 2b be e2 c4 6e bd dc 4b d0 3d
       -0.069044545 -0.16707791 -0.05829323 0.10170719
000360 d4 c2 30 be c8 a1 3d 3e 7e 45 2f bc 46 49 b8 3d
       -0.17261821 0.18518746 -0.010697721 0.08998351
000370 69 1a 46 be e8 b5 50 3e 89 77 32 3e 6f ba 84 3d
       -0.19346012 0.20381892 0.17428412 0.06480872
000380 e6 fc 27 3e a0 69 e0 bc ee dc 12 be 40 79 4f be
       0.16405067 -0.027394116 -0.1434209 -0.20261097
000390 cd c3 30 3e 79 b1 51 be b8 6a d1 3d 91 50 1e be
       0.17262192 -0.20477857 0.10225433 -0.15460421
0003a0 85 b2 2b 3e 1d 64 40 3e 40 7c d0 3d 0e c4 00 3e
       0.16767319 0.1878819 0.10179949 0.12574789
0003b0 6f 36 bd 3c 13 7c 12 3e 0a 7a c8 3c 98 b1 bf 3d
       0.023097245 0.14305143 0.024472255 0.09360045
0003c0 bd 4b 67 bd 96 94 01 3d 2f 49 ec 3d f9 ca 8f bd
       -0.056468714 0.031635843 0.11537396 -0.07021136
0003d0 48 aa 0a 3d fe f0 35 3e ca 9e 17 be e2 b4 cd bd
       0.0338538 0.17767712 -0.14806667 -0.10044266
0003e0 4d ad 2a bd 13 19 2b 3e 56 ad 09 3d a8 5b 70 bd
       -0.04166918 0.16708784 0.03361257 -0.05868116
0003f0 73 9a 93 bd 7f 2d 0f bb 8d 45 6f 3d 5b 05 0b be
       -0.07207193 -0.0021847186 0.05841594 -0.13576262

down_blocks.1.conv2.bias f4 [8]
000000 c7 30 d2 ba 77 f0 e4 b9 d6 40 cc ba 0c 8c aa b9
       -0.0016036265 -0.0004366671 -0.0015583287 -0.0003252927
000010 be db b2 ba d6 dc bc ba 9a a8 25 3a ce c1 8d bb
       -0.001364581 -0.0014409076 0.0006319374 -0.004326082

down_blocks.1.norm1.weight f4 [8]
000000 f5 9b 80 3f 1d 4f 80 3f 48 3b 7e 3f 5a 1e 80 3f
       1.0047594 1.0024143 0.99309206 1.0009263
000010 3e 53 7f 3f 1e 58 80 3f 9b 5c 7f 3f 92 26 80 3f
       0.9973639 1.0026891 0.9975068 1.0011771

down_blocks.1.norm1.bias f4 [8]
000000 a0 15 de 3a 47 3c be b9 a5 ab 57 3a 75 30 b3 ba
       0.0016943701 -0.00036284534 0.0008227176 -0.0013671058
000010 5e bb da 39 f4 a0 99 ba 55 4a 8d 3a f4 1e f8 ba
       0.000417198 -0.0011720941 0.0010779599 -0.0018930123

down_blocks.1.norm1.running_mean f4 [8]
000000 74 fa 09 3f 86 b9 9b 3e 7f b5 f6 3e ad 62 08 3f
       0.53897786 0.3041498 0.48185346 0.5327557
000010 f8 5a 87 3e af 2e 37 3e 7b 52 80 3e 8a c8 a2 3e
       0.2643659 0.17888902 0.25062928 0.31793624

down_blocks.1.norm1.running_var f4 [8]
000000 36 18 24 3f d0 b5 23 3f 45 46 df 3f 4f 18 96 3e
       0.6409944 0.639493 1.744332 0.2931542
000010 c5 6e ec 3e f4 fe 1d 3e 16 6d 20 3e 2f b3 b5 3e
       0.4617826 0.15429288 0.15666613 0.3548827

down_blocks.1.norm2.weight f4 [8]
000000 c7 ea 7f 3f 0d 6a 80 3f 01 a8 7f 3f a1 76 7f 3f
       0.99967617 1.0032364 0.9986573 0.9979039
000010 4e 1c 80 3f e4 e5 80 3f 73 a5 7e 3f 04 72 81 3f
       1.0008638 1.0070157 0.99471205 1.011292

down_blocks.1.norm2.bias f4 [8]
000000 46 de d9 ba 17 77 14 bb e6 f1 79 ba 5b 0c b1 39
       -0.0016622029 -0.002265399 -0.0009534642 0.00033769276
000010 46 d6 49 38 12 04 4a ba a9 ef 79 ba d1 c5 c1 ba
       4.8121692e-05 -0.0007706295 -0.00095343083 -0.0014783685

down_blocks.1.norm2.running_mean f4 [8]
000000 af 58 53 3e 11 0e d6 3e 07 3b 0a 3f 23 03 ef 3e
       0.20639299 0.41807607 0.5399632 0.4668208
000010 03 11 69 3e 5a e7 c9 3e ef dd 0a 3f b8 f4 c3 3e
       0.22760396 0.3943432 0.54244894 0.38272643

down_blocks.1.norm2.running_var f4 [8]
000000 f5 35 be 3d 07 7b fd 3e 9f a8 d1 3e 8a 38 14 3f
       0.09287635 0.49507925 0.4094896 0.5789877
000010 b2 b5 d1 3d 88 1e 6a 3e d9 42 d3 3e 3b 9e 42 3f
       0.10239734 0.22863209 0.41261938 0.7602269

down_blocks.2.conv1.weight f4 [16, 8, 3, 3]
000000 69 51 52 bd 74 ae 2d 3e d8 70 18 bd ab 7a 24 3e
       -0.05134717 0.1696108 -0.03721699 0.16062419
000010 48 dd f3 bb 1f 16 09 3e b1 6f 73 3d 42 2a 8a 3b
       -0.0074421503 0.13387345 0.05943269 0.0042164633
000020 ac d2 1b 39 68 f7 e5 3d 19 ec 98 3d 0c b8 af bd
       0.00014860433 0.112288296 0.07466907 -0.08580026
000030 e6 a3 0e 3e 0a 03 72 bd af bf c2 bc 5f c2 3a bc
       0.1392971 -0.05908493 -0.023773042 -0.011398881
000040 12 ca 27 3d 13 02 f2 3d 35 28 ac 3d e0 ac 8c bd
       0.040964194 0.11816802 0.084061064 -0.06868911
000050 73 71 72 3c c8 64 9b bd 08 9e 91 bd 11 73 ed 3d
       0.014797556 -0.07587582 -0.0711022 0.11594213
000060 1f ba fe bd 08 52 ac 3c 9a 48 23 be b1 b8 52 bc
       -0.124378435 0.02103521 -0.15945664 -0.012861417
000070 35 bf cf 3d 21 02 19 3e 9a 74 25 be 00 b8 c5 bd
       0.10143892 0.14942218 -0.16157761 -0.09654236
000080 8a 9f ff bb 47 d7 dc bc 92 73 a3 bd a6 49 51 bd
       -0.007801001 -0.026958121 -0.07981028 -0.051095627
000090 f0 29 07 3e 7c c3 4a 3d a1 c8 9e bd 0b 86 ab bd
       0.13199592 0.049502835 -0.07753111 -0.08375176
0000a0 cc ab 00 be 64 d1 b0 bd d4 d9 24 3e 99 02 04 3e
       -0.12565535 -0.08633688 0.1609872 0.12891616
0000b0 31 5e e2 bd 17 12 20 be f8 de 18 3e 89 54 a0 3d
       -0.11053122 -0.156319 0.14928806 0.07828624
0000c0 0a 65 9c 3d 41 29 c6 3d 1b f0 12 be 40 1d dd bd
       0.07636459 0.09675837 -0.14349405 -0.107965946
0000d0 62 6d d0 bd 9c 0d 2f bd be dd 02 3e a3 26 cc 3d
       -0.10177113 -0.04273759 0.127799 0.09968307
0000e0 7d 4c bd bd 3d 9d 0a bc e6 f4 10 be e6 e2 30 bd
       -0.092431046 -0.00846034 -0.14155921 -0.043185137
0000f0 c2 22 d0 3d 2a 19 9c bd cc 4f f5 3d 89 25 73 bc
       0.101628795 -0.07621987 0.11978111 -0.014840492
000100 f3 f2 25 3c 3d 34 a3 3d c0 1c d9 bd 51 6c a1 bc
       0.010128724 0.07968948 -0.10601187 -0.01970497
000110 4a e5 75 bd 86 2f 0c bd 71 d1 44 bd 24 21 63 3d
       -0.06003312 -0.03422501 -0.0480513 0.055451527
000120 ab e8 1f 3c 2b 57 2f 3d 57 67 23 3d 04 04 72 3d
       0.009760062 0.04280774 0.039893474 0.05908586
000130 69 24 13 be 60 c7 c7 bd 28 98 d4 3d 9f 17 9e 3d
       -0.14369358 -0.09754825 0.10380584 0.07719349
000140 c4 e8 82 3d 18 15 22 be e3 18 a1 bd 01 57 e9 bc
       0.06392053 -0.15828359 -0.07866075 -0.02848387
000150 c0 1e 6d bd 0c c4 b6 3d b6 dd 40 3d 26 cb 1e be
       -0.057890654 0.08924112 0.04708644 -0.15507182
000160 41 da 56 bd d4 2e c7 bd 2a 69 ec 3d 9f f0 1e be
       -0.052454237 -0.09725729 0.11543496 -0.15521477
000170 a2 a7 bf ba b6 d0 17 be 96 04 69 3d 32 b2 f0 3d
       -0.0014622102 -0.1482571 0.05688914 0.11752738
000180 7b 3b b7 bd 91 59 b9 3d 74 9d 39 bc 3d 43 2d bc
       -0.08946892 0.090502866 -0.011329044 -0.010575113
000190 b1 a1 c9 3d 8b fb 04 be 9f 42 39 bd 97 88 1d be
       0.09845293 -0.12986581 -0.04522955 -0.15384136
0001a0 b5 1d c7 bd bb 43 14 bd 03 03 80 3d ef f3 8c 3d
       -0.09722463 -0.036197405 0.062505744 0.06882464
0001b0 80 c2 36 3d 53 46 15 3c d1 58 7f bd 4c 15 8a 3d
       0.044619083 0.009111005 -0.06234056 0.06742343
0001c0 ba 5d 18 3e 5c ab 89 bd 2d 0b 84 bd 82 fa 85 bb
       0.14879504 -0.06722137 -0.06447444 -0.0040887007
0001d0 2c f3 93 3d 5d 0c 67 3d 09 60 39 3d 24 f1 07 bd
       0.07224116 0.056408275 0.045257602 -0.033188954
0001e0 ac 20 ec 3b 0d a3 b0 bd d9 43 af bc 30 8d 23 be
       0.007206043 -0.086248495 -0.021394657 -0.15971828
0001f0 a9 aa ae 3d 8c 17 24 3e 2c dd 24 3e a3 64 fd bc
       0.085286446 0.16024607 0.16099995 -0.030931776
000200 84 d1 23 be 79 b6 98 3d 87 8c 63 bc 0c 31 a7 bd
       -0.15997893 0.07456679 -0.013888485 -0.08163652
000210 98 dc 02 3e f0 0f 1a 3e d1 a0 1f 3e 4a d1 84 bc
       0.12779462 0.15045142 0.1558869 -0.016213078
000220 13 56 26 3e 10 e1 e7 3d aa e6 f3 3d 5d fb 06 3d
       0.16243772 0.11322224 0.1190923 0.032954562
000230 51 3c ba bd 54 e4 a3 bd f7 0b 52 bd c6 b2 a8 3d
       -0.09093536 -0.080025345 -0.05128094 0.08237223
000240 35 8e 15 3e 5e 53 2b 3d 73 51 08 3e b6 62 2a 3c
       0.14605029 0.041827552 0.1331232 0.010399511
000250 55 99 bd bd 15 44 1d bd 79 8e 13 3e d4 7d 04 be
       -0.092577614 -0.038395006 0.14409818 -0.12938625
000260 21 87 a9 3d dc 44 2d bd d1 22 84 bc 39 f1 92 3d
       0.08277727 -0.042301998 -0.016129883 0.07174916
000270 18 7b 92 bc 70 1a ba bc ab 68 06 be da e0 06 3e
       -0.017880961 -0.022717685 -0.13125865 0.13171712
000280 1f d0 88 bd a5 7d 1c be 89 35 91 3d 36 7b fa 3d
       -0.06680321 -0.15282305 0.07090289 0.12230532
000290 72 af a6 3d a6 50 64 3d 38 f4 1e be b7 6f 23 be
       0.08138932 0.055740975 -0.1552285 -0.15960585
0002a0 86 ba 2c bd dc b5 0f be 02 dc e2 bd 5d eb 1b 3d
       -0.04217007 -0.14034218 -0.110771194 0.038066257
0002b0 8e 95 10 3e 40 0c 9d bd 91 ee ef bd 31 49 c4 3d
       0.1411955 -0.07668352 -0.11715425 0.09584273
0002c0 cd bf 66 bd cb fe 25 be f9 88 05 be df 41 1c be
       -0.05633526 -0.16210477 -0.13040532 -0.15259503
0002d0 12 88 f0 bd 04 ba 23 bc 5a 07 0a be 13 9a df 3d
       -0.11744703 -0.00999308 -0.13479367 0.10918059
0002e0 03 95 08 3e 90 66 20 3e ec 47 98 bb 28 6e f6 3d
       0.13338093 0.15664124 -0.0046472456 0.120327294
0002f0 8c 72 ce bd 9b 06 00 bd 06 da f6 bd ff aa c0 3d
       -0.10080442 -0.0312563 -0.120533034 0.09407615
000300 4a 39 c7 3d cb 55 0d 3d 11 fe 27 3d a8 82 de 39
       0.09727724 0.034505647 0.04101378 0.00042440486
000310 5d 5e 0a be 3e 86 a7 3b 81 1b 22 be 24 cc 0d 3e
       -0.13512559 0.0051124385 -0.15830804 0.13847405
000320 9d 3e fe bc 76 b3 f9 bd be cd 06 3d eb bf 0e be
       -0.031035716 -0.121924326 0.032911055 -0.13940398
000330 be 61 19 be 30 bb 0e be b0 ae 2c be f4 63 c7 3d
       -0.14978692 -0.13938594 -0.16863513 0.097358614
000340 fc d1 d8 bd c1 d7 c9 3d 38 47 be bd 7d 05 dd bd
       -0.10586926 0.09855605 -0.09290928 -0.107920624
000350 52 cd b8 3d c1 99 7a 3c e5 7d fe bd e5 da 85 3d
       0.09023537 0.015295447 -0.12426356 0.065358914
000360 78 8b 20 3d 43 6f 08 be eb cc 88 bd 32 d5 88 3c
       0.039195508 -0.13323693 -0.0667971 0.016703222
000370 8f 23 97 3d 6a 6b c2 bd d3 25 8d 3c 07 8f 22 be
       0.07379829 -0.09493144 0.01722995 -0.15874873
000380 f5 d9 92 bd 68 9d b0 3d 43 0f 83 3d 38 73 78 3d
       -0.07170478 0.08623773 0.06399395 0.060656756
000390 96 e7 b2 3d ed ec 81 3d 30 af a7 3d 28 d9 21 3b
       0.08735578 0.06344018 0.08187711 0.0024696086
0003a0 0b bc 14 be 84 ad 65 3a a3 04 e2 3d 42 1e fd 3d
       -0.14524858 0.00087615126 0.11036041 0.12359287
0003b0 6b c6 a8 3d 93 74 59 bd a3 19 25 3d 5a f8 cd bd
       0.0824097 -0.05308969 0.040307652 -0.10057135
0003c0 13 b2 af 3d ba b9 a0 bd 28 24 c9 bc 13 6f d8 bd
       0.08578887 -0.078479245 -0.024553373 -0.10568061
0003d0 d4 11 0b be cf 08 c6 3c 24 ef 0e 3e 0f cd 8f ba
       -0.1358102 0.024174122 0.13958412 -0.0010971146
0003e0 41 32 2f 3a 78 88 ff bd 16 eb 05 be 15 8d 82 bc
       0.00066832086 -0.12477201 -0.1307796 -0.015936414
0003f0 65 f2 f5 bd 97 01 04 be 6f b2 29 3e 70 b9 84 bd
       -0.12009124 -0.12891231 0.16571973 -0.06480682

down_blocks.2.conv1.bias f4 [16]
000000 dc 26 60 ba 0b 5a 47 ba dc 7e f7 38 f0 b5 24 3a
       -0.00085507124 -0.0007604665 0.00011801507 0.00062832143
000010 65 8a 6a ba f5 c6 8f 39 77 74 0a b8 3e 79 d5 b8
       -0.0008947014 0.0002742332 -3.301023e-05 -0.000101792146
000020 31 97 0f 3a 3c c7 ba 39 7f 3a 54 b9 86 2a 02 ba
       0.00054775464 0.00035625126 -0.00020239687 -0.0004965443
000030 85 9e 42 ba 58 30 b5 b8 42 c2 03 b8 2e eb 05 39
       -0.0007424134 -8.639757e-05 -3.141375e-05 0.0001277148

down_blocks.2.conv2.weight f4 [16, 16, 3, 3]
000000 0d d6 4d bd 09 67 41 3d c2 c2 0f 3e bf 5a 8f 3c
       -0.050252963 0.047217403 0.14039138 0.017499326
000010 87 6b f8 3d af 48 89 bd c3 e9 a6 3d 96 3e b0 bc
       0.12129884 -0.067033164 0.08150055 -0.021514218
000020 d5 3a 07 be 17 02 fd 3d 7e 78 54 bd 95 bc 8e 3d
       -0.13206036 0.12353914 -0.051872723 0.06969563
000030 8b 55 29 bd 5a 9a 5f 3d dc 63 a8 3d 48 70 f8 bd
       -0.041341346 0.05459056 0.08222172 -0.12130791
000040 3c 33 0b bd 67 8c fe 38 be 62 f0 bd 9d bf e3 3c
       -0.033984408 0.00012137816 -0.117375836 0.02780133
000050 a4 2a 92 3d 41 b6 98 3d b5 f9 2a 3d cd d5 98 b9
       0.07137039 0.07456637 0.041742045 -0.00029150993
000060 86 16 a7 3d 50 4a 11 be 40 5e e2 3d d3 99 a4 bd
       0.08158593 -0.14188504 0.11053133 -0.08037152
000070 e4 ce 8f bd d1 84 3d bd ae ff d5 bd bf 4b f4 3d
       -0.07021883 -0.04626924 -0.10449158 0.1192851
000080 e1 f5 05 3e 68 76 ba bc 4a 7b fa 3d 34 2a 1e bd
       0.13082077 -0.022761539 0.12230547 -0.038614467
000090 52 57 67 bc 6b d5 d9 bc 0d 51 11 be 6c bf d8 3c
       -0.01411994 -0.026591023 -0.14191075 0.026458465
0000a0 51 35 2c 3d 7f 96 47 3d 31 a0 e8 bd e8 73 b7 bd
       0.042043034 0.04872751 -0.11358679 -0.08957654
0000b0 d6 b6 78 3b ec 99 06 3d db 3b 5a 3d 77 22 d9 3c
       0.0037950776 0.032861635 0.05327974 0.026505692
0000c0 53 2f 96 bd af 06 8f 39 46 c1 2b 3d 2d 27 47 3d
       -0.07333245 0.00027280065 0.041932367 0.048621345
0000d0 c1 1e 02 be bf 7b 4d 3d ad 50 bd 3c 67 e4 a9 bd
       -0.12707044 0.05016684 0.023109758 -0.082955174
0000e0 d0 b1 b7 3d ca 85 0f 3e 23 fc 82 bd 06 06 09 bd
       0.08969462 0.1401588 -0.063957475 -0.03345301
0000f0 54 72 af 3d 02 86 81 bd 60 67 3f bd 33 50 21 3d
       0.08566728 -0.06324388 -0.046729445 0.039383125
000100 ce c1 c4 3d 4b b7 5f bd ef 04 9e bc 35 6d 87 bd
       0.09607278 -0.05461816 -0.019289462 -0.066126265
000110 ff 2b 0e 3d 29 d1 02 bd f1 0c 34 3d 15 91 40 bd
       0.034709927 -0.031937752 0.043957654 -0.04701336
000120 e2 ab 46 bd 91 07 6a 3c b4 85 a2 3c ca 2b c0 3d
       -0.048503764 0.0142840305 0.019839145 0.09383352
000130 25 74 0a 3d 54 35 e8 3d 44 de e6 3c da ba 78 3d
       0.03380217 0.113382965 0.028182156 0.06072507
000140 24 21 0e be d9 ab e7 3d 9e 9a 84 bd 67 fb e8 bb
       -0.1387983 0.11312074 -0.064748034 -0.0071100476
000150 36 f6 20 bd 45 0b 74 bd 92 33 d9 bd 29 8b a1 3d
       -0.039297305 -0.05958106 -0.106055394 0.07887871
000160 58 90 e6 bd 23 71 16 3c aa b0 c2 bd b2 c2 4d bd
       -0.11258 0.009182247 -0.09506352 -0.050234504
000170 1f 8d cf bd ea c6 9c bd 95 ce 50 bd 65 26 2a bc
       -0.101343386 -0.07655127 -0.050978262 -0.0103851305
000180 5f 43 d0 3d 6e 02 6c ba b1 7c 79 3d 0c f0 aa 3d
       0.101691 -0.00090030476 0.06090993 0.083465666
000190 d7 26 bb bd 83 61 be bd cc 51 03 bd 00 4c 84 bc
       -0.091382675 -0.09295943 -0.03206043 -0.01614952
0001a0 e8 19 f1 3d be e4 e5 bd 4c 61 8e bd 2b 9a ba 3d
       0.11772519 -0.1122527 -0.06952152 0.091114365
0001b0 97 7e 53 bd c4 ec 05 be 1a 91 7b bd 81 3d e3 bc
       -0.051634397 -0.130786 -0.061417677 -0.027739288
0001c0 f3 53 d4 3d de 26 05 be 59 ee 03 be dd 3a a0 3d
       0.103675745 -0.13003108 -0.12883891 0.07823727
0001d0 58 d0 7e bd 07 8d b9 3d e6 23 12 3e 70 07 e8 bc
       -0.06221041 0.09060102 0.14271507 -0.028323859
0001e0 8f 3d a1 bd 2e d9 0e 3e 5e 80 6e bd b4 5e 9d 3d
       -0.078730695 0.13950035 -0.05822789 0.07684079
0001f0 b5 9a c8 3d 59 c3 12 be cd ac 12 be 5b 69 2c bd
       0.09795133 -0.14332332 -0.14323731 -0.042092662
000200 44 ad 96 bc d6 73 b6 bd 92 e5 d4 bc 01 fd a6 bd
       -0.018393166 -0.08908813 -0.025988374 -0.081537254
000210 06 93 27 3c de c5 a1 bd d6 42 2a bd a7 5c 08 3e
       0.010227924 -0.07899068 -0.041567646 0.13316594
000220 8d 21 ad 3d e6 c4 a8 bc e6 d0 f9 3d ab 66 39 bd
       0.08453665 -0.020601701 0.12198047 -0.045263927
000230 04 19 e3 3d 1a 39 fd 3d 4e c3 1c 3d 8c 3d d8 bd
       0.11088756 0.12364407 0.038272195 -0.10558614
000240 83 4f bf 3d 4e 1b 10 3e fe bc e6 bd 8b 3c 6e 3d
       0.093413375 0.14072916 -0.11266516 0.058163207
000250 bf ec eb bd a7 c7 c4 bd 89 d1 08 3d f3 28 d4 3c
       -0.11519765 -0.09608393 0.033402953 0.025898432
000260 dc 5e 38 bc 7c e0 33 bd 47 c8 7a 3d 70 ff ef 3d
       -0.011253085 -0.043915257 0.061226156 0.11718643
000270 55 f4 a1 bd 71 47 a3 3d de 6e 0e 3d d1 9e 15 bd
       -0.07907931 0.07972611 0.0347737 -0.036528412
000280 6c 76 ec bd e2 a2 5a bd c2 72 cb bb 82 88 de 3d
       -0.11546025 -0.053377993 -0.0062087486 0.108658805
000290 fe 12 1f bd 90 04 b4 3d f4 7a 87 3d 06 48 3f 3d
       -0.03883647 0.08789933 0.06615248 0.046699546
0002a0 7e bc 98 bd 16 a9 65 bd 93 2c e2 3d 2e 68 2e 3d
       -0.07457827 -0.056069456 0.11043658 0.042579822
0002b0 fa 7b 0c be bc 98 4a bd 6b d6 b5 bd a8 5a 09 be
       -0.13719168 -0.049462065 -0.088787876 -0.13413489
0002c0 08 c7 6e bd a6 12 18 3d c0 ba b8 3c 3a b5 21 bd
       -0.05829528 0.03712716 0.022549987 -0.03947947
0002d0 bd 35 0a 3e ef ba 6a bc 2e 1f d0 bd 5b 90 be 3d
       0.13497062 -0.014326795 -0.10162197 0.09304877
0002e0 66 de bc bd ff 53 90 bb b4 07 b7 bd b5 af 88 3c
       -0.09222107 -0.0044045444 -0.08937016 0.016685346
0002f0 e8 8c 99 3c 8d b1 5f 3d 2b a5 0f 3e a4 74 f6 3d
       0.018743947 0.054612685 0.1402785 0.12033966
000300 91 54 0c 3e 58 ab 91 3d f7 6f 0a be 87 52 00 3e
       0.13704135 0.07112759 -0.13519274 0.12531482
000310 52 e9 cc bd 48 fd 08 3e 78 50 ba 3d 9c 21 b1 bd
       -0.1000544 0.13377869 0.090973794 -0.086489886
000320 f8 45 94 bd c1 ff a1 bd 6b 25 79 3c 95 73 54 3d
       -0.07239908 -0.07910109 0.015206675 0.05186804
000330 b0 eb 77 3d 87 e7 7c 3d ed 2d b7 bd 62 04 0a 3e
       0.060527503 0.06174424 -0.089443065 0.13478234
000340 be f5 d8 bd c4 4c e9 3d df 3e 0d be 18 95 a7 bd
       -0.105937466 0.11391595 -0.13793515 -0.08182734
000350 a9 7c ac 3c 73 ab 7e 3b fd 36 ae 3b 1e 2b 84 bb
       0.021055536 0.0038859516 0.0053166137 -0.0040334603
000360 9c 7c b7 3d 59 3a 07 3e e2 00 03 3d 0a 68 04 bd
       0.08959314 0.13205852 0.031983264 -0.032325782
000370 b4 21 65 3d f2 11 8c bd 7b d3 f6 3d 37 c6 d4 3d
       0.055940345 -0.0683936 0.120520554 0.10389369
000380 1f 77 1f 3b 4f fb f3 bd 97 9b b4 bd 5b ae 13 be
       0.0024332476 -0.11913168 -0.08818739 -0.1442198
000390 5a be ac bd b0 17 10 be e2 ef 78 3d fe 18 18 bd
       -0.08434744 -0.14071536 0.060775645 -0.03713321
0003a0 71 6f c5 3d 66 8f 1e bd 70 86 f2 bc 42 1f b3 bc
       0.096403964 -0.038710974 -0.02960512 -0.02186549
0003b0 67 26 93 bd 3c b5 3e 3c 5f f2 ec bd f4 6c f6 3d
       -0.07185059 0.011639889 -0.11569666 0.120325
0003c0 59 6b 57 bd b4 8a a8 3d 2d ce 17 bc 44 e2 49 bd
       -0.05259261 0.082295805 -0.009265465 -0.04928805
0003d0 b4 47 ed bc 08 12 63 bd dc 90 18 3d 4f 78 79 bd
       -0.028964855 -0.055437118 0.037247524 -0.06090575
0003e0 24 02 16 3b b3 86 0c be fd 3d b8 bd cb 76 97 bd
       0.002288946 -0.13723259 -0.08996198 -0.07395705
0003f0 ae 94 e0 bc 70 77 bb bb 9f ba 0b 3e 9a f5 d3 bd
       -0.027414646 -0.005721025 0.13645409 -0.10349579

down_blocks.2.conv2.bias f4 [16]
000000 d4 62 16 ba 31 06 49 b9 dd a0 09 ba 64 71 72 b8
       -0.00057367724 -0.0001917116 -0.0005250106 -5.78029e-05
000010 1a ca ce 39 82 9d d0 b8 9d c4 b8 39 b9 c1 93 b9
       0.0003944196 -9.947551e-05 0.00035241703 -0.0002818236
000020 d5 2a 46 3a 6b fb 28 39 76 81 3b 39 8c 70 ca 38
       0.0007559483 0.00016115389 0.00017881938 9.653074e-05
000030 4a ca a6 b9 f1 57 e1 b8 62 ec 80 37 69 59 31 ba
       -0.00031812704 -0.000107452164 1.5368863e-05 -0.00067653373

down_blocks.2.norm1.weight f4 [16]
000000 0e 01 80 3f 7d 18 80 3f bf f0 7f 3f 1d 0f 80 3f
       1.0000322 1.0007473 0.99976724 1.0004612
000010 74 d6 7f 3f d4 03 80 3f c6 d7 7f 3f 75 db 7f 3f
       0.99936604 1.0001168 0.9993862 0.9994424
000020 ea 09 80 3f 2e f2 7f 3f 6c ff 7f 3f 96 da 7f 3f
       1.0003026 0.9997891 0.9999912 0.9994291
000030 b4 01 80 3f d0 18 80 3f 54 2b 80 3f ef bf 7f 3f
       1.000052 1.0007572 1.0013223 0.9990224

down_blocks.2.norm1.bias f4 [16]
000000 bc 80 d0 39 7f c3 8d 39 3c ef 20 39 db 03 d6 39
       0.00039768766 0.00027039272 0.00015347911 0.00040820133
000010 f5 c5 95 39 17 be 78 39 6f d3 3a b9 16 bc 96 39
       0.00028566984 0.00023721937 -0.00017817107 0.00028750364
000020 8d 4f 18 ba 6c 40 a9 39 06 38 76 b9 bd a4 58 39
       -0.0005810194 0.0003228219 -0.00023481259 0.00020660735
000030 77 a5 26 3a ba 63 19 ba fd e1 f7 39 6e 20 c5 b9
       0.00063570536 -0.0005851347 0.00047279886 -0.0003759893

down_blocks.2.norm1.running_mean f4 [16]
000000 55 14 a1 3e 80 3a 16 3f 28 2d 3c 3e 72 0a 1f 3e
       0.31460825 0.58683014 0.183766 0.15531328
000010 71 19 27 3f 86 74 c0 3e 3b cf 21 3f 3e 33 aa 3e
       0.65273196 0.375889 0.63206834 0.3324222
000020 e7 40 93 3e eb fc 3c 3e 2e a6 77 3e be 76 f8 3e
       0.28760454 0.18455856 0.24184486 0.48528093
000030 53 18 bc 3e de c2 56 3f 08 c2 80 3f b0 40 80 3e
       0.36737308 0.83891094 1.0059214 0.25049353

down_blocks.2.norm1.running_var f4 [16]
000000 18 82 7a 3e 78 3d 17 3f 6f 98 f2 3d e0 6f b8 3d
       0.2446369 0.5907817 0.11845481 0.090057135
000010 97 30 0b 3f fc 93 cc 3e d3 4a 01 3f b5 f5 9c 3e
       0.5437102 0.39956653 0.505048 0.3065621
000020 16 09 42 3e cd 23 1a 3e 07 9d 0c 3e 55 0b 0e 3f
       0.18948779 0.1505272 0.13731776 0.5548604
000030 db 8e e1 3e a6 88 54 3f 48 bd a6 3f 9e 52 1e 3e
       0.44054303 0.8302101 1.3026514 0.15461203

down_blocks.2.norm2.weight f4 [16]
000000 c6 f2 7f 3f 15 ed 7f 3f fe bd 7f 3f 69 ba 7f 3f
       0.9997982 0.99971133 0.9989928 0.99893814
000010 dd 0a 80 3f 1b 1a 80 3f a1 c3 7f 3f 27 da 7f 3f
       1.0003315 1.0007967 0.9990788 0.9994225
000020 4e ee 7f 3f eb c2 7f 3f 05 e3 7f 3f 05 f3 7f 3f
       0.99973 0.99906796 0.9995578 0.99980193
000030 b5 10 80 3f ac 17 80 3f e8 19 80 3f a8 3e 80 3f
       1.0005099 1.0007224 1.0007906 1.0019121

down_blocks.2.norm2.bias f4 [16]
000000 c0 3a 6b b9 a0 f2 96 b9 ba a1 86 b9 d5 4f cd b9
       -0.00022433233 -0.00028791 -0.00025678967 -0.00039160126
000010 16 31 be 39 59 20 ce b9 a5 ba d6 37 60 4c f0 b7
       0.00036276196 -0.00039315483 2.5597701e-05 -2.8645794e-05
000020 e1 9e c9 39 dd f0 72 39 75 0c e1 b8 41 e8 da 39
       0.00038456082 0.00023168647 -0.00010731156 0.00041753243
000030 12 70 24 39 92 cb 02 b8 25 4e 3b b9 ac cc cb 38
       0.00015682008 -3.1184005e-05 -0.00017862821 9.7179174e-05

down_blocks.2.norm2.running_mean f4 [16]
000000 81 c0 ba 3e e0 d2 b1 3e 3d 59 b2 3e 0c d7 ac 3e
       0.36474994 0.34731197 0.34833708 0.33757818
000010 45 45 c0 3e ac 40 a7 3e 91 db a7 3e 02 c9 98 3e
       0.37552848 0.32666528 0.32784703 0.29840857
000020 6b f7 be 3e 5b e6 b5 3e c1 04 ad 3e eb 8d ab 3e
       0.3729814 0.3552731 0.3379269 0.33506712
000030 cd 71 aa 3e 29 d9 02 3f be 40 91 3e fb 0d cc 3e
       0.33289948 0.5111261 0.28369707 0.39854416

down_blocks.2.norm2.running_var f4 [16]
000000 1d 4a 85 3e db b7 72 3e f1 bf b0 3e 2a 13 b3 3e
       0.26033106 0.23702948 0.3452144 0.3497556
000010 b6 78 e2 3e f2 12 3d 3e 4a 78 87 3e a5 c3 ae 3e
       0.4423272 0.18464258 0.2645896 0.3413364
000020 a0 73 ea 3e 80 b0 b5 3e 06 99 b7 3e ad 16 92 3e
       0.4579134 0.3548622 0.35858935 0.28532925
000030 f6 40 91 3e 62 aa 08 3f 01 87 93 3e 0c a4 a9 3e
       0.28369874 0.53384984 0.28813937 0.3313297
