Models/b0668ffc-0ce7-41fc-9a1b-a4297259ba79.pt (torch, 166339 bytes, 110 tensors)

conv_final.weight f4 [2, 4, 1, 1]
00000000: cea5 6a3f 416f 01be 0830 593f ba88 71bf
00000010: a69c 50bf d39b 68bf 5803 44be c105 833f
0.9165925 -0.12640096 0.84838915 -0.94349253 -0.81489027 -0.9086277 -0.191419 1.0236131

conv_final.bias f4 [2]
00000000: f51c 2c3f f41c 2cbf
0.67231685 -0.6723168

down_blocks.0.conv1.weight f4 [4, 2, 3, 3]
00000000: 6ed6 7abe b2bc 85be eee7 243e 34df 013e
00000010: 7bc4 8e3e dc53 633d e020 adbe 7fbb 323e
00000020: f72e a9be a823 9ebe 1492 8e3e c025 5fbe
00000030: 6801 963d a9cc 5fbe fa4f 89be 98fa 02bd
00000040: 8f55 3ebe 3346 d83d 7915 113e b05d 8fbe
00000050: 6002 80be 3830 5abe c3b3 dd3b d7ba 3bbd
00000060: aee2 5cbe 2e37 aebc facb a63e 8919 e1bd
00000070: 85e4 d7bc 6d28 6bbe d4e1 093c 0e7a 01be
00000080: 234b 713b dd46 1e3d 6575 833d 7d83 6bbe
00000090: d4a6 4dbe 3762 803e 0f0f 133e 65b6 2b3e
000000a0: 59c1 0e3e 48b2 96be 6b7b e9bd 5436 803d
000000b0: dc8d 96be e197 ce3d db47 653e a9be 673e
000000c0: d9a5 863b 7084 c7bd b88d 0bbd 16e7 77bb
000000d0: 1d0c 583e cc34 c93e 3736 553d c683 1cbe
000000e0: e8a7 703e 868e 013d 9ce5 08be 7cdf 933e
000000f0: a39f 5ebd 9fc6 a6be caa5 a9bd a262 95be
00000100: 5d0c 933d b354 153e 4994 8cbe 9913 1f3e
00000110: bdff 76be 4d44 03be 7ed8 07be cfda 88be
-0.24495861 -0.26120526 0.16104099 0.12682801 0.27884278 0.055499896 -0.33814144 0.17454337
-0.33043644 -0.3088658 0.27845824 -0.21791744 0.07324487 -0.21855415 -0.2681883 -0.031977266
-0.18587326 0.105602644 0.14168347 -0.28001165 -0.25001812 -0.21307456 0.006765814 -0.04583248
-0.21570846 -0.021266546 0.32577497 -0.109911986 -0.026354084 -0.2296464 0.008415658 -0.12644216
0.0036818467 0.0386418 0.064188756 -0.22999378 -0.20083171 0.25074932 0.14361213 0.16768797
0.13940944 -0.29432893 -0.11400493 0.06260362 -0.29405105 0.10087562 0.22390692 0.22631325
0.004109126 -0.09742057 -0.0340707 -0.0037826947 0.21098371 0.39298093 0.052053656 -0.15284643
0.23501551 0.03163006 -0.13368839 0.28881443 -0.05435146 -0.3257341 -0.08283575 -0.29176813
0.071800925 0.14583091 -0.27456883 0.1553482 -0.24120994 -0.12819023 -0.13266179 -0.26729438

down_blocks.0.conv1.bias f4 [4]
00000000: 589f 84bd 9ea0 48bb 3cb2 bcbd c820 13bd
-0.06475705 -0.0030613313 -0.09213683 -0.035919935

down_blocks.0.conv2.weight f4 [4, 4, 3, 3]
00000000: c73e fabd 2b21 1bbe 622a bcbd a2e9 59be
00000010: 6754 83be a92c 8fbd ee59 23bd 9047 203e
00000020: fbe7 74be 1d8a 0c3e 7042 e73d bdbd 75be
00000030: 79cd 74bd c434 1cbc a1e3 42bc c388 91be
00000040: 9c09 0dbe 16c6 683e fa42 6d3c 62f7 1dbe
00000050: de73 00be b62f 783e d973 df3d 157b b1bd
00000060: 6891 cebd 395d 9d3d 9669 753e 113e 8dbe
00000070: a595 923e 68bd 55be 51a4 483e 5f88 6fbe
00000080: 6a9c 8ebe 8a7a 793e 5c43 34be a0f9 643a
00000090: c8d9 f13d 4ca8 8bbe fb30 30be db4e 53be
000000a0: 33b9 8aba 4fee a13d 8d32 7a3e f38d 863e
000000b0: fe91 debd 09d8 3fbe b48a 84be 5942 783e
000000c0: 7c44 1abd 365b d03d 4f2f 65be 50b5 4ebe
000000d0: 3bdf 1ebe 7caa 613e 0def 9cbe de28 8cbe
000000e0: 1419 97bd 526d 42bd f16d 2c3e 76db 183e
000000f0: af0f 89be ee1f a73b b96d df3d a8d1 1fbd
00000100: 2ae9 623e 4553 85be be07 aabd 08b4 be3d
00000110: 32c1 59bc 4987 8cbe 8a40 913d b2a8 483e
00000120: 0eaf 88bd 2ee4 61bd 8207 7bbd 1544 42be
00000130: 880c 2c3e 0eb9 8ebe 8fb8 7cbe 4bfb 55be
00000140: ba06 1a3e b48d cf3d 6549 8e3e 9c28 3a3e
00000150: d9c3 e1bd 74a2 263e 4c44 883e 891b 02be
00000160: 4f39 84bc 8796 7abe 14f6 873e b473 84be
00000170: 2a9c 313e ac82 7f3e f99a 5bbe 3ad7 4e3e
00000180: a5c4 13be c85b 8c3e 2ce9 25bd db51 0cbe
00000190: 3e0a 643d ebb5 113e 411e 473e dda7 e0bd
000001a0: 854a 8bbd f8e9 1a3e a105 69bd 30c1 183d
000001b0: 6477 023e 0a2d 433e 5551 e13c 508c 373e
000001c0: 62ad 483d 0c57 743e 8b31 b4bd 56ad 2e3e
000001d0: 0734 483d 688f 16be 01da 85be dc9d 37be
000001e0: 404b 94bd 7c0d e23d 1fda 52be abd9 5a3d
000001f0: 56b2 92bd 4b46 80be c2cc e13d dfa8 0a3e
00000200: 808b 113e 6c12 04be e610 c23d a11c 48be
00000210: 53df 3d3e 89ef b0bc 6f5e 473e fbc2 c83d
00000220: 918e 543e f611 8b3e 0cf4 aa3d ba9c 3a3e
00000230: 2c35 013e 73f1 8c3d 1dcc 71be 7aef 17be
-0.12219005 -0.15149371 -0.091877714 -0.2128053 -0.2565033 -0.0699094 -0.039880686 0.15652299
-0.23916619 0.13724561 0.11291969 -0.2399816 -0.059766266 -0.009534065 -0.011895091 -0.28424653
-0.13773197 0.22731814 0.0144813005 -0.154264 -0.125442 0.2423695 0.10910768 -0.08666054
-0.10086328 0.076837964 0.23966059 -0.27586415 0.28629795 -0.20873034 0.19593932 -0.23391865
-0.2785371 0.24363151 -0.1760382 0.0008734707 0.118091166 -0.27276838 -0.17206185 -0.2063555
-0.0010583758 0.07906782 0.24433346 0.26280174 -0.108676895 -0.18734755 -0.25887072 0.2424406
-0.037662968 0.10173647 -0.22381328 -0.20186353 -0.15514843 0.22037691 -0.3065113 -0.2737493
-0.0737783 -0.047467537 0.16838814 0.14927468 -0.26769778 0.005100242 0.109096 -0.039018303
0.22159258 -0.26040092 -0.08302258 0.09311682 -0.01329069 -0.27446964 0.07092388 0.19595602
-0.06674014 -0.05514925 -0.061286457 -0.18971284 0.16801655 -0.2787556 -0.24679779 -0.20896642
0.15041628 0.101344496 0.2779037 0.18179554 -0.11023683 0.16272908 0.26614606 -0.12705816
-0.016140608 -0.24471484 0.2655493 -0.25869524 0.17344728 0.24952191 -0.21445836 0.2019929
-0.14430483 0.27413774 -0.040505573 -0.137031 0.05567383 0.14229552 0.19445135 -0.109695174
-0.06801323 0.15128314 -0.056890134 0.037293613 0.12740856 0.1906015 0.027504602 0.17924619
0.048993476 0.23861331 -0.08798512 0.1705831 0.048877742 -0.14703143 -0.26142886 -0.17931312
-0.07240915 0.11037728 -0.20591019 0.05343024 -0.07162921 -0.2505363 0.110253826 0.13540982
0.14213371 -0.12897652 0.09475879 -0.19542171 0.18542223 -0.021598594 0.19469617 0.098028146
0.2075751 0.2716214 0.083473295 0.18223849 0.1261794 0.0688199 -0.2361302 -0.14837447

down_blocks.0.conv2.bias f4 [4]
00000000: 2b14 3bbd c114 3fbe d7c0 f93d 9d5d 103d
-0.04567353 -0.1866026 0.121949844 0.035245527

down_blocks.0.norm1.weight f4 [4]
00000000: de80 7e3f ab03 803f 35ac 733f 93a3 803f
0.99415386 1.0001119 0.9518464 1.0049919

down_blocks.0.norm1.bias f4 [4]
00000000: fda5 3ebc cea5 e53d dccb 243e 8044 863d
-0.011636254 0.11213265 0.16093391 0.06556034

down_blocks.0.norm1.running_mean f4 [4]
00000000: df63 9435 3e4d eb36 5b3d db3e 63d7 fc37
1.1055926e-06 7.012538e-06 0.42820248 3.0141038e-05

down_blocks.0.norm1.running_var f4 [4]
00000000: c7aa 9733 9e17 f634 b1d5 3b3c ee9c ad36
7.06255e-08 4.5838254e-07 0.011464522 5.174071e-06

down_blocks.0.norm2.weight f4 [4]
00000000: 1b26 833f 5cf9 8d3f 9712 823f 9e49 7d3f
1.0246004 1.1091723 1.0161923 0.98940456

down_blocks.0.norm2.bias f4 [4]
00000000: eba6 d9bc 2522 b5bd ed2a 00bc becd 4e3c
-0.02656885 -0.08844403 -0.007822734 0.012622295

down_blocks.0.norm2.running_mean f4 [4]
00000000: d4ba 4d3d e77d b83d 08a5 b83e de82 333e
0.050227 0.09008389 0.3606341 0.1753039

down_blocks.0.norm2.running_var f4 [4]
00000000: 2ef1 2e3d 0419 0f3e bc28 a73d 59a4 6f3d
0.042710476 0.13974386 0.08162066 0.058506344

down_blocks.1.conv1.weight f4 [8, 4, 3, 3]
00000000: 416a 59be 0df8 36be 484c 6e3e 4424 b13d
00000010: ca27 1abc 92c9 69bb c598 233e 525a 7cbc
00000020: f06d b7ba 15fc c6bc d71c 6dbe a1e3 57be
00000030: 4dbb 19bd 7023 0b3e 42a1 123e 8567 5e3e
00000040: 2f25 493e d095 3ebe 2c0c 0fbe e20e f03d
00000050: 676c 2b3e ce61 843d b16f 1fbd 18b4 b13c
00000060: c553 5cbd 9c7b a53d 4d55 19be 3744 293b
00000070: 0fa4 b7bd 198f b9bd 3e54 443e d496 cdbd
00000080: 6408 cd3c c362 cabd a6fa 2f3e b2a3 4bbe
00000090: 58a8 8eba 1de8 6dbe a2d9 27be 2256 5fbd
000000a0: 677e 32be a6df e0bd 2267 573e f39b be3c
000000b0: e3a8 363e 1ac6 183d 3873 4cbe 9110 553e
000000c0: 6767 bcbd debb 213e 751d 05bd fe1f 963c
000000d0: 553d 28be 4ade 8e3d 1e40 d4bd cc42 3a3e
000000e0: 7ed8 843d 529b 533e 9d0a 48be 0b97 ab3d
000000f0: a37c fdbd 6f06 66be 6b4a ed3d 52cd 54be
00000100: 9ad0 be3d ec6a dabd 27b7 10be 19e2 1bbd
00000110: 31f9 b83c 5c5a 70be fe9e 883d ae91 4ebd
00000120: 7267 253e 6724 32bd f194 253b d49b 20be
00000130: 87aa 6bbe ffdf 5dbd 1bf4 653e 05e9 51be
00000140: 6ca5 a5bc 3d96 eabd 3889 5bbe 7c80 8c3d
00000150: d4e7 04be a18c 90bd b25e 62be a91a 8d3d
00000160: 3329 3e3e b0fe 033e fbb7 593e 7c0b 35be
00000170: fe08 3ebc 64b6 4d3e ae26 a43d c84a f0bc
00000180: ff55 053e a211 db3d ab6c 10be 5950 31be
00000190: fbc3 f13c b34f a73d 0c43 15be d9de 1dbd
000001a0: bc1c ac3d e481 2e3d 6171 47be af62 7a3b
000001b0: 85e8 6ebe 68d7 21bd 2285 ab3d ddef ae3d
000001c0: cfee 593e b2bc 3a3e 0f64 283e 82a5 08be
000001d0: 5743 703e 4881 903d af8b fdbd 07aa f3bc
000001e0: 6f59 62be 5b57 62be 3c48 243d 88bb 723d
000001f0: 7751 2f3e 9e7c 26be 40a9 47bd 6e51 033e
00000200: 6099 20be 310c edbd c0e7 d13c 64d0 e4bd
00000210: d3a1 863c 571d 2c3e c863 5e3e a47a 7e3d
00000220: e55d 0abd 9da1 a6bd f6b6 6e3e d12f e33c
00000230: ac91 353e e1bf 8d3d ea4f 663e 5a66 4cbe
00000240: dc33 45be 3f02 393e bbde 643e 2e24 0cbe
00000250: b8f7 783d 31a5 5e3e a412 783e c142 243e
00000260: e1f8 03be d8bb 23be a938 4c3e 5613 25bd
00000270: 9b89 07be 5996 543e baa0 e5bc f840 153d
00000280: 34c4 05be 160f 603d fc0c 193e 1088 1d3e
00000290: 46f4 86bb a6a7 6fbd f6d0 56bd 343a 0abe
000002a0: 85ba 103d e458 bebc 6170 773e bdb5 4b3e
000002b0: 17d4 3fbd 3b17 a13d 2242 9fbd 956c aebc
000002c0: b421 a13b b417 36be 3e63 2ebe 1fd9 103e
000002d0: 426f 9dbd 71fa 533e b163 a23d 4b3b aebd
000002e0: 7edd 32be 3fb4 45be 7428 213e eb9f 403e
000002f0: 7f67 3fbe 7ef0 c2bc 4900 dcbd abf0 5abe
00000300: 726e 2bbc 281c 413c ea1c 90bd a898 42be
00000310: d34d d93d 2c50 83bd 0ff8 4ebe ec10 23be
00000320: 37b9 3cbd c5a7 4f3e c6ee b53d fe3a 59bd
00000330: bb5a 78be 346e 39be 2f9c 0f3e 9c40 633d
00000340: 0515 c7bd f58b 933c edc0 32be d95a 13be
00000350: caf3 593e b4d6 74be 49f1 16be d66c a83d
00000360: 16cc 25be 7852 45be 50e5 5abe f45d 773e
00000370: 917d dc3d 7137 343e ce09 873d 13e7 77bd
00000380: d15e fd3d 9170 083e 69f6 c9bd 84cb fb3c
00000390: bb7a 373e 3d51 523e 3423 d73b a3f4 e13d
000003a0: f668 35bd dda5 fa3d a95d 3cbd f50e 5e3e
000003b0: f3f6 453c 7290 103e 1fa6 d03d 788b 393e
000003c0: 79af e6bd 976b 483e bd93 fd3d 4f1b 39be
000003d0: 5bae 36be 6081 21be 42da 9a3c 7cec 2b3e
000003e0: 32e1 843d 10c7 653e 5094 22be e273 2c3e
000003f0: 8b61 dcbd e14c e73d c490 913d 7d16 343e
-0.21231939 -0.17868061 0.23271286 0.08649495 -0.0094089005 -0.0035673124 0.15976246 -0.015402393
-0.0013994556 -0.024290124 -0.23155533 -0.21082927 -0.03753214 0.13587737 0.14319327 0.21719177
0.1964309 -0.18611836 -0.13969487 0.11721589 0.16740571 0.06463967 -0.038924877 0.02169232
-0.053790826 0.08080217 -0.14973946 0.0025828013 -0.089668386 -0.09060497 0.19172761 -0.10038534
0.025028415 -0.098821186 0.17185459 -0.19886664 -0.001088391 -0.23233075 -0.16391614 -0.054525502
-0.17431031 -0.109801576 0.21035436 0.023267722 0.17837863 0.0372983 -0.19965827 0.20807101
-0.0919941 0.15794322 -0.032498796 0.018325802 -0.16429646 0.06975992 -0.10363792 0.18189543
0.06486605 0.20664719 -0.19535299 0.083784185 -0.12377288 -0.22463392 0.1158646 -0.20781448
0.09317131 -0.10664925 -0.14132367 -0.03805742 0.022579761 -0.2347197 0.0667095 -0.0504319
0.16152743 -0.043491747 0.0025265778 -0.15684444 -0.2301427 -0.054168697 0.224564 -0.20499046
-0.02022048 -0.11454437 -0.21439064 0.06860444 -0.1297906 -0.07058073 -0.22106436 0.06889851
0.18570404 0.12890124 0.21261589 -0.17680162 -0.011598824 0.20089108 0.0801519 -0.029332533
0.13021086 0.106967226 -0.14103954 -0.17315806 0.029512396 0.08169498 -0.14576358 -0.038542602
0.08403918 0.042604342 -0.19476844 0.0038205793 -0.23330887 -0.039512068 0.083750024 0.08541844
0.21282504 0.18236044 0.1644442 -0.13344386 0.23463188 0.070559084 -0.12380158 -0.029744161
-0.22104429 -0.22103636 0.04010795 0.059260875 0.1712092 -0.16258475 -0.048745394 0.12824032
-0.15683508 -0.11574591 0.025623202 -0.1117256 0.016434586 0.16808067 0.21717751 0.062128678
-0.03378095 -0.08136294 0.23311982 0.027732762 0.1773135 0.069213636 0.22491422 -0.19960919
-0.19258064 0.18067263 0.2235059 -0.13685676 0.060783118 0.21742703 0.24225861 0.1604109
-0.12887909 -0.15989625 0.19943489 -0.040301643 -0.13236086 0.20760478 -0.028030742 0.036438912
-0.13063127 0.054701887 0.1494636 0.15383935 -0.004118475 -0.05850949 -0.052445374 -0.13498765
0.03533413 -0.023235746 0.24163963 0.19893546 -0.046833124 0.07865759 -0.07776286 -0.02129201
0.004917348 -0.1778248 -0.17030045 0.14145325 -0.07687236 0.20701005 0.07929171 -0.08507403
-0.17467305 -0.1930704 0.15738088 0.18811004 -0.18691824 -0.023796316 -0.10742242 -0.2138087
-0.010463344 0.011786498 -0.07036765 -0.19003546 0.10610547 -0.06411776 -0.20211814 -0.15924424
-0.046075072 0.20278843 0.08883433 -0.053034775 -0.24253361 -0.18108445 0.14024423 0.05548154
-0.09720806 0.018011073 -0.17456408 -0.14390124 0.21284404 -0.23910028 -0.1474048 0.08223884
-0.16191134 -0.1926974 -0.21376538 0.24156934 0.107661374 0.17599274 0.06593667 -0.060523104
0.123716004 0.1332419 -0.09861452 0.030736692 0.17917912 0.20538802 0.006565476 0.11032989
-0.04428955 0.12238667 -0.04598776 0.21685393 0.012082803 0.14117602 0.10187935 0.1811961
-0.112639375 0.19572292 0.123816945 -0.18076824 -0.17839949 -0.15772009 0.018902902 0.1678943
0.06488265 0.22439218 -0.15876889 0.16841081 -0.10760792 0.1129396 0.0710769 0.17586704

down_blocks.1.conv1.bias f4 [8]
00000000: c70b 233b 4afd 253c 87ab 32bb 8ca5 9a3a
00000010: 2f68 e1bb 8e9d e73c 6efd 43ba 5b72 2b3c
0.0024878846 0.01013119 -0.0027262883 0.0011798604 -0.0068788747 0.02827337 -0.00074764236 0.010464276

down_blocks.1.conv2.weight f4 [8, 8, 3, 3]
00000000: 63c9 fe3d e63a efbd 5882 25be fdbc 263e
00000010: 1c62 063e f1f8 2cbe c71b 0f3e df74 083e
00000020: 88e0 983d 98eb d13c 7715 3fbe c1a0 153e
00000030: 260d 00bc 7b6e 1e3e a725 eabd deca 0a3e
00000040: cac7 f6bd b49b 383d 1063 5d3e 4db3 3c3e
00000050: 9c0a 773d 239d ffbd f6a8 9fbd 003b 803d
00000060: 3565 09be 60f0 cdbd ef15 3d3d 38ff 76bd
00000070: 7fe7 343e 3cdc b3bc ee01 4a3d 992a 043e
00000080: f46e e6bd 773d b8bb a22e ec3d 070f b13c
00000090: 38d6 4f3e 844d 343e b76d f43d 78d2 323e
000000a0: f3ff febd 2687 643c af99 3bba 8ca2 2a3c
000000b0: e129 ee39 80fb c4bd 2061 52bd 588f 243e
000000c0: 4108 cf3b 578d 3fbe 1aa9 8d3d 9321 c1bd
000000d0: 52a1 bf3d 288c 18be bffc 2d3c ead3 963c
000000e0: d474 6d3c 9f77 cfbd 672b 0a3e 7d8d 333e
000000f0: 3690 1ebe 9804 1d3e f5de 0bbe 1cbb 3fbd
00000100: 690a 9a3d 4f9e 8bbc 3193 353d 5469 babd
00000110: 7248 4c3e a6cc 97bd 6237 f8bd fce5 b3bd
00000120: c3bb 10be fbfe 973c cc4a 8a3d 0f69 05be
00000130: 3fc8 1f3d 0fc5 19be bf98 d43d 12dd 1f3e
00000140: 90f9 4cbe 7501 35be 3683 493e bffc 43bd
00000150: 6240 3b3d 1fc9 4abe 1d34 c5bd 5365 573c
00000160: 0cd5 27bd 8e89 aebd 9b45 9dbd 54b9 2c3e
00000170: fe4e 6b3d 1c73 343e dad7 4b3e 6c61 123e
00000180: 3e94 d9bd 05e8 15be beb0 41bd feef ba3c
00000190: e5fe c5bd a428 293e f892 bfbc 4018 2e3e
000001a0: bbc4 7bbd f1ac 4a3e 91c3 10be 5f89 4ebc
000001b0: fa1e 78bd b6b9 4c3c ab7e c8bd b042 c9bd
000001c0: ebd6 6bbd 98e0 e53d 15b7 763d 3dcd 34be
000001d0: ea7e 983c 2705 da3d cca2 62bd 12ab 18be
000001e0: a9a4 3ebd aa5d 1cbc cd11 183e 7b85 ecbd
000001f0: ed0e 99bd 7dba d3bd 8b2a 35be 47e5 b7bd
00000200: 82c8 f63d 0148 d5bd af8c 0a3e 36e0 603d
00000210: 41e3 30be df34 f83d 61cf 033d 0096 de3c
00000220: 2580 99bd 76a0 05be cca1 f2bd 58f0 09be
00000230: 67bf bebb e9b5 01be c131 8ebd 187f e5bd
00000240: 6c50 f33d 5133 333e c554 c93d 9be6 433e
00000250: 041b 1dbe 66e1 093e 0178 933d 5e23 febc
00000260: 21b0 37bd 5b87 39bd 64ed 393d ea66 aabc
00000270: b0f1 05be ad72 de3d 9bce 48be 2bd3 173e
00000280: 5dc6 813d cbff 3c3e 6d0d 0c3e 3f03 0cbe
00000290: fa00 47bb 4d61 193e cc57 b3bd c4c7 a03d
000002a0: 1f7c 433e 929a 203e 1241 2a3b 9829 023e
000002b0: a673 25bd 4785 373e 584d adbb 5a14 2cbe
000002c0: 1b6c b13d a919 b2bc 21a9 bc3d 08c2 c7bd
000002d0: 090c fb3c 5171 1e3e 4b39 c33d f19c 043e
000002e0: aced c2bd f44c b7bd 924c c0bd c718 13be
000002f0: a22f 813d a421 acbd 2b97 24bd c93c d0bd
00000300: be1e 4f3e 8694 c3bd 11ed 853d 5f74 ea3d
00000310: 94c9 1dbe 911d 3fbd efe2 d63d cafe d4bd
00000320: dde9 88bd d0fa 40bc 2f3e 023e 1c05 c8bd
00000330: f87c dcbb 2c25 1e3c ef8d 3abe 3ec1 4c3d
00000340: d269 22bd 8674 6abd 2b63 f4bd 22b3 c7bb
00000350: 84f6 3c3e 145d 3a3d aca2 fabd 801a b23d
00000360: 9a65 27be e763 aabc df1a cbbd 3ece 4ebe
00000370: fc8f 3e3e 8533 44be 6de0 18bd 65e2 debd
00000380: 9a45 0e3e bfb2 13be f738 613d 117c 47be
00000390: 0cc1 2bbc ec6e f9bd f8d5 873c 42d0 49be
000003a0: 196a ef3d 052f 31be a299 0c3d 2f0d 30bd
000003b0: 623c c5bd ac6c c0bd 841f 3abe 4ab5 1f3e
000003c0: bcc6 31bd cf6e 843c 6511 0ebc 4dbb a43a
000003d0: e0ac 08be ad13 8d3d 6faa 263e 965e 313e
000003e0: f877 4a3e 2801 553d 70a5 cebd da9d a6ba
000003f0: caa3 d53d 6725 333e bd2d 09be 65c6 b43d
0.12440755 -0.11681156 -0.16163003 0.16283031 0.13123363 -0.16891839 0.1397544 0.13325833
0.07464701 0.025625035 -0.18660532 0.14612104 -0.007815635 0.15471832 -0.11432963 0.1355395
-0.120498255 0.045070365 0.2161982 0.18427773 0.060312852 -0.12481143 -0.077958986 0.06261253
-0.13417514 -0.100556135 0.046163496 -0.06030199 0.17666434 -0.021955602 0.049318247 0.12906875
-0.112516314 -0.0056225616 0.11532332 0.02161361 0.20296562 0.17607695 0.11934989 0.174631
-0.12451162 0.0139482375 -0.00071563845 0.010414731 0.000454261 -0.09618282 -0.051362157 0.16070306
0.0063181226 -0.1870626 0.06917019 -0.09430232 0.09356941 -0.14897215 0.010619341 0.018411595
0.014493186 -0.10130238 0.13493119 0.17534442 -0.154847 0.15333784 -0.1365927 -0.0468093
0.07521517 -0.01704326 0.044329826 -0.09102121 0.1994951 -0.074120805 -0.121199384 -0.087841004
-0.14134125 0.018554201 0.067525476 -0.13028358 0.03900933 -0.15016578 0.103806965 0.15611675
-0.20017076 -0.17676337 0.19678959 -0.04784846 0.045715697 -0.19803284 -0.096290804 0.013146716
-0.04097466 -0.0852233 -0.07679292 0.16867572 0.05744838 0.17622036 0.1990656 0.14294976
-0.10623978 -0.1463929 -0.047287695 0.022819515 -0.09667758 0.1651941 -0.02338551 0.17001438
-0.061466914 0.19792534 -0.14137103 -0.012605994 -0.060576417 0.012495449 -0.09789785 -0.09827173
-0.05757801 0.112244785 0.060233194 -0.17656417 0.018615205 0.10645514 -0.055331036 -0.14909008
-0.04654375 -0.009543816 0.1485054 -0.11548897 -0.0747355 -0.10338304 -0.1769201 -0.08979278
0.120499626 -0.10414124 0.13530229 0.054901324 -0.1727419 0.12119459 0.032180194 0.027171135
-0.07495145 -0.13049492 -0.118472666 -0.1347059 -0.005821157 -0.1266705 -0.069430836 -0.11205882
0.11880574 0.17500044 0.09830622 0.19130938 -0.15342337 0.13464889 0.07200623 -0.031022724
-0.044845704 -0.0452951 0.04539241 -0.020801026 -0.13080478 0.108617164 -0.19610064 0.14826648
0.06336663 0.18456952 0.13676997 -0.13673113 -0.0030365572 0.14978524 -0.0875698 0.07850602
0.19090317 0.15683964 0.0025978726 0.1271118 -0.040393494 0.17921935 -0.005288761 -0.16804639
0.086631976 -0.021740751 0.09211946 -0.097538054 0.030645387 0.15472914 0.09532412 0.12950493
-0.095179886 -0.089502245 -0.09389605 -0.1436492 0.06307913 -0.08404854 -0.040183228 -0.10167844
0.20226571 -0.09549813 0.065393575 0.11447977 -0.15408927 -0.046659056 0.10492503 -0.1040016
-0.06685231 -0.011778548 0.12719034 -0.097665995 -0.0067287646 0.009652417 -0.18218206 0.049988978
-0.0396517 -0.05724003 -0.11932977 -0.0060943523 0.18453413 0.045498922 -0.122380584 0.08696461
-0.16347352 -0.02079959 -0.09917235 -0.20195863 0.18609613 -0.19160278 -0.037323404 -0.10883025
0.13893738 -0.14423655 0.054985967 -0.19480921 -0.010483038 -0.1217936 0.01658152 -0.1970835
0.116901584 -0.17303093 0.034326203 -0.042981323 -0.09630658 -0.093957275 -0.18176085 0.155965
-0.04340242 0.016166119 -0.008671139 0.0012568027 -0.13347197 0.068885185 0.16275953 0.17321238
0.19772327 0.052003056 -0.100901484 -0.0012711838 0.10431631 0.17494737 -0.13396354 0.08826903

down_blocks.1.conv2.bias f4 [8]
00000000: 6540 63bb 2119 23bb 6f13 dcba 5940 73bb
00000010: c50a 9ebb 92b7 b2bb 0b3c 163b 8509 47bb
-0.0034675833 -0.0024886804 -0.001679046 -0.0037117212 -0.004823061 -0.005454012 0.0022923972 -0.0030370664

down_blocks.1.norm1.weight f4 [8]
00000000: 8192 813f 3b28 7b3f b297 823f 023f 7d3f
00000010: ce4c 7e3f 874a 803f 7930 803f 2cd8 7f3f
1.0122834 0.9810826 1.0202544 0.9892427 0.99335945 1.0022744 1.0014793 0.9993923

down_blocks.1.norm1.bias f4 [8]
00000000: 416a df39 6e9e 543a 1bf1 3fbb 5629 0bba
00000010: ce99 e6b9 95ef 173b fa99 e1bb da70 913b
0.0004261304 0.0008110766 -0.0029287997 -0.0005308589 -0.00043983612 0.0023183574 -0.0068848105 0.004438502

down_blocks.1.norm1.running_mean f4 [8]
00000000: ec16 173e a6fb 493e 9f19 3d3e d7d2 ce3e
00000010: f42a 6d3e 4e2e 703e 0c42 df3e cbff 2e3e
0.14754838 0.19724903 0.18466805 0.40395233 0.23160917 0.23455164 0.43605077 0.17089765

down_blocks.1.norm1.running_var f4 [8]
00000000: 8525 b43e 29dd a13d 9837 5e3e 199f 253f
00000010: 0da3 a13e bffd b23d ba7f cd3f 6f27 193e
0.35184875 0.07903511 0.21700895 0.6469589 0.3156971 0.087398045 1.6054604 0.14956449

down_blocks.1.norm2.weight f4 [8]
00000000: fc03 823f f67e 7f3f dfee 803f b645 803f
00000010: 2982 803f cebb 813f 24db 7d3f 6907 803f
1.0157466 0.998031 1.0072898 1.0021274 1.0039722 1.0135438 0.9916251 1.0002261

down_blocks.1.norm2.bias f4 [8]
00000000: ce5c b8bb d598 d338 e217 23ba 3651 313b
00000010: 5d9e 90bb 7e87 703a 526c 00bb 7d27 95bb
-0.0056262976 0.00010089731 -0.00062215154 0.0027056462 -0.0044134096 0.00091754633 -0.0019595814 -0.0045518265

down_blocks.1.norm2.running_mean f4 [8]
00000000: 90c8 9c3e 5df5 d03e a214 523e 141e b43e
00000010: dd0f 9f3e 56e4 ad3e 099d d33e cf4c 363e
0.30621767 0.40812197 0.20515683 0.35179198 0.3106679 0.3396327 0.41330746 0.17802738

down_blocks.1.norm2.running_var f4 [8]
00000000: 18c8 3b3f 953a 7c3e 790b 013f a92a 053f
00000010: 8732 0f3f 2238 653e ece6 ce3e 7cfa 573e
0.73352194 0.24631722 0.5040813 0.5201822 0.55936474 0.22384694 0.40410554 0.21091646

down_blocks.2.conv1.weight f4 [16, 8, 3, 3]
00000000: 2617 423d 426b 22be 1fd6 25bd 2ae6 22bd
00000010: e151 b23d 93d7 1abe 2287 163e 08b2 063e
00000020: 21f4 053e 3ed1 d33d de83 6bbd b749 ab3d
00000030: 743f ecbd 8b44 10be 1572 75bd 67c0 363d
00000040: 504f b4bc 79c4 21be 1744 7c3d 9495 af3d
00000050: d150 193e 4e05 253e 2e80 41bb e102 ab3c
00000060: c7b7 1ebe 9e8c d53d bf99 003c cdbc 073e
00000070: e2ad c5bd 8420 a4bd 9ccf 273e f0d8 f43d
00000080: a362 b1bd fbb3 993c 600a 1bbe 8a73 adbd
00000090: 4929 d53d a0fc db3d d78d adbd b3ac 6b3d
000000a0: ce68 823d a18b eebd 6e48 043e 7528 ca3d
000000b0: c1d8 8dbd 5ec7 e2bd c00c f73d eb2a fb3d
000000c0: b010 fd3c da3f 9ebc 2e1d ef3d a294 4fbd
000000d0: a053 d43d c601 ff3d 7a6c cfbd c139 1cbe
000000e0: 49db 80bc 6af4 ec3d f929 04be 155c c4bc
000000f0: 8acb 8ebd bc8b e0bc 3409 1abe bfeb 13be
00000100: 1332 21bd 059f dabb 7b56 223e f3b6 c0bd
00000110: 4057 e63c 5baa 21be 031b 50bc 6492 493d
00000120: eada ddbc 13cf 0bbe 3584 5d3c 91fb 283d
00000130: 36c5 f63d 4485 21be 854f 0d3e 27b1 d5bd
00000140: 4c74 c5bd 8d8c edbc 2a58 0b3e aa39 a33d
00000150: 382c 0dbc fc76 19be 5e73 543d cdad 1fbd
00000160: 230e e4bd b01e 37bd e96e 2fbd d976 f93b
00000170: 9b32 83bd 508c a7bb 955d b6bd 7439 1cbe
00000180: 360e 6dbd f650 d0bc 5774 933d a24d 833c
00000190: 2552 8cbd 5736 23be 0023 64bd 87b9 f73d
000001a0: 5896 903d 0d8b 5f3d 429f 12bd fb68 0c3e
000001b0: 1fa1 22be 2c3d 133e 9b7f 263d 7d01 663d
000001c0: 6103 1a3d 278f a1bd c337 d63d 4e8c 9e3b
000001d0: 5c0c cfbd 9b87 5b3d 4f5f efbd a16e acbd
000001e0: da8a 063e b4d8 e4bb e949 d73d f97c e13d
000001f0: 7846 223e 011b 17bb 983d ab3d a8ba b4bd
00000200: b508 863d c41f 2c3e 8470 e9bd 25a7 23be
00000210: d3ce 683c 614a 06be c30b 143d 7e98 fcbc
00000220: 002b 023e 52cb e43d 833c 1abe 7bc4 d9bd
00000230: 09ed 22be 6318 613d 9345 913c 0ee2 dd3c
00000240: eca3 b5bc 03ef 993d a24f a7bd 5123 51bd
00000250: c57f 15be 4d56 203e c5dd 18be 4b32 cabd
00000260: 9ce1 a7bd c4c3 213e 5d99 0a3e 751b ebbc
00000270: 1722 1f3e 051f 083e 026e ac3d 9a8c 21be
00000280: a9c6 1cbe bfd7 14be f536 a03d 5b33 d23d
00000290: e0ab 4abd 56b1 b7bd 10a0 553d 9408 0f3c
000002a0: b9c9 ebbd f637 7d3d 11e8 0ebd 6c50 d53d
000002b0: e719 c13d e6c6 ccbd fd82 aabc 3d21 e23d
000002c0: 9554 ae3d ba88 233e 1202 a63b f2f2 bfbd
000002d0: 6b73 3e3c e3fa 01be e6ab 00be e9ee fe3d
000002e0: 74f7 333d 1b73 1cbe 45a9 e13d c414 23be
000002f0: af60 943b 625b 20bb 419a 28be 5add 0dbe
00000300: f61e a93d 93b0 b23d cd60 2bbd b7fb 9abc
00000310: 32ba 7b3d d91e 15bd 3bd5 d9bd 22db 12be
00000320: 1fb6 cebd 2328 a3bd 6582 99bd 6a61 bbbd
00000330: 58aa a63d c043 f03d 0f5e 9dbd f5cf a73d
00000340: 73bd 5b3d 51a9 d73d 0414 dc3d faa1 05bd
00000350: 0971 473b 42a5 22bd f602 89bc 1d63 03be
00000360: c66b 1cbe ef82 52bd 0d3b 8b3d d4f2 cd3d
00000370: 55ea 163e 9a99 31bc af37 93bd db88 ab3c
00000380: 6588 1ebe 9092 abbd 5a85 06bd e72b 073e
00000390: e3ae 27be aba0 153e 6e0e 2c3e 307d d7bd
000003a0: ab01 0dbe 0b55 a03d 2dd3 573c 5fb3 873d
000003b0: b5bf 8dbd ec6e 14be 1c6d f3bd 2a09 8f3d
000003c0: 781a cfbd a18e eabd 3359 24bd 19c2 04be
000003d0: 1eae e43d 9434 18bd a13c 17be 3aa4 cbbd
000003e0: 7c4d dd3d 7232 3f3d fc77 753d 0327 a33d
000003f0: 4bc9 253e 95f2 babc 0a89 f43d 8dd7 1b3c
0.047385357 -0.15861228 -0.040487405 -0.039770283 0.087070234 -0.15121298 0.14699987 0.13153851
0.13081409 0.10342644 -0.057498805 0.08363669 -0.1153554 -0.14088647 -0.05992325 0.044617083
-0.022010475 -0.15797605 0.061588373 0.08573452 0.14972235 0.16115305 -0.0029525864 0.020875396
-0.15499793 0.10427211 0.007849156 0.13255616 -0.09652306 -0.08014014 0.1638779 0.1195544
-0.086613916 0.01876258 -0.15140676 -0.08469303 0.10408265 0.10741544 -0.084743194 0.057537746
0.06367646 -0.11647726 0.12918255 0.09870998 -0.06926108 -0.110731825 0.12062979 0.12264045
0.030891746 -0.019317556 0.116754875 -0.050678857 0.10367513 0.1245151 -0.10128112 -0.15256406
-0.015729563 0.11570056 -0.12906636 -0.02396969 -0.06972416 -0.02741038 -0.15042573 -0.14445399
-0.039354395 -0.0066717886 0.15853302 -0.09409895 0.028117776 -0.15787642 -0.012701753 0.049211875
-0.027081925 -0.13653211 0.01352029 0.041255537 0.12049334 -0.15773493 0.13799866 -0.1043418
-0.096413225 -0.028997684 0.1360785 0.07969983 -0.0086165 -0.14986795 0.051867835 -0.03898411
-0.11135509 -0.044707 -0.04283038 0.0076130447 -0.064061366 -0.005113162 -0.08904568 -0.15256292
-0.05787488 -0.02542923 0.071999244 0.01602823 -0.06851605 -0.15938698 -0.05569744 0.120959334
0.07059926 0.05457597 -0.03579641 0.13711922 -0.15881775 0.14378804 0.040649038 0.056153763
0.03760088 -0.07888632 0.104598545 0.004838503 -0.10109779 0.05359612 -0.116881005 -0.08419538
0.13138905 -0.006983841 0.10512144 0.11010165 0.15847194 -0.0023056867 0.083613575 -0.08824664
0.065446295 0.16808993 -0.11398414 -0.1598173 0.014209467 -0.13114311 0.03614403 -0.030834433
0.12711716 0.11171593 -0.15062146 -0.10633179 -0.15910734 0.054954898 0.01773337 0.02708533
-0.02217289 0.07516291 -0.08169486 -0.05105907 -0.14599521 0.15657921 -0.14928348 -0.09872874
-0.081973284 0.15797335 0.13535066 -0.028699616 0.15540348 0.13293083 0.0841942 -0.15776291
-0.15310158 -0.14535426 0.07822982 0.102637015 -0.04948032 -0.08969371 0.0521546 0.0087300725
-0.11513085 0.061820947 -0.034889285 0.1041573 0.094287686 -0.09998874 -0.020814413 0.11041496
0.085122265 0.15970126 0.005066165 -0.0937251 0.0116241975 -0.12693362 -0.12565574 0.12447912
0.04393716 -0.15278284 0.11018614 -0.1592589 0.004528127 -0.002446853 -0.16465093 -0.1385397
0.082578585 0.08725085 -0.041840363 -0.018918855 0.061456867 -0.03640637 -0.106363736 -0.14341405
-0.100933306 -0.0796664 -0.07495574 -0.0914944 0.08137959 0.11731672 -0.07683956 0.081939615
0.05364747 0.105303414 0.10746005 -0.032625176 0.0030432364 -0.039708383 -0.016725045 -0.12830777
-0.15275487 -0.0513944 0.067983724 0.100560814 0.14737828 -0.010839844 -0.07188355 0.020939281
-0.15481718 -0.08377564 -0.032842018 0.13200341 -0.16375308 0.14612071 0.1680238 -0.105219245
-0.13770168 0.07828721 0.013172907 0.06626009 -0.06921331 -0.14495438 -0.11886045 0.0698417
-0.101124704 -0.114529856 -0.04012413 -0.12964667 0.11166023 -0.037159517 -0.14769222 -0.09943433
0.108057946 0.046678968 0.05992888 0.07966425 0.16190068 -0.02282075 0.119402006 0.0095118405

down_blocks.2.conv1.bias f4 [16]
00000000: 2f30 b1ba e451 24ba d99f 1bb8 a55f 70b9
00000010: e9b9 21ba 73f4 e9b9 1149 97ba 0c4e 4db8
00000020: 0f97 a1b9 54b2 12ba ffae 643a a906 c23a
00000030: 279c 32ba 0956 3bb9 a42d f4ba 5000 3439
-0.0013518388 -0.0006268306 -3.710375e-05 -0.00022923814 -0.00061693654 -0.00044623352 -0.0011542161 -4.8948496e-05
-0.0003082086 -0.0005596031 0.0008723586 0.001480301 -0.00068134296 -0.0001786576 -0.0018629325 0.00017166254

down_blocks.2.conv2.weight f4 [16, 16, 3, 3]
00000000: cdba 83bd d53c 51bd 0d13 543d 90c3 e33a
00000010: 7d0f 993d aa3c d83d 4f80 14be 1fc1 d0bd
00000020: 80f6 ab3d 6fbd d0bd 8f5a 6e3d 9b43 7dbd
00000030: 1c4c c0bd 4666 23bd 3188 5f3c 080f 04be
00000040: 46a9 dd3d 401f 943d 147c e43d 0c36 cb3c
00000050: 4bf2 aabd 6e3d 25bc 9d3b 1c3c 7a3d 9cbd
00000060: ad1a 053d bcc1 50bd 427a e8bd a8c8 e03d
00000070: e2a6 fabd 9a4a 5f3d aa43 7f3d 5715 c13d
00000080: e0be b33d 3051 febd 10d8 d6bd 36ac cabc
00000090: 33bc 0a3e 6b3b 633d b1fd 493d b5c7 14be
000000a0: 4e2f febc 4251 193c 5301 d53c de77 af3d
000000b0: 3d4f 0b3e c80f c3bd 4ebc 0cbe c402 12bd
000000c0: beb1 ce3d 6570 b4bd e318 243b 2a44 093e
000000d0: c738 fc3d f5b6 f13d c7f8 433d 1a29 0b3e
000000e0: 95a9 063d b855 053e b275 0a3d 28f6 0a3e
000000f0: bcef 483d 9cbf 003d aaa9 223d a2fc 2a3d
00000100: 444e dc3c 59a3 55bd 0545 20bd 7a06 b7bd
00000110: f041 933d 7156 54bd f8c8 cc3d 8cdb 9abd
00000120: 90b3 483d 47d3 673d 26f4 f13d a268 b3bc
00000130: 2902 47bd af74 a03c 5755 d33d f748 aa3d
00000140: f479 e13d 516b 8fbd 7796 11bd a6c9 60bd
00000150: f76e 0a3e e2d4 2a3d ac8a ba3b 3b3a aabd
00000160: d3b6 ba3c 14d8 a43d e7bb 7bbd 3c8e 6a3d
00000170: be85 d7bd 2b49 43bd 21f2 09be ffc5 583d
00000180: 52d6 e3bd f4bb 60bd d7a9 883d 33f7 7d3d
00000190: 96db 8e3d b0ab fabd 545c 43bc 20a0 b7bd
000001a0: 1db1 eebd 7e5a 943b 2463 0e3d 31d3 a03c
000001b0: 1c45 81bd 4573 d5bc 6e13 fa3c 6d8e 04be
000001c0: 5b99 853d 1e96 d23d 79e5 d9bd 69f7 453d
000001d0: 63e7 f4bd 7dd3 b6bd 9bfa 013e afc3 bf3d
000001e0: 66df 10be b2af ffbc 6d5e d3bd 9055 eb3d
000001f0: e737 39bd 1513 e4bc 7421 0a3e 61fa 073e
00000200: 47fd e3bd 9777 09be d835 51bd 056f bbbc
00000210: f2c5 e3bd f3fb a63d 4cb7 793d f700 f73d
00000220: 64dc d43d d04c 9b3d df78 9cbd 835d cd3c
00000230: 4a76 a1bd cc35 d63c 33db 34bc 8a68 e0bd
00000240: 84c9 06be 28ae c73d b02a e3bc 9e9f 20bb
00000250: 3abd 583c 5f99 da3d d434 da3d 6fe2 fbbd
00000260: ce5d d13c 83b6 febd f510 e33d 07b4 e63d
00000270: 602f b43d ae67 11be 9980 d53c 3f08 c8bd
00000280: 9b06 d13d cf33 4f3d 8c41 dfbd fc77 e53d
00000290: 0e35 9a3d 1436 dd3c 5740 a6bd 5f21 ec3d
000002a0: ead6 893b 195f 733c 5117 893d ba18 14bd
000002b0: 6cd0 9ebc c3da 85bd c610 11be 0f89 f0bd
000002c0: d8e0 133d da86 a13d 5587 073e 5fea bf3d
000002d0: 0be9 093e 66ca 96bd e8d7 28bc fb65 c2bd
000002e0: d05a c13d b8f2 0c3d c921 0d3e 07a7 c8bd
000002f0: c1fc 683d 5f6c c03d 1e7d 093e ace3 b2bd
00000300: 03f9 c6bd 6cdb 08bd e8d1 b9bc 3e64 aebd
00000310: 1ae1 eb3d 90ef 773d e7ea d23d d0a6 06bc
00000320: ebb1 923c 85e3 07bc 32f7 f43c 8b8d ad3d
00000330: 3b77 593b d78b f53d 180f 853d 7040 16bb
00000340: 8ac5 febd 26bc 0d3c 8fd9 073e d791 033c
00000350: 581a ed3b 5cb5 333d 55b4 b23d 5b0a 9f3d
00000360: 5c43 453d 47dd 97bc e3c1 80bd e739 6bbd
00000370: ea08 d83d 18ed acbd e7cf 563d 9c13 abbd
00000380: 41e8 f5bd d8fa 1abd ad30 0fbe e8f2 0dbe
00000390: 0d17 abbd 3084 7f3c 3b78 013c 6cca ecbc
000003a0: c8de 6cbd 474c 84bd e553 613d 92ef 903d
000003b0: 65be 823d edfe 88bd 0917 e1bd 9d6b e23d
000003c0: ce6e ab3c ffd0 f2ba 166b e1bd 633d e5bc
000003d0: d8c3 d3bd 60e7 833d 164e 2a3d 9cb3 47bc
000003e0: 5b01 133e 2bd6 1f3c cd95 0f3e 3ce2 e6bc
000003f0: 4432 8c3b 5314 eb3c a566 03bd 24c9 813c
-0.06432114 -0.051083405 0.05177598 0.0017377008 0.07473657 0.10558446 -0.14502071 -0.10193085
0.083966255 -0.101923816 0.058191832 -0.06183205 -0.09389517 -0.039892457 0.01364331 -0.12896359
0.10823302 0.07232523 0.111564785 0.024806045 -0.08346995 -0.010085447 0.009535697 -0.07628913
0.032496143 -0.05096601 -0.11351444 0.10975772 -0.122388616 0.054514505 0.06232039 0.094278984
0.08776641 -0.12417829 -0.104904294 -0.02474032 0.13548355 0.055476587 0.049314205 -0.14529307
-0.031028416 0.009357752 0.026001608 0.08567785 0.13604446 -0.095244944 -0.13743708 -0.03564717
0.100924954 -0.088105 0.0025039248 0.13404909 0.12315517 0.118024744 0.047844674 0.13589898
0.03287657 0.1302098 0.03380365 0.13570464 0.049056754 0.031432733 0.039712586 0.041744836
0.026892789 -0.052157734 -0.039128322 -0.08936782 0.07190311 -0.05184025 0.09999269 -0.075614065
0.04899937 0.056597974 0.11814146 -0.021900479 -0.048586044 0.01958689 0.10319012 0.08314698
0.11009589 -0.07002891 -0.035543885 -0.054879807 0.13518892 0.041706927 0.0056928005 -0.08311888
0.022792256 0.08049026 -0.061458495 0.05726455 -0.10523556 -0.0476772 -0.13471271 0.0529232
-0.11124863 -0.054866746 0.066730194 0.062003326 0.069754764 -0.12239778 -0.011923868 -0.08966088
-0.116548754 0.004527389 0.034762517 0.019631954 -0.0631201 -0.026055941 0.030526843 -0.12944956
0.06523391 0.10282539 -0.106394716 0.04833165 -0.11958196 -0.08927057 0.12693255 0.093634956
-0.1414772 -0.031211708 -0.10320745 0.11490929 -0.04521933 -0.02784113 0.13489324 0.13279106
-0.11132293 -0.13424526 -0.05107674 -0.022880087 -0.111217394 0.08153524 0.06096582 0.12060731
0.10393599 0.0758301 -0.07640242 0.025069004 -0.0788389 0.0261487 -0.011038589 -0.10957439
-0.1316281 0.097500145 -0.027730316 -0.0024509202 0.013228709 0.106737845 0.106546074 -0.12299048
0.025557425 -0.12437155 0.11087219 0.11264806 0.087980986 -0.14199707 0.026062297 -0.09767198
0.10206338 0.050586518 -0.10901174 0.11204526 0.07529651 0.027003326 -0.081177406 0.115298025
0.004206528 0.014854216 0.066939004 -0.036156394 -0.019386493 -0.06535866 -0.14166555 -0.11744892
0.0361031 0.07887049 0.13235219 0.093708746 0.13467805 -0.07362823 -0.010305382 -0.094921075
0.09441149 0.034411162 0.1378242 -0.09797483 0.05688167 0.0939567 0.13426635 -0.08734831
-0.09715464 -0.033412382 -0.022683099 -0.085152134 0.11517544 0.0605312 0.1029871 -0.008218482
0.017907104 -0.008293991 0.029903028 0.08474263 0.003318264 0.11989563 0.064970195 -0.0022926591
-0.12440021 0.008650815 0.13266586 0.008030376 0.0072358064 0.04387413 0.08725802 0.07765647
0.048159942 -0.01853813 -0.06286981 -0.057428267 0.10548575 -0.084436595 0.052444365 -0.083533496
-0.120071895 -0.03783688 -0.13983412 -0.13862193 -0.08354006 0.015595481 0.0079022 -0.028905116
-0.05782965 -0.06459861 0.05501165 0.070769444 0.06383971 -0.06689248 -0.10990722 0.11055682
0.02092686 -0.001852542 -0.11006753 -0.027983373 -0.103400886 0.06440616 0.041578375 -0.012188818
0.14355986 0.0097556515 0.14021988 -0.028184049 0.004278453 0.028696215 -0.03208031 0.015842982

down_blocks.2.conv2.bias f4 [16]
00000000: bdd5 f839 8879 a7ba 48d7 28ba 38c6 603a
00000010: 166e 6cba a4c4 e4b9 5379 133a 9777 cbb9
00000020: 2181 313a b918 9bba e46d 8fb9 7d93 f439
00000030: 6253 50ba b204 ecb9 f346 c8b9 b80e 1039
0.00047461494 -0.0012777308 -0.0006440771 0.0008574459 -0.00090190896 -0.00043634058 0.00056256837 -0.0003880828
0.0006771256 -0.001183293 -0.0002735696 0.00046649194 -0.00079469953 -0.00045016926 -0.00038199834 0.00013738393

down_blocks.2.norm1.weight f4 [16]
00000000: 3656 803f 8b3c 803f fe1b 803f 792a 7f3f
00000010: a118 803f 9b34 803f 5300 803f f3ba 7f3f
00000020: bdf1 7f3f 26bf 7f3f dc1b 7f3f 7906 803f
00000030: eedf 7f3f cf0f 803f 44fe 7f3f 2324 803f
1.002631 1.0018476 1.0008543 0.99674183 1.0007516 1.0016054 1.0000099 0.99894637
0.9997824 0.99901044 0.99651885 1.0001975 0.99951065 1.0004824 0.99997354 1.0011028

down_blocks.2.norm1.bias f4 [16]
00000000: 9451 32ba 78bb 7aba 49e2 b7ba 609e da39
00000010: 5df1 bfb8 e75f 35ba b97b 33ba b2e0 d939
00000020: 87c3 ca3a 8a37 8c3a 7a2f 0bb9 5efc 27ba
00000030: f871 9aba ca45 2839 2fde 7e3a d852 9739
-0.0006802317 -0.0009564678 -0.001402923 0.000416982 -9.152547e-05 -0.00069188926 -0.0006846744 0.00041556876
0.0015469649 0.0010697704 -0.0001327376 -0.000640815 -0.0011783233 0.00016047727 0.0009722439 0.00028862688

down_blocks.2.norm1.running_mean f4 [16]
00000000: e949 b83e 2834 4a3e 8a11 a83e 3c53 823e
00000010: 4207 773e 1568 483f 1a81 bd3e ba2c 2f3f
00000020: 709a 923e 67f6 833e 4d8a 823e 2ee1 0e3e
00000030: 3037 943e 4c07 0f3f a8bb 8b3e 8b41 133f
0.3599389 0.19746459 0.3282588 0.25454128 0.24123862 0.78283817 0.3701256 0.6842762
0.2863345 0.25773928 0.2549614 0.13953087 0.28948355 0.5587051 0.27291608 0.57521886

down_blocks.2.norm1.running_var f4 [16]
00000000: e740 493f a87e 8b3e 2393 623e a146 333e
00000010: 00b8 983e bb48 2a40 ff42 903e ec71 bf3f
00000020: 900e 853e 8814 7f3e a928 743e dd01 d73d
00000030: da90 7b3e 2c61 b53f 401f 333e 32fc 9b3f
0.7861466 0.2724507 0.2212644 0.17507412 0.2982788 2.660689 0.28176114 1.4956641
0.25987673 0.24910176 0.23843636 0.10498402 0.24566975 1.417028 0.1749239 1.2186339

down_blocks.2.norm2.weight f4 [16]
00000000: 9cd9 7f3f 905d 803f 812a 7f3f 0d24 803f
00000010: 4b1e 803f 1f07 803f 4289 7f3f 4539 803f
00000020: f31f 803f 9e37 803f e1e4 7f3f 51c9 7f3f
00000030: 484a 803f 6046 803f 1711 803f badb 7f3f
0.9994142 1.0028553 0.9967423 1.0011002 1.0009245 1.0002173 0.99818814 1.0017477
1.000975 1.0016973 0.99958616 0.9991656 1.0022669 1.0021477 1.0005215 0.9994465

down_blocks.2.norm2.bias f4 [16]
00000000: 3699 9239 2340 a0ba 3ed2 dfb8 c78f 31ba
00000010: 7308 6aba 84d4 e8b9 ef47 253a 992b 55b9
00000020: 5a40 223a 8145 29ba 4892 92ba 6996 c13a
00000030: 04c5 98b8 6e83 31ba c243 31ba 30dd 83ba
0.0002796144 -0.0012226145 -0.00010672629 -0.00067734387 -0.00089276506 -0.00044408825 0.00063049694 -0.00020329504
0.00061893987 -0.0006457195 -0.0011182511 0.0014769557 -7.284622e-05 -0.0006771599 -0.0006762111 -0.0010060426

down_blocks.2.norm2.running_mean f4 [16]
00000000: f48a a43e b661 8a3e b710 9c3e d416 a03e
00000010: 745a cf3e 6b0b c13e 2e8d 903e 6455 943e
00000020: 5d10 ab3e 8dc5 853e fc39 993e dc19 9f3e
00000030: 1ecf 9b3e 0508 b43e 22f0 a43e cade 813e
0.32137263 0.27027673 0.30481502 0.31267416 0.40498698 0.37704024 0.28232712 0.28971398
0.33410922 0.26127282 0.2992705 0.31074417 0.30431455 0.35162368 0.32214457 0.25365287

down_blocks.2.norm2.running_var f4 [16]
00000000: 229c ad3e a1ff 973e b0f2 5e3e dd2a 6f3e
00000010: 0957 bc3e 1984 413f 02aa 883e c4f7 923e
00000020: 6595 643e 5a6a 6b3e 80c5 e53e 11c7 823e
00000030: 2ac4 8c3e b444 123f 6bbf 0c3f 76ae 883e
0.33908182 0.29687217 0.21772265 0.23356195 0.36785153 0.7559219 0.26692206 0.28704655
0.22322614 0.22989789 0.44877243 0.255425 0.2749341 0.5713608 0.5497958 0.26695603

down_blocks.3.conv1.weight f4 [32, 16, 3, 3]
00000000: 3f15 f0bd 5f87 de3c b7fb e9bd 1d07 193d
00000010: 89d2 c8bd 3a66 97bd ef82 c73d db8c 813d
00000020: 6749 a43d fb7b abbd be22 d7bb e529 873c
00000030: 83d5 b03d e75a d23c 781c 85bd 50af 1e3d
00000040: 8c49 a43d e8e8 393d 8550 2f3d 5f57 edbc
00000050: 2b9d a5bd 78c6 fe3c e2ac 8ebd 3753 afbd
00000060: 7b7f 4a3d 885b c53d 6059 9fbd 270b 20bc
00000070: f82d 1bbc 9dcf a53d cc65 db3d 207b 4bbc
00000080: 677e 3e3d 8571 723d 4deb bebd 86ba d33d
00000090: 85ce ce3d adb3 a1bd f350 b43d 6bc0 d8bc
000000a0: 5cac cb3d 26ed a03d 80ff f4bc 80bb c63d
000000b0: 44be 363c d251 22bd cb4c 91bd a7f2 d1bd
000000c0: 004c e43d 1689 103d eb96 d7bb 888e b6bd
000000d0: 7b5f c6bd 8279 93bd 453b abbd 5565 aa3d
000000e0: 080f ef3c b883 cabd 98ae ca3d 9091 103b
000000f0: 2be8 4abd 6589 b0bd 3c56 0cbd 1fdc c7bd
00000100: 6861 a7bd 20d4 e63d 8721 1d3d 62c4 7dbd
00000110: 96fd 90bd 6bef 363d 313c 143d 28d5 903d
00000120: 1570 323d 890d 343d 8bf2 c63d 4798 433d
00000130: 3a66 bfbd 4456 853d c3ab c0bd ebf1 88bd
00000140: c217 18bd d08a e6bd 81cc d4bd ed28 30bd
00000150: 43a5 963d b611 b23d 4769 23bd 8418 ee3d
00000160: 44bf eabd dc2a 633d fdea e3bd d5de 423d
00000170: 2d56 cabd b150 453b 81ab 5d3d 01f9 083d
00000180: f0f8 9f3d a8e3 a6bd 3c17 c43d de8a 27bd
00000190: b8e6 20bd d129 af3c eb14 43bd 4a9b aa3d
000001a0: bd55 89bd 9ef7 b23c 4610 5dbb 7858 bebd
000001b0: 8d35 e1bd d048 9e3d 9a30 d43d b68f cf3d
000001c0: a4e1 323d 6acc b7bd 4fbc afbd dbd4 1c3d
000001d0: a18e af3d b285 7f3d bf80 323d 0e0e 643d
000001e0: 5f66 d63d 023f c93d ad31 8cbd 1b0a 6abd
000001f0: d4a8 133d a4b8 abbd f676 4c3d 84ab d93d
00000200: acb4 533d e373 7bbd 10af 64bd 7506 babd
00000210: 39a8 fcb9 3287 713c f238 a3bd ffdf bebc
00000220: 101d 7b3d 513e 353d 5ef6 b73c 1de5 0bbd
00000230: eee5 12bd 86e3 2cbc 6f79 583d fa42 b1bd
00000240: c335 da3c cfa8 6ebd 176c a4bd 2452 3b3d
00000250: 2cce c83d 42fe 863d 761d 63bd b575 34bc
00000260: 1af4 68bd e7b0 ae3d 47eb e43d c28f c1bc
00000270: f636 173d f2c3 a4bd 55e4 5bbc 8e1c 8cbd
00000280: 62b7 903c ba56 753c b8c5 b6bc 49b0 0e3d
00000290: e87b 71bd cc02 babc 1086 3ebc 378d d2bb
000002a0: 5d06 783c 825a 83bd 3153 a73d f2e2 e6bd
000002b0: 72dc c6bd 2ea4 e53d e04b c73d a54f e8bd
000002c0: 23d0 1d3d 3e19 bc3d 51b8 203d 2137 c5bd
000002d0: afec ab3d 7f65 dd3c 1114 0d3d 44d6 edbc
000002e0: 8900 4bbd b1d0 43bc 5eba e83d f6e4 1d3c
000002f0: 58a3 dbbd 3407 92bd 58ec d8bd 3d89 83bd
00000300: 1777 eb3d 3401 c6bc 8ca3 183d b947 eabd
00000310: 783f d4bc 9b54 f93c 9e8f b2bd 8b4a 623d
00000320: a837 c93d 8882 11bd 5225 dbbd d74d 563d
00000330: e3b3 973c ef15 c13d 367b bc3d d8fe 133b
00000340: c1d8 073b f064 20bd 5521 85bd b31c 303d
00000350: a15f 9cbd 9fc0 92bd d9a9 2fbd 208c 853b
00000360: 101b 793d 6834 653c c923 c13c 46dc 84bd
00000370: 7d79 a53d 8a08 4dbc b32c bebc e789 12bd
00000380: 2967 d43d 698f cabd acb1 ec3d f14f b2bd
00000390: fa88 5dbd e983 813d 920a 923d 6b4a cc3d
000003a0: 6741 51bd 5afa d4bc 382e 2e3c 0143 c03c
000003b0: a7da 5b3c da2e ed3d 1124 9ebd 03ec f13c
000003c0: 02c0 003d 5bc5 1ebd 06d2 c5bd c60a dc3d
000003d0: acb3 683c 412e 9a3d 4bca a03d e324 713d
000003e0: f76e d2bc 1bb9 0d3d 824e 67bc f0de f83c
000003f0: bb08 eb3d cce9 563b 786e cbba a042 ec3d
-0.11722802 0.02716416 -0.11424964 0.0373603 -0.098057814 -0.07392545 0.097417705 0.06325694
0.08021813 -0.08373257 -0.006565421 0.016499469 0.08634474 0.025678111 -0.064995706 0.03874141
0.080218405 0.045388132 0.0428014 -0.028972326 -0.08086618 0.031100497 -0.069665685 -0.08560794
0.04943798 0.09636599 -0.07780719 -0.009768284 -0.009471409 0.0809624 0.107127756 -0.012419492
0.046507265 0.059190292 -0.09322224 0.10338311 0.10097984 -0.078955986 0.08804502 -0.02645894
0.09944984 0.078577325 -0.029906988 0.097037315 0.011153761 -0.03962881 -0.07094725 -0.102513604
0.11147308 0.035286985 -0.00657927 -0.089139044 -0.0968618 -0.0720091 -0.08360914 0.08320109
0.029181972 -0.098884046 0.09896582 0.0022059418 -0.04953782 -0.08619956 -0.034261927 -0.09758782
-0.08172876 0.112709284 0.038362052 -0.061954863 -0.07079618 0.04466192 0.036190215 0.07071906
0.04356392 0.04395822 0.0971423 0.047752645 -0.0934567 0.065105945 -0.09407761 -0.06686767
-0.037132032 -0.11256945 -0.103905685 -0.04300778 0.0735574 0.08694784 -0.039895322 0.1162577
-0.11462262 0.055460796 -0.11128805 0.04757579 -0.09879718 0.003010791 0.054118637 0.033440594
0.07811153 -0.08148891 0.09574744 -0.04090392 -0.03928253 0.021382244 -0.04762737 0.083304
-0.067058064 0.021846589 -0.0033731624 -0.09294218 -0.10996542 0.07728732 0.103608325 0.101348326
0.04367222 -0.08974536 -0.08580839 0.038288932 0.08572126 0.06238336 0.043579813 0.055677466
0.104687445 0.09826471 -0.068454124 -0.057138544 0.03604968 -0.08384827 0.049918137 0.10628417
0.051685974 -0.061389815 -0.055831015 -0.09083263 -0.0004819052 0.014741706 -0.07969846 -0.023300169
0.061307013 0.044248883 0.022456344 -0.034154046 -0.03586381 -0.010552293 0.052850183 -0.08655353
0.026636964 -0.058266457 -0.08028429 0.045732632 0.09804949 0.065914646 -0.055448018 -0.011014392
-0.05687342 0.08529835 0.11177688 -0.02362812 0.03691765 -0.08045186 -0.013421138 -0.06841384
0.017665569 0.0149742905 -0.022311077 0.034836087 -0.058956057 -0.022706412 -0.011628643 -0.0064255255
0.015138236 -0.06413747 0.081701644 -0.11273755 -0.09710015 0.112129554 0.09731269 -0.11343316
0.038528573 0.09184502 0.039238278 -0.09629656 0.08394753 0.027025936 0.034442965 -0.029032834
-0.049561057 -0.011951611 0.11363672 0.009637108 -0.10724515 -0.0713028 -0.10591954 -0.064226605
0.11497324 -0.024170496 0.037265345 -0.11439461 -0.02590917 0.03043585 -0.08718799 0.05524687
0.09825069 -0.035524875 -0.10700478 0.052320328 0.018518394 0.094280116 0.09203188 0.0022582319
0.002072856 -0.03915876 -0.06500498 0.04299612 -0.07635427 -0.07165646 -0.04288659 0.004075542
0.060816824 0.013989545 0.023576634 -0.06487326 0.08079813 -0.012514243 -0.023214674 -0.035776045
0.10371239 -0.098906346 0.11557326 -0.08706654 -0.05408571 0.06323988 0.071309224 0.099751316
-0.051087763 -0.025998283 0.010631137 0.02346945 0.01341883 0.11581202 -0.07721723 0.029531484
0.031433113 -0.03876243 -0.096591994 0.10744242 0.014202993 0.075283535 0.07851084 0.05887307
-0.025687678 0.03460036 -0.014117839 0.030379742 0.114762746 0.0032793162 -0.0015520593 0.11536145

down_blocks.3.conv1.bias f4 [32]
00000000: dba3 7ab9 ef71 9bb6 edf7 e136 7d7c b1b9
00000010: 3d6d 11b6 01bd 9db9 76ee 1b39 524c 1e39
00000020: 5776 e837 bfb9 d6b9 160f 0f3a c54f a239
00000030: bb8d 5139 5e1f 2eb9 5be5 1dba 1951 6439
00000040: cfe6 7e37 0165 cfb8 2ad6 9337 e0a5 14b9
00000050: a55f 9638 01c4 8d37 537a 4439 a97a e2b8
00000060: df9b e5b9 2fa6 bf38 2ccc f1b9 d2f7 aeb9
00000070: cfd1 e8b8 c9d4 fd39 b54a 7739 044a 0aba
-0.00023902899 -4.6326236e-06 6.734385e-06 -0.00033852822 -2.1670269e-06 -0.00030086192 0.00014870786 0.00015096486
2.7711661e-05 -0.00040955652 0.0005457265 0.0003095848 0.00019984592 -0.00016605618 -0.00060232513 0.00021773986
1.5193319e-05 -9.8893426e-05 1.7623493e-05 -0.00014176173 7.1703726e-05 1.6899781e-05 0.00018737586 -0.00010799367
-0.00043794417 9.138544e-05 -0.00046119222 -0.00033372507 -0.00011101702 0.00048414458 0.00023583586 -0.00052753114
