Models/bc29e1fa-6292-4032-a944-a85f5cfebf78.pt (torch, 167363 bytes, 110 tensors)

conv_final.weight f4 [2, 4, 1, 1]
000000 22 a8 15 3d a1 5e 40 3f 59 5a 61 3f 19 53 4f 3e
       0.036537297 0.7514439 0.88028485 0.20246543
000010 b8 f5 78 3f 54 6e 9e bf 94 37 77 3f 44 00 73 bf
       0.9724994 -1.237742 0.9656918 -0.9492228

conv_final.bias f4 [2]
000000 d9 01 72 3f d9 01 72 bf
       0.9453407 -0.9453407

down_blocks.0.conv1.weight f4 [4, 9, 3, 3]
000000 8f 73 c5 3d 54 21 3b be 28 ef f4 bd 2f 87 89 bd
       0.09641182 -0.18274432 -0.11959678 -0.06715237
000010 01 c4 f5 bc 89 e8 5b be 84 85 1d 3e c4 5e 68 be
       -0.030000689 -0.21475424 0.15382963 -0.226924
000020 b0 88 4c bb ca 03 da 3d 4a df 18 3e 1d 1b 2f 3e
       -0.0031209402 0.10645254 0.14928928 0.17100187
000030 2c 7f a0 3d 54 a1 c8 3d 59 af a9 3d 25 2a 2a bd
       0.07836756 0.09796396 0.08285398 -0.0415441
000040 75 73 21 3e 1f b4 99 bd 8a 0a 22 3e a1 37 f4 bd
       0.157667 -0.075050585 0.15824333 -0.11924673
000050 2e 4a 3c 3e cf 99 0e 3e 02 16 ad bd 3b df 43 3e
       0.18387672 0.13925861 -0.08451463 0.19128124
000060 b2 cf fc bc 25 8f 3b be d2 94 55 3d 5c c8 5a 3e
       -0.030860756 -0.18316324 0.05214388 0.21365494
000070 fb 05 04 be 28 20 27 be 82 09 05 3e 4e 97 02 be
       -0.12892906 -0.1632086 0.12991908 -0.1275303
000080 ee d6 5e be 69 ae 0a be 5f bb 21 be 39 23 32 be
       -0.21761677 -0.13543095 -0.15794133 -0.17396249
000090 73 8a 1e 3e 2c 32 f3 bd 06 4d b1 bd 2a 05 1e be
       0.15482502 -0.11874804 -0.08657269 -0.15431657
0000a0 f2 c6 1f be 0f 01 ec bc 39 a2 ba 3d be 73 2f 3e
       -0.15603235 -0.028809099 0.09112973 0.17133996
0000b0 51 ae 45 bd 72 f0 bf 3d 71 38 40 be ca b4 b6 3d
       -0.048261944 0.09372033 -0.1877153 0.089212015
0000c0 5b 94 09 bd dd 1d bb 3c b7 6c 34 be a9 bc c8 bd
       -0.03358875 0.022841388 -0.17619596 -0.09801609
0000d0 43 cb f3 bd 41 68 6c bd 06 33 28 3e 95 8a 01 3e
       -0.119040035 -0.05771661 0.16425714 0.12650521
0000e0 25 63 31 be f7 9e 42 be 22 03 42 3e 71 9a 08 bd
       -0.17322977 -0.19005953 0.18946508 -0.03335041
0000f0 02 c6 40 be 3d 42 99 3d 15 0d 19 3d 21 bb ae bc
       -0.18825534 0.07483337 0.03736599 -0.021329464
000100 82 f9 53 3c f4 e9 af 3d e6 9d a3 bd 72 a1 eb 3d
       0.012937905 0.08589545 -0.07989101 0.115054026
000110 b9 2b 1b 3e b8 02 e7 bd ba 6b 24 be de a7 83 bd
       0.15153398 -0.112798154 -0.1605672 -0.064285025
000120 e4 1c 1c be 8a f7 19 3e 54 93 09 3e e3 21 df 3b
       -0.15245396 0.15035835 0.13435107 0.0068094595
000130 09 f0 45 be 1f 08 47 3e 55 f6 41 be fc 91 5b 3d
       -0.19329847 0.19436692 -0.18941624 0.05360602
000140 40 56 33 3e 14 24 b8 bd 4b a2 ff 3d 26 df 11 3d
       0.1751337 -0.08991256 0.12482127 0.0356132
000150 c5 93 c2 3d 4c cc 8e bd 1e b2 6a be 64 4e 2f 3e
       0.09500841 -0.0697256 -0.22919509 0.17119747
000160 b7 88 62 be 5e 38 ba 3d ed bd 45 3e 23 d0 e3 3b
       -0.22122465 0.090927824 0.19310732 0.006952302
000170 b3 91 b8 bd 80 de 6b 3d 34 21 30 be 44 6c a5 3d
       -0.09012165 0.05758524 -0.17200166 0.08077291
000180 0a a3 5a 3e 66 65 1e be c2 77 46 3e 6e 94 21 be
       0.21351257 -0.15468368 0.19381621 -0.15779278
000190 da d3 50 be c0 bf 95 bd b1 c4 29 bd 7d 74 9b 3d
       -0.20393315 -0.07311964 -0.041447345 0.07590578
0001a0 8f 4a 34 be 48 6d 5e bc cd de a3 3d b1 95 04 be
       -0.17606567 -0.013575859 0.0800148 -0.12947728
0001b0 e2 e7 48 3d 78 37 b0 bc d4 53 ba 3d c5 71 8e bd
       0.049049266 -0.021510825 0.0909802 -0.069552936
0001c0 7c 3a 50 3e a1 13 29 bd ab 6f 4f bd 0f 40 3e 3e
       0.2033481 -0.041278485 -0.050643604 0.18579124
0001d0 26 d5 96 3c d1 4f 1f 3b bc 3b 3d be 71 d7 3e 3e
       0.018412184 0.002430905 -0.18479818 0.18636872
0001e0 8d ae 29 3e 6e a8 26 3e 22 24 dc 3d f8 18 3b be
       0.16570492 0.16275188 0.10749079 -0.18271244
0001f0 f5 3a eb 3d e1 90 d1 bc c7 ed 33 be 86 38 ab bd
       0.114858545 -0.025581779 -0.17571174 -0.0836039
000200 53 a0 6e bd 4b d0 d7 3d 34 20 df 3d e9 98 61 be
       -0.058258366 0.105377756 0.10894814 -0.22030987
000210 95 c3 49 3d 57 26 4c be b7 d5 39 be 8c b8 e6 bd
       0.049258787 -0.199365 -0.18147932 -0.11265668
000220 6e b1 01 3e 18 77 64 3e a2 1b a7 bb 16 3b 3e be
       0.1266534 0.22311056 -0.0050997296 -0.18577227
000230 f4 0d 2e 3e 7f c6 04 be 3f 40 83 3d 95 19 68 be
       0.1699751 -0.12966345 0.06408738 -0.22666009
000240 41 cf 4c 3d d0 ef 1e bd f8 d2 5b 3d f9 ce e6 3d
       0.05000234 -0.03880292 0.053667992 0.11269946
000250 a1 94 db 3d 39 7e b8 3d df e4 1e be 87 47 12 be
       0.10721708 0.0900845 -0.15516995 -0.14285098
000260 1e a0 5a be 51 c3 1f 3d 80 0f ba bb 0a d7 3c 3e
       -0.21350142 0.039004628 -0.0056781173 0.18441406
000270 96 fa f6 3c c2 25 8d 3b 4b 4d db 3d 98 c1 2a bd
       0.030148786 0.0043074796 0.10708102 -0.04168853
000280 8c f4 5a be 6f 55 08 be 8a 5e 38 3d 0e 94 4f be
       -0.2138235 -0.1331384 0.045012034 -0.20271322
000290 ea 90 54 bd 79 3d 01 3e f1 ea 54 be af 60 0d 3e
       -0.051896013 0.12621106 -0.20792748 0.13806413
0002a0 bf 35 76 3d 61 25 9c 3d 66 59 0c bd ff 88 28 be
       0.06010985 0.07624317 -0.034264944 -0.1645851
0002b0 a5 c3 29 be 05 8e 12 3e 53 01 e9 3d 05 a8 95 3d
       -0.16578539 0.14311989 0.11377206 0.07307438
0002c0 89 89 aa 3c 39 56 21 3d d2 f4 1c 3e 8f e8 5b be
       0.020817535 0.03938887 0.15327767 -0.21475433
0002d0 a4 32 8f bd 27 a8 7f bb 72 e1 02 3d 05 c5 41 3e
       -0.06992081 -0.0039010139 0.031953283 0.18922813
0002e0 fd b6 1e bd 96 29 91 bd 56 83 b6 3d e8 ed 1b 3d
       -0.03874873 -0.0708801 0.08911769 0.038068682
0002f0 4d f0 14 3e 90 08 09 3e a5 6e d6 bd 7c d6 2f 3e
       0.14544792 0.13382173 -0.104703225 0.17171663
000300 30 9f 53 bd 5e 7f 36 be 61 95 47 3e 26 1c 9a bd
       -0.051665485 -0.17822024 0.19490577 -0.075249
000310 95 1a 5e be 8d d2 25 3d c0 6e 22 be 33 a2 fe 3c
       -0.21689828 0.040484 -0.1586256 0.031083202
000320 6f 10 8a 3d 24 3b a8 bd 80 bd 31 3e ea e3 98 3c
       0.06741416 -0.08214405 0.17357445 0.018663365
000330 b9 9d 96 3d 95 7f b1 3d d4 5b 4a 3e 90 34 e3 bd
       0.07354302 0.086669125 0.19761592 -0.1109401
000340 d1 cb e1 3c ec 5b 25 bd f3 43 c4 3d 8c a7 57 3e
       0.027563008 -0.040370867 0.09583273 0.21060008
000350 de 31 d0 bd 1a d6 a6 bd a6 f7 fb bc 20 d9 11 be
       -0.101657614 -0.081463054 -0.030757736 -0.14242983
000360 df d9 d8 bd 93 5a fb 3c ed 81 62 bd a3 b6 c7 bd
       -0.105884306 0.030682838 -0.055299688 -0.09751632
000370 61 fc a2 3d c0 b5 cc 3d b9 4a 49 bd 25 79 0a be
       0.07958294 0.099956036 -0.049143527 -0.13522775
000380 6f 25 a0 bc e0 c1 1b 3c b9 e9 39 be e2 fe 67 bd
       -0.0195491 0.009506673 -0.18155564 -0.05663956
000390 b8 81 64 be 27 80 22 3c 2c 50 4c bd 82 19 69 bd
       -0.22315109 0.009918249 -0.049881145 -0.05690909
0003a0 fb bd df 3d 92 f5 4d 3d d1 90 49 3e 06 da dd bd
       0.10924908 0.050283022 0.1968415 -0.108326
0003b0 15 8b 02 be df ee 7b bd 08 fa 0f 3e 6e ce 76 bd
       -0.12748368 -0.061507102 0.14060223 -0.06025546
0003c0 45 2a 44 3e aa 35 60 3e 46 fa d1 3c cf 20 83 bd
       0.1915675 0.21895471 0.025632035 -0.06402742
0003d0 76 64 a7 bd 9c 41 44 3e 52 b8 83 bb 1c 3e e5 ba
       -0.08173458 0.19165653 -0.0040197754 -0.0017489824
0003e0 bd 7d 13 be b8 8c 37 3e ae 44 61 3e 1f dc e2 bd
       -0.14403434 0.17924774 0.21998855 -0.11077141
0003f0 e9 a2 46 3d 6d df f1 bd 99 2f 04 be 0f 6f 59 be
       0.048495207 -0.11810193 -0.12908782 -0.21233772

down_blocks.0.conv1.bias f4 [4]
000000 47 36 c8 bb c3 79 49 bc f5 62 40 3b d1 57 7b 38
       -0.006109986 -0.012297097 0.0029355858 5.992485e-05

down_blocks.0.conv2.weight f4 [4, 4, 3, 3]
000000 48 c4 69 be a0 7f 03 3e be 8e 8d 3d d3 c3 75 bd
       -0.22828782 0.12841654 0.069119915 -0.060001206
000010 0e 77 8c be 6f 0d 76 3e 2f 37 2e 3e 0f 33 8b be
       -0.27434582 0.24028562 0.17013238 -0.27187392
000020 89 a8 c7 3d 9a 20 8f be 24 ed 05 bc 64 87 f4 3d
       0.097489424 -0.2795456 -0.0081742145 0.11939886
000030 3e e6 32 3d 6e 57 94 bc b4 73 9a 3e 38 5d 73 3c
       0.043676607 -0.018108096 0.301664 0.014853768
000040 a8 0b 84 3e 5a 18 df 3d ff 0c d4 3c 8e c3 58 be
       0.25790143 0.108933166 0.025885103 -0.21168348
000050 a6 4b 42 bd 7c c7 ac bd 95 f5 16 be c9 30 2f be
       -0.047435425 -0.08436486 -0.1474212 -0.17108454
000060 06 1e 87 be 31 1d 93 3d e9 a2 81 3e e0 85 55 bc
       -0.26390094 0.07183302 0.25319603 -0.013032407
000070 6b d7 70 3d 1d 0e f8 3c d3 a0 aa bd 24 75 70 be
       0.05879919 0.030280167 -0.08331456 -0.23482186
000080 7a bc e2 bd ca 05 e4 bc 96 7a 82 3d 2f 6b 8c 3e
       -0.11071105 -0.027834792 0.06371038 0.27425525
000090 e6 96 87 3e 2e ce 36 be 13 c6 84 3e 04 0b bb bc
       0.26482314 -0.17852089 0.2593237 -0.022832401
0000a0 0d de b8 bd 4e 5a 0a 3e 4d 37 a9 3c 46 a2 cc bd
       -0.09026728 0.13511011 0.020656252 -0.09991889
0000b0 18 2f 8e be 97 7a 0a be 2a 16 8a 3e 60 4e 1c be
       -0.27770305 -0.13523327 0.26970035 -0.15264273
0000c0 28 16 1b 3e b9 9b 68 3e 05 b7 26 3e 04 6b 27 be
       0.1514517 0.22715653 0.16280754 -0.16349417
0000d0 5a 92 cc bd 50 11 82 3e 5e 8e 83 be b0 28 86 be
       -0.09988852 0.25403833 -0.25694555 -0.26202917
0000e0 4b 8e 06 3e 44 af 16 bd 9c 43 ac bd ea 85 73 3d
       0.13140218 -0.03678824 -0.08411333 0.059453882
0000f0 5f 35 a8 3d c3 ab 9f 3d d5 8b d5 bd 64 a5 84 be
       0.08213305 0.07796433 -0.104270615 -0.25907433
000100 84 42 83 be 73 a5 7e be 7f a1 7a 3e e9 94 3e 3e
       -0.25636685 -0.24867801 0.24475668 0.18611492
000110 06 46 a9 bd 69 e7 1d 3e e8 f4 3b 3e fb dc 1a 3d
       -0.08265309 0.15420307 0.18355143 0.0378084
000120 d5 b3 ae bd d5 3b 91 bd 1a 0a 1f be 30 34 2e be
       -0.08530394 -0.0709149 -0.15531197 -0.17012095
000130 30 87 f3 3c b0 d8 7d be b8 5f 75 bd 13 5a 05 be
       0.029727548 -0.24789691 -0.059905738 -0.13022642
000140 c9 98 57 3e d3 21 4f 3e e5 66 94 bd 75 cc 13 3e
       0.21054377 0.20227747 -0.07246188 0.14433463
000150 94 24 8a 3e 1a 2e a5 bd 2a d4 81 3e 2a ce 9c bd
       0.26981032 -0.08065434 0.2535718 -0.0765651
000160 17 d7 41 be 1d 6c 44 bd 17 aa e0 3d 61 1b 15 3d
       -0.18929707 -0.047954667 0.10969942 0.036403064
000170 7c a7 8e 3e a4 1f 3a 3e e1 79 26 3d 22 f5 0d 3e
       0.27862155 0.18176132 0.040643577 0.13863042
000180 9f a9 be bb 40 0f 1f be 43 f4 7e 3d 23 ce e2 bd
       -0.0058185603 -0.15533161 0.062244665 -0.11074474
000190 a5 3d 03 bd 33 40 37 ba d5 00 81 bd 88 3d 5d be
       -0.03204121 -0.00069904624 -0.06298987 -0.21605504
0001a0 48 77 bd 3d 96 6f 60 3e a8 01 09 be f6 42 d5 bd
       0.09251267 0.21917567 -0.13379538 -0.104131624
0001b0 53 4e 75 bd d8 c5 74 3e 68 26 9a 3d e3 25 53 3d
       -0.05988915 0.23903596 0.07526857 0.051549803
0001c0 a6 e7 26 3e b9 96 de bd 1c 58 70 be 23 50 bb 3d
       0.16299304 -0.10868592 -0.23471111 0.09146144
0001d0 a3 81 54 be 14 91 1d bd 2c 64 93 3d b3 73 06 3e
       -0.20752577 -0.038468435 0.07196841 0.13130073
0001e0 a2 9c ad bd c7 01 07 3c f0 5e 70 3e 83 4c 79 3e
       -0.08477141 0.00824017 0.23473716 0.24345593
0001f0 e2 db 68 be aa 1f 42 3e 04 bc a6 bd 31 df 89 bd
       -0.22740129 0.18957391 -0.0814133 -0.067320235
000200 0e b8 4d bd 52 76 b8 bd dd 9c 89 3d 83 cd 38 3d
       -0.050224356 -0.09006943 0.067193724 0.045117866
000210 0e 3f 44 be 56 39 17 3e ca 7a 1d 3d 24 3f 31 be
       -0.19164678 0.14767966 0.03844718 -0.17309242
000220 d6 e9 98 3d b0 b0 8e 3e 9f c4 43 3e d7 60 bc bc
       0.07466476 0.27869177 0.19117974 -0.022995396
000230 4d cc 95 bd aa 32 25 3e d9 4d 43 be 1d bf 94 bd
       -0.07314358 0.16132608 -0.19072665 -0.072630145

down_blocks.0.conv2.bias f4 [4]
000000 d5 7d da 3a 36 d9 ae 3b 8b d4 75 3a 00 27 bb 3b
       0.0016669581 0.005335952 0.00093776797 0.0057114363

down_blocks.0.norm1.weight f4 [4]
000000 08 cd 7f 3f d8 05 82 3f 39 dd 7e 3f 79 39 7d 3f
       0.9992223 1.0158033 0.9955631 0.9891582

down_blocks.0.norm1.bias f4 [4]
000000 79 19 b9 3a c9 9f ed 3b 10 53 75 bb 2d f5 c5 b8
       0.0014121971 0.007251714 -0.0037433542 -9.4393596e-05

down_blocks.0.norm1.running_mean f4 [4]
000000 66 93 38 3b 3a 3d 9f 3b 22 09 a6 3c 75 14 86 3f
       0.0028164028 0.0048595937 0.020268027 1.0474993

down_blocks.0.norm1.running_var f4 [4]
000000 78 95 2b 3a e8 86 2a 3b ab 0d 4e 3b 36 30 e0 3d
       0.0006545405 0.0026020352 0.0031441252 0.109466955

down_blocks.0.norm2.weight f4 [4]
000000 ec c8 84 3f 29 53 81 3f e0 01 7b 3f cb c7 7e 3f
       1.0373816 1.0103503 0.98049736 0.9952361

down_blocks.0.norm2.bias f4 [4]
000000 1b 64 50 bc 75 06 a4 3b f5 da 8b 3b d3 6c e5 ba
       -0.0127191795 0.0050056526 0.004268045 -0.0017503746

down_blocks.0.norm2.running_mean f4 [4]
000000 ba dc 29 3e 53 76 0b 3e ce 54 75 3e 95 b6 e3 3d
       0.16588107 0.13619356 0.23958132 0.11118809

down_blocks.0.norm2.running_var f4 [4]
000000 cb 3a 6d 3e dc 14 89 3e 27 6e bd 3e 77 ff ef 3d
       0.23166959 0.26773727 0.36998102 0.11718648

down_blocks.1.conv1.weight f4 [8, 4, 3, 3]
000000 a9 93 dc bc 43 7d 74 bd 7c b0 78 3d d8 0a 27 3d
       -0.026925879 -0.05968977 0.060715184 0.040781826
000010 b6 f4 35 be 19 5a a7 bd b7 28 1a 3e 76 0c 0b 3e
       -0.17769131 -0.08171482 0.15054594 0.13578972
000020 ca 3d 46 3e b7 3b 0c 3e 93 11 b4 bd d7 2d ff bd
       0.19359508 0.13694654 -0.087924145 -0.12459915
000030 de da 44 3e 41 26 df bd 76 d2 d4 3d bf de e8 3b
       0.19224116 -0.10895968 0.10391705 0.0071066315
000040 e9 69 67 3e 47 c7 5a be b0 f6 cc 3d ee 14 03 be
       0.22598995 -0.21365081 0.100079894 -0.12800953
000050 01 7d 5f 3d 02 c6 2a 3d 5b 66 78 bd 0a d6 2f bc
       0.054562572 0.04169274 -0.06064449 -0.010732183
000060 cd 04 b3 bd b5 3f 3e be 95 50 92 3c fa 58 9c bd
       -0.0874115 -0.1857899 0.01786069 -0.076341584
000070 33 36 54 be 5e e1 08 be be 75 b8 3d d5 d6 16 3e
       -0.207238 -0.13367221 0.090068325 0.1473039
000080 85 b4 a9 3d 31 91 00 bd 3c 9f 5d be d4 90 dc bd
       0.082863845 -0.031388465 -0.21642774 -0.10769811
000090 89 1f 4a 3e 44 a0 31 3c 29 3a d5 3d 4a 09 99 3d
       0.19738592 0.010841433 0.10411484 0.07472475
0000a0 e4 5f 37 be 57 3e 6d be 96 3f 61 be 14 01 97 bd
       -0.17907673 -0.23168312 -0.21996912 -0.073732525
0000b0 1b 3f 40 be 91 ed d8 bd a4 df f4 bc a0 6d 44 bd
       -0.18774073 -0.10592187 -0.029891796 -0.04795611
0000c0 0d d5 5b 3e 39 28 e7 3d c0 6a 03 3e 47 ef e8 3d
       0.21467991 0.11286969 0.1283369 0.113737635
0000d0 0b cd 12 be 55 e8 52 3c 95 12 40 3e fb 5d d6 bd
       -0.1433603 0.012872775 0.18757088 -0.10467144
0000e0 95 66 07 be 44 1c 57 3d 5c 1a e1 3c 68 64 61 3d
       -0.13222726 0.05251719 0.02747839 0.055027395
0000f0 56 e1 e9 3c 0d 04 14 3e 84 80 72 bd de f2 80 3d
       0.028549831 0.1445467 -0.059204593 0.06296323
000100 d6 64 eb bd d1 50 4a 3d 7b d8 96 3d 0e 95 8f 3d
       -0.11493842 0.04939348 0.07365509 0.07010852
000110 7f 10 42 3c 82 21 0c bd 83 3e 46 3e d6 6e 83 bd
       0.011844753 -0.034211643 0.19359784 -0.06417625
000120 f2 c2 5a 3e 89 f3 5d be 91 87 92 bd dc cb 9b bd
       0.21363428 -0.21674933 -0.071547635 -0.076072425
000130 68 09 ee 3d 60 fd 6e be df 30 52 3e 76 6e 32 3e
       0.11622888 -0.23338842 0.20526455 0.1742495
000140 14 d7 1f 3e 70 cb 36 3e 16 6b 0d be e6 74 d8 bd
       0.1560939 0.17851043 -0.13810381 -0.105691716
000150 22 0c 61 be 8b f6 f3 bd e7 9e 1b be be 8e 8d bd
       -0.21977285 -0.11912259 -0.15197335 -0.069119915
000160 83 2b 1c be d5 b0 08 be 55 6b 26 3c 85 c5 90 3d
       -0.15250973 -0.13348706 0.010157426 0.07068924
000170 dc dd 58 3e c0 7b 11 3e ae e2 3c be b1 d7 6b 3e
       0.21178383 0.14207363 -0.18445846 0.23031498
000180 3d e9 1d 3e 97 3b 23 3e a9 83 dd bd 24 d3 e1 bd
       0.15421005 0.159407 -0.10816128 -0.110266
000190 20 a3 1a 3e bf 97 8a 3d 92 ec 29 3e 7e dc da bc
       0.1510129 0.067672245 0.1659415 -0.026716467
0001a0 3f 96 b0 3d b5 7b 69 3e 52 85 4f be 3f f6 93 bc
       0.08622407 0.22801097 -0.20265701 -0.018061755
0001b0 67 18 b9 bd 07 13 bd bc 49 f2 c2 3c f8 53 1e bd
       -0.090378575 -0.023080362 0.023797171 -0.038654298
0001c0 d8 c8 3b bd 12 5c fd bd aa 23 0f be 33 f7 7a 3d
       -0.045845836 -0.12371077 -0.13978449 0.061270904
0001d0 a5 2d 4f be 16 a5 4c 3c d0 ba f1 3c b9 2e d4 bd
       -0.20232256 0.012490531 0.029508024 -0.10360474
0001e0 82 3f eb bd 94 cd 0a be cf 64 40 3e f2 b0 4e bd
       -0.114867225 -0.13554984 0.18788455 -0.050461717
0001f0 f8 80 57 3e 3f b6 0d 3e 98 9f 6d be 58 61 7e bd
       0.21045291 0.13839053 -0.23205411 -0.062104553
000200 74 97 0f be 9f 8e 11 3e ab 1b e0 3d 77 97 da 3d
       -0.14022619 0.14214562 0.10942777 0.10673421
000210 08 21 31 3e 8e 6a b9 bd de 3f 35 be 94 c2 26 bb
       0.17297757 -0.09053527 -0.17700145 -0.0025445567
000220 85 e3 fc bd 00 e1 ba 3d cf 41 3f 3c 91 f2 7e 3c
       -0.123480834 0.091249466 0.011673405 0.015560762
000230 26 0c 56 3e 6d 41 44 bd b8 73 ad 3d e3 b3 f0 3d
       0.20903072 -0.047913957 0.08469337 0.11753061
000240 f0 53 01 be 65 95 da 3d 78 cd 21 bd ef 79 31 be
       -0.12629676 0.10673026 -0.03950259 -0.1733167
000250 08 77 8e bd 7e e7 55 3c 76 ca 54 3e 3b 6f 52 3d
       -0.06956297 0.01305568 0.20780358 0.05137561
000260 31 76 68 be 4e 5a 0f be bb 63 cb 3d 3b f6 02 be
       -0.22701336 -0.13999292 0.099311315 -0.12789242
000270 d0 94 1e be 99 3b d6 3d f5 26 c8 3c 24 63 87 bd
       -0.15486455 0.10460586 0.024432639 -0.066107064
000280 1e 9f ea 3d 25 1e 5d 3e 70 54 ba 3d 0e a9 ef bc
       0.114561304 0.2159353 0.090981364 -0.029255416
000290 71 f0 64 be 7f ee 60 be c0 1c 4b 3e f3 74 13 3e
       -0.22357346 -0.21965979 0.19835186 0.14400081
0002a0 f0 36 f9 3c 28 93 14 3e c3 5e 63 be c9 2b 62 be
       0.030421704 0.1450926 -0.22204117 -0.22087015
0002b0 fa b6 15 3e 2c 38 9d bd d1 ce 26 3e 08 ef 9e bd
       0.14620581 -0.076767296 0.16289832 -0.07760435
0002c0 a6 72 ec 3c 8e d2 03 3e bc 77 0a be 01 5d a0 3d
       0.028863262 0.12873289 -0.13522238 0.07830239
0002d0 7d 01 0a 3e 4e 5f cc 3d 1e 27 d2 bd c6 ba 4c 3e
       0.1347713 0.099791154 -0.10261367 0.19993123
0002e0 43 ae 61 3e a3 97 47 3d 05 52 60 be 78 3e 39 3e
       0.22039132 0.048728596 -0.21906288 0.18090236
0002f0 10 e8 29 3d a4 18 2e bd dd 01 5b be 2d 62 63 3e
       0.041481078 -0.042503968 -0.2138743 0.2220542
000300 60 6e 2e 3e 36 c0 5d 3e 11 06 4d 3d 16 38 d8 bd
       0.17034292 0.21655354 0.050054614 -0.105575725
000310 3a f9 48 be ac 71 01 3d 81 94 ae 3d e0 46 1a be
       -0.19626322 0.031602547 0.085244186 -0.15066099
000320 b9 ea 92 3d 48 9e b2 bc 1c 80 e4 3d 69 dc 04 3e
       0.07173676 -0.02180399 0.111572474 0.12974705
000330 13 ec 37 bd 08 06 53 be 7c ac 23 3d ae 7c 40 3e
       -0.044902872 -0.2060777 0.039959416 0.18797562
000340 6a db 17 be 59 cf 52 3e c0 d0 92 3d 5b 1f 99 bd
       -0.14829794 0.2058691 0.07168722 -0.07476684
000350 8d 5a 32 3e d8 61 22 3e 26 93 a8 3c f5 2c d1 bd
       0.17417355 0.15857637 0.020577978 -0.10213653
000360 23 a2 6a 3c 78 eb 69 be 29 09 af bc c3 17 54 3e
       0.014320883 -0.2284373 -0.021366673 0.2071219
000370 38 f8 d1 bd 2c d2 37 be 3d 41 59 3e 68 8d 59 3d
       -0.10252422 -0.17951268 0.21216293 0.05311337
000380 0e c2 f5 bd 47 e9 f2 3d db 36 18 bc 13 f2 10 3e
       -0.119999036 0.118609 -0.009290422 0.14154844
000390 d2 96 6b be 8c 71 bd 3d 66 4c 83 3d c4 b1 50 3e
       -0.23006752 0.09250173 0.06411056 0.20380312
0003a0 21 e4 62 be a9 22 04 be 92 57 80 bd 17 b8 a5 3d
       -0.22157337 -0.12903847 -0.06266703 0.08091753
0003b0 a0 b7 2f bd ea a1 04 3e 0e fb f0 bd d4 80 62 3e
       -0.042899728 0.1295239 -0.11766635 0.22119457
0003c0 8a 6b 51 bd 63 4b 15 be 42 33 62 be e9 80 45 3d
       -0.051127948 -0.14579539 -0.22089866 0.04821864
0003d0 72 95 49 3e 59 6f 61 bd 43 5b 14 be 35 3a 4d 3e
       0.19685915 -0.05503783 -0.14487939 0.20041735
0003e0 92 be cd bc 6c ce 87 3c b0 98 64 3c ed 07 b3 3d
       -0.025115285 0.016577922 0.013952419 0.08741746
0003f0 61 92 02 3e 5c a0 87 3c fa a2 1c 3e d8 d4 93 3c
       0.12751152 0.016555957 0.15296546 0.018045828

down_blocks.1.conv1.bias f4 [8]
000000 50 91 f5 ba 06 6c 12 bb a4 8d 1a b9 b2 29 03 bb
       -0.0018735323 -0.002234222 -0.0001473935 -0.0020013866
000010 4c ae 1d bb 3c 99 91 b9 e7 82 5e ba 57 7b ed 38
       -0.0024060188 -0.00027770724 -0.0008488134 0.000113240145

down_blocks.1.conv2.weight f4 [8, 8, 3, 3]
000000 b9 a2 02 be e1 df df 3d de dd 17 3e f5 0a 26 3d
       -0.12757386 0.109313734 0.1483073 0.040537793
000010 27 ec 87 3d 72 2f 77 3c 9e d9 05 3e e4 04 4c 3e
       0.06636839 0.015086995 0.13071296 0.1992374
000020 df 14 3c 3e 9c 8b d6 3d 6e e7 ff bc b7 85 45 3e
       0.18367337 0.10475847 -0.031238284 0.1928929
000030 3c 68 1c be 5a 6f 22 be 0d d9 77 3d 21 5b fb bd
       -0.15274137 -0.1586279 0.06050973 -0.12273241
000040 1f e8 1f 3e 81 7c 3e 3e 83 13 eb bd 01 95 33 be
       0.15615891 0.18602182 -0.11478331 -0.17537309
000050 01 46 06 be 1e ec 1a 3d 7c 02 25 3b 61 67 4e be
       -0.13112642 0.037822835 0.0025178483 -0.20156623
000060 6c 52 9c 3d 49 39 07 3d 33 03 f7 3d 5f a8 9c 3d
       0.07632908 0.033013616 0.12061157 0.07649302
000070 a6 fb 0c be 3e 96 4a 3e 8a ea 97 3d 76 88 1c be
       -0.13767871 0.19783875 0.07417782 -0.1528643
000080 7d 93 2f 3d b7 0f ac 3d af f4 23 3e 34 dd 03 be
       0.042865265 0.08401435 0.16011308 -0.12877351
000090 08 25 2f be e4 03 ea bd 6e 4d 30 be b0 b3 91 bd
       -0.1710397 -0.11426523 -0.17217037 -0.07114351
0000a0 39 87 5d 3d 90 86 fb 3b 32 22 f7 bd f4 73 15 be
       0.054084036 0.007675953 -0.12067069 -0.14595014
0000b0 e4 d6 0c be 2d 69 3f be ac b6 36 be fd 0b 22 be
       -0.1375385 -0.18692465 -0.17843121 -0.15824886
0000c0 31 02 20 3e c6 40 f1 bd 47 f5 0d 3b 89 6d 0e 3d
       0.15625836 -0.11779933 0.002166109 0.03477243
0000d0 b9 6a 8a 3c 83 68 68 3d 5e e3 b2 3c d4 f6 43 be
       0.016896592 0.056740295 0.021836933 -0.19137126
0000e0 d8 f8 08 be 93 56 4e be 40 cd 21 3e ac b1 26 be
       -0.13376176 -0.20150213 0.15800953 -0.16278714
0000f0 1f 1b 1c bc dc 63 0f be f2 82 bd 3c f8 8e 01 bd
       -0.009527951 -0.14002937 0.023133729 -0.031630486
000100 70 59 05 3e 6e c2 40 3e 5d 77 56 3d 60 c1 b4 3d
       0.13022399 0.18824169 0.052359927 0.08825946
000110 eb c5 73 3c 19 20 a7 bd 86 ff 1f be 3b 48 15 be
       0.01487873 -0.08160419 -0.15624818 -0.14578335
000120 f8 91 2b be b3 75 2d 3d ea 99 4e 3e 90 e8 fa bd
       -0.16754901 0.042348575 0.20175901 -0.12251389
000130 9e b4 34 3e 0a bd 03 bd d4 90 87 3d a5 bf d6 bd
       0.17647025 -0.032162704 0.06619421 -0.10485772
000140 80 d5 b1 3d 95 f7 36 bd 8f 89 a9 3d 44 ba 14 3d
       0.086833 -0.044669706 0.0827819 0.03631045
000150 4f a1 cd 3d b9 e8 83 bd 93 5a 9c bc 2a eb 97 3d
       0.10040533 -0.06440873 -0.019086158 0.07417901
000160 df ab 03 be 77 92 16 bd 92 df 50 bd 5d ce 27 3e
       -0.12858532 -0.036760774 -0.050994463 0.16387315
000170 d2 65 4c 3e 3f 24 fe bd a3 93 1e be 7b 39 cc bd
       0.19960716 -0.12409257 -0.15486006 -0.09971901
000180 17 33 4d 3e 0f 30 8f bd b6 a9 45 3e e1 33 cd 3d
       0.2003902 -0.06991588 0.19303021 0.10019661
000190 b9 e7 43 be 58 39 74 b9 00 fd 33 3e 88 9f 34 be
       -0.19131364 -0.00023291016 0.1757698 -0.17638981
0001a0 9f eb 28 bd 4b 9e c6 bd c0 18 39 be 87 66 91 3d
       -0.04124033 -0.09698161 -0.18075848 0.07099634
0001b0 fc 55 b0 3d dc 67 24 be 1c ba 17 be 3e af 03 bd
       0.0861015 -0.16055244 -0.14817089 -0.032149546
0001c0 6a 0e a4 3d 40 16 ab 3d f4 43 a7 bd 62 82 00 be
       0.08010562 0.08353853 -0.08167258 -0.12549737
0001d0 23 4a 0f 3e 1c af 23 3e be 9a 5d 3c fe 2c 77 bc
       0.13993125 0.15984768 0.013525663 -0.015086411
0001e0 40 47 0f 3e cc 40 99 bd dc 82 2b 3e 31 01 3e be
       0.13992023 -0.07483062 0.16749138 -0.18555142
0001f0 6e d2 38 be 6f ed 4b be 96 1b 03 3e d8 e3 cb bd
       -0.18049023 -0.19914792 0.12803492 -0.09955567
000200 4f 69 14 be ca 44 9b bb 37 de da 3d ad f6 08 3e
       -0.14493297 -0.004738425 0.10686915 0.1337535
000210 97 b4 5a bd 40 f3 72 3d 38 cf b8 bc cb f4 1d 3e
       -0.05339488 0.059314013 -0.022559747 0.15425412
000220 5a 7d ae bd f2 30 55 3b 8b e4 02 bc cf 14 03 be
       -0.08520003 0.0032530394 -0.007989059 -0.12800907
000230 f0 d5 05 be 63 f8 ef 3d 87 b7 8c 3c 53 89 35 be
       -0.13069892 0.11717298 0.017177356 -0.17728166
000240 59 e1 04 3e ff b0 34 be 26 42 2f be a2 3b 9b 3d
       0.12976588 -0.17645644 -0.17115077 0.075797334
000250 0c e6 b7 bd d1 e4 4c be 4b 5a 49 3e 70 e5 31 be
       -0.08979425 -0.20009162 0.1966335 -0.1737268
000260 47 dc 44 3e 5b f8 f8 bd 63 cb 9c bd 45 3f 36 be
       0.19224654 -0.12156745 -0.076559804 -0.17797573
000270 52 f8 30 bd 1a e8 aa bd a8 e0 94 3c 6f a9 ff bd
       -0.043205567 -0.08345051 0.01817353 -0.12483489
000280 e2 db c1 bd 7a 63 d6 3d 4a 85 a2 bc 2f fb 4b 3e
       -0.094657674 0.104681924 -0.019838948 0.19920038
000290 a1 5b c4 bd dc f1 27 be fe b2 8b bd 92 fe 37 be
       -0.09587789 -0.16400856 -0.068212494 -0.17968205
0002a0 aa a5 28 be 2a a9 1a bd a0 fe 92 bd 7d 32 d4 3c
       -0.16469446 -0.037758984 -0.07177472 0.025902981
0002b0 53 c5 c8 bd c2 5c 05 3e d4 8d 4e bd a9 ab db bc
       -0.098032616 0.13023666 -0.050428227 -0.026815252
0002c0 69 66 a6 3d 1f 52 4e bd 4e fd 1a 3d e9 13 4d be
       0.08125002 -0.050371286 0.037839226 -0.20027126
0002d0 00 c7 55 bd 74 70 4e be 7a e8 e1 3d 82 03 d3 bd
       -0.052191734 -0.20160085 0.110306695 -0.103034034
0002e0 1e 49 d7 3c 9b 6a a9 3c 74 e8 b4 bc 08 2b c5 3d
       0.026279982 0.020680716 -0.022083499 0.09627348
0002f0 c3 75 8e bc b7 d7 00 3e 51 b6 2b 3e c7 65 73 bd
       -0.017390138 0.12582289 0.16768767 -0.059423234
000300 80 11 8a 3d 00 60 0e be 4e f6 39 3e f9 59 d7 bd
       0.06741619 -0.13903809 0.18160364 -0.10515208
000310 43 bd 32 be 16 0b 9e bd e2 a2 06 bc 5e 5a fb 3d
       -0.1745501 -0.07716958 -0.008217545 0.122730955
000320 62 61 3e 3e af 93 0b be 7f b9 8a 3d 4b 49 f4 3d
       0.18591836 -0.13630556 0.06773662 0.11928042
000330 b7 0f 23 be 76 17 eb 3d 24 58 b1 bd d4 c0 b4 bd
       -0.15923963 0.11479084 -0.086593896 -0.088258415
000340 f7 ed f4 3d 3e e4 ac 3d d4 27 21 be fd b7 5d bd
       0.11959451 0.08441971 -0.1573785 -0.054130543
000350 66 22 0d 3d 79 f0 3d be 0c da d9 3c 21 89 11 3e
       0.034456633 -0.18548764 0.02659323 0.14212467
000360 e1 bb dd bd 4b 77 0b 3e d7 77 32 3e 97 d6 e1 bd
       -0.10826851 0.13619725 0.17428528 -0.11027258
000370 63 ca 94 bd 2a eb 22 be 2f c1 48 3d 66 81 52 3e
       -0.07265165 -0.1591002 0.04901236 0.20557174
000380 25 50 51 bd 05 ea 47 bd de 26 af 3d ae 1d 06 be
       -0.051101822 -0.048807163 0.08552335 -0.1309726
000390 82 7d 00 bb 51 9f 07 be 41 1f 43 be 0e 42 a6 bb
       -0.0019606058 -0.13244368 -0.19054891 -0.0050737923
0003a0 98 23 83 3d 43 76 7f 3c 4e 0a 4c be 86 ba 0f 3e
       0.06403273 0.015592161 -0.19925806 0.14035997
0003b0 9f 03 12 be 10 18 99 3d d8 ff dc bd 1f 97 90 3c
       -0.14259194 0.07475293 -0.10790986 0.017650185
0003c0 47 11 9e bd 89 2f d2 3a 0b a2 e1 3d 67 e3 f1 3c
       -0.07718139 0.0016035895 0.11017235 0.02952738
0003d0 14 15 d6 3d d7 27 c5 bd c9 8f ad 3d 0d 40 c0 bd
       0.10453239 -0.096267395 0.084746905 -0.09387217
0003e0 e8 a5 f2 bd 5f bb e4 3d cb be fb 3c 49 8d 55 3b
       -0.1184805 0.11168551 0.030730626 0.0032585433
0003f0 45 23 29 3e 9f b1 49 3d bc 91 29 3c 04 fb 16 3e
       0.1651736 0.04924166 0.010349687 0.14744192

down_blocks.1.conv2.bias f4 [8]
000000 a6 9a 0b 3a a7 07 61 ba e2 34 61 3b 84 2e 22 bb
       0.00053254736 -0.0008584209 0.0034363796 -0.0024746964
000010 31 9c c0 ba b3 7c c3 b9 b6 60 4e ba 69 2c 42 ba
       -0.0014694986 -0.00037286206 -0.00078726874 -0.00074071303

down_blocks.1.norm1.weight f4 [8]
000000 45 18 80 3f b5 37 7f 3f 21 1e 80 3f 4a ad 7f 3f
       1.0007406 0.9969438 1.0009195 0.99873793
000010 7a 3a 80 3f f3 8c 80 3f e2 97 7f 3f 18 85 7f 3f
       1.0017846 1.0043014 0.9984113 0.9981246

down_blocks.1.norm1.bias f4 [8]
000000 73 98 9f ba 7e f0 40 ba 34 a9 32 bb 30 b8 05 39
       -0.0012176171 -0.0007360055 -0.0027261497 0.00012752484
000010 d2 4d c7 ba 65 3d 39 3a 00 f1 1d ba 60 f2 7a ba
       -0.0015205687 0.00070663384 -0.00060249865 -0.000957286

down_blocks.1.norm1.running_mean f4 [8]
000000 96 98 1f 3e 9b 67 41 3e 19 c9 6a 3e 3c 33 31 3e
       0.1558555 0.18887179 0.22928275 0.173047
000010 dd bf 17 3e d2 68 a3 3e 9b 40 1a 3e 10 5e 7f 3e
       0.14819284 0.3191591 0.15063708 0.24938226

down_blocks.1.norm1.running_var f4 [8]
000000 b1 34 2c 3e ba 75 a3 3e 22 fb ab 3e 75 e9 21 3e
       0.16816975 0.31925756 0.33590037 0.15811713
000010 ba 65 76 3e 74 8d fc 3f 3d 2c 1a 3e 93 73 a2 3f
       0.24062243 1.9730668 0.15055938 1.269152

down_blocks.1.norm2.weight f4 [8]
000000 9e e5 7f 3f 7b b3 7f 3f 0f 4b 80 3f 13 5d 80 3f
       0.99959743 0.9988324 1.0022906 1.0028404
000010 88 a8 80 3f da 95 80 3f 28 45 7f 3f 8e 08 80 3f
       1.0051432 1.0045731 0.997149 1.0002611

down_blocks.1.norm2.bias f4 [8]
000000 79 71 2c 3a f8 1a 9c ba 46 bf ce 39 e3 3c cd b9
       0.0006578188 -0.0011909893 0.00039433892 -0.0003914601
000010 bf 46 66 39 e2 12 cd ba 90 fa 18 bb a4 98 fd b9
       0.00021960864 -0.0015645886 -0.0023342706 -0.00048369647

down_blocks.1.norm2.running_mean f4 [8]
000000 f8 e8 a7 3e b6 9a 4e 3e 35 7a b8 3e 14 ad 11 3e
       0.3279493 0.20176205 0.36030737 0.1422618
000010 2c e9 75 3e ed 54 83 3e 01 2f 6b 3e af 27 5c 3e
       0.2401473 0.2565073 0.2296715 0.21499513

down_blocks.1.norm2.running_var f4 [8]
000000 86 ce 35 3f 23 1b 13 3e 9d ed b0 3d 42 fe 25 3e
       0.71018255 0.1436582 0.08639071 0.16210273
000010 1e d5 0b 3f 74 1d 1a 3f f1 f8 e7 3d 92 ad 11 3f
       0.54622066 0.6020119 0.11326779 0.5690547

down_blocks.2.conv1.weight f4 [16, 8, 3, 3]
000000 0a 07 24 be 47 8c a2 3c 97 88 03 be e5 f2 ee bd
       -0.1601831 0.01984228 -0.12845074 -0.11667422
000010 9b 6c 1d bc 30 77 18 be 39 d8 45 3d 4c 1c ff 3d
       -0.009608413 -0.14889216 0.04830191 0.12456569
000020 06 93 02 be 0e 4b 03 3e 3d d8 ba 3b 70 12 01 3e
       -0.12751397 0.128216 0.005702047 0.1260469
000030 ce a2 09 bc 4b c6 f2 bd 54 d1 f7 3d 5a 9d 11 be
       -0.008400632 -0.11854228 0.12100473 -0.14220181
000040 92 94 26 be 66 d4 22 bd 85 01 9b 3d 69 c1 94 bc
       -0.16267613 -0.03975334 0.07568649 -0.018158631
000050 c9 88 bf bd f7 85 05 3d 13 3a 3e 3d cd e6 e2 bd
       -0.093522616 0.032598462 0.046442103 -0.11079178
000060 b9 e7 1d 3c 5c d2 23 be b0 22 29 bc 0b 57 1f 3d
       0.0096377665 -0.15998214 -0.010323212 0.03890137
000070 22 ac 91 3c 11 54 6b 3d 74 8d e0 3c 13 54 a7 3b
       0.017782275 0.05745322 0.0274112 0.005106458
000080 c9 0d 9a 3d 35 83 26 bd 14 31 52 bd af 90 78 bd
       0.075221606 -0.040652473 -0.051316336 -0.060684856
000090 0c 45 a4 bd d5 32 0b 3b 58 fe 97 bd 13 57 21 bd
       -0.08020982 0.0021240015 -0.07421559 -0.03938968
0000a0 f3 30 06 3e 36 8a bb bd c7 c7 28 be 23 14 90 bd
       0.1310461 -0.09157221 -0.16482459 -0.07035091
0000b0 95 4f 5c bd ff 21 e1 3d 79 a9 3b bd c4 d5 76 3d
       -0.053786833 0.10992812 -0.04581592 0.060262457
0000c0 af ce 00 be c0 2e a4 3d 15 2e d6 bd fc c4 89 3d
       -0.12578844 0.08016729 -0.10458008 0.06727025
0000d0 7a 73 21 bd e3 ee 25 be 59 6a 0c 3c 13 26 9b bd
       -0.039416768 -0.1620441 0.008570277 -0.075756215
0000e0 82 cf ed 3d 54 a3 dd bd 1c fd 09 be e0 92 ce 3d
       0.116118446 -0.10822168 -0.1347546 0.10086608
0000f0 c7 a6 c4 bd 75 fb 00 be 76 f8 0c 3e 06 7e 87 3d
       -0.09602123 -0.12595923 0.13766655 0.06615834
000100 06 d3 8c bc f1 a8 d0 3b cd 7a c9 3d 54 fe 03 3d
       -0.017190468 0.0063677956 0.098378755 0.032224968
000110 b8 e6 91 3d b3 3f 6c 3d 87 f2 5f 3d ee 37 63 bb
       0.07124084 0.057677936 0.05467465 -0.0034670788
000120 b0 76 1e 3d a8 dd af bc 1a 02 08 3e 7d be 1b bd
       0.038687408 -0.021467999 0.13282052 -0.03802346
000130 b1 97 d0 3d 30 1e 9a bd b4 17 c4 bd 97 66 9d 3d
       0.10185183 -0.07525289 -0.095748335 0.07685583
000140 98 ab af bd bc d3 44 3d a4 bb 0c be 7e 2b 86 3d
       -0.08577651 0.048053488 -0.13743454 0.06551264
000150 8e 8c 32 bd 94 43 1f be 0f 68 b2 bd 7b 57 1b 3e
       -0.043591075 -0.15553123 -0.08711254 0.1517009
000160 5b 01 93 bc 88 ef cd 3d fd 98 29 3e d0 e1 11 be
       -0.017944982 0.100554526 0.16562267 -0.14246297
000170 1f b5 54 bd d2 e5 b0 3d a3 3f a1 3b 5d 96 7c 3d
       -0.051930543 0.08637585 0.004920916 0.061666835
000180 f6 d0 03 bc 82 d2 08 3e 82 9a ad 3d c2 97 93 3c
       -0.008045426 0.13361552 0.08476736 0.0180167
000190 da 3c 27 3e f4 8c d7 3b 02 2b dd 3d 20 46 99 3d
       0.16331807 0.006578082 0.10799219 0.074840784
0001a0 a3 8b 1b 3e df 15 a1 3c b3 b5 e9 bd 9f 0f 4a 3c
       0.15189986 0.01966375 -0.114116095 0.012332826
0001b0 f1 39 da bd da 19 23 be a2 c2 9c bc dc a2 a6 bd
       -0.10655583 -0.1592783 -0.019135777 -0.08136532
0001c0 28 98 95 bd 23 85 de 3d 70 b4 63 bd 36 41 ee 3c
       -0.07304412 0.108652376 -0.055592 0.02908383
0001d0 14 48 f5 bd f5 d5 b0 3c 75 67 d6 3c a3 30 28 be
       -0.119766384 0.021586398 0.026172379 -0.16424803
0001e0 81 93 b6 bc 53 00 b5 bb 29 c3 81 bd c5 cd a3 bb
       -0.022287132 -0.0055237203 -0.06336052 -0.004998895
0001f0 27 23 87 bd ce f8 c6 3d fd 0e 10 3d 5d fd d2 3c
       -0.06598502 0.097154245 0.035170544 0.025755579
000200 c1 5e 83 bd bb 97 0e 3e 9f ea 94 3d bb e3 9e bd
       -0.06414557 0.13925068 0.07271313 -0.0775828
000210 be a7 07 be c0 da 24 be b1 49 28 be f0 6a 32 3d
       -0.13247582 -0.16099072 -0.16434361 0.043559015
000220 24 d7 93 bd 58 76 df bd 30 ee 63 3c a0 94 db 3b
       -0.07218769 -0.10911244 0.013911769 0.006701067
000230 cf b7 f8 3d ec d3 04 3e ea ca 8c 3d 1b 25 73 3d
       0.12144434 0.12971467 0.0687464 0.05936156
000240 d4 b7 ba bd 48 fb c8 3c a5 88 62 bd 29 af e4 3d
       -0.09117094 0.024533883 -0.055306096 0.11166222
000250 3d 89 ab bc 50 04 46 bc da 54 9b bc 6f ef d6 3d
       -0.020939464 -0.012085989 -0.018961359 0.10494887
000260 51 cb ba 3d 7a 75 89 bb 92 08 02 3e 9d d9 eb 3d
       0.09120811 -0.0041949125 0.12698582 0.11516116
000270 6d d0 16 3e 6e 59 c2 3d bc 2d 19 3e c1 57 15 3e
       0.14727946 0.094897136 0.14958853 0.14584257
000280 27 74 c8 3c b2 b6 a7 bd ce 5e ca 3c 7e 02 ec 3b
       0.024469448 -0.08189143 0.02470341 0.0072024455
000290 be 22 2a 3d 66 33 78 3d 7f 8c ee 3d 58 a4 59 3d
       0.04153704 0.060595892 0.11647891 0.053135246
0002a0 d3 cf 53 3d 24 17 d3 bc d1 1d 19 bc 4d b7 46 3c
       0.05171187 -0.02576787 -0.009345488 0.012128663
0002b0 ee 93 25 be df 47 27 be eb 9d 03 3d f6 22 06 be
       -0.16169712 -0.1633601 0.032133024 -0.13099274
0002c0 7e 93 fe bb 97 bf 25 3e 36 2e 1a 3e 8d 5b 59 3c
       -0.0077690473 0.16186367 0.1505669 0.013266456
0002d0 4f df 8e 3b a9 99 c1 3d 5f 23 da 3d 44 84 6f 3d
       0.0043601166 0.094531365 0.10651278 0.058475748
0002e0 6e 79 6a 3d 0a f6 91 bd 42 58 c7 3c 35 83 9b 3d
       0.05724471 -0.07127006 0.024334077 0.07593385
0002f0 00 bd 7f 3d 0a 0e 23 bc e3 50 ff 3d ef 61 1a be
       0.062436104 -0.009952078 0.124666 -0.15076421
000300 df 9a 32 bd 5b 85 14 be 6b 08 13 be d3 4c 10 be
       -0.043604728 -0.14503996 -0.1435868 -0.14091806
000310 46 1b 76 bd de e7 a6 3b 5e d3 27 be 5c ef dd bd
       -0.060084604 0.0050935587 -0.16389224 -0.1083667
000320 17 78 16 be 33 c7 c1 bd 24 18 8f bd ac 7b 1b 3d
       -0.14694248 -0.09461822 -0.06987026 0.03795974
000330 86 92 dd bd 87 bb 8a bc 71 dd 67 bb f3 32 20 3e
       -0.10818963 -0.016935123 -0.0035379792 0.15644436
000340 af 2a 96 bd d7 02 f5 bc 6e 3b 20 3e b1 89 6e bd
       -0.0733236 -0.02990858 0.1564767 -0.05823678
000350 a1 73 93 3d 48 83 04 3e f8 81 c4 3c ce e9 06 be
       0.07199789 0.12940705 0.023987755 -0.13175127
000360 2a 15 55 3d 53 95 5f 3d ac a4 af bc aa 70 b5 3d
       0.052022137 0.054585766 -0.021440826 0.088593796
000370 02 4d 44 3d 76 ec 1c bd cb 59 f7 bd 63 9c ea bd
       0.047925003 -0.038311444 -0.120776735 -0.1145561
000380 df c0 da bd a9 fc 43 bd 0d ce 17 3d 91 c0 dc bd
       -0.106813185 -0.047848377 0.03706174 -0.107789166
000390 ac 68 04 3e 5f c1 28 3e 2d 5b f9 bd 5b 6f 9b bb
       0.12930554 0.16480015 -0.121755935 -0.004743499
0003a0 c5 e1 4f bd 63 ee 07 bd cc 30 c5 3d eb cb 14 bd
       -0.05075242 -0.033186328 0.09628448 -0.036327284
0003b0 d4 ae 08 bc 31 0f 7b bb fa a3 29 be 60 3d 05 be
       -0.0083424635 -0.0038308615 -0.16566458 -0.13011694
0003c0 a9 a8 b3 bc fe 9d 00 3e ea 72 dd 3d 65 68 0f be
       -0.02193101 0.12560269 0.10812934 -0.14004667
0003d0 f7 a8 a7 3d 4d eb 11 3e b7 25 29 3e 90 06 b4 bc
       0.08186524 0.14249916 0.16518293 -0.021975785
0003e0 af ae e3 bd d9 32 07 be c2 e9 0a 3e 7e ef b6 3c
       -0.111173026 -0.1320299 0.13565734 0.022330996
0003f0 1a 46 14 be a0 1f d2 bd 89 c5 a6 3d 0d 26 d5 bd
       -0.14479867 -0.10259938 0.081431456 -0.10407648

down_blocks.2.conv1.bias f4 [16]
000000 f4 1c bd 39 3a 91 f8 39 1e 13 fb b8 40 46 84 b9
       0.0003607046 0.00047410448 -0.000119721735 -0.00025229342
000010 1c 15 a6 b7 bc 2c f1 38 84 e5 88 b9 18 c2 1b b8
       -1.9798572e-05 0.00011500108 -0.00026110944 -3.7135644e-05
000020 fa b1 0c 38 23 83 03 39 7a 3c 0d ba 57 e1 2c 3a
       3.3544355e-05 0.00012541986 -0.0005387735 0.00065948576
000030 01 c2 c6 b9 ea a6 7f 39 23 9e a0 38 91 6c 56 b9
       -0.00037910047 0.00024380875 7.65885e-05 -0.00020449075

down_blocks.2.conv2.weight f4 [16, 16, 3, 3]
000000 cf 22 fb 3c 7c a2 ca bd 20 9e e1 bc 33 fe f8 bd
       0.030656246 -0.09894273 -0.02754122 -0.1215786
000010 91 9e cd bb 64 da 17 3d 27 ab f9 3d 5c 2f 04 3c
       -0.006275006 0.037073508 0.12190848 0.008067932
000020 ef 76 91 3d c8 a8 67 bd 2d 07 ca bd e2 20 06 be
       0.07102763 -0.056557447 -0.0986465 -0.13098481
000030 8c ae 5b bc bf 61 dd bd 89 39 5e bd e0 6d 0c 3d
       -0.013408314 -0.10809659 -0.05425409 0.034284472
000040 6b a2 f8 bd 43 1d f6 3d 33 a2 9f bc 0d b4 fd bd
       -0.12140354 0.120173 -0.019486522 -0.123878576
000050 21 93 0a 3d a5 b5 b7 bd 6d c0 98 3d 24 b6 c7 bd
       0.03383172 -0.08970193 0.07458577 -0.097515374
000060 3d 79 3f 3d 5a b8 a1 3d 4c 0e 97 3d c8 33 da bc
       0.04674648 0.078964904 0.07375774 -0.02663602
000070 ec 11 ad 3d 7e b1 ba 3d 82 25 c9 bd 6d e9 80 bd
       0.08450684 0.09115885 -0.09821607 -0.062945224
000080 9f 15 e1 bd ba cc c8 bd 4c 83 9c bd fa 5b 96 bd
       -0.10990452 -0.098046735 -0.076422304 -0.07341762
000090 e8 c2 e4 bd 8b ab f1 bd 25 04 ab bd f7 96 0c bc
       -0.11169988 -0.11800297 -0.083504 -0.008580915
0000a0 64 c7 88 bd 44 ce f8 3d 73 07 09 3e 46 ea e2 3d
       -0.06678656 0.12148717 0.13381748 0.1107984
0000b0 51 d3 ee 3d 80 b6 37 3d 84 d6 61 3d 22 c8 b1 3d
       0.11661399 0.04485178 0.05513622 0.086807504
0000c0 f8 7b ba bd b8 89 18 bd ef 84 5f 3b 3c e3 b0 bd
       -0.091056764 -0.037240714 0.0034106334 -0.086370915
0000d0 58 fd c4 bd ea 92 d3 bd 1f 6f 00 bd 73 6f b8 bd
       -0.09618634 -0.10330756 -0.031355973 -0.09005632
0000e0 9a 04 00 3e 6c 6d 00 3e e1 1d 85 bd 73 8c 5a bd
       0.12501755 0.12541741 -0.064998396 -0.0533566
0000f0 84 f8 46 bc d7 f6 ef bd 5e 8c f7 bc f7 c4 2a bd
       -0.012144212 -0.11717003 -0.0302183 -0.041691747
000100 b0 5c 65 bc df b8 cf bd 67 79 e9 bd e1 59 a3 3d
       -0.013999149 -0.10142683 -0.11400109 0.079761274
000110 77 e0 93 bd 92 fa c6 bd d1 ca 08 be b7 4e df bd
       -0.07220548 -0.09715761 -0.13358618 -0.109036855
000120 f5 28 c9 3d 49 35 d9 bc 27 59 e7 3d c1 a0 d5 bd
       0.09822265 -0.026514666 0.11296301 -0.10431052
000130 10 7e 66 3d 69 7b d3 3d 6c 15 3d bd 02 b9 8f bd
       0.056272566 0.10326273 -0.046163008 -0.07017709
000140 3d a0 89 3d 40 4c 42 3d 2e 68 73 3d 79 e6 23 3d
       0.06720016 0.047436 0.059425525 0.040014718
000150 05 80 4e 3d 1a 7f 81 bc 06 a6 07 bd b5 68 b8 3d
       0.050415058 -0.015807677 -0.033117317 0.09004346
000160 77 2c 9d bd 7d 9c 96 bd f6 b2 f1 bc 73 67 1e 3c
       -0.076744966 -0.073540665 -0.02950428 0.009668219
000170 b9 af ba 3a 97 df 66 bd 38 96 c4 3d 8c 9a 78 3b
       0.0014243043 -0.056365576 0.095989645 0.0037933914
000180 1c 65 0a 3c 5a 82 12 bd c3 14 16 3c 9f b3 e0 bc
       0.008446958 -0.035768844 0.009160223 -0.0274294
000190 eb 85 bf 3d c8 d2 dd 3c 51 de c7 bc a6 23 d2 3d
       0.09351715 0.027078047 -0.024398 0.10260706
0001a0 cb 42 12 3e c1 28 a5 3d d3 48 cf bc 86 93 be bd
       0.14283292 0.08064414 -0.02530328 -0.093054816
0001b0 6f 03 01 be af 22 dd bd 51 bc b1 bd f0 87 0c 3e
       -0.12598966 -0.10797631 -0.08678497 0.13723731
0001c0 f1 d8 08 3d d5 76 02 be f3 92 a0 3c 90 4f 84 bd
       0.033410016 -0.12740643 0.01960132 -0.06460488
0001d0 e1 6f bf bd b4 cf 9b 3d f4 05 9d 3d d5 28 87 3d
       -0.09347511 0.076079756 0.07667151 0.06599585
0001e0 d2 50 be bc 03 de f0 bd 8f 6b d0 3d 57 1d 0e 3e
       -0.023231898 -0.117610954 0.10176765 0.1387838
0001f0 ca de b8 bd 8b d1 0d be 29 17 a1 bd ad 19 af 3c
       -0.09026869 -0.13849466 -0.078657456 0.021374548
000200 4e 77 e1 bd 9e 3a c0 3d 25 e2 17 bc e1 3d 4b bd
       -0.11009084 0.0938618 -0.009270226 -0.04961956
000210 98 ce 77 3d 85 26 c7 3c a9 d8 11 bd 7e 5e ad 3d
       0.060499758 0.02431036 -0.035607014 0.084652886
000220 bb 4e fc 3d e7 bf b0 bc 1d 26 7d bc 4e 02 10 3d
       0.12319704 -0.021575881 -0.015450981 0.035158448
000230 52 7c a8 3d 8b 91 ed bd 91 0b c8 3d a3 18 2d bd
       0.08226837 -0.11600026 0.09767831 -0.042259824
000240 11 65 25 bc 15 77 84 bd 1c 74 c9 bd a7 48 44 3d
       -0.010094897 -0.064680256 -0.09836599 0.04792085
000250 2a 70 86 ba 90 fb 1b bd cb d5 00 bd aa f5 8c bd
       -0.0010256816 -0.038081706 -0.03145389 -0.06882794
000260 6d 3b fd 3d ed d5 72 bd 93 a6 9f 3d 14 b7 27 3d
       0.1236485 -0.059286047 0.077954434 0.04094608
000270 b6 6a 7a 3c bf e1 7e 3d 66 fd a2 3d 25 f2 4c 3d
       0.015284231 0.062227007 0.07958488 0.050035615
000280 dc e6 d0 bc 7c b4 e8 3d 3c 37 ad 3d e3 e7 f0 bc
       -0.025500707 0.1136255 0.08457801 -0.029407447
000290 ac f3 25 3d 56 77 18 3c 16 03 01 be cb 82 ce bc
       0.040515587 0.009305796 -0.12598833 -0.025208851
0002a0 aa bc 32 bd 4b 86 cd 3d f2 0a d0 3c 25 33 07 be
       -0.043636955 0.1003538 0.025395844 -0.13203104
0002b0 91 f0 88 3d e3 de 02 be c1 79 54 3d 6d 9e ec 3d
       0.066865094 -0.12780337 0.051873926 0.11553655
0002c0 70 c8 fa bd 07 7a 09 be 42 89 88 3c 1c 28 91 bd
       -0.12245262 -0.13425456 0.016667012 -0.070877284
0002d0 40 26 c6 3d 16 de 2a 3d cb 5c dc 3d 00 e6 39 bd
       0.09675264 0.041715704 0.10759886 -0.04538536
0002e0 fc d5 cc 3d 36 16 c3 bd 6c 52 56 3d 7f 0a 41 3d
       0.10001752 -0.09525721 0.052324697 0.04712915
0002f0 a5 07 0c 3e 4b 60 0f be 12 28 53 38 b4 3f 2e bd
       0.13674791 -0.14001577 5.034364e-05 -0.04254122
000300 8f ed 0b 3e ec f2 bb bd 7e 99 1a bd 45 f6 5d 3d
       0.1366484 -0.09177193 -0.037744038 0.05418994
000310 c7 bb 55 bc cb 0b 07 be 31 25 0b 3e ef ce 8c 3d
       -0.013045258 -0.13188092 0.13588406 0.06875407
000320 8c eb 06 3d 72 ed b0 bb 26 2a dc bd 2e 00 d0 bd
       0.03293948 -0.0053993994 -0.10750227 -0.10156284
000330 08 c8 99 3d 12 cd 07 be 52 59 f9 3d ae 77 f6 bd
       0.07508856 -0.13261822 0.121752396 -0.12034546
000340 45 b4 9e 3b 49 89 91 bd a7 0b 55 bd f3 f6 0e be
       0.004843267 -0.07106263 -0.052013066 -0.13961391
000350 e2 db 7f 3d 1c 86 98 bd 5d 30 f9 bd ad 8c f0 bd
       0.062465556 -0.07447454 -0.12167428 -0.11745582
000360 ab 88 9d bb e6 93 80 3d 75 9a d1 3d a7 b8 b8 3c
       -0.004807552 0.062782094 0.102345385 0.022548987
000370 ed 44 41 3d 97 b0 ea 3d a1 e4 4c 3d 66 6d 0b be
       0.047184873 0.11459463 0.050022725 -0.13615951
000380 dd bb c4 bd b4 c9 d6 bd 77 15 8f bd a8 74 f2 3d
       -0.096061446 -0.104876906 -0.06986516 0.11838657
000390 f9 6f f6 bb 13 07 40 3d e9 03 c1 bc f4 e5 10 3e
       -0.0075206724 0.046881747 -0.023561435 0.1415022
0003a0 ae cf 02 3e 17 87 6b 3d 76 69 3f bd 04 af 50 bc
       0.12774536 0.05750188 -0.046731435 -0.0127370395
0003b0 ed e7 b2 3d f3 56 80 3d 3f e5 df 3c b8 f3 1a 3d
       0.087356426 0.06266584 0.027330993 0.037830085
0003c0 2c 7a 09 be 20 62 2d 3c 63 a8 0c be 4e 13 ae 3d
       -0.13425511 0.010582477 -0.1373611 0.08499776
0003d0 8b cb ad bd 37 0e 22 bd ec 5f 95 3d 9e 70 10 3e
       -0.08486088 -0.039564338 0.07293686 0.1410546
0003e0 72 44 7b 3d 3b 8a aa bd b1 df a3 3d 15 f0 15 bd
       0.06134457 -0.083271466 0.0800165 -0.036605913
0003f0 e7 f8 0f bd d5 dc 21 bd 20 50 4a 3d ca 68 0f be
       -0.03514948 -0.039517242 0.04939282 -0.14004818

down_blocks.2.conv2.bias f4 [16]
000000 12 00 98 b6 c1 2f 5a 39 6b fb c4 b8 fd fa 8f b8
       -4.529961e-06 0.0002080789 -9.3928385e-05 -6.8655216e-05
000010 af 91 af 38 42 91 65 b9 9e 25 20 39 8c 68 00 3a
       8.371786e-05 -0.00021893255 0.00015272803 0.0004898391
000020 14 3f be 38 99 d1 24 b8 38 66 89 b9 66 1c 1e 38
       9.071655e-05 -3.929585e-05 -0.00026206835 3.7696584e-05
000030 6d 9b 48 b8 b6 60 45 b9 f0 1c 13 39 20 f6 94 b9
       -4.7828467e-05 -0.00018823412 0.00014029793 -0.00028412137

down_blocks.2.norm1.weight f4 [16]
000000 57 f8 7f 3f a7 14 80 3f d5 04 80 3f 1a e9 7f 3f
       0.9998831 1.0006303 1.0001475 0.9996506
000010 7c e1 7f 3f 10 19 80 3f 9d 0e 80 3f 7e f1 7f 3f
       0.99953437 1.0007648 1.000446 0.9997786
000020 74 05 80 3f 75 fd 7f 3f 5d f0 7f 3f ee d5 7f 3f
       1.0001664 0.9999612 0.9997614 0.99935806
000030 88 0b 80 3f 54 10 80 3f 79 f2 7f 3f 98 d0 7f 3f
       1.0003519 1.0004983 0.9997936 0.99927664

down_blocks.2.norm1.bias f4 [16]
000000 3e e3 8b 39 64 c6 4b b9 81 5e dc b8 d6 3b 1c 39
       0.00026681455 -0.00019433495 -0.0001050802 0.0001489961
000010 2a c9 26 b8 bd 7e 3c b9 c4 b0 14 b9 1d 45 68 b8
       -3.9764833e-05 -0.00017976291 -0.0001418023 -5.5377477e-05
000020 53 5d 43 38 e6 46 5e 38 b8 20 94 35 e9 79 39 39
       4.6578538e-05 5.2994954e-05 1.1036382e-06 0.0001768839
000030 35 f5 f3 b8 6a c7 5c b9 2a 86 11 b9 db 0d c2 38
       -0.00011632816 -0.00021055122 -0.00013878258 9.253222e-05

down_blocks.2.norm1.running_mean f4 [16]
000000 a1 42 d5 3d 29 4f b9 3e 22 74 05 3f 72 ae 33 3e
       0.10413099 0.36193207 0.5213033 0.17547014
000010 58 55 ec 3e 1e 49 fe 3e 01 75 c1 3e 16 07 af 3e
       0.46158862 0.4966516 0.3778458 0.34185094
000020 2b 80 1b 3f 43 57 51 3e 09 24 cf 3d c4 7c 66 3e
       0.60742444 0.20443444 0.10114295 0.22508532
000030 ff cb bb 3e a8 52 c5 3e ea c0 b7 3e c4 ef ea 3d
       0.36679074 0.38539624 0.3588937 0.11471513

down_blocks.2.norm1.running_var f4 [16]
000000 f8 b9 a4 3d fa 59 e6 3e 8b 9b 24 3f 12 95 08 3e
       0.08043283 0.44990522 0.6429984 0.13338116
000010 04 9d 2e 3f 41 d9 3c 3f ba a4 9c 3e 91 02 a5 3e
       0.68208337 0.73769003 0.30594426 0.3222852
000020 98 cc a3 3f 09 08 cd 3e 04 83 ac 3d cd 41 1e 3e
       1.2796812 0.40045193 0.08423427 0.15454789
000030 83 8a 81 3e 8e 74 b0 3e ba 37 27 3f e8 9b 7a 3d
       0.2530099 0.34463924 0.65319407 0.06118384

down_blocks.2.norm2.weight f4 [16]
000000 04 08 80 3f 44 0b 80 3f 75 08 80 3f dd 0a 80 3f
       1.0002446 1.0003438 1.0002581 1.0003315
000010 33 ff 7f 3f c8 08 80 3f a5 e5 7f 3f 83 0c 80 3f
       0.9999878 1.000268 0.99959785 1.0003818
000020 b6 00 80 3f e8 02 80 3f 9d 05 80 3f 42 f5 7f 3f
       1.0000217 1.0000887 1.0001713 0.9998361
000030 37 dd 7f 3f ee 1e 80 3f 4b fe 7f 3f ae 05 80 3f
       0.9994692 1.0009439 0.99997395 1.0001733

down_blocks.2.norm2.bias f4 [16]
000000 e5 3c 48 39 1e 10 83 38 88 7b a1 37 96 ca 28 38
       0.00019096171 6.249569e-05 1.925022e-05 4.0242994e-05
000010 57 6e 3a b9 31 a8 35 39 ab d2 8c b9 34 11 aa b7
       -0.00017779447 0.00017324161 -0.0002685984 -2.027359e-05
000020 dc e9 d2 b8 e8 b2 cd b9 e6 d3 8e b9 e7 a3 86 38
       -0.0001005714 -0.00039233943 -0.00027242227 6.420147e-05
000030 6c 64 7e 39 30 f8 94 b9 12 75 9f 37 d7 1f d8 b9
       0.00024260738 -0.00028413674 1.9008792e-05 -0.00041222453

down_blocks.2.norm2.running_mean f4 [16]
000000 2f f6 99 3e 12 dd a6 3e 47 b1 b6 3e 98 57 4b 3e
       0.30070636 0.32590538 0.35682127 0.19857633
000010 b5 3d dd 3e 8f 47 c0 3e 85 29 cd 3e 25 4d cd 3e
       0.4321114 0.37554595 0.4007074 0.4009792
000020 03 80 8b 3e 66 c6 aa 3e 59 44 9f 3e b2 1c b2 3e
       0.27246103 0.3335449 0.31106833 0.34787518
000030 3a 73 a5 3e c6 20 97 3e 0d 57 b7 3e d0 9e ab 3e
       0.32314473 0.29517192 0.35808602 0.33519602

down_blocks.2.norm2.running_var f4 [16]
000000 58 7e 27 3e 88 b4 9c 3e c6 9a 75 3e 28 a9 0a 3e
       0.1635679 0.30606484 0.23984823 0.1354109
000010 f9 38 4c 3f 13 0a 02 3f 7a 25 9a 3e 80 6c 84 3e
       0.79774433 0.5079662 0.30106717 0.2586403
000020 69 31 90 3e 8c 14 b8 3e 46 ec 6d 3e ac 4a f4 3e
       0.28162697 0.35953176 0.23234662 0.4771322
000030 a5 57 c4 3e bd 58 e8 3e 85 7e b8 3e f1 f2 bf 3e
       0.38348117 0.45380202 0.36034027 0.37490037
