Models/befecf49-4ac5-4a3b-a649-aa50daa35f1d.pt (torch, 167235 bytes, 110 tensors)

conv_final.weight f4 [2, 4, 1, 1]
0	0x3d0d956b	0.034566324
1	0x3f039fd2	0.5141574
2	0x3f717746	0.9432262
3	0xbf9bf65a	-1.2184556
4	0x3f4168ca	0.7555052
5	0xbf6f5c7b	-0.9350049
6	0xbd2448d9	-0.040108535
7	0x3f4cfdd0	0.8007479

conv_final.bias f4 [2]
0	0x3f435e90	0.76316166
1	0xbf435e8f	-0.7631616

down_blocks.0.conv1.weight f4 [4, 8, 3, 3]
0	0x3e399878	0.18124568
1	0xbe2f0c41	-0.17094518
2	0x3e642978	0.22281444
3	0x3e65f3c3	0.22456269
4	0x3b42c888	0.0029721577
5	0x3e5f52c7	0.21808921
6	0x3e0d6943	0.13809685
7	0x3d741ce4	0.059597865
8	0x3e4e408f	0.20141815
9	0xbe66109c	-0.22467273
10	0x3dd68aa4	0.10475662
11	0xbdfc47cf	-0.12318384
12	0xbe2dede2	-0.16985276
13	0x3e31185f	0.17294453
14	0xbd4e98bf	-0.05043864
15	0xbe50c2d3	-0.2038682
16	0x3d690fc3	0.056899797
17	0xbdc99144	-0.0984216
18	0x3c47232a	0.01215438
19	0x3df22bd5	0.118247665
20	0x3d31480f	0.04328161
21	0x3debd2d3	0.11514821
22	0xbe0a3afd	-0.13499065
23	0x3cb75c71	0.022382947
24	0xbde5a581	-0.11213208
25	0xbe3610be	-0.17779824
26	0xbca54193	-0.02017287
27	0xbda63b55	-0.081167854
28	0x3da713b6	0.081580564
29	0xbdc2e0b6	-0.095155165
30	0xbe5ff8f7	-0.21872316
31	0xbd818e8f	-0.06326019
32	0x3da4d199	0.0804779
33	0x3e419739	0.18905343
34	0xbd1146a8	-0.035467774
35	0x3cf7e623	0.030261105
36	0xbdd5d828	-0.10441619
37	0x3d88dac1	0.06682349
38	0xbe6d806d	-0.23193522
39	0xbdd9a7bf	-0.10627698
40	0xbcdd6b27	-0.027028633
41	0xbe5ddae0	-0.21665525
42	0xbe2bdb35	-0.1678284
43	0xbdd59f02	-0.10430719
44	0x3e26d1a0	0.16290903
45	0x3d23989b	0.039940458
46	0xbd4121a8	-0.047151238
47	0xbe416efe	-0.18889996
48	0xbdb32893	-0.08747973
49	0x3cd17dd5	0.025572697
50	0xbd19ac6c	-0.03751795
51	0x3d549463	0.051899325
52	0xbe19e650	-0.15029263
53	0xbe5a0fbf	-0.21295069
54	0xbdd5937d	-0.10428522
55	0xbe49dfff	-0.19714354
56	0x3dc0faa8	0.09422809
57	0x3e1a95fd	0.15096278
58	0xbe31b735	-0.17355044
59	0x3e160608	0.14650738
60	0x3da24402	0.07923128
61	0x3e678ba1	0.22611858
62	0x3e2eaea7	0.17058812
63	0xbdc1bda1	-0.09459997
64	0x3e091cf2	0.13389948
65	0x3d30fb47	0.043208387
66	0x3e11eba0	0.1425004
67	0xbe4ba3f3	-0.1988676
68	0xbc9e589d	-0.019329363
69	0x3d04d4e9	0.03242961
70	0xbdb6154a	-0.08890779
71	0x3c6cd186	0.014454251
72	0xbccf6946	-0.025318753
73	0x3e3de4cb	0.18544309
74	0xbd0bc41d	-0.034122575
75	0xbe4202c0	-0.18946362
76	0xbdbcd587	-0.092204146
77	0x3e705ae4	0.23472172
78	0x3deb14d6	0.114785835
79	0xbe59cab3	-0.2126873
80	0x3e25f4b6	0.16206631
81	0xbdaa4413	-0.083137654
82	0xbe1cf117	-0.15326343
83	0x3cc271c1	0.023735883
84	0x3e09262d	0.13393469
85	0x3e84073a	0.25786763
86	0xbcd5e657	-0.026110811
87	0xbd912f9a	-0.070891574
88	0x3e809fb3	0.2512184
89	0xbdba170e	-0.090864286
90	0x3d681358	0.056659073
91	0x3e82d1b1	0.25550607
92	0xbdc83c3b	-0.09777113
93	0xbd61dcd0	-0.055142224
94	0xbe1f2630	-0.15541911
95	0x3e480ab7	0.19535337
96	0x3d29c25f	0.041445132
97	0x3c87860e	0.016543414
98	0xbd104f8e	-0.03523212
99	0x3d820633	0.06348839
100	0x3d227642	0.03966356
101	0xbd217b4c	-0.039424226
102	0x3de89d3d	0.11358116
103	0x3ddad148	0.106844485
104	0x3e25fe81	0.16210367
105	0x3e2d64d2	0.16932991
106	0x3d41ec84	0.0473447
107	0x3d86fc97	0.065911464
108	0x3db225e4	0.08698633
109	0xbd1da4b6	-0.03848716
110	0x3da36a45	0.07979254
111	0xbd366e73	-0.044538926
112	0x3c8cbc63	0.017179674
113	0xbe37e2f5	-0.17957671
114	0xbe21fa92	-0.15818241
115	0xbe22389e	-0.1584191
116	0x3e11f83a	0.14254847
117	0xbe106d02	-0.14104083
118	0xbe7a0c31	-0.24418713
119	0x3cb9e840	0.022693753
120	0x3de56eeb	0.112027965
121	0xbe64cfa4	-0.22344834
122	0x3e3392b3	0.1753643
123	0xbe654f43	-0.22393517
124	0x3dc179d0	0.09447062
125	0xbdfcf77b	-0.12351891
126	0xbe3f20e6	-0.18664894
127	0xbd2263e7	-0.039646056
128	0xbe00270b	-0.12514894
129	0x3c698735	0.014253427
130	0x3ccd0aa7	0.025029493
131	0xbe84322e	-0.25819534
132	0x3e44f31c	0.19233364
133	0xbdce36a6	-0.10069017
134	0xbe1ddef6	-0.15417084
135	0xbda66ac6	-0.08125834
136	0xbb469448	-0.0030300785
137	0x3e78689c	0.24258655
138	0xbe35477a	-0.17703047
139	0x3e105809	0.14096083
140	0xbdbdc96e	-0.09266935
141	0x3e20b88f	0.15695404
142	0x3d9a0742	0.075209156
143	0xbe143ece	-0.14477083
144	0xbe50e20f	-0.20398735
145	0xbe25e6ea	-0.16201368
146	0x3db83c33	0.08995857
147	0x3c1d3078	0.009594075
148	0x3e6f58c0	0.23373699
149	0xbe28cdbe	-0.16484734
150	0xbd1c01b7	-0.038087573
151	0x3e129031	0.14312817
152	0xbcdba32b	-0.026811203
153	0x3e56ccfd	0.20976634
154	0x3e42c292	0.19019535
155	0xbdb4d60b	-0.08829888
156	0xbc8a2f53	-0.01686827
157	0x3de65827	0.112472825
158	0x3ddfee44	0.109341174
159	0xbe1d99d9	-0.1539072
160	0xbda726c2	-0.08161689
161	0xbd93a46f	-0.072090976
162	0xbe1f96fb	-0.15584938
163	0xbdcaa574	-0.09894839
164	0x3da2ded4	0.07952657
165	0xbe44ad43	-0.19206719
166	0xbe535e6e	-0.20641491
167	0x3e4e42f2	0.20142725
168	0x3c8e58a6	0.017376255
169	0xbe60c40b	-0.21949784
170	0xbdd10dba	-0.10207696
171	0x3e194cea	0.14970747
172	0xbe61c794	-0.2204879
173	0x3dccfaf7	0.10008805
174	0x3da8910d	0.08230791
175	0xbe2afbb0	-0.16697574
176	0x3e1b5cf3	0.15172176
177	0xbe705c08	-0.23472607
178	0xbe043260	-0.12909842
179	0xbca113ab	-0.019662699
180	0x3de087b7	0.109633856
181	0xbe64742a	-0.22309938
182	0xbe614e2d	-0.22002478
183	0xbe0e8e8d	-0.13921566
184	0x3db2936d	0.087195255
185	0xbe4c6d76	-0.19963631
186	0x3dbc84c4	0.092050105
187	0x3dad624a	0.08466013
188	0x3e1c9ca9	0.15294136
189	0x3e4b9b20	0.19883394
190	0xbe095bd9	-0.13413943
191	0xbdcc7786	-0.09983735
192	0xbe0044a4	-0.12526184
193	0xbd3e8fc1	-0.046523813
194	0xbc414e1a	-0.011798406
195	0x3bb0260e	0.00537563
196	0x3e3f64ea	0.1869084
197	0x3e3f4d5b	0.18681853
198	0x3da3d2f4	0.079992205
199	0xbdece49e	-0.11567043
200	0x3dcb964e	0.09940778
201	0xbdbda291	-0.09259523
202	0x3e3206f3	0.17385463
203	0xbe6931db	-0.22772925
204	0x3deb5e96	0.1149265
205	0x3ddf8cda	0.10915537
206	0x3e6c05ba	0.2304906
207	0xbe62cfd0	-0.22149587
208	0xbe25ad28	-0.16179335
209	0xbdef0fab	-0.1167291
210	0xbdce3d04	-0.100702316
211	0x3e3f3db7	0.18675886
212	0xbd772575	-0.060338456
213	0xbd1c787d	-0.038200844
214	0x3e66749f	0.22505425
215	0xbdc304fe	-0.095224366
216	0xbd5608a5	-0.052254338
217	0xbdb7a4a8	-0.089669526
218	0xbe20f371	-0.15717866
219	0xbc7e43ae	-0.015519066
220	0xbe59204e	-0.2120373
221	0x3e198ad4	0.14994365
222	0xbe691925	-0.22763498
223	0xbe138420	-0.1440587
224	0xbd3883e7	-0.045047667
225	0xbe8436c2	-0.25823027
226	0x3e19c7a3	0.15017562
227	0x3d0b8358	0.034060806
228	0xbe6b43d7	-0.22975098
229	0xbd80474f	-0.06263601
230	0xbde8d4f2	-0.11368741
231	0xbdfcd1df	-0.12344717
232	0x3cab03c2	0.020875815
233	0x3cb8a8af	0.022541372
234	0xbe641d57	-0.22276817
235	0x3e2f2247	0.1710292
236	0xbe55baba	-0.20872012
237	0xbe47906e	-0.1948869
238	0x3c99e876	0.018787604
239	0x3e221718	0.15829122
240	0xbd91f0c6	-0.07126002
241	0x3e282ba2	0.16422895
242	0x3e0069f4	0.12540418
243	0xbe2a460d	-0.16628285
244	0xbde7dd6d	-0.113215305
245	0x3e193055	0.14959843
246	0xbd44f185	-0.048081893
247	0x3dcb2b19	0.099203296
248	0x3dd60d7d	0.104517914
249	0xbd977430	-0.07395208
250	0xbd5a032f	-0.053225692
251	0xbcbc1c19	-0.022962617
252	0xbda85e50	-0.08221114
253	0xbd4a9455	-0.049457867
254	0x3e562cf6	0.20915589
255	0x3dc972d8	0.09836358

down_blocks.0.conv1.bias f4 [4]
0	0x3d7b680e	0.06137853
1	0x3c46bd01	0.012130023
2	0x3d82ef39	0.06393284
3	0x3bfc3e4a	0.007697855

down_blocks.0.conv2.weight f4 [4, 4, 3, 3]
0	0xbd82814d	-0.063723184
1	0xbe787ff0	-0.24267554
2	0xbe80ef25	-0.25182453
3	0xbd938ed4	-0.07204977
4	0x3e1ca8a1	0.15298702
5	0xbdd0e84c	-0.10200557
6	0x3de694c3	0.11258843
7	0xbc999aff	-0.018750666
8	0xbe8daee2	-0.27672487
9	0x3e9728dc	0.2952336
10	0x3c8c2876	0.017109137
11	0xbd2fac85	-0.042889137
12	0x3e2177b5	0.15768321
13	0x3e830f2d	0.25597516
14	0x3e12a306	0.14320001
15	0xbe0ea714	-0.13930923
16	0x3cf548d3	0.029941952
17	0xbe637276	-0.22211632
18	0xbe91758c	-0.28409994
19	0x3da52569	0.08063776
20	0x3db2adba	0.08724542
21	0x3da185ee	0.07886873
22	0xbd3d2819	-0.04618082
23	0xbd8bcef5	-0.06826583
24	0xbe5cf621	-0.21578266
25	0xbe798263	-0.24366145
26	0xbe4a087f	-0.19729804
27	0x3e38cbf5	0.18046553
28	0xbe384ef1	-0.17998864
29	0x3e81e52b	0.25370154
30	0xbe50c02e	-0.2038581
31	0x3dd304dd	0.10303662
32	0xbe791b06	-0.24326715
33	0xbe11e93c	-0.14249128
34	0xbe1967d8	-0.1498102
35	0x3ded2f5c	0.11581299
36	0x3db8bb7b	0.09020134
37	0xbe654d76	-0.2239283
38	0xbda200a6	-0.0791028
39	0xbd6c56a2	-0.057699807
40	0x3dbf673e	0.09345864
41	0x3dfa0d96	0.122096226
42	0x3e26b366	0.16279373
43	0x3b45e7a1	0.0030197876
44	0xbc21f541	-0.009885133
45	0x3d6b5e92	0.057463236
46	0x3bd98d2c	0.0066391435
47	0xbe2d71bc	-0.16937917
48	0x3e1aa036	0.15100178
49	0xbba58b00	-0.0050519705
50	0x3e5bf6e5	0.21480902
51	0x3e00f052	0.12591675
52	0xbdada281	-0.08478261
53	0x3e3da60c	0.18520373
54	0x3d3d1071	0.046158258
55	0x3d05b15c	0.032639846
56	0xbe46c8c0	-0.19412518
57	0x3e86f69c	0.26360023
58	0xbcbcd05f	-0.023048578
59	0xbcc2f842	-0.02380002
60	0xbdf060c6	-0.11737208
61	0x3cf6f6b5	0.030146936
62	0x3e86b125	0.26307026
63	0x3e3f5575	0.18684943
64	0x3e4c6a2e	0.1996238
65	0xbe1cedc2	-0.15325072
66	0x3e3ec0f4	0.18628293
67	0xbdec0ab5	-0.1152548
68	0xbe65ea75	-0.2245272
69	0xbc8df2a7	-0.01732762
70	0xb94d9672	-0.00019606369
71	0xbe91e23d	-0.2849292
72	0x3e02f4f0	0.12788749
73	0x3e7b82df	0.24561642
74	0xbe173610	-0.14766717
75	0x3e6fbc77	0.23411737
76	0x3e587536	0.21138462
77	0xbded54cb	-0.115884386
78	0xbe44cf02	-0.19219592
79	0x3c9c4be0	0.019079149
80	0xbe947c9a	-0.29001313
81	0x3d9c5553	0.07633462
82	0xbde3e6ef	-0.111280315
83	0x3c4f429f	0.012650161
84	0xbe1cb5ea	-0.1530377
85	0xbe9a242a	-0.30105716
86	0x3e4077a1	0.18795635
87	0xbcb60b9e	-0.022222336
88	0xbe197e7a	-0.14989653
89	0xbe9a9be9	-0.30197075
90	0xbe140f9a	-0.14459077
91	0x3e381490	0.17976594
92	0xbe5b6bcc	-0.2142784
93	0xbe49576e	-0.19662258
94	0x3e37f6d3	0.1796525
95	0xbbd04c46	-0.0063567488
96	0x3d655a49	0.055994306
97	0xbe72dbde	-0.23716685
98	0x3e4bc099	0.19897689
99	0x3e086c0d	0.13322468
100	0x3d37a549	0.044835363
101	0x3dce5895	0.100754894
102	0xbe0dbd13	-0.13841657
103	0xbe841641	-0.25798228
104	0xbe6b4e97	-0.22979198
105	0xbd8b014d	-0.067873575
106	0x3de0437a	0.1095037
107	0x3e324548	0.17409241
108	0x3e8e6f6a	0.27819377
109	0x3e90f25f	0.28309914
110	0xbe867bff	-0.26266477
111	0xbe7b3601	-0.2453232
112	0xbe05ecf5	-0.13078673
113	0xbd30355e	-0.043019645
114	0x3d5dfd0e	0.05419641
115	0xbe2d7042	-0.16937354
116	0x3e201d66	0.15636215
117	0x3de4e025	0.11175565
118	0xbe2f96f4	-0.17147428
119	0xbe66268e	-0.22475645
120	0xbe3f8410	-0.18702722
121	0xbd889b43	-0.06670239
122	0x3de05563	0.10953786
123	0x3e4c00e7	0.19922219
124	0x3e432064	0.19055325
125	0xbe944bd6	-0.28964108
126	0xbda940a1	-0.0826428
127	0x3db8b200	0.09018326
128	0x3c3ae33a	0.011406714
129	0xbc84de2b	-0.01621922
130	0xbe2aa6d8	-0.16665208
131	0x3e68fe19	0.2275318
132	0xbe11fc38	-0.1425637
133	0x3e634fd3	0.2219842
134	0x3e6e7ae1	0.23289062
135	0xbd706b33	-0.058695983
136	0x3e788d8b	0.24272744
137	0x3d7196fa	0.058981873
138	0x3e858cfb	0.26084122
139	0xbdb78ea9	-0.08962757
140	0x3e4d1bc3	0.20030122
141	0x3dcb2d0c	0.099207014
142	0xbe1f52b2	-0.1555889
143	0xbe63c826	-0.2224432

down_blocks.0.conv2.bias f4 [4]
0	0xbd343188	-0.04399255
1	0x3aede721	0.0018150547
2	0x3d28e878	0.041237324
3	0x3c8bc4d6	0.017061632

down_blocks.0.norm1.weight f4 [4]
0	0x3f7e8d5d	0.99434453
1	0x3f8548ec	1.0412879
2	0x3f80050f	1.0001544
3	0x3f7537a2	0.95788014

down_blocks.0.norm1.bias f4 [4]
0	0x3d0a4fce	0.033767514
1	0xbd4634e3	-0.04839028
2	0x3d0e4f53	0.03474362
3	0x3ccf2852	0.02528778

down_blocks.0.norm1.running_mean f4 [4]
0	0x3bbb7d54	0.0057217274
1	0x3cca1777	0.024669392
2	0x3bfc2900	0.0076953173
3	0x3e6f4c1f	0.23368882

down_blocks.0.norm1.running_var f4 [4]
0	0x397a565a	0.00023874026
1	0x3c06193b	0.008184726
2	0x3a330324	0.0006828776
3	0x3c398899	0.011324071

down_blocks.0.norm2.weight f4 [4]
0	0x3f84e6f3	1.038298
1	0x3f80611b	1.0029634
2	0x3f846160	1.0342216
3	0x3f835771	1.026106

down_blocks.0.norm2.bias f4 [4]
0	0xbb902ea0	-0.0044000894
1	0xbbad5c60	-0.005290553
2	0x3c3f58eb	0.011678915
3	0x3bd90706	0.0066231517

down_blocks.0.norm2.running_mean f4 [4]
0	0x3e776a2a	0.24161592
1	0x3e810aac	0.25203454
2	0x3e72066e	0.23635265
3	0x3e3d2ab5	0.18473323

down_blocks.0.norm2.running_var f4 [4]
0	0x3ecc3576	0.39884537
1	0x3ed17dd1	0.40916303
2	0x3d714ca9	0.058911
3	0x3d809a14	0.06279388

down_blocks.1.conv1.weight f4 [8, 4, 3, 3]
0	0xbd5b26f5	-0.05350395
1	0x3e0c5784	0.1370526
2	0xbe1992b7	-0.14997374
3	0x3de81003	0.11331179
4	0x3e0e47b6	0.13894543
5	0xbc9752fd	-0.01847219
6	0xbd83d632	-0.06437339
7	0x3dcd3d68	0.10021478
8	0xbd93bad0	-0.07213366
9	0xbe26cdfc	-0.16289514
10	0xbd8f12b8	-0.06985992
11	0xbe6dd166	-0.2322441
12	0x3e299198	0.16559446
13	0x3e4fb07c	0.20282167
14	0x3e2c2a9f	0.16813134
15	0xbe6f3a8a	-0.23362175
16	0xbe2f2525	-0.17104013
17	0xbdd3aa7e	-0.10335253
18	0xbe559f6b	-0.20861594
19	0xbe16927f	-0.14704321
20	0x3e2a0709	0.16604246
21	0xbe58d543	-0.21175103
22	0x3e0d9857	0.13827644
23	0x3e453d45	0.19261654
24	0xbd8ccf7f	-0.06875514
25	0xbdee0798	-0.11622542
26	0xbe4be884	-0.19912916
27	0xbe13f55f	-0.1444907
28	0x3d8fab9d	0.070151545
29	0xbcd5d072	-0.026100371
30	0xbe54c8c5	-0.20779712
31	0xbd427ea8	-0.04748407
32	0xbdbb5446	-0.09146933
33	0x3df297a0	0.118453264
34	0xbe154c71	-0.14579941
35	0xbe1fd546	-0.15608701
36	0x3df4efb4	0.11959782
37	0x3dfebb1f	0.12438034
38	0xbde04e15	-0.10952393
39	0x3e632e27	0.22185574
40	0x3e57ffa8	0.21093619
41	0x3d6a9c7f	0.057278153
42	0x3d5aaf6a	0.053389944
43	0x3e46c18e	0.19409773
44	0xbe2865f7	-0.16445147
45	0xbc287e8a	-0.0102840755
46	0x3e1b2974	0.15152532
47	0x3e2f99de	0.1714854
48	0xbe0794b9	-0.13240327
49	0x3ca2032e	0.019776907
50	0x3da5c2de	0.080938086
51	0xbe2a4306	-0.1662713
52	0x3ce93333	0.028466797
53	0x3ca7ffb1	0.020507665
54	0xbdb331a2	-0.08749701
55	0xbe49c13a	-0.19702616
56	0xbdb44316	-0.08801858
57	0xbc17073b	-0.0092180325
58	0xbbdc1197	-0.006715964
59	0xbd70cbd2	-0.05878813
60	0x3d0e71a4	0.034776345
61	0x3e226cf2	0.15861872
62	0xbe36762e	-0.1781852
63	0xbe54f8f3	-0.20798092
64	0x3d168f1d	0.036757577
65	0xbe513e8f	-0.2043402
66	0x3c9503d0	0.018190295
67	0xbe713814	-0.23556548
68	0x3de465a0	0.11152196
69	0x3d641c31	0.055690948
70	0xbdb7fd03	-0.08983805
71	0xbc9f8431	-0.019472213
72	0xbe6d1f23	-0.23156409
73	0x3d3ee5b6	0.04660579
74	0x3e715be9	0.23570217
75	0xbbf46460	-0.0074582547
76	0xbce28855	-0.027652899
77	0xbe5daa9d	-0.21647115
78	0xbe54d7c8	-0.20785439
79	0x3de45f31	0.11150969
80	0xbe697765	-0.22799452
81	0x3e5a98b9	0.21347322
82	0xbbd0b91d	-0.0063697235
83	0xbe23f844	-0.16012675
84	0x3e706324	0.23475319
85	0xbe10130b	-0.14069764
86	0xbd8a9ed7	-0.067685775
87	0xbdee0b4f	-0.11623251
88	0x3d1cac0e	0.03825002
89	0x3e66925f	0.22516774
90	0x3da465a1	0.08027197
91	0x3e2c83a8	0.16847098
92	0xbd936667	-0.07197266
93	0xbc6eceed	-0.014575702
94	0xbda8ed8e	-0.08248435
95	0xbd682679	-0.056677315
96	0x3e015387	0.1262952
97	0x3e68ffb6	0.22753796
98	0x3e1b8499	0.151873
99	0xbd8a330f	-0.0674802
100	0xbe55c95c	-0.20877594
101	0x3cd0fd56	0.025511425
102	0x3d701ab6	0.058619224
103	0xbd693409	-0.05693439
104	0x3e2716f8	0.16317356
105	0xbdd5e84d	-0.104446985
106	0xbcba2f89	-0.022727745
107	0xbc072b32	-0.008250045
108	0x3d4e3a15	0.05034836
109	0x3dffbf53	0.12487664
110	0xbaa5d4f6	-0.0012651968
111	0x3e2d31f3	0.16913585
112	0x3c3e3731	0.011609838
113	0x3e427359	0.18989314
114	0xbdb7716c	-0.089571804
115	0x3e505166	0.20343551
116	0x3ddc6ac4	0.107625514
117	0xbe706c75	-0.23478873
118	0xbdcb489e	-0.0992596
119	0x3e305bdc	0.17222542
120	0x3b5f34a1	0.003405847
121	0x3e3c6f4d	0.18401833
122	0x3e6d99cd	0.23203202
123	0xbdd97c36	-0.106193945
124	0x3d7a907b	0.061172944
125	0xbe1efd3c	-0.15526289
126	0x3d55fb6f	0.05224174
127	0x3d9760b2	0.0739149
128	0xbe085ec3	-0.13317399
129	0xbc54a215	-0.0129780965
130	0xbdfdd873	-0.123948
131	0x3e3e9634	0.18611985
132	0x3e3d9c03	0.18516545
133	0xbe1a0356	-0.15040335
134	0xbd2e6481	-0.042576317
135	0x3e460d89	0.19341101
136	0xbdba3a93	-0.090932034
137	0xbe661197	-0.22467647
138	0xbe505fbb	-0.20349018
139	0x3e1c30e3	0.15253024
140	0x3ce471a2	0.027886216
141	0xbdfafcb3	-0.1225523
142	0xbdc3ff83	-0.09570219
143	0xbddecb08	-0.10878569
144	0x3de981e6	0.11401729
145	0x3e634d89	0.22197546
146	0x3d171fa2	0.0368954
147	0xbe659540	-0.22420216
148	0xbe02d255	-0.12775548
149	0xbe0c739e	-0.1371598
150	0x3e04cedc	0.12969536
151	0x3dc1e810	0.094680905
152	0xbe6b43b0	-0.2297504
153	0xbe28df6c	-0.16491479
154	0xbdca303b	-0.098724805
155	0xbe4ce057	-0.20007454
156	0xbc3b21b4	-0.01142161
157	0xbdb26192	-0.08710016
158	0xbd19a97f	-0.03751516
159	0xbdaeb0b2	-0.08529796
160	0xbe093459	-0.13398875
161	0x3e1ac6e5	0.15114935
162	0x3dc1c3b4	0.094611555
163	0xbe6d4687	-0.23171435
164	0x3b32c796	0.0027279607
165	0xbe3a5e10	-0.18199944
166	0xbe077739	-0.13229074
167	0x3c5525d6	0.013009509
168	0x3dfb2e3c	0.12264678
169	0xbd834ace	-0.06410752
170	0x3d38a79d	0.045081723
171	0xbadbbee3	-0.0016765263
172	0xbe3a5560	-0.1819663
173	0xbe4c293c	-0.19937605
174	0xbc730785	-0.014833336
175	0x3cd3bb7e	0.02584624
176	0xbe0f0e82	-0.13970378
177	0x3da7c371	0.08191574
178	0xbe5a1ea9	-0.21300758
179	0x3e31a495	0.1734794
180	0x3c89b8a2	0.016811673
181	0xbb3b032c	-0.0028535826
182	0x3cfffbeb	0.031248054
183	0xbe43956b	-0.19099967
184	0xbd641ca8	-0.05569139
185	0xbd9d15e2	-0.076701894
186	0x3dd941b6	0.106082365
187	0xbd941327	-0.072302155
188	0xbe1250c6	-0.14288625
189	0x3e567f3d	0.20946975
190	0xbd4f9fa7	-0.050689366
191	0xbddc7972	-0.10765351
192	0xbdf9e641	-0.122021206
193	0x3e30298b	0.17203347
194	0x3d33ea6d	0.043924738
195	0x3df0397a	0.11729713
196	0xbe5183e0	-0.20460463
197	0xbe5d00d8	-0.21582353
198	0xbb8a4c75	-0.00422054
199	0x3db2b946	0.08726744
200	0xbd848c45	-0.06472067
201	0x3e1de1d6	0.15418181
202	0x3e4d2664	0.20034176
203	0xbdac9dd7	-0.08428543
204	0xbda078ff	-0.07835578
205	0x3c0d301e	0.008617429
206	0xbe543ca6	-0.2072626
207	0x3e1ccce0	0.15312529
208	0xbdf0edae	-0.11764084
209	0xbc0b4b22	-0.0085018
210	0xbe53ec89	-0.206957
211	0x3e22ef97	0.15911709
212	0xbe02fdfa	-0.12792197
213	0x3e5e03e7	0.21681176
214	0x3e13d938	0.14438331
215	0x3d6c38b5	0.057671268
216	0x3c984dbb	0.018591752
217	0x3c3deb55	0.011591752
218	0xbd272038	-0.04080221
219	0x3e2365df	0.1595683
220	0xbe5ccf18	-0.21563375
221	0xbd98f865	-0.074692525
222	0xbe37b228	-0.17939055
223	0xbd664252	-0.05621559
224	0xbe1bd31e	-0.15217254
225	0xbe4c7377	-0.19965921
226	0x3ba68549	0.005081807
227	0x3ba939bd	0.0051643536
228	0xbdbaf483	-0.09128668
229	0x3e669c9e	0.22520682
230	0xbd5de4c3	-0.054173242
231	0x3d5d7666	0.05406799
232	0xbe4bcd41	-0.19902517
233	0x3dac3dec	0.08410248
234	0x3df2ef96	0.11862104
235	0x3e4f456b	0.20241325
236	0xbe115cea	-0.141956
237	0xbe4074b8	-0.18794525
238	0xbe2d6b0e	-0.1693537
239	0x3b95967a	0.0045650573
240	0x3e4ea46a	0.20179906
241	0xbe1679ee	-0.1469495
242	0x3d2e4411	0.042545382
243	0x3e2c4c32	0.16825941
244	0xbd687dd7	-0.056760635
245	0x3d967c35	0.07347909
246	0xbe2b7e91	-0.167475
247	0x3e306f9f	0.1723008
248	0x3e638c9a	0.22221604
249	0xbd9f6461	-0.07782818
250	0x3e4dbc48	0.20091355
251	0xbdb2616b	-0.08709987
252	0x3c71f798	0.014768504
253	0x3d7c9307	0.061663654
254	0x3d3a548a	0.04549078
255	0x3e2510de	0.16119716

down_blocks.1.conv1.bias f4 [8]
0	0x3a1a8c17	0.0005895509
1	0x3b0fc295	0.0021936048
2	0xbb452fb2	-0.0030088243
3	0x3ac64e21	0.0015129485
4	0x3b200b0a	0.0024420642
5	0xba3933d1	-0.0007064911
6	0xbaf839d2	-0.001893813
7	0xbb1c40e7	-0.0023842396

down_blocks.1.conv2.weight f4 [8, 8, 3, 3]
0	0xbce6f0e2	-0.028191034
1	0xbe064488	-0.1311208
2	0x3d236fe9	0.039901648
3	0xbe18dcbd	-0.14927955
4	0x3e1dbd9c	0.15404361
5	0x3d51a9e8	0.051187426
6	0xbd24bead	-0.040220905
7	0x3d6fba22	0.05852712
8	0xbe1b5c05	-0.15171821
9	0xbe45fbe6	-0.19334373
10	0xbdaf9889	-0.08574016
11	0x3d8cfa02	0.06883623
12	0xbde09941	-0.10966731
13	0xbdf84dd7	-0.12124222
14	0xbe0689d0	-0.13138509
15	0xbd1a7058	-0.037704796
16	0xbe019931	-0.12656094
17	0xbe1699a8	-0.14707053
18	0x3dfd4b04	0.12367824
19	0x3da743cd	0.08167229
20	0x3cf930ba	0.030418742
21	0xbc4d8848	-0.012544699
22	0x3e36ce0f	0.17852043
23	0x3e2c8ea6	0.16851291
24	0x3dff02c3	0.12451699
25	0xbe4f5777	-0.20248209
26	0xbcbbf78c	-0.022945188
27	0xbd5ef834	-0.054435924
28	0xbe045e0a	-0.12926498
29	0x3e0a0518	0.13478506
30	0xbe000a42	-0.12503913
31	0x3dfcf45b	0.123512946
32	0xbe15f049	-0.14642443
33	0xbd928488	-0.071541846
34	0xbd8c92bc	-0.06863925
35	0xbd7dd66c	-0.061972067
36	0x3e4fe12d	0.20300741
37	0xbd2ffcca	-0.042965688
38	0x3e4c2fb1	0.19940068
39	0xbbb1fe0d	-0.0054318965
40	0x3d1f2415	0.03885277
41	0x3db68ae1	0.08913208
42	0x3e46ae4d	0.19402428
43	0xbe08c959	-0.13358058
44	0x3ca53480	0.020166636
45	0xbe11645b	-0.14198439
46	0x3d1761c5	0.036958475
47	0x3da41f0e	0.08013736
48	0xbe489a5c	-0.19590133
49	0xbd62e7e2	-0.055396922
50	0xbe1e4013	-0.1545413
51	0x3e4e5872	0.20150927
52	0x3e444377	0.19166361
53	0xbdd94fa2	-0.10610892
54	0xbd89e17b	-0.0673246
55	0xbe22898e	-0.15872785
56	0x3e30b92a	0.17258134
57	0x3d4dcd69	0.050244723
58	0xbe2acc4b	-0.16679494
59	0x3e3d5df0	0.18492866
60	0xbdcc4d03	-0.09975626
61	0xbda4d706	-0.08048825
62	0x3d662ecd	0.056196976
63	0xbdd94aba	-0.10609956
64	0x3e03e943	0.12881951
65	0xbde18dd4	-0.1101338
66	0xbdb0def9	-0.08636279
67	0xbd4e9f51	-0.050444905
68	0x3e0ea61d	0.13930555
69	0x3dcac68f	0.09901153
70	0x3e248a07	0.16068278
71	0xbe4d442d	-0.20045538
72	0xbe44ccce	-0.19218752
73	0xbd67b45f	-0.0565685
74	0xbe2d6c48	-0.16935837
75	0xbd46912e	-0.048478298
76	0xbe3d777a	-0.18502608
77	0x3cc33c51	0.023832472
78	0xbe23e15a	-0.16003934
79	0x3e41310e	0.18866369
80	0xbe39a1e3	-0.18128161
81	0x3e1327f3	0.14370708
82	0x3d352e66	0.044233702
83	0x3e221d39	0.1583146
84	0x3d98134d	0.07425556
85	0xbe3243f2	-0.17408732
86	0xbd8cef88	-0.068816245
87	0xbe2d5cf5	-0.16929992
88	0x3e46ebf3	0.19425945
89	0xbe34cedf	-0.1765704
90	0xbddedca2	-0.10881926
91	0xbc090705	-0.00836349
92	0x3d91e450	0.07123625
93	0x3e43a980	0.19107628
94	0xbe0578ec	-0.1303441
95	0x3e5178f7	0.204563
96	0xbdce1b26	-0.10063772
97	0x3e424908	0.18973172
98	0x3d65b518	0.056080908
99	0xbd3dd60e	-0.046346717
100	0xbe1b4d07	-0.15166102
101	0xbd189321	-0.037249688
102	0xbe1a8c6b	-0.15092628
103	0x3e1c6dfc	0.1527633
104	0x3e42e554	0.19032794
105	0xbe146e83	-0.14495282
106	0x3d181391	0.037128035
107	0x3c800de5	0.015631625
108	0xbd86ce00	-0.0658226
109	0xbe4b3ebb	-0.19848149
110	0x3e3506cf	0.17678379
111	0xba44e614	-0.0007511091
112	0x3e2b46e0	0.16726255
113	0x3e0e9b52	0.13926437
114	0xbe021469	-0.12703098
115	0xbe3c4a0b	-0.1838762
116	0xbdf37ecf	-0.11889421
117	0x3c92f8e8	0.017940953
118	0x3e2ba546	0.16762266
119	0x3e11e515	0.14247544
120	0x3da06a10	0.0783273
121	0x3e2751e8	0.16339839
122	0xbe43e836	-0.1913155
123	0xbcf87276	-0.030328017
124	0xbe025627	-0.12728177
125	0xbe039f5a	-0.12853757
126	0x3e2492b1	0.16071583
127	0x3df06627	0.11738234
128	0xbd03be17	-0.032163706
129	0xbc8b6c3a	-0.01701938
130	0xbdbad62f	-0.091228835
131	0x3bf6d57b	0.007532773
132	0x3e189f6a	0.14904562
133	0xbe29a6d6	-0.16567549
134	0xbdadaeb0	-0.084805846
135	0xbc53cf32	-0.012927817
136	0x3e0929a5	0.13394792
137	0x3c406ccb	0.011744688
138	0x3e12e22e	0.14344093
139	0x3c4849f1	0.01222466
140	0xbd55429b	-0.052065473
141	0xbc5524d0	-0.013009265
142	0xbd8de19e	-0.06927799
143	0x3c795999	0.015219116
144	0x3e41ee42	0.18938544
145	0x3d384d5c	0.04499565
146	0xbbc44b95	-0.0059904554
147	0x3d660d70	0.05616516
148	0xbdb0e7bc	-0.0863795
149	0xbe0620ed	-0.13098498
150	0x3e0abe81	0.13549234
151	0xbddc460c	-0.10755548
152	0x3db26603	0.087108634
153	0x3dca670c	0.09882936
154	0xbb92c2de	-0.0044787964
155	0xbd13f12b	-0.036118668
156	0xbe074abd	-0.13212104
157	0xbe2d0620	-0.16896868
158	0xbe2021ef	-0.15637945
159	0xbe1c8938	-0.1528672
160	0xbdf373fd	-0.118873574
161	0xbd9565d5	-0.072948135
162	0xbdc32d4d	-0.09530125
163	0xbe19de34	-0.1502617
164	0x3d682173	0.056672525
165	0x3dc90f3d	0.098173596
166	0x3db00958	0.08595532
167	0x3d68edf7	0.056867566
168	0x3e29d3a1	0.16584636
169	0xbda823d1	-0.082099564
170	0xbe1b4dec	-0.15166444
171	0xbdc51799	-0.096236415
172	0xbd99d9f7	-0.075122766
173	0xbd2674c6	-0.040638708
174	0xbdb9f988	-0.090807974
175	0xbe0889a4	-0.13333756
176	0x3d1e87ff	0.038703915
177	0xbe0f4726	-0.13991985
178	0x3e0444fd	0.12916942
179	0xbdfbba26	-0.12291364
180	0xbd9de570	-0.07709777
181	0x3dae620e	0.08514796
182	0xbe2f9fa8	-0.17150748
183	0x3e082d2d	0.13298483
184	0x3d26d357	0.040728893
185	0xbd44ef08	-0.04807952
186	0x3d1859fd	0.037195195
187	0xbe145f7e	-0.14489552
188	0xbe1b3978	-0.15158641
189	0x3d2c48b3	0.04206152
190	0xbe2ea4bf	-0.17055033
191	0xbdd49864	-0.10380629
192	0xbc98ea95	-0.018666545
193	0x3df81848	0.12114006
194	0x3d5dbe98	0.054136842
195	0xbd813640	-0.063091755
196	0x3d8b85da	0.068126395
197	0xbdef7fa4	-0.116942674
198	0xbdbaaeb5	-0.09115354
199	0xbd85d8df	-0.065355055
200	0xbddc3caf	-0.10753762
201	0xbe39d601	-0.18148042
202	0x3e32599c	0.17416996
203	0x3de7b203	0.1131325
204	0xbdb09f27	-0.08624106
205	0x3d445daf	0.047940906
206	0x3dd4eef6	0.10397141
207	0x3e10ba8d	0.14133663
208	0x3cc7b797	0.024379535
209	0x3d56d655	0.052450497
210	0xbc77b93d	-0.015119848
211	0xbe305aed	-0.17222185
212	0xbe2495a0	-0.16072702
213	0x3e1bb71a	0.15206566
214	0x3ded7ab9	0.11595673
215	0x3e465ef8	0.19372165
216	0x3e0eaa9e	0.13932273
217	0xbddf7dbd	-0.109126545
218	0xbd68307c	-0.056686863
219	0x3cd068c0	0.025440574
220	0xbde111a1	-0.109896906
221	0xbddd0c97	-0.10793417
222	0x3d9cd95f	0.07658648
223	0xbe39b154	-0.18134052
224	0x3dc65968	0.09685022
225	0x3e446b6b	0.19181602
226	0x3e4ce5ae	0.20009491
227	0x3e0c8678	0.13723171
228	0x3dbc69bf	0.09199857
229	0x3e1720c4	0.14758593
230	0x3e140562	0.14455178
231	0x3dd4c2fd	0.103887536
232	0xbd6ef646	-0.058340333
233	0x3d619ac4	0.055079237
234	0xbe36033f	-0.17774676
235	0xbdca9b96	-0.09892957
236	0x3dcfbff5	0.10144035
237	0xbd028e20	-0.031873822
238	0xbd8e2ab2	-0.06941737
239	0x3e3242d6	0.17408308
240	0xbd5e321e	-0.054247014
241	0x3d3075b7	0.04308101
242	0xbd375036	-0.04475423
243	0x3e02ef90	0.12786698
244	0xbe01f4c7	-0.12691031
245	0x3db100eb	0.08642753
246	0xbe506951	-0.20352675
247	0x3e039abb	0.12851994
248	0x3dc88db0	0.0979265
249	0x3dcb308c	0.09921369
250	0x3ddecf92	0.10879435
251	0xbe15237d	-0.14564319
252	0xbd9e47e3	-0.07728555
253	0x3dc47ce9	0.09594137
254	0x3dad1a93	0.08452334
255	0x3cfd9438	0.030954465

down_blocks.1.conv2.bias f4 [8]
0	0x3ab5c607	0.0013868221
1	0x390a238b	0.00013173946
2	0x39f70c0f	0.00047120496
3	0xbaa1f1a0	-0.0012355335
4	0x3b022da8	0.001986364
5	0xb999f9d5	-0.00029368573
6	0x39b19d29	0.00033877164
7	0x398c6e5d	0.00026785108

down_blocks.1.norm1.weight f4 [8]
0	0x3f7f8928	0.9981866
1	0x3f802cfd	1.0013729
2	0x3f80724f	1.0034884
3	0x3f805f57	1.0029095
4	0x3f7f3925	0.9969657
5	0x3f7fb3e8	0.9988389
6	0x3f8031ea	1.0015233
7	0x3f7f2685	0.9966815

down_blocks.1.norm1.bias f4 [8]
0	0x39f837c7	0.00047343803
1	0xbb2abd39	-0.0026052727
2	0x3a1272c8	0.0005586562
3	0xba6482f0	-0.0008717021
4	0xb9996025	-0.00029254067
5	0x3a29b1be	0.0006473324
6	0xb9a4792c	-0.00031370798
7	0xbad31ca2	-0.0016106556

down_blocks.1.norm1.running_mean f4 [8]
0	0x3e0a0c24	0.13481194
1	0x3e919455	0.2843348
2	0x3e873d76	0.26414078
3	0x3ea5f8c5	0.3241636
4	0x3e1525fe	0.14565274
5	0x3e81fe92	0.25389534
6	0x3e924f88	0.28576303
7	0x3df75434	0.12076607

down_blocks.1.norm1.running_var f4 [8]
0	0x3ddd67b3	0.10810795
1	0x3f6f3ebd	0.93455106
2	0x3e9ad627	0.3024151
3	0x3f52ede8	0.82394266
4	0x3d411a05	0.047143955
5	0x3e7ca6f9	0.2467307
6	0x3e700fcb	0.23443525
7	0x3de96064	0.11395338

down_blocks.1.norm2.weight f4 [8]
0	0x3f8072e3	1.0035061
1	0x3f806bcc	1.0032897
2	0x3f8013fb	1.0006098
3	0x3f7f690a	0.9976965
4	0x3f7fcb7a	0.99919856
5	0x3f807ab3	1.0037445
6	0x3f7f7d7a	0.9980084
7	0x3f80300e	1.0014665

down_blocks.1.norm2.bias f4 [8]
0	0xb98f27b9	-0.0002730468
1	0xb9396d43	-0.00017683678
2	0xba05b90a	-0.00051011203
3	0x3a8d1592	0.0010763875
4	0xb9d15108	-0.0003992396
5	0x3a6248ba	0.0008632053
6	0xb9f0853b	-0.00045875632
7	0x39113278	0.00013847079

down_blocks.1.norm2.running_mean f4 [8]
0	0x3edd240b	0.4319156
1	0x3ea55b3c	0.3229617
2	0x3ea7cfae	0.32775635
3	0x3ec7c029	0.39013794
4	0x3e8ff2c7	0.28114912
5	0x3e915ef6	0.28392762
6	0x3ebf0daf	0.37315127
7	0x3eb06ca5	0.3445789

down_blocks.1.norm2.running_var f4 [8]
0	0x3ec2f199	0.3807495
1	0x3ebbd928	0.36689115
2	0x3e567dc9	0.2094642
3	0x3fbf7796	1.495837
4	0x3eeae1b0	0.4587531
5	0x3eddfc97	0.43356773
6	0x3e52b3e7	0.2057644
7	0x3ecaa324	0.3957759

down_blocks.2.conv1.weight f4 [16, 8, 3, 3]
0	0x3d0afd19	0.03393278
1	0x3d402f94	0.046920374
2	0x3e04e32a	0.12977281
3	0x3d09800c	0.03356938
4	0xbc98da80	-0.018658876
5	0x3d6a6f60	0.05723512
6	0xbdd8bfe3	-0.105834745
7	0x3c20e1b6	0.009819439
8	0xbb567aea	-0.003272707
9	0x3d4dfd66	0.050290488
10	0xbdd2dfc6	-0.10296588
11	0xbc9a27c6	-0.018817794
12	0xbd196daa	-0.0374581
13	0x3e189060	0.14898825
14	0x3e11848e	0.14210722
15	0xbc67734e	-0.014126612
16	0x3ce24be3	0.027624076
17	0x3e0e1f11	0.13879038
18	0xbdc589f7	-0.09645455
19	0x3ddbda26	0.10734968
20	0xbca20e59	-0.019782232
21	0x3e1b971b	0.15194361
22	0xbd50d532	-0.05098457
23	0xbcdb1340	-0.026742578
24	0xbdf7024e	-0.120609865
25	0xbd1b56c8	-0.037924558
26	0x3d93a69e	0.07209514
27	0x3dee0f41	0.11624003
28	0x3c19084c	0.009340357
29	0xbe2476b7	-0.16060911
30	0xbe189edc	-0.1490435
31	0xbdf29f43	-0.11846783
32	0x3d2df79d	0.04247247
33	0x3cc6c5b7	0.0242642
34	0x3e2c1ac2	0.16807082
35	0xbd8052ee	-0.062658176
36	0x3e1d58e4	0.1536594
37	0x3e295fe3	0.16540484
38	0xbdff55b9	-0.12467522
39	0xbce3cbc6	-0.027807128
40	0x3e1254c6	0.14290151
41	0x3c689f17	0.014198086
42	0x3dd7a056	0.105286285
43	0xbddaed50	-0.10689795
44	0xbdad9938	-0.0847649
45	0x3d70946d	0.0587353
46	0x3db05d91	0.086115964
47	0xbe05c998	-0.13065183
48	0xbe00b2a8	-0.12568152
49	0xbdcc9e77	-0.09991162
50	0x3e11fcdd	0.14256616
51	0xbddf1e0a	-0.10894401
52	0xbd268e8f	-0.0406633
53	0xbd93f02c	-0.072235435
54	0xbe0f14f2	-0.13972834
55	0x3cfd3b51	0.030912073
56	0xbdd3149f	-0.103066675
57	0x3c9376b5	0.01800094
58	0xbe19b404	-0.15010077
59	0xbe260b7f	-0.16215323
60	0xbe17890d	-0.14798374
61	0xbe14d1f3	-0.14533214
62	0x3dc34a3f	0.09535646
63	0x3caa5f96	0.020797532
64	0xbdec1acd	-0.11528549
65	0xbddf7afb	-0.109121285
66	0x3e0b65b8	0.13613021
67	0x3de1aa6b	0.11018833
68	0x3d10884d	0.035286237
69	0x3d3c35c7	0.045949724
70	0x3ca00ebb	0.019538274
71	0xbd959039	-0.07302899
72	0x3c7a385d	0.015272227
73	0x3db6828b	0.08911618
74	0x3d706cef	0.058697637
75	0x3de03345	0.10947279
76	0xbe28eca4	-0.16496521
77	0xbd07046d	-0.032963205
78	0xbdba3a36	-0.09093134
79	0x3bb118ee	0.005404583
80	0x3e1d8e56	0.15386328
81	0x3df08a63	0.11745145
82	0xbd916e7a	-0.0710115
83	0x3df8b6cd	0.121442415
84	0x3de34d51	0.11098731
85	0x3debce22	0.11513926
86	0x3dbdd6f9	0.092695184
87	0x3d3b243b	0.04568885
88	0xbc151c57	-0.009100995
89	0xbe101b31	-0.14072873
90	0x3c7d7630	0.015470073
91	0x3dc949d7	0.09828537
92	0xbc90cdc5	-0.017676244
93	0xbdfec83a	-0.12440534
94	0xbdbaa277	-0.09113019
95	0x3d972b2a	0.0738128
96	0x3e25f123	0.16205268
97	0xbdfc55ca	-0.123210505
98	0x3d6a8b1b	0.057261568
99	0xbe07fde9	-0.13280453
100	0x3d77ebca	0.0605276
101	0xbe1eef0d	-0.15520878
102	0x3e1774d3	0.14790659
103	0xbde73925	-0.11290196
104	0xbe1a617e	-0.15076253
105	0xbcf3901d	-0.029731805
106	0x3dbf1722	0.09330584
107	0x3d97e9ff	0.07417678
108	0xbd62e346	-0.055392526
109	0xbe105cf3	-0.14097957
110	0xbbe90a37	-0.0071118134
111	0xbd9f7979	-0.07786841
112	0xbe17d846	-0.14828596
113	0x3e071e0b	0.13195054
114	0x3ca414ef	0.020029513
115	0xbdce20c1	-0.10064841
116	0xbdf4630b	-0.119329534
117	0xbde4e595	-0.11176602
118	0x3c391278	0.011295907
119	0xbcca58b3	-0.024700498
120	0x3e28b136	0.1647385
121	0xbcbcb992	-0.023037706
122	0x3d577145	0.052598257
123	0x3d0babf8	0.03409955
124	0x3d8a69f0	0.06758487
125	0x3d652813	0.05594642
126	0xbdf770e5	-0.1208208
127	0xbd9996b6	-0.07499449
128	0x3e130516	0.14357409
129	0xbe190ef7	-0.14947115
130	0xbd836225	-0.06415204
131	0xbdd69706	-0.10478024
132	0x3e067fa7	0.13134633
133	0xbe1ab6ea	-0.15108839
134	0x3ddc4c02	0.10756685
135	0x3e0dbce8	0.13841593
136	0xbdaa1517	-0.08304804
137	0x3de9b91b	0.11412259
138	0x3c58cedc	0.013232913
139	0xbdd8856a	-0.10572322
140	0x3d1b8b39	0.03797457
141	0xbd8abb65	-0.06774024
142	0x3e05dda8	0.13072836
143	0xbe235e2b	-0.15953891
144	0xbd57ced1	-0.05268747
145	0x3c040951	0.008058862
146	0xbdc61f88	-0.09673983
147	0xbdcf85f5	-0.10132972
148	0x3e1a70f2	0.15082148
149	0xbd439aec	-0.047755167
150	0x3da29e43	0.07940342
151	0xbd700092	-0.058594294
152	0xbd09f3bc	-0.03367971
153	0xbd260e72	-0.04054112
154	0x3dc7e48d	0.097603895
155	0xbd8b8ed3	-0.06814351
156	0xbde81aa1	-0.11333204
157	0xbe124a3f	-0.14286135
158	0x3ca361e1	0.019944133
159	0xbd94a8e8	-0.07258779
160	0xbdbfca6f	-0.09364783
161	0xbcb72892	-0.022358213
162	0xbe0c4f0c	-0.13702029
163	0xbd634fbd	-0.055495966
164	0xbdd73ec0	-0.105100155
165	0x3e0598b2	0.1304653
166	0xbda02bc1	-0.078208454
167	0x3daea4f3	0.08527555
168	0x3d3cdf53	0.046111416
169	0x3e24193f	0.16025256
170	0x3d6d1bf7	0.057887997
171	0xbde18e74	-0.11013499
172	0x3d26e32b	0.040743988
173	0x3d8af789	0.06785495
174	0x3de996c0	0.114057064
175	0x3cd39bca	0.025831122
176	0xbc192f9b	-0.009349729
177	0xbd9801ec	-0.074222416
178	0xbb37bf85	-0.0028037739
179	0xbde5c427	-0.11219054
180	0x3d59ece1	0.05320442
181	0x3e2015f1	0.1563337
182	0xbd5702d6	-0.05249294
183	0x3db09388	0.08621889
184	0x3d7c3d58	0.06158194
185	0xbe190a35	-0.149453
186	0x3debcdeb	0.11513885
187	0xbc775a19	-0.015097165
188	0xbd8ed62d	-0.069744445
189	0xbc4d2b33	-0.0125225065
190	0x3dc6f043	0.09713795
191	0xbdb8d85b	-0.090256415
192	0x3e0f594c	0.13998908
193	0xbd382191	-0.044953886
194	0xbcdb0cb3	-0.026739454
195	0xbe02dac8	-0.12778771
196	0xbda25cb8	-0.07927841
197	0xbd496e45	-0.049177427
198	0x3e17eacf	0.14835666
199	0x3d84783d	0.06468246
200	0x3c7962b6	0.015221288
201	0xbd4e3a94	-0.050348833
202	0x3de2c955	0.11073557
203	0x3d8846d4	0.066541344
204	0x3da9fa20	0.08299661
205	0x3e251a8c	0.16123408
206	0xbdfb900a	-0.12283333
207	0xbd809758	-0.062788665
208	0xbd2279c1	-0.039666895
209	0xbe24de43	-0.16100411
210	0x3d610bce	0.0549429
211	0x3dd7d599	0.105387874
212	0xbe255549	-0.16145815
213	0xbdcfccc0	-0.10146475
214	0xbd4936c6	-0.0491245
215	0x3d022a07	0.03177836
216	0xbcda8c5e	-0.02667826
217	0xbdc58d17	-0.096460514
218	0x3c59c2c6	0.0132910665
219	0xbdea6b95	-0.11446301
220	0xbe098632	-0.13430098
221	0xbd4f1fad	-0.050567318
222	0xbc1919aa	-0.009344498
223	0xbddb5146	-0.10708861
224	0x3d2b4f46	0.041823648
225	0x3de8bc12	0.113639966
226	0xbde1922c	-0.11014208
227	0x3d6d77bf	0.057975527
228	0xbdb3341c	-0.087501734
229	0x3c892c9d	0.016744906
230	0x3dd6ffca	0.10498007
231	0x3dac3fe3	0.08410623
232	0x3ddb15e4	0.10697535
233	0x3d9631c9	0.073337145
234	0x3ddd554b	0.10807284
235	0xbda5e778	-0.0810079
236	0x3ddd9a24	0.108204156
237	0xbcd11238	-0.025521383
238	0x3d47d1b1	0.04878396
239	0x3dd3921d	0.10330603
240	0xbe0062bb	-0.12537663
241	0xbd9e94ce	-0.07743226
242	0xbb8e7cf3	-0.004348391
243	0xbd6f5bb3	-0.05843706
244	0xbd70fa6b	-0.058832567
245	0xbe26b20a	-0.16278854
246	0xbe0ec2f9	-0.13941564
247	0x3df1573b	0.11784216
248	0xbbb163ed	-0.0054135234
249	0x3de4acae	0.111657485
250	0xbda985ea	-0.08277495
251	0x3cebe848	0.028797284
252	0xbe0b2d06	-0.13591394
253	0xbe20e1f5	-0.15711196
254	0xbda651c4	-0.08121064
255	0x3df6fb64	0.12059668

down_blocks.2.conv1.bias f4 [16]
0	0xb89c578d	-7.454967e-05
1	0x38faf9f0	0.000119674834
2	0xb9a4bb68	-0.00031420146
3	0x39242fae	0.00015658021
4	0xbaf2d1d4	-0.0018525668
5	0x363c9402	2.8100335e-06
6	0x38e28acf	0.00010802375
7	0x39d7cf5a	0.00041162485
8	0xb96224f4	-0.00021566806
9	0x3a277c3d	0.00063890574
10	0xb961c453	-0.00021530809
11	0x38a8431e	8.023366e-05
12	0xb83ff0c4	-4.576218e-05
13	0xb922b8d1	-0.00015518373
14	0x3a4e3132	0.0007865607
15	0xb90158ac	-0.00012335432

down_blocks.2.conv2.weight f4 [16, 16, 3, 3]
0	0x3db39353	0.08768334
1	0xbd988dcc	-0.074489206
2	0xbe106f6b	-0.14105003
3	0x3da7dc37	0.081962995
4	0xbcc504f5	-0.024050215
5	0xbe01307f	-0.12616156
6	0xbd50ec21	-0.05100644
7	0xbb7dd9be	-0.003873452
8	0x3d848e79	0.06472487
9	0xbd090974	-0.03345628
10	0xbd971477	-0.0737695
11	0xbd65f569	-0.056142244
12	0xbd4753d9	-0.048663948
13	0x3df14adc	0.117818564
14	0xbe0c450e	-0.13698217
15	0x3e0c570c	0.13705081
16	0x3ccc24c4	0.024919875
17	0xbe02715f	-0.1273856
18	0xbdeab26a	-0.11459811
19	0xbd99cb49	-0.07509477
20	0xbdfebf19	-0.12438793
21	0x3de1ca65	0.11024932
22	0xbddae46d	-0.106881
23	0xbdb93668	-0.0904358
24	0xbdcef79b	-0.10105821
25	0x3d25ce72	0.040480085
26	0x3d321dee	0.043485574
27	0x3e0ab57b	0.13545792
28	0x3e08806a	0.13330236
29	0x3d79b381	0.060962204
30	0xbd5d3fcc	-0.05401592
31	0x3df4853b	0.11939474
32	0x3d63ebf2	0.055644937
33	0xbdfd2c3e	-0.12361954
34	0x3dd05f0e	0.1017438
35	0xbe0d3a0b	-0.13791673
36	0x3ce636c6	0.02810229
37	0x3b25db78	0.0025307816
38	0xbd20eb63	-0.039286982
39	0x3e12de11	0.14342524
40	0x3e117fc4	0.14208895
41	0xbe0bd4e4	-0.1365543
42	0x3d8d5852	0.069016114
43	0xbdb30655	-0.08741442
44	0x3dbc0a4d	0.09181652
45	0xbd5ebb62	-0.05437792
46	0xbcaf23ff	-0.021379469
47	0x3dad501f	0.084625475
48	0x3d0e9a6c	0.034815237
49	0x3decf5ac	0.11570296
50	0xbcb95cc1	-0.022627236
51	0x3c801c4d	0.015638495
52	0xbd7463a7	-0.05966535
53	0xbd4e72f2	-0.05040259
54	0x3cfcd402	0.030862812
55	0xbd33bd84	-0.043881908
56	0xbde71b1e	-0.11284469
57	0xbdfc5d20	-0.1232245
58	0xbdc398e4	-0.09550646
59	0xbc8932c1	-0.016747834
60	0xbc2526a2	-0.010080012
61	0x3c8fc365	0.017549226
62	0x3de2294e	0.110430345
63	0x3d02ac37	0.031902518
64	0xbdbcc3a1	-0.09217001
65	0x3e0f1dfe	0.13976285
66	0x3c9907d7	0.018680496
67	0x3d8c00bb	0.06836077
68	0xbd337e4c	-0.043821618
69	0xbd4b6ba9	-0.04966322
70	0x3d450a55	0.048105557
71	0xbd39fb6c	-0.04540579
72	0xbd409143	-0.047013532
73	0x3d94f1aa	0.07272656
74	0x3dde85df	0.10865378
75	0x3d990c37	0.07473033
76	0x3d95add7	0.07308548
77	0xbdec8abb	-0.11549898
78	0xbdf557c9	-0.11979634
79	0x3df7a9f7	0.12092965
80	0x3df49694	0.11942783
81	0x3c8b42db	0.016999653
82	0xbd1da049	-0.038482938
83	0xbce5727b	-0.02800869
84	0x3991652b	0.0002773193
85	0xbd8c7939	-0.06859059
86	0xbdb2050b	-0.08692368
87	0x3df6eb7d	0.120566346
88	0x3e05425d	0.13013597
89	0x3daaea3d	0.08345459
90	0xbe13f8ea	-0.14450422
91	0x3da29be2	0.079398885
92	0x3d6ad7f0	0.05733484
93	0x3d7dd351	0.061969105
94	0xbdfb66f7	-0.12275498
95	0x3dfb2caf	0.12264382
96	0xbdef4daa	-0.11684735
97	0x3dbcc047	0.092163615
98	0x3d1e7853	0.03868897
99	0x3d1e2eff	0.038619038
100	0xbca6188f	-0.020275382
101	0x3dd1129f	0.1020863
102	0x3bd5898a	0.00651664
103	0xbdc1c457	-0.09461277
104	0xbbea6442	-0.007153065
105	0xbd422b31	-0.04740447
106	0xbd809c9c	-0.06279871
107	0x3d13a2ab	0.036043804
108	0x3df617ba	0.12016244
109	0xbda47dbf	-0.08031797
110	0x3cf7a031	0.030227752
111	0x3e0986d8	0.13430345
112	0x3db243fa	0.08704372
113	0x3dff7002	0.12472536
114	0xbdf430ac	-0.11923346
115	0x3dc20e20	0.094753504
116	0x3dda68db	0.10664531
117	0x3e0d3518	0.13789785
118	0xbd82718d	-0.06369314
119	0x3cec7987	0.028866543
120	0x3d068244	0.032839075
121	0xbdd5c246	-0.10437445
122	0x3df75dba	0.12078424
123	0x3deeba68	0.11656648
124	0xbdfb7a58	-0.122791946
125	0x3e044c0d	0.12919636
126	0xbde9e987	-0.11421495
127	0xbdf48789	-0.11939914
128	0x3d212f2c	0.039351627
129	0xbdf2a4b6	-0.11847822
130	0x3da30a67	0.079609685
131	0xbe01ea3e	-0.12687013
132	0xbd3994d8	-0.045307964
133	0xbd598049	-0.053100858
134	0x3e0713e5	0.13191183
135	0x3d8b7dd7	0.068111114
136	0xbd8be565	-0.06830863
137	0x3baccea4	0.005273657
138	0x3d50d26a	0.050981916
139	0x3c5a9618	0.013341449
140	0xbcbd09a5	-0.023075888
141	0x3d66a2f5	0.05630775
142	0x3e10993a	0.14120951
143	0x3d6311aa	0.055436768
144	0x3dbd892b	0.09254678
145	0xbd19c77d	-0.037543762
146	0x3dcac73d	0.09901283
147	0xbd8fda71	-0.07024086
148	0xbe016271	-0.12635209
149	0xbd424b18	-0.047434896
150	0x3dfc88d8	0.123307884
151	0x3de5fbbc	0.11229655
152	0x3df9e2b2	0.12201442
153	0xbc974589	-0.018465774
154	0xbddd0915	-0.10792748
155	0xbd46458a	-0.04840616
156	0x3cf672dd	0.030084068
157	0xbdc96760	-0.0983417
158	0xbe0cac3f	-0.13737582
159	0x3e04c8a4	0.12967163
160	0x39a506f0	0.0003147642
161	0x3d9d6661	0.07685543
162	0x3d4374b7	0.04771873
163	0xbd697af7	-0.057002034
164	0xbd263722	-0.040579922
165	0x3c9dceb2	0.019263599
166	0x3e0d2bc1	0.13786222
167	0x3e02ecc0	0.12785625
168	0xbd798a59	-0.060922954
169	0xbd2e5817	-0.042564478
170	0x3db8113a	0.08987661
171	0x3d0412ed	0.03224461
172	0x3e0923bd	0.1339254
173	0x3decd4ff	0.11564063
174	0xbdd74d9a	-0.10512848
175	0xbdde222a	-0.1084636
176	0x3dbfd51f	0.093668215
177	0xbcbcad9b	-0.023032
178	0x3ca1d2dc	0.019753866
179	0x3d692206	0.056917213
180	0xbdae1f3a	-0.0850205
181	0xbd9a2f8c	-0.075286
182	0xbdf3a578	-0.11896795
183	0xbdfb9b58	-0.12285489
184	0xbdbc7dd9	-0.09203691
185	0xbe026935	-0.12735446
186	0x3cbe49df	0.023228584
187	0xbd7d17e8	-0.061790377
188	0x3d939f88	0.072081625
189	0x3dc03ecf	0.0938698
190	0xbda5f591	-0.08103479
191	0xbdf05a7c	-0.117360085
192	0x3bb2bd1b	0.005454672
193	0xbd831686	-0.064007804
194	0xbc419381	-0.011814953
195	0x3e03e7cd	0.12881394
196	0x3d42d57f	0.047566887
197	0xbc71efcf	-0.0147666475
198	0xbd37fc9f	-0.044918653
199	0xbd2c2f05	-0.04203703
200	0x3d1041b4	0.03521891
201	0xbdffe46a	-0.124947384
202	0xbd31e781	-0.04343367
203	0xbd1626ec	-0.036658213
204	0xbdf1bd2e	-0.11803661
205	0xbd4bf02e	-0.0497896
206	0xbd77b410	-0.060474455
207	0xbe05b54a	-0.13057438
208	0xbb1b725f	-0.0023719294
209	0xbdd6409e	-0.104615435
210	0xb9ee469a	-0.000454475
211	0x3de3911e	0.11111663
212	0x3dbc644e	0.09198819
213	0x3d17d7e8	0.03707114
214	0x3d112890	0.035439074
215	0x3d80cfaf	0.062896125
216	0xbcf73464	-0.030176349
217	0xbd754ccb	-0.05988769
218	0x3d312ceb	0.043255728
219	0x3de0a3e0	0.10968757
220	0x3e0fbc78	0.14036739
221	0xbd9b90d3	-0.075959824
222	0x3de6dcb3	0.11272564
223	0xbd2f99ce	-0.04287129
224	0xbc021c22	-0.007941278
225	0xbce226b1	-0.02760634
226	0x3e11c5e5	0.14235647
227	0xbdc41ead	-0.095761634
228	0x3db879e8	0.09007627
229	0x3e10455f	0.14088963
230	0xbde463ed	-0.11151872
231	0x3e098cc1	0.134326
232	0xbd979b54	-0.07402673
233	0x3e022ac0	0.1271162
234	0xbdb690c1	-0.08914328
235	0xbd3376c8	-0.04381445
236	0xbd6c8ebd	-0.057753313
237	0xbcef7125	-0.029228756
238	0xbcddc602	-0.027071957
239	0xbdca6a2c	-0.09883532
240	0x3d229649	0.039694104
241	0x3dbf930c	0.09354219
242	0x3be866da	0.007092339
243	0xbe00f465	-0.12593229
244	0x3d887389	0.066626616
245	0x3d4228f2	0.04740233
246	0xbc836584	-0.016039617
247	0x3d91d06e	0.07119833
248	0xbd63ba14	-0.05559738
249	0xbdbb6c8d	-0.09151564
250	0x3e0d096e	0.13773128
251	0x3dee7f73	0.11645403
252	0xbd0b1f07	-0.033965137
253	0xbce07f43	-0.027404433
254	0x3e000df8	0.12505329
255	0x3d3ac441	0.04559732

down_blocks.2.conv2.bias f4 [16]
0	0xb98866ea	-0.00026016618
1	0xb965353b	-0.00021858972
2	0x392efecb	0.00016688851
3	0xb8565984	-5.1104944e-05
4	0xb8e74956	-0.00011028598
5	0x399dade0	0.0003007492
6	0x3a83a0f8	0.0010042479
7	0x3a09fad3	0.0005263511
8	0x38f052fd	0.000114595496
9	0x388aefd4	6.625024e-05
10	0xb996c5b6	-0.00028757536
11	0xb9b64ffd	-0.0003477334
12	0x397d8764	0.00024178397
13	0xb89365f3	-7.028496e-05
14	0x399e63b8	0.00030210405
15	0xb957fcc2	-0.00020598157

down_blocks.2.norm1.weight f4 [16]
0	0x3f7fe69c	0.99961257
1	0x3f7ffeb7	0.9999804
2	0x3f802478	1.0011129
3	0x3f7feb91	0.9996882
4	0x3f7fb64a	0.99887526
5	0x3f7f8ee6	0.9982742
6	0x3f8016d3	1.0006965
7	0x3f80290d	1.0012528
8	0x3f7fb959	0.99892193
9	0x3f8019be	1.0007856
10	0x3f7fc5f2	0.99911416
11	0x3f801385	1.0005957
12	0x3f800429	1.000127
13	0x3f7ffb55	0.9999288
14	0x3f800c4c	1.0003753
15	0x3f80159d	1.0006596

down_blocks.2.norm1.bias f4 [16]
0	0x39ef3d4a	0.00045631296
1	0x37ced78d	2.4657487e-05
2	0x3a1b4354	0.00059228134
3	0xba6e1c04	-0.0009083154
4	0x394e5aab	0.00019679467
5	0x397129c9	0.00022999117
6	0x3a4163c5	0.00073772325
7	0xba1d086f	-0.00059903314
8	0x39c21699	0.000370194
9	0xb948718f	-0.0001911579
10	0x39ab6798	0.00032692845
11	0xb867cabc	-5.5263503e-05
12	0xb8df1d00	-0.0001063887
13	0xba1122a9	-0.0005536476
14	0x3a1eb47f	0.00060541177
15	0xb9b8b580	-0.00035230443

down_blocks.2.norm1.running_mean f4 [16]
0	0x3e50e9c3	0.20401673
1	0x3e8e2e96	0.27769917
2	0x3e8c610e	0.27417797
3	0x3f263938	0.6493106
4	0x3ed2de3a	0.4118517
5	0x3edb8e8e	0.42882198
6	0x3de6a625	0.11262158
7	0x3eae8395	0.34084764
8	0x3ebd07e5	0.36920086
9	0x3e9efba8	0.31051373
10	0x3ec896df	0.39177606
11	0x3f47d9c4	0.7806666
12	0x3eb29c3f	0.3488483
13	0x3ed6cbe0	0.4195242
14	0x3e11d4c8	0.14241326
15	0x3ee414f9	0.4454725

down_blocks.2.norm1.running_var f4 [16]
0	0x3e6f4156	0.23364767
1	0x3e63e275	0.22254355
2	0x3e365170	0.17804503
3	0x3f8a1e86	1.0790565
4	0x3ea205b3	0.31644973
5	0x3f0786ee	0.5294026
6	0x3d872721	0.0659926
7	0x3e338075	0.17529471
8	0x3ee7ec97	0.4529769
9	0x3eba8d86	0.364361
10	0x3eb2e66e	0.3494143
11	0x3fb61741	1.4225847
12	0x3e9a28c8	0.3010924
13	0x3ed7bb9e	0.42135328
14	0x3dad1e3f	0.084530346
15	0x3f1586ed	0.58409005

down_blocks.2.norm2.weight f4 [16]
0	0x3f7ffc79	0.9999462
1	0x3f8006fe	1.0002134
2	0x3f7ff730	0.99986553
3	0x3f7fefd3	0.9997532
4	0x3f8006a4	1.0002027
5	0x3f7fdfc1	0.99950796
6	0x3f80003d	1.0000073
7	0x3f801850	1.000742
8	0x3f800e95	1.000445
9	0x3f800277	1.0000752
10	0x3f7feac5	0.99967605
11	0x3f7fe513	0.99958915
12	0x3f80005c	1.000011
13	0x3f800434	1.0001283
14	0x3f7ff32a	0.99980414
15	0x3f802550	1.0011387

down_blocks.2.norm2.bias f4 [16]
0	0x37b9b982	2.2140102e-05
1	0x39206ecc	0.00015300064
2	0x38bfbac8	9.1423804e-05
3	0xb8e85fe7	-0.00011080485
4	0x393f70d9	0.00018257218
5	0xb9475dbd	-0.00019013039
6	0x3a0d374a	0.0005386962
7	0x39af7960	0.00033469032
8	0x3a128fc8	0.0005590883
9	0xba24c191	-0.0006284947
10	0x39a26659	0.00030975303
11	0xb97975a9	-0.00023790322
12	0x3935e54a	0.00017346922
13	0xb94d72a9	-0.00019593038
14	0x36eddd8e	7.0889428e-06
15	0xb8d20353	-0.000100141995

down_blocks.2.norm2.running_mean f4 [16]
0	0x3ec1d88e	0.3786053
1	0x3ebe8013	0.37207088
2	0x3e970780	0.2949791
3	0x3ebb0092	0.36523873
4	0x3eb305da	0.34965402
5	0x3ed8bd5e	0.42331976
6	0x3e970303	0.29494485
7	0x3eb73a2b	0.35786566
8	0x3eb1cfce	0.34728855
9	0x3e9b1dbd	0.30296126
10	0x3ea943cc	0.33059537
11	0x3eb9a116	0.3625571
12	0x3eb8ae48	0.36070466
13	0x3eb44b04	0.35213482
14	0x3ec90fb4	0.39269793
15	0x3ea90cdc	0.33017623

down_blocks.2.norm2.running_var f4 [16]
0	0x3f0c9248	0.5491071
1	0x3f01c248	0.50687075
2	0x3e8f3a5d	0.27974215
3	0x3f0d93ea	0.55303824
4	0x3eb92a10	0.36164904
5	0x3e8afc0a	0.27145416
6	0x3e9573dd	0.2918996
7	0x3f01470e	0.50499046
8	0x3ead26bb	0.33818612
9	0x3ea7f326	0.32802695
10	0x3e82ca06	0.25544757
11	0x3f0689cd	0.5255402
12	0x3f01f984	0.50771356
13	0x3edf72f0	0.43642378
14	0x3eaf0a8a	0.34187728
15	0x3eba56ab	0.36394247
