Models/c4f979f1-c30c-4f2d-b437-bd4ab8ab9f4a.pt (torch, 166339 bytes, 110 tensors)

conv_final.weight f4 [2, 4, 1, 1]
0.55047435 -0.22591501 -1.5433015 -0.45548657 -0.6437367 -0.98140574 0.3183894 -0.93171173
00000000: e3eb 0c3f 4456 67be e78a c5bf 8935 e9be
00000010: eecb 24bf 683d 7bbf ef03 a33e a984 6ebf

conv_final.bias f4 [2]
1.0357176 -1.0357175
00000000: 6592 843f 6492 84bf

down_blocks.0.conv1.weight f4 [4, 2, 3, 3]
0.31832066 0.1560972 -0.023635868 0.10490578 0.06684666 -0.27057904 0.33079225 -0.27992824
0.22571516 0.21085376 -0.3572102 0.18683758 -0.31900573 -0.3282282 -0.09042601 0.13288426
-0.2562967 -0.29977414 0.17188576 0.016293539 0.30819008 0.24092828 0.13129878 -0.2552284
0.26342937 0.06923749 0.21849895 -0.18757598 0.35954052 -0.0014303079 0.16721682 0.2025344
0.15561603 0.1577324 0.011307158 0.011005564 -0.23625195 -0.24934314 0.26401448 0.061890736
0.38607532 0.1389062 0.12023399 -0.10368397 0.23678955 0.2058973 0.12861843 -0.014911866
0.102860615 -0.15919186 -0.094921656 0.28509754 0.23635903 -0.27379575 0.21738394 -0.10872869
0.19794343 0.10144265 -0.19355732 -0.0100376075 -0.007285346 -0.27088186 0.25151092 0.0070852535
-0.079331405 0.12563492 0.059421536 0.23787425 0.27362943 -0.17056791 0.27380812 0.15470687
00000000: edfa a23e f2d7 1f3e 02a0 c1bc d7d8 d63d
00000010: e7e6 883d 5689 8abe 9a5d a93e c152 8fbe
00000020: e021 673e 0cea 573e 41e4 b6be 5a52 3f3e
00000030: b854 a3be 870d a8be 4631 b9bd d012 083e
00000040: 5239 83be ff7b 99be d202 303e 077a 853c
00000050: 17cb 9d3e e7b5 763e 3073 063e 4cad 82be
00000060: 37e0 863e 63cc 8d3d 30be 5f3e eb13 40be
00000070: b215 b83e 2b79 bbba e33a 2b3e 2e65 4f3e
00000080: cf59 1f3e 9a84 213e a841 393c ae50 343c
00000090: 08ec 71be cf53 7fbe e82c 873e 2481 7d3d
000000a0: aaab c53e 6d3d 0e3e 3d3d f63d 4358 d4bd
000000b0: f678 723e bed6 523e 8db4 033e e650 74bc
000000c0: 96a8 d23d 3103 23be 4966 c2bd 4ef8 913e
000000d0: 1a08 723e f52e 8cbe e599 5e3e 26ad debd
000000e0: afb1 4a3e 2ac1 cf3d e433 46be c774 24bc
000000f0: e9b9 eebb 07b1 8abe 0ac6 803e 6a2b e83b
00000100: 8178 a2bd 71a6 003e ff63 733d 4f95 733e
00000110: 2819 8c3e 5ba9 2ebe 9430 8c3e 7a6b 1e3e

down_blocks.0.conv1.bias f4 [4]
0.05458842 2.0961764e-08 0.0018262473 0.00041687483
00000000: 1b98 5f3d 680f b432 b15e ef3a fe8f da39

down_blocks.0.conv2.weight f4 [4, 4, 3, 3]
-0.09840199 -0.1351603 0.17347848 -0.24979916 -0.06846678 0.105798446 -0.040658906 -0.10597736
0.24037518 -0.020440547 -0.15438707 -0.13366802 0.13842604 -0.18152152 -0.23507906 0.17472927
0.25835592 0.049670715 0.14878419 0.032201853 0.17636164 0.17864633 -0.052181683 -0.23182778
0.20116325 -0.031019468 0.073877886 -0.10983077 0.29062387 -0.096080855 0.24562494 0.25805008
-0.106919125 0.20903301 -0.039045613 -0.13781326 -0.19548145 -0.06573008 -0.16501842 0.17617707
-0.20332305 -0.025913736 -0.15562895 0.25462508 0.08653907 0.042828582 0.19194475 0.27374053
-0.011609402 0.038698457 0.019770565 0.14942987 0.20171875 -0.13691734 0.23925799 0.044198114
0.019114967 -0.0025825258 -0.103166714 0.103027225 0.07020382 0.0900878 -0.09711406 0.08301185
0.009906534 0.22735639 -0.017944617 -0.28089312 0.0008521756 0.21507265 0.14349417 -0.22444001
0.27629903 -0.10023853 -0.13145372 0.070149995 0.0051501635 0.10462329 0.36498374 0.33009255
0.28647745 0.0963665 -0.10916137 -0.109935604 -0.20627668 0.053850602 -0.12660642 -0.14854755
-0.17840585 -0.027729152 -0.02729079 -0.07785018 0.23474872 0.2249949 0.0059392466 0.07945507
0.18867329 0.24730636 -0.1933991 0.06401569 -0.08354967 0.06286698 0.22927828 -0.0673393
-0.14752772 -0.034524713 -0.05064739 -0.15434521 0.08933034 -0.27567285 0.0030824775 -0.0699676
0.24993306 -0.020003699 -0.19151846 0.07282455 -0.10650187 0.064092636 -0.0702877 -0.17721117
0.19048688 0.06257997 -0.11428826 0.23184626 -0.14010926 0.2240661 -0.25561568 -0.14913027
0.17502844 0.12372172 0.15717053 0.06887394 0.0025395597 0.031163787 0.17668241 -0.069372386
0.26865953 0.21255165 -0.28405377 0.25803658 0.17916386 0.2035353 -0.19810459 -0.042714838
00000000: fc86 c9bd 7667 0abe 58a4 313e 5acb 7fbe
00000010: 5038 8cbd dbac d83d f489 26bd a80a d9bd
00000020: e924 763e ef72 a7bc a517 1ebe 45e0 08be
00000030: 8ebf 0d3e c7e0 39be 91b8 70be 3bec 323e
00000040: 3a47 843e 8573 4b3d e25a 183e 17e6 033d
00000050: 2598 343e 10ef 363e 76bc 55bd 4364 6dbe
00000060: bdfd 4d3e 8a1c febc 4a4d 973d f4ee e0bd
00000070: a7cc 943e 0ac6 c4bd 1b85 7b3e 241f 843e
00000080: 6af8 dabd c00c 563e 4bee 1fbd eb1e 0dbe
00000090: 4a2c 48be 7e9d 86bd 97fa 28be c367 343e
000000a0: eb33 50be 0b49 d4bc 325d 1fbe 385e 823e
000000b0: 653b b13d 066d 2f3d 2a8d 443e b827 8c3e
000000c0: 5c35 3ebc 4682 1e3d e1f5 a13c 2504 193e
000000d0: 5c8f 4e3e 0f34 0cbe 0c00 753e 1509 353d
000000e0: fe96 9c3c 983f 29bb 1249 d3bd f0ff d23d
000000f0: 05c7 8f3d f47f b83d bce3 c6bd 1e02 aa3d
00000100: 044f 223c 1dd0 683e 9700 93bc 39d1 8fbe
00000110: 8964 5f3a 013c 5c3e 23f0 123e 9ad3 65be
00000120: 1177 8d3e dc49 cdbd ce9b 06be cdaa 8f3d
00000130: b4c2 a83b bc44 d63d 26df ba3e e401 a93e
00000140: 2cad 923e cd5b c53d ff8f dfbd eb25 e1bd
00000150: 323a 53be 7392 5c3d 1da5 01be d91c 18be
00000160: 06b0 36be 3f28 e3bc ef90 dfbc ea6f 9fbd
00000170: f861 703e 1065 663e 039e c23b 57b9 a23d
00000180: 9233 413e e13d 7d3e 6a0a 46be a81a 833d
00000190: 171c abbd 67c0 803d edc7 6a3e 30e9 89bd
000001a0: 8211 17be c969 0dbd a373 4fbd ac0c 1ebe
000001b0: d3f2 b63d fe24 8dbe 6403 4a3b 2c4b 8fbd
000001c0: 74ee 7f3e ccde a3bc 6a1d 44be 0a25 953d
000001d0: a71d dabd 0043 833d fff2 8fbd d876 35be
000001e0: fe0e 433e ed29 803d f70f eabd 1b69 6d3e
000001f0: cd78 0fbe 9571 653e 0fe0 82be 9bb5 18be
00000200: a83a 333e d061 fd3d 50f1 203e c80d 8d3d
00000210: be6e 263b 334b ff3c 3cec 343e 1c13 8ebd
00000220: be8d 893e 24a7 593e 7f6f 91be 5f1d 843e
00000230: bb76 373e 8f6b 503e eedb 4abe c1f5 2ebd

down_blocks.0.conv2.bias f4 [4]
0.0039453786 0.01913997 -0.044205766 -0.015235132
00000000: 3c48 813b 6dcb 9c3c 1b11 35bd c69c 79bc

down_blocks.0.norm1.weight f4 [4]
1.0490044 0.9686902 0.98301446 0.9942885
00000000: c745 863f 15fc 773f d6a6 7b3f b189 7e3f

down_blocks.0.norm1.bias f4 [4]
-0.028531453 0.048478004 -0.024723507 0.003669946
00000000: cbba e9bc df90 463d f488 cabc 7a83 703b

down_blocks.0.norm1.running_mean f4 [4]
0.010273801 1.3040408 0.6640936 0.6495827
00000000: 7253 283c cfea a63f 0a02 2a3f 0d4b 263f

down_blocks.0.norm1.running_var f4 [4]
0.0032913643 0.061009567 0.017951982 0.011122768
00000000: eeb3 573b 2be5 793d 0910 933c 453c 363c

down_blocks.0.norm2.weight f4 [4]
1.0170656 1.001222 1.092245 0.9974335
00000000: 352f 823f 0b28 803f afce 8b3f cd57 7f3f

down_blocks.0.norm2.bias f4 [4]
0.0026352871 0.003423556 -0.003426622 0.0019007295
00000000: c8b4 2c3b bd5d 603b 2d91 60bb e621 f93a

down_blocks.0.norm2.running_mean f4 [4]
0.32848334 0.46828324 0.21884911 0.35348818
00000000: f82e a83e d2c2 ef3e fb19 603e 67fc b43e

down_blocks.0.norm2.running_var f4 [4]
0.22466269 0.23247468 1.3056688 0.15113936
00000000: fa0d 663e d80d 6e3e 2820 a73f 47c4 1a3e

down_blocks.1.conv1.weight f4 [8, 4, 3, 3]
0.22560549 -0.015205189 -0.08790243 -0.18775032 -0.001994362 -0.12848666 -0.08931763 -0.082831785
0.24506031 0.16635612 0.2218173 -0.07655874 0.19634955 -0.119946636 0.20252389 -0.07352173
0.081985846 0.10969094 0.09742418 -0.22904202 0.13950248 -0.20463966 0.11821659 0.23321854
-0.08858562 0.032891195 -0.079640746 -0.021750428 -0.19866976 -0.10173998 -0.023413522 0.22013116
-0.024916518 -0.060560472 0.02043988 -0.0143074 0.2002426 0.19355865 -0.2073128 0.18765138
0.094150305 0.09442105 -0.090889916 -0.059838347 -0.21338424 -0.1070833 0.015468107 -0.15074798
-0.08518437 -0.09202606 0.11929347 0.104854345 -0.06318533 -0.13582298 0.12406884 0.12515093
-0.040886484 -0.11710934 -0.22103757 0.07241569 -0.0008523142 0.1447743 0.036504973 0.22990985
0.10368162 0.050901115 -0.12770727 0.16875602 -0.19090548 -0.03748986 -0.0026699905 0.16934867
0.05753991 -0.15964611 0.17258684 -0.16066615 -0.06889523 0.07137447 0.09976417 0.0056946394
-0.08243909 -0.0047560283 0.09639945 -0.07414086 -0.0011348873 -0.17693722 0.12150057 0.21574734
-0.20557329 0.088851206 0.123667024 -0.13083957 0.04444004 0.034990773 -0.08641355 0.121501304
0.08969128 0.043731302 -0.07772905 -0.10264279 0.09824654 0.0033324906 -0.22304186 -0.07738721
0.10041388 -0.19165444 0.20458648 0.18639985 0.09642383 0.00945542 -0.04714094 -0.13824752
0.20392159 0.16915052 0.0014522381 -0.15887295 -0.14099132 -0.106107056 -0.08514422 -0.14943354
0.22339948 0.2248538 0.13105564 -0.09206963 -0.058714487 0.13695832 0.13132326 -0.057368778
0.16683745 -0.19628766 0.1966321 -0.1878764 0.10454892 0.0056551006 -0.12749237 0.03788205
-0.07610233 0.033226136 0.23178045 0.020983016 0.2308545 0.076053225 -0.12520018 -0.033640277
0.14130576 0.024247522 0.099431835 -0.1387396 0.20747496 -0.11455613 0.007869679 0.0050072065
0.16170675 0.11019732 -0.0019091411 -0.019924762 0.10117234 -0.079758145 0.0895067 -0.042397745
-0.120265804 -0.12674707 -0.17686433 0.07039653 0.15867414 -0.088473246 -0.011324642 0.12605782
0.013940495 -0.14825238 -0.16667643 0.20082189 -0.1269425 -0.13761815 -0.18177596 -0.14088501
-0.041410003 -0.11352074 0.13774289 0.2236093 -0.08974044 -0.10582764 -0.08802061 -0.116057105
-0.22028252 -0.15231095 0.21557127 -0.10390391 0.22782868 0.103112906 0.2287816 -0.022983808
-0.02836271 0.12485174 -0.18298188 0.047965016 0.010047326 0.1194892 -0.18321134 -0.1613823
0.0030852517 -0.18048438 -0.19668977 0.00059764035 -0.21110107 -0.029449211 -0.031195201 0.18398954
-0.18092902 0.027294345 0.15253808 -0.005646618 0.017941196 -0.21293601 0.048361856 -0.002826324
-0.0075354055 0.081817135 -0.046638925 0.14245087 -0.0062346435 -0.20976505 -0.1612584 0.026144326
0.025894174 -0.13875502 0.01023424 0.18388742 -0.01022913 0.06352361 -0.19591482 0.16361596
0.19453272 0.18357281 -0.1348567 -0.027134517 -0.010770678 -0.062614135 0.15523987 -0.10282121
-0.19539528 0.07738768 -0.037342653 -0.08115227 -0.22562853 -0.06609059 -0.06120872 -0.118500516
-0.054598834 0.20340428 -0.0071210535 -0.056783378 0.17796163 0.19273323 0.18749322 -0.13042004
00000000: 2005 673e 2f1f 79bc 3006 b4bd 9f41 40be
00000010: d8b3 02bb 0292 03be 29ec b6bd b6a3 a9bd
00000020: 17f1 7a3e 4259 2a3e 1324 633e d4ca 9cbd
00000030: db0f 493e 95a6 f5bd 6c62 4f3e 9092 96bd
00000040: 32e8 a73d a5a5 e03d 5486 c73d fe89 6abe
00000050: bdd9 0e3e 0f8d 51be 8a1b f23d d7d0 6e3e
00000060: 616c b5bd ebb8 063d b01a a3bd f42d b2bc
00000070: 1670 4bbe 0d5d d0bd b7cd bfbc 106a 613e
00000080: ba1d ccbc 420e 78bd 8971 a73c 9669 6abc
00000090: 650c 4d3e 3d34 463e cf49 54be af27 403e
000000a0: e0d1 c03d d35f c13d 7e24 babd 0e19 75bd
000000b0: 6681 5abe 7d4e dbbd f16d 7d3c ae5d 1abe
000000c0: 2575 aebd 2978 bcbd 2350 f43d e0bd d63d
000000d0: 4f67 81bd 2e15 0bbe ce17 fe3d 9127 003e
000000e0: 9678 27bd 06d7 efbd ac57 62be ad4e 943d
000000f0: d66d 5fba b73f 143e 3d86 153d 7d6d 6b3e
00000100: 0757 d43d b07d 503d b2c5 02be 61ce 2c3e
00000110: ba7c 43be f88e 19bd 02fb 2ebb bd69 2d3e
00000120: f8ae 6b3d 457a 23be 9bba 303e ab85 24be
00000130: f118 8dbd c72c 923d 2851 cc3d 199a ba3b
00000140: d3d5 a8bd 75d8 9bbb 136d c53d 2ad7 97bd
00000150: 80c0 94ba 082f 35be 4ad5 f83d dfec 5c3e
00000160: ce81 52be 9ff7 b53d 2345 fd3d cffa 05be
00000170: c206 363d 7c52 0f3d 96f9 b0bd add5 f83d
00000180: 10b0 b73d 981f 333d 6830 9fbd 6236 d2bd
00000190: 7b35 c93d ea65 5a3b 1665 64be 307d 9ebd
000001a0: cba5 cd3d 1041 44be 1e7f 513e 9adf 3e3e
000001b0: db79 c53d e8ea 1a3c dc16 41bd c290 0dbe
000001c0: d2d0 503e cb35 2d3e 0659 be3a 97af 22be
000001d0: 0760 10be a84e d9bd 1860 aebd 1b05 19be
000001e0: d5c2 643e 1340 663e 7333 063e 018f bcbd
000001f0: 9a7e 70bd cd3e 0c3e 9b79 063e 86fb 6abd
00000200: 70d7 2a3e a2ff 48be ed59 493e ac62 40be
00000210: bf1d d63d 6c4e b93b 5c8d 02be 352a 1b3d
00000220: 8adb 9bbd 2118 083d db57 6d3e 93e4 ab3c
00000230: 1f65 6c3e cbc1 9b3d 7a34 00be 63ca 09bd
00000240: 75b2 103e bda2 c63c eba2 cb3d c111 0ebe
00000250: 5174 543e 679c eabd d3ef 003c 7e13 a43b
00000260: 7496 253e 22af e13d 253c faba 4139 a3bc
00000270: 7233 cf3d 3d58 a3bd 4a4f b73d 42a9 2dbd
00000280: eb4d f6bd fcc9 01be ec1b 35be 0e2c 903d
00000290: 797b 223e 7631 b5bd fe8a 39bc 4d15 013e
000002a0: ad66 643c 79cf 17be 3aad 2abe 41a4 4d3e
000002b0: 37fd 01be c6eb 0cbe 7a23 3abe 2944 10be
000002c0: 899d 29bd 907d e8bd 790c 0d3e d6f9 643e
000002d0: d6c9 b7bd 29bc d8bd 2644 b4bd 59af edbd
000002e0: be91 61be 67f7 1bbe b7be 5c3e 93cb d4bd
000002f0: ec4b 693e dc2c d33d b945 6a3e 8a48 bcbc
00000300: ea58 e8bc 45b2 ff3d 9a5f 3bbe f776 443d
00000310: 8a9d 243c c1b6 f43d c19b 3bbe 6741 25be
00000320: ef31 4a3b e6d0 38be 0b69 49be f7aa 1c3a
00000330: e12a 58be 793f f1bc 148d ffbc c167 3c3e
00000340: 7545 39be 6498 df3c f132 1c3e 4407 b9bb
00000350: 6af9 923c e60b 5abe 1517 463d d939 39bb
00000360: 90eb f6bb be8f a73d 7508 3fbd a4de 113e
00000370: fb4b ccbb a6cc 56be ec20 25be a02c d63c
00000380: 0520 d43c cc15 0ebe 84ad 273c fc4c 3c3e
00000390: 1598 27bc ab18 823d e59d 48be f18a 273e
000003a0: 9633 473e 83fa 3b3e e017 0abe 3549 debc
000003b0: 7f77 30bc d73b 80bd 33f7 1e3e ed93 d2bd
000003c0: b315 48be 6f7d 9e3d 9cf4 18bd 2933 a6bd
000003d0: 2a0b 67be 815a 87bd ffb5 7abd 66b0 f2bd
000003e0: 07a3 5fbd 3649 503e ba57 e9bb b095 68bd
000003f0: 933b 363e dc5b 453e 39fe 3f3e d58c 05be

down_blocks.1.conv1.bias f4 [8]
-0.0017492299 -0.0012524477 0.0034440102 0.002050125 -0.00053220324 -0.0014039049 0.0019270579 -0.00017625632
00000000: 6a46 e5ba 2c29 a4ba e7b4 613b 645b 063b
00000010: 8e83 0bba 3b03 b8ba 5595 fc3a 72d1 38b9

down_blocks.1.conv2.weight f4 [8, 8, 3, 3]
-0.08198372 0.14885134 -0.10567221 -0.17536052 0.09409446 0.14535643 0.13129842 -0.11437536
-0.0074368515 0.17351528 -0.09191297 0.025342423 0.13308437 -0.08723677 0.0013167134 0.028891427
-0.13125746 -0.094622865 0.1823805 -0.07039723 -0.019468933 0.009321513 -0.12916616 -0.12291418
-0.1436131 0.12851188 0.17721447 -0.08734433 -0.093090296 0.18981461 -0.14074136 -0.13817452
0.05873051 -0.07732473 -0.05284899 -0.09053407 0.07290689 0.010465935 -0.19106112 -0.060724653
-0.07233903 -0.0155973295 -0.12776797 0.14351001 0.16321878 0.045336302 0.08872716 -0.15714963
-0.11902996 -0.07778569 0.19248942 0.13024633 0.016881678 -0.14707124 -0.12807432 -0.070092276
-0.18643846 -0.10479493 0.16350551 -0.14619562 0.013365235 0.068338335 0.11568506 -0.008327814
-0.20368333 0.20274654 0.101174705 0.16188219 0.0406786 -0.13203585 0.20666125 0.08254341
0.16609502 -0.110500395 -0.1620016 -0.07861701 0.15547846 0.034412086 -0.20191224 -0.10630343
0.1970961 0.080983065 0.026403546 -0.13837773 -0.19280957 -0.17812565 0.14950986 0.06646816
0.11587711 0.0002625786 -0.1782695 -0.06303817 -0.17827228 -0.11315747 0.028335959 0.18920517
-0.08648842 0.2017194 0.093423866 0.08684641 0.009529029 -0.106728815 0.0697175 0.021482576
-0.11241787 0.055043634 -0.09906398 -0.19983543 0.20113514 -0.100318596 -0.097571485 -0.10335924
-0.063551284 0.085499056 -0.12130442 -0.18171196 0.03245097 -0.097254165 -0.037813116 0.11741188
-0.11521638 0.19942784 -0.16502228 0.06178328 0.10557745 -0.1917326 -0.17858627 -0.20356064
-0.05466921 0.15329218 -0.002724688 -0.036614444 -0.1444765 -0.17411001 0.15506616 -0.10811232
0.096254714 0.07269773 -0.14350884 -0.14745383 -0.036811423 0.18880004 0.17665675 -0.09093841
0.15442806 -0.057604544 -0.008421265 0.12778792 0.10830463 0.08104303 0.19438088 0.06392726
0.19221544 0.16589814 0.044863895 -0.09858058 -0.18127003 0.100031406 -0.18010488 -0.0970081
0.092018925 0.0444612 -0.1380085 0.1657622 -0.060169093 -0.07288115 0.19257122 -0.19515114
-0.010120178 -0.010784285 0.0974671 -0.14665182 0.15775912 -0.19758612 -0.021155206 -0.15802538
-0.14575449 -0.1561597 -0.16460781 0.021576015 -0.10943313 0.0059452616 -0.15851876 0.0025164993
-0.02655622 -0.027165955 0.18051223 -0.078888156 -0.043684915 -0.111392066 -0.18698803 -0.050170254
0.08770376 0.021230696 -0.102788426 -0.106694125 -0.058783088 0.0867493 0.029804567 -0.082312115
-0.09700212 0.071323745 -0.05674538 0.17896664 -0.032006573 -0.09440002 0.11087698 0.15929827
0.12583314 0.12666975 0.14662407 -0.16743946 0.14087899 0.08148147 -0.06459913 -0.056058925
0.18293601 -0.03330579 0.12925617 0.19482984 -0.0061948635 -0.021899417 0.07252981 0.04825336
-0.027637405 0.16302277 -0.07589781 -0.016784808 0.032148004 0.18057598 -0.09488244 0.1574391
0.090879485 0.16949002 -0.01698 -0.034916643 -0.16638497 -0.07631399 -0.1379854 -0.09716433
-0.13747482 0.015013264 -0.09724804 0.122928336 -0.0045572678 0.19756098 -0.19219184 0.024632849
0.041211147 -0.046871793 -0.02878594 -0.16339049 -0.14703383 -0.13649113 0.09851849 0.17422003
00000000: 15e7 a7bd 7c6c 183e ac6a d8bd b591 33be
00000010: 99b4 c03d 51d8 143e 1873 063e a13d eabd
00000020: d5b0 f3bb fdad 313e de3c bcbd ea9a cf3c
00000030: 4547 083e 31a9 b2bd 9295 ac3a b7ad ec3c
00000040: 5b68 06be a2c9 c1bd f4c1 3a3e 6c2c 90bd
00000050: 507d 9fbc 42b9 183c 2244 04be 6eba fbbd
00000060: 500f 13be 9e98 033e b677 353e 96e1 b2bd
00000070: 20a6 bebd c35e 423e 811e 10be 9f7d 0dbe
00000080: 678f 703d 6e5c 9ebd 2f78 58bd ed69 b9bd
00000090: 3550 953d 5079 2b3c 87a5 43be 6aba 78bd
000000a0: 7c26 94bd f18b 7fbc 9bd5 02be 4af4 123e
000000b0: d322 273e 8fb2 393d 96b6 b53d d5eb 20be
000000c0: fbc5 f3bd 1b4e 9fbd f21b 453e 4b5f 053e
000000d0: 724b 8a3c d899 16be ea25 03be 8a8c 8fbd
000000e0: b9e9 3ebe b99e d6bd fd6d 273e 4eb4 15be
000000f0: dcf9 5a3c f8f4 8b3d 4aec ec3d 6271 08bc
00000100: 5d92 50be ca9c 4f3e af34 cf3d 72c4 253e
00000110: 9b9e 263d 6834 07be 029f 533e 850c a93d
00000120: d014 2a3e 084e e2bd bfe3 25be f401 a1bd
00000130: bf35 1f3e b0f3 0c3d 15c2 4ebe 9db5 d9bd
00000140: 8fd3 493e 73da a53d 404c d83c e4b2 0dbe
00000150: df6f 45be 9266 36be 1d19 193e 7520 883d
00000160: fa50 ed3d b4aa 8939 488c 36be 281a 81bd
00000170: 028d 36be 1bbf e7bd d020 e83c 00bf 413e
00000180: d720 b1bd 888f 4e3e 0355 bf3d 88dc b13d
00000190: a51f 1c3c a394 dabd 0cc8 8e3d 3afc af3c
000001a0: 573b e6bd 6f75 613d 0ee2 cabd a9a1 4cbe
000001b0: 5ff6 4d3e d673 cdbd 8fd3 c7bd 02ae d3bd
000001c0: 2d27 82bd 211a af3d 746e f8bd b312 3abe
000001d0: 4feb 043d 312d c7bd ede1 1abd a475 f03d
000001e0: 91f6 ebbd d036 4c3e 9afb 28be 7710 7d3d
000001f0: fd38 d83d 8d55 44be 52df 36be 3372 50be
00000200: d2ec 5fbd a0f8 1c3e ae90 32bb 07f9 15bd
00000210: a6f1 13be e549 32be aac9 1e3e fe69 ddbd
00000220: 3121 c53d 8ce2 943d fbf3 12be 23fe 16be
00000230: 93c7 16bd cc54 413e 82e5 343e eb3d babd
00000240: 6422 1e3e bef2 6bbd 58f9 09bc d6da 023e
00000250: d1ce dd3d e3f9 a53d c80b 473e 4cec 823d
00000260: 20d4 443e 34e1 293e 34c3 373d 9de4 c9bd
00000270: da9e 39be 44dd cc3d 6a6d 38be 2fac c6bd
00000280: 6b74 bc3d f21c 363d 1a52 0dbe 91bd 293e
00000290: de73 76bd b642 95bd 6431 453e b3d5 47be
000002a0: 1acf 25bc 92b0 30bc d59c c73d e52b 16be
000002b0: 9b8b 213e 0454 4abe af4d adbc 68d1 21be
000002c0: aa40 15be 54e8 1fbe f38e 28be 2fc0 b03c
000002d0: 7a1e e0bd 78d0 c23b be52 22be daeb 243b
000002e0: 6e8c d9bc 238b debc 33d8 383e 1d90 a1bd
000002f0: f4ee 32bd 8621 e4bd ca79 3fbe 537f 4dbd
00000300: 079e b33d ffeb ad3c bd82 d2bd 7382 dabd
00000310: 89c6 70bd 9ea9 b13d b528 f43c 4193 a8bd
00000320: 0ca9 c6bd 2f12 923d d86d 68bd 0843 373e
00000330: 5319 03bd cc54 c1bd 7813 e33d 161f 233e
00000340: 67da 003e b7b5 013e 9f24 163e 4075 2bbe
00000350: 9542 103e c2df a63d 8c4c 84bd 0b9e 65bd
00000360: 9453 3b3e a76b 08bd bb5b 043e 7981 473e
00000370: 48fe cabb 6866 b3bc 828a 943d 51a5 453d
00000380: d767 e2bc 71ef 263e 5070 9bbd 4b80 89bc
00000390: a0ad 033d e9e8 383e ba51 c2bd b737 213e
000003a0: 061f ba3d cb8e 2d3e a419 8bbc c104 0fbd
000003b0: d260 2abe 824a 9cbd 0b4c 0dbe 18fe c6bd
000003c0: 33c6 0cbe 31fa 753c fb29 c7bd dac1 fb3d
000003d0: 2255 95bb 6d4d 4a3e f0cd 44be d4ca c93c
000003e0: 05cd 283d a3fc 3fbd 7ed0 ebbc d64f 27be
000003f0: 0990 16be 55c4 0bbe 10c4 c93d bc66 323e

down_blocks.1.conv2.bias f4 [8]
-0.0031114703 0.0011667486 0.0015693129 -0.000119457676 0.002220348 0.0002643401 0.0017741867 -0.0013471987
00000000: cfe9 4bbb 96ed 983a 67b1 cd3a 5a85 fab8
00000010: 4283 113b 2197 8a39 d48b e83a 7d94 b0ba

down_blocks.1.norm1.weight f4 [8]
0.9986683 0.9993054 0.99610764 1.003056 1.0001237 1.0013303 0.9975703 1.0037987
00000000: baa8 7f3f 7bd2 7f3f e900 7f3f 2464 803f
00000010: 0e04 803f 972b 803f c460 7f3f 7a7c 803f

down_blocks.1.norm1.bias f4 [8]
0.001570975 -0.0010295965 -0.00015465393 -0.002298027 -0.0012882976 -0.00086311984 -0.0014820141 0.0006199579
00000000: 2ce9 cd3a 87f3 86ba 992a 22b9 7f9a 16bb
00000010: 18dc a8ba fe42 62ba 2440 c2ba ac84 223a

down_blocks.1.norm1.running_mean f4 [8]
0.24672246 0.16314639 0.14724597 0.34127554 0.16671528 0.23125058 0.14119262 0.5266352
00000000: d0a4 7c3e d90f 273e a6c7 163e abbb ae3e
00000010: 69b7 2a3e f4cc 6c3e cc94 103e 91d1 063f

down_blocks.1.norm1.running_var f4 [8]
0.19738182 0.17299767 0.12654357 0.24253666 0.20427777 0.059347194 0.071664475 1.4141237
00000000: 761e 4a3e 4d26 313e a394 013e 885b 783e
00000010: 312e 513e 0b16 733d d3c4 923d 0102 b53f

down_blocks.1.norm2.weight f4 [8]
1.0037804 0.9928274 1.0026528 1.0006859 1.0021648 0.9990694 1.0075738 1.0083746
00000000: e07b 803f f029 7e3f ed56 803f 7a16 803f
00000010: f046 803f 03c3 7f3f 2ef8 803f 6b12 813f

down_blocks.1.norm2.bias f4 [8]
-0.00033403072 0.002367075 0.00082967384 0.001348195 -0.0018258612 0.00040733797 0.000984452 6.166449e-05
00000000: d820 afb9 ee20 1b3b 787e 593a ebb5 b03a
00000010: bc51 efba fa8f d539 ba08 813a df51 8138

down_blocks.1.norm2.running_mean f4 [8]
0.21836095 0.31694025 0.2675789 0.28994423 0.37944567 0.2702735 0.20862147 0.28620902
00000000: 039a 5f3e fe45 a23e 1a00 893e 9273 943e
00000010: b446 c23e 4a61 8a3e dea0 553e fd89 923e

down_blocks.1.norm2.running_var f4 [8]
0.22463223 0.14637089 0.42832872 0.5498949 0.18526371 0.6753616 0.28696913 0.6834766
00000000: fe05 663e 40e2 153e e74d db3e eac5 0c3f
00000010: c5b5 3d3e 7fe4 2c3f 9eed 923e 53f8 2e3f

down_blocks.2.conv1.weight f4 [16, 8, 3, 3]
0.1617181 -0.09291987 -0.12702289 0.11301479 -0.06507365 0.079468854 -0.12692298 -0.069865964
-0.09756279 -0.12806702 -0.15533936 -0.04998195 -0.108921304 -0.08033535 0.099876985 -0.16309294
-0.1096362 -0.084565386 0.015695771 0.14075083 -0.084605776 0.016016982 -0.12548979 0.046969492
-0.031398144 0.10743431 -0.055941213 0.123174794 0.007361018 0.13777113 -0.11284024 0.091207266
0.023598153 0.06126323 -0.14260891 0.072300844 -0.13641241 -0.080783956 0.10528608 -0.14241663
-0.108846195 0.08327146 0.0765714 -0.14901099 0.065247245 -0.091063924 -0.07752479 -0.0046279365
0.12881522 0.0709251 -0.146748 0.052444372 -0.12591319 0.05448068 -0.071470074 -0.117292196
0.10462447 -0.0991768 -0.08261402 -0.131824 0.08292908 -0.08068362 0.06426134 0.12164967
-0.086995065 0.093582734 0.15878807 -0.12499646 0.074885115 0.16623192 0.12705387 -0.041702718
-0.14626081 -0.031059213 0.049616575 0.16382267 -0.122213945 0.04587733 -0.15154235 -0.0042109615
0.15311906 -0.12987013 -0.08188433 0.035319947 -0.017299926 0.15335022 0.036375206 -0.05174307
0.040354192 -0.042807322 -0.08340739 -0.055256628 -0.083966196 0.11150606 0.019086007 -0.0071370425
-0.049589403 -0.039779205 -0.057367004 0.06677157 0.032676104 -0.1469832 -0.14083146 0.15089732
-0.057916906 0.14966911 0.06603702 -0.073937625 -0.024275629 0.16173837 0.14036432 0.11330142
-0.039490618 0.046778183 0.039643005 0.0026629267 0.11739959 0.07262554 0.056086365 0.11453196
0.03796866 -0.0068831663 -0.050250236 0.035088055 -0.023923878 0.081405014 0.13132416 0.12935013
-0.034720175 -0.12260653 0.13560972 -0.040981166 -0.15614562 0.108663656 -0.091468796 0.16740356
0.10398487 0.11769173 -0.11503179 -0.035681505 0.121076025 -0.02026035 0.14944337 -0.0071141794
0.12042481 -0.0037155617 -0.016597541 0.017622722 0.07750257 0.033407994 -0.1274027 0.11009376
-0.10245002 0.104195535 0.100582056 0.041935973 0.07177696 0.09944002 0.101458445 -0.03713313
0.06310219 0.041645445 -0.06757923 0.06769544 -0.0724484 0.093214296 0.07598614 -0.120541945
0.02072322 -0.1595388 -0.022718702 -0.08304976 0.0796701 -0.0022297488 -0.08449393 -0.025729172
-0.070256695 0.0815819 0.12010823 -0.06214271 0.15923691 0.043982107 -0.02683225 0.0148852635
0.11911882 -0.15850781 0.13564928 0.04385195 0.10262306 0.030012874 -0.10729874 0.10712395
0.052635085 -0.12393172 -0.15554492 0.03710185 0.106710024 -0.10755365 -0.077562176 0.08555554
0.02519512 0.047082156 0.15855087 0.018180363 -0.0448858 0.13438433 -0.088584594 -0.0411997
-0.047073044 -0.14316674 0.07911992 -0.1564339 0.07902358 -0.06906127 -0.044389434 0.13792469
-0.05272531 0.14691867 -0.088568464 0.16281074 -0.11117436 0.07817323 0.015493722 -0.10031256
-0.11496348 0.1648597 -0.07107286 0.1307952 -0.14636849 0.11519304 0.13914827 0.10774315
0.00013719754 0.06972324 0.023917371 -0.15541488 -0.038237106 -0.083267055 0.14482853 -0.16055878
0.016491363 0.053734425 0.15255915 0.041661534 -0.045441374 -0.08101309 -0.12454199 0.15999825
0.15766121 -0.1081323 -0.046262555 0.13680297 -0.017677518 -0.0052382792 -0.15118834 0.09814654
00000000: 6e99 253e c64c bebd 4a12 02be 4c74 e73d
00000010: 5545 85bd 91c0 a23d 19f8 01be e315 8fbd
00000020: 00cf c7bd 0024 03be 4811 1fbe e0b9 4cbd
00000030: 2212 dfbd dc86 a4bd 4e8c cc3d d601 27be
00000040: f288 e0bd 9e30 adbd 6b94 803c fc20 103e
00000050: cb45 adbd 0c36 833c 6580 00be 1563 403d
00000060: 579b 00bd 8506 dc3d 9d22 65bd 1143 fc3d
00000070: b234 f13b e013 0d3e c918 e7bd e0ca ba3d
00000080: ea50 c13c 27ef 7a3d 1208 12be 7712 943d
00000090: b2af 0bbe 0f72 a5bd 3aa0 d73d aad5 11be
000000a0: c1ea debd 3a8a aa3d 77d1 9c3d 5696 18be
000000b0: 59a0 853d b97f babd 51c5 9ebd f2a5 97bb
000000c0: 23e8 033e 2e41 913d 1c45 16be e9cf 563d
000000d0: 63ef 00be 2227 5f3d e75e 92bd e436 f0bd
000000e0: 5b45 d63d 351d cbbd 8a31 a9bd dffc 06be
000000f0: b9d6 a93d 743d a5bd 739b 833d 7623 f93d
00000100: 782a b2bd 4ea8 bf3d 5799 223e 25fe ffbd
00000110: 5e5d 993d b338 2a3e 691a 023e 78d0 2abd
00000120: 65c5 15be e46f febc c03a 4b3d 21c1 273e
00000130: 4e4b fabd dee9 3b3d eb2d 1bbe 1bfc 89bb
00000140: 3ecb 1c3e adfc 04be f9b2 a7bd a6ab 103d
00000150: 93b8 8dbc d707 1d3e 2bfe 143d 8bf0 53bd
00000160: 704a 253d bb56 2fbd 7ed1 aabd c654 62bd
00000170: 78f6 abbd 4a5d e43d 425a 9c3c dadd e9bb
00000180: 421e 4bbd 85ef 22bd aaf9 6abd 88bf 883d
00000190: 61d7 053d c482 16be 1f36 10be d484 1a3e
000001a0: 473a 6dbd dc42 193e 6b3e 873d 9c6c 97bd
000001b0: afdd c6bc be9e 253e aabb 0f3e 930a e83d
000001c0: eac0 21bd 7b9a 3f3d b460 223d 7f84 2e3b
000001d0: 326f f03d b3bc 943d d1ba 653d bb8f ea3d
000001e0: 0785 1b3d 2f8c e1bb 31d3 4dbd 7eb8 0f3d
000001f0: 02fc c3bc acb7 a63d d779 063e 5c74 043e
00000200: be36 0ebd 2219 fbbd 46dd 0a3e dedb 27bd
00000210: a3e4 1fbe 0d8b de3d fe53 bbbd d76b 2b3e
00000220: 05f6 d43d 5d08 f13d ca95 ebbd c526 12bd
00000230: b5f6 f73d 09f9 a5bc af07 193e 101e e9bb
00000240: 48a1 f63d c880 73bb 91f7 87bc 875d 903c
00000250: abb9 9e3d d2d6 083d da75 02be d678 e13d
00000260: 51d1 d1bd 7864 d53d f7fd cd3d 0ec5 2b3d
00000270: ccff 923d 36a7 cb3d 72c9 cf3d e918 18bd
00000280: b93b 813d 6a94 2a3d fb66 8abd e8a3 8a3d
00000290: d45f 94bd 23e7 be3d 9f9e 9b3d b2de f6bd
000002a0: bec3 a93c 245e 23be 921c babc fe15 aabd
000002b0: 142a a33d fa20 12bb 270b adbd fcc5 d2bc
000002c0: bee2 8fbd 6914 a73d 4efb f53d 5b89 7ebd
000002d0: 000f 233e 9526 343d 4fcf dbbc 52e1 733c
000002e0: 91f4 f33d df4f 22be a5e7 0a3e 1a9e 333d
000002f0: 0a2c d23d 8fdd f53c 71bf dbbd cd63 db3d
00000300: e397 573d eacf fdbd 2b47 1fbe 1cf8 173d
00000310: c98a da3d 1745 dcbd ebd8 9ebd be37 af3d
00000320: ff65 ce3c 38d9 403d 295b 223e fcee 943c
00000330: 2cda 37bd 0c9c 093e d76b b5bd 04c1 28bd
00000340: aacf 40bd 4d9a 12be a009 a23d 3530 20be
00000350: 1dd7 a13d ff6f 8dbd b2d1 35bd 213c 0d3e
00000360: 7ff6 57bd d971 163e 6263 b5bd dcb7 263e
00000370: 62af e3bd 4919 a03d 61d9 7d3c ac70 cdbd
00000380: f971 ebbd fbd0 283e a68e 91bd 2def 053e
00000390: 9fe1 15be 54ea eb3d e27c 0e3e 71a8 dc3d
000003a0: afdc 0f39 0fcb 8e3d 5dee c33c 1425 1fbe
000003b0: 839e 1cbd eb87 aabd ee4d 143e 8569 24be
000003c0: e518 873c a118 5c3d 7738 1c3e 49a5 2a3d
000003d0: bc20 3abd 31ea a5bd df0f ffbd 95d6 233e
000003e0: f171 213e 7874 ddbd ce7d 3dbd 1416 0c3e
000003f0: 71d0 90bc dfa5 abbb 1ed1 1abe 0e01 c93d

down_blocks.2.conv1.bias f4 [16]
-0.00046694913 0.00044851642 0.00025040904 0.00034820382 0.00067380077 -0.0009434146 0.0006988017 -0.000853396
0.00024616727 2.6565533e-05 0.0001916387 0.000147459 7.935768e-05 -0.0004350098 -0.0003815646 0.0005292572
00000000: dad0 f4b9 db26 eb39 5549 8339 208f b639
00000010: 01a2 303a 7b4f 77ba ca2f 373a 70b6 5fba
00000020: 0310 8139 0cd9 de37 9ff2 4839 399f 1a39
00000030: d46c a638 0712 e4b9 bc0c c8b9 d9bd 0a3a

down_blocks.2.conv2.weight f4 [16, 16, 3, 3]
-0.01325973 0.07203883 -0.06326987 0.14346538 -0.097975634 0.12206882 0.06260143 -0.09994472
-0.06550797 0.09747759 -0.11517663 0.061006647 -0.0487248 -0.012228949 0.02842551 -0.11000166
0.13929987 0.05120959 0.11506238 0.093307056 0.00548886 0.032741345 0.08762993 0.047841184
-0.12274416 0.007849378 -0.04217563 -0.022380132 -0.039252274 0.13675848 -0.03856834 -0.10754835
-0.10558407 0.1129886 0.08807435 -0.14417256 0.023709644 0.07601519 0.0064458274 -0.10387749
-0.090090826 -0.08420378 0.029465519 0.12304298 0.13535598 0.04694926 -0.12310869 0.052159566
-0.036179528 0.13576078 -0.051990815 0.091602236 0.010180041 -0.0645784 0.0324015 0.13254471
-0.00033965285 0.0045332937 0.07007788 -0.08003649 -0.13161647 0.05345575 0.103193745 0.030151447
0.026815774 0.11389174 -0.01125594 0.12766367 0.079396404 0.07681474 0.021235926 0.02301338
0.039150458 -0.024245208 0.07184968 -0.09112432 -0.05087947 -0.11357526 0.11765864 0.055180453
0.11583018 0.1364377 0.023273306 0.0771316 0.023154315 0.13966079 -0.03630318 0.07802925
-0.029309286 -0.11048279 0.120804325 0.08428223 -0.06560921 0.110595606 0.0013671968 0.090031326
-0.0057865474 0.08521463 0.11425752 -0.05686568 0.12371375 -0.04005645 0.022087982 -0.032134168
0.11585831 -0.042100362 0.024945855 0.1212534 0.086407594 0.11262933 -0.10922119 -0.09349699
0.066050336 0.120477214 -0.055920225 0.05564779 -0.13481066 0.052762948 -0.034907278 -0.07534626
0.12124028 -0.07382812 -0.03271352 0.036046598 -0.12711136 -0.044906855 0.11688186 0.11038308
-0.09681855 -0.10748208 -0.0576828 0.06709885 0.08678943 0.11819859 0.10033339 -0.04121832
-0.0071188323 0.11511761 0.11031516 -0.0701975 0.11677906 -0.11267391 0.020659113 0.097235516
-0.059044763 -0.00781302 -0.07695566 0.12804697 0.14491959 -0.12826255 0.119081095 0.00358924
0.12567323 0.105269745 -0.13125628 0.07418509 0.10405804 -0.05144222 -0.111406885 -0.08801453
-0.12883821 0.121318236 -0.05246989 0.06945332 -0.00035999765 -0.06796595 -0.013743856 0.13558853
0.11941416 0.081392795 0.038288664 -0.12818666 0.09272326 0.03142818 0.081934325 -0.12648514
0.10492471 -0.093876705 0.12604383 -0.12157219 0.06941965 0.050187215 -0.12829234 0.09914546
-0.0987655 0.13235348 -0.0116108535 -0.024071433 -0.03552413 0.03050325 0.10183452 -0.038320098
0.053070623 0.11258464 -0.122139506 -0.037908215 -0.10484635 -0.03512865 0.006408138 0.12518351
0.106806636 -0.13569644 -0.12611394 0.07240708 0.03135779 0.06731379 -0.030508023 -0.016920352
0.046499494 -0.13833728 0.10188582 -0.13010211 -0.12246837 0.028872188 -0.055105183 -0.05865591
0.12882414 0.09169566 0.081114314 -0.10234533 0.06913788 0.10384372 0.104402654 -0.11807632
0.029503752 0.07812021 -0.112564236 -0.06738318 0.14022928 -0.059752997 0.035699174 0.045985483
-0.014065179 -0.12567617 0.07969026 -0.1302579 -0.049356416 -0.07195395 0.11061166 -0.100662455
0.003959277 0.12520559 -0.04660984 0.116726145 0.052648082 0.0683394 0.016511757 0.05880891
-0.0014094565 0.021818249 -0.06754386 -0.06870405 0.11137081 -0.00670111 -0.10325976 -0.037946396
00000000: 573f 59bc 1889 933d a293 81bd 97e8 123e
00000010: 73a7 c8bd 38ff f93d 2e35 803d d1af ccbd
00000020: 0b29 86bd 55a2 c73d bae1 ebbd 1be2 793d
00000030: a893 47bd ee5b 48bc 9ddc e83c 8d48 e1bd
00000040: a0a4 0e3e 26c1 513d d3a5 eb3d c517 bf3d
00000050: e5db b33b ca1b 063d 5277 b33d 1ef5 433d
00000060: 4a61 fbbd ad9a 003c 5ac0 2cbd 8a56 b7bc
00000070: fec6 20bd 6a0a 0c3e d6f9 1dbd 4f42 dcbd
00000080: 763c d8bd 9166 e73d 5360 b43d f9a1 13be
00000090: ba3a c23c daad 9b3d 8537 d33b b9bd d4bd
000000a0: 8a81 b8bd 0873 acbd ac61 f13c f5fd fb3d
000000b0: c29a 0a3e de4d 403d 6920 fcbd 45a5 553d
000000c0: fc30 14bd e004 0b3e 52f4 54bd f499 bb3d
000000d0: 30ca 263c ae41 84bd 6fb7 043d cdb9 073e
000000e0: 6f13 b2b9 068c 943b fe84 8f3d 2cea a3bd
000000f0: 78c6 06be 6bf4 5a3d 3e57 d33d 2b00 f73c
00000100: c1ac db3c 1340 e93d d66a 38bc 44ba 023e
00000110: 959a a23d 0c51 9d3d f7f6 ad3c 8e86 bc3c
00000120: 3b5c 203d e39d c6bc ed25 933d 639f babd
00000130: fe66 50bd 259a e8bd 03f7 f03d e604 623d
00000140: 6038 ed3d 53b6 0b3e a9a7 be3c 2cf7 9d3d
00000150: 1eae bd3c 3d03 0f3e a5b2 14bd cdcd 9f3d
00000160: 071a f0bc cd44 e2bd 4268 f73d 299c ac3d
00000170: 1f5e 86bd f37f e23d 8333 b33a 5862 b83d
00000180: 149d bdbb 0285 ae3d d9ff e93d fdeb 68bd
00000190: a25d fd3d 3b12 24bd dbf1 b43c 1e9f 03bd
000001a0: 1f47 ed3d 6e71 2cbd 405b cc3c b453 f83d
000001b0: 77f6 b03d 35aa e63d 5caf dfbd 5a7b bfbd
000001c0: 6645 873d c2bc f63d 9b0c 65bd f0ee 633d
000001d0: ce0b 0abe f61d 583d effa 0ebd 244f 9abd
000001e0: d34c f83d 3333 97bd 9dfe 05bd 99a5 133d
000001f0: 7b29 02be 40f0 37bd c25f ef3d 8610 e23d
00000200: ce48 c6bd 911f dcbd cd44 6cbd 1f6b 893d
00000210: a8be b13d 1a12 f23d 987b cd3d 8bd4 28bd
00000220: 1845 e9bb c8c2 eb3d eaec e13d b5c3 8fbd
00000230: dc29 ef3d 94c1 e6bd 4d3d a93c 6a23 c73d
00000240: ecd8 71bd 2e02 00bc ee9a 9dbd bf1e 033e
00000250: cd65 143e 4257 03be cae0 f33d 7439 6b3b
00000260: 7cb0 003e aa97 d73d 0c68 06be 5aee 973d
00000270: 621c d53d 14b5 52bd 4b29 e4bd f640 b4bd
00000280: 2aee 03be b275 f83d abea 56bd 8b3d 8e3d
00000290: 11be bcb9 bb31 8bbd e92d 61bc b8d7 0a3e
000002a0: 698f f43d 44b1 a63d 93d4 1c3d 5d43 03be
000002b0: b1e5 bd3d d6ba 003d 2fcd a73d 5285 01be
000002c0: c4e2 d63d 6e42 c0bd a211 013e d7fa f8bd
000002d0: e42b 8e3d 1c91 4d3d 115f 03be c60c cb3d
000002e0: 9145 cabd ac87 073e 733b 3ebc 7431 c5bc
000002f0: c081 11bd f4e1 f93c 9e8e d03d 89f5 1cbd
00000300: 9560 593d c792 e63d 4724 fabd a545 1bbd
00000310: afb9 d6bd 0fe3 0fbd 5cfb d13b 1b30 003e
00000320: 70bd da3d 02f4 0abe 0324 01be 2a4a 943d
00000330: 0771 003d d0db 893d f6eb f9bc 8d9c 8abc
00000340: 4176 3e3d 4aa8 0dbe 83a9 d03d 7d39 05be
00000350: b2d0 fabd 5e85 ec3c f9b5 61bd 2e41 70bd
00000360: 7aea 033e efca bb3d 431f a63d 6e9a d1bd
00000370: 2998 8d3d 04ac d43d 0fd1 d53d ffd1 f1bd
00000380: dab1 f13c 7dfd 9f3d 1488 e6bd 3100 8abd
00000390: 4498 0f3e 8fbf 74bd 4c39 123d 465b 3c3d
000003a0: a371 66bc 41b1 00be a634 a33d 5462 05be
000003b0: f429 4abd 985c 93bd 5e88 e23d 1e28 cebd
000003c0: d3bc 813b e535 003e f6e9 3ebd 1e0e ef3d
000003d0: 84a5 573d 87f5 8b3d aa43 873c 9de1 703d
000003e0: 83bd b8ba 2fbc b23c 6f54 8abd b5b4 8cbd
000003f0: 6116 e43d fc94 dbbb da79 d3bd ae6d 1bbd

down_blocks.2.conv2.bias f4 [16]
0.00053295324 0.00045122686 0.0010684807 0.00033100738 0.00011127886 -0.0007436473 -0.00029115114 3.913897e-06
-0.0006705082 -9.414521e-05 -0.0003107726 -0.00011522506 -0.0015596236 0.00040885148 4.3324133e-05 3.2298973e-05
00000000: e3b5 0b3a a592 ec39 430c 8c3a 0f8b ad39
00000010: 625e e938 53f1 42ba a5a5 98b9 1f54 8336
00000020: 0bc5 2fba d36f c5b8 31ef a2b9 fca4 f1b8
00000030: 496c ccba 1e5b d639 efb6 3538 c278 0738

down_blocks.2.norm1.weight f4 [16]
0.9999293 0.9991714 1.0005127 1.0002617 0.99889696 1.0012276 1.0005105 0.9996768
0.998198 1.0024486 0.9986368 0.9996979 0.99902433 1.000629 1.0002582 1.000912
00000000: 5efb 7f3f b2c9 7f3f cd10 803f 9308 803f
00000010: b6b7 7f3f 3a28 803f ba10 803f d2ea 7f3f
00000020: e789 7f3f 3c50 803f a9a6 7f3f 34ec 7f3f
00000030: 0fc0 7f3f 9c14 803f 7608 803f e21d 803f

down_blocks.2.norm1.bias f4 [16]
-0.00091144565 0.00011997826 -0.00018532101 -0.0003041879 0.00029881488 -0.00012032099 -7.682373e-05 0.00027015508
0.00050236227 0.00038831658 0.00062598276 0.00043634616 0.001132326 0.0008637343 0.00034989748 0.00039708285
00000000: 15ee 6eba d69c fb38 bb52 42b9 697b 9fb9
00000010: 41aa 9c39 d754 fcb8 6d1c a1b8 9aa3 8d39
00000020: f6b0 033a f896 cb39 fe18 243a 64c5 e439
00000030: 8e6a 943a 3a6c 623a 7272 b739 8f2f d039

down_blocks.2.norm1.running_mean f4 [16]
0.19187419 0.46497044 0.678978 0.45546108 0.23424557 0.23102924 0.2832888 0.1693323
0.7941424 0.46719766 0.39824903 0.4435542 0.42333496 0.12929451 0.12318797 0.13265632
00000000: ab7a 443e 9b10 ee3e 81d1 2d3f 3232 e93e
00000010: 12de 6f3e ee92 6c3e 3b0b 913e 7265 2d3e
00000020: eb4c 4b3f 8834 ef3e 4ce7 cb3e 8919 e33e
00000030: 5cbf d83e c865 043e f949 fc3d 0fd7 073e

down_blocks.2.norm1.running_var f4 [16]
0.20716336 0.6210029 0.63422126 0.8936885 0.26841524 0.37922758 0.50200415 0.20265955
3.5683465 1.1120037 0.7853097 0.79022306 0.7290767 0.10743109 0.055444118 0.14309078
00000000: a222 543e 0cfa 1e3f 535c 223f c5c8 643f
00000010: b96d 893e 1e2a c23e 5883 003f fc85 4f3e
00000020: ca5f 6440 2356 8e3f 0e0a 493f 0f4c 4a3f
00000030: c5a4 3a3f d504 dc3d 5f19 633d 6486 123e

down_blocks.2.norm2.weight f4 [16]
0.99705356 0.9991008 0.99983555 0.9997044 0.9981702 1.0006722 1.0017736 1.000499
1.0007671 1.0000169 1.0010141 1.0009599 1.000745 0.9988926 1.0012689 1.0002258
00000000: e73e 7f3f 12c5 7f3f 39f5 7f3f a1ec 7f3f
00000010: 1588 7f3f 0716 803f 1e3a 803f 5a10 803f
00000020: 2319 803f 8e00 803f 3b21 803f 741f 803f
00000030: 6a18 803f 6db7 7f3f 9429 803f 6607 803f

down_blocks.2.norm2.bias f4 [16]
0.0008485085 0.0008623214 -5.3528118e-05 0.00021373354 -0.00025891687 -0.00048541924 -0.00052054896 0.00020788646
0.00015341204 -0.0002041269 -1.776729e-05 6.194047e-05 -0.00014264915 -6.773744e-05 5.1147115e-05 -8.5071406e-05
00000000: 716e 5e3a 690d 623a 6183 60b8 a91d 6039
00000010: 3cbf 87b9 de7f feb9 7375 08ba 19fc 5939
00000020: 3bdd 2039 e60a 56b9 f70a 95b7 09e6 8138
00000030: 1794 15b9 430e 8eb8 cc86 5638 5d68 b2b8

down_blocks.2.norm2.running_mean f4 [16]
0.4235544 0.30207145 0.31629464 0.29916954 0.3418368 0.25831133 0.37017542 0.23787421
0.3062475 0.28661337 0.2661187 0.26581848 0.2799436 0.26394752 0.38612607 0.43061328
00000000: 1fdc d83e 1ca9 9a3e 5ff1 a13e c02c 993e
00000010: 3c05 af3e 6241 843e a287 bd3e 4c95 733e
00000020: 79cc 9c3e fdbe 923e b640 883e 5c19 883e
00000030: c454 8f3e 2124 873e 51b2 c53e 5879 dc3e

down_blocks.2.norm2.running_var f4 [16]
1.4400432 0.34212026 0.27024966 0.5201037 0.79115105 0.17515469 0.155146 0.2676734
0.1861062 0.22740194 0.46506414 0.29637006 0.2621192 0.35041094 0.15650222 0.2298412
00000000: 5653 b83f 632a af3e 2a5e 8a3e 8425 053f
00000010: e088 4a3f c05b 333e 98de 1e3e 7d0c 893e
00000020: a092 3e3e 0edc 683e e31c ee3e d1bd 973e
00000030: 7d34 863e 1069 b33e 1e42 203e 7e5b 6b3e

down_blocks.3.conv1.weight f4 [32, 16, 3, 3]
0.039025035 0.111253746 -0.04086954 -0.11151597 -0.012271675 -0.025886318 -0.10092434 0.017624129
-0.0023230873 0.021283746 -0.067467764 0.06687009 -0.09619222 -0.00036587004 0.11119532 0.056542646
0.08692538 -0.057627313 0.097682595 -0.10746915 -0.023689738 0.039809857 0.074957326 0.034544345
0.018039225 -0.033733018 0.014984589 -0.014763259 0.01142286 -0.010780681 -0.012885283 -0.052662194
0.058787435 0.050001424 0.006406115 0.021260945 0.10530047 -0.10175811 0.062157113 -0.05281061
-0.025613371 0.0001136682 0.03649965 0.092321865 -0.006113965 -0.087552585 -0.056783393 0.0009187645
0.07951926 -0.077249154 0.017907519 -0.10989306 0.11527282 -0.100689486 0.0053427075 -0.06177582
0.02270578 -0.07634616 -0.09120758 -0.09487984 -0.04191776 0.081163235 0.03886422 0.043630306
0.07447078 -0.011779049 0.028698105 -0.03858468 0.11399818 -0.06100099 0.052200977 0.080522865
-0.102860175 -0.048035502 0.08259398 -0.09159679 -0.030130431 0.072422996 0.034008916 0.07899276
-0.011043844 -0.07145778 -0.036224328 -0.02017819 -0.09899864 0.00420843 0.034706727 -0.048857104
0.06591765 -0.072392285 0.014120224 0.081295274 -0.06235069 0.065164044 0.022454998 0.0078258775
-0.088016935 -0.10592468 0.09636351 -0.052022886 -0.10451136 -0.05397379 -0.042881977 0.11777647
-0.05527884 -0.04359302 0.07048195 0.08596505 -0.08824723 -0.04879529 0.084780335 -0.049109537
-0.066922605 -0.018472113 -0.00050479133 0.01721885 0.018805873 0.06945313 -0.011506082 -0.017842213
-0.089647524 0.025094142 -0.03100621 -0.0660361 -0.041188117 -0.033620045 -0.05449179 0.049522918
0.019728178 -0.10147774 0.045085065 -0.05828808 0.02697431 0.063717894 -0.0017340106 0.0946723
-0.039800502 -0.027347526 -0.06835959 0.09039302 0.022651203 -0.015322999 0.037841436 0.105828896
-0.1000238 -0.04209758 0.098290235 -0.03406695 0.09031619 0.08300658 0.08930494 -0.0006124063
0.048069887 -0.07344962 -0.052995432 0.06461891 0.035495043 -0.07323858 0.05725336 -0.009246943
-0.068971284 -0.09854125 0.10232521 0.023869583 0.005263517 0.012888623 -0.017910834 0.0642237
0.09803312 0.06319081 0.06830479 -0.100433186 -0.095741846 -0.05073487 0.020259095 1.936703e-05
-0.09908517 0.013637802 -0.049746033 -0.06661419 -0.07035179 0.07621775 -0.11344266 -0.07111438
-0.04439676 -0.0700947 -0.06557303 -0.06977706 -0.01674701 -0.0818488 -0.07739339 -0.05914019
-0.03230507 0.019900652 -0.078772515 0.027281428 -0.020413527 0.018346062 -0.007308195 0.018041275
0.10610673 0.00087659573 -0.030585434 -0.0983763 0.03007908 -0.034403477 0.09078829 -0.00089317956
-0.001371049 0.015912909 0.1063094 -0.04886887 -0.07053354 -0.05961026 -0.061164178 -0.05497388
-0.042517275 -0.061521597 0.075301975 -0.012591143 -0.009916911 0.07843117 0.04435555 -0.039616674
0.10772451 0.0062488755 -0.063038565 0.070737705 0.04232555 -0.116911426 0.11566637 -0.010670053
-0.080826685 0.1089598 -0.014246319 -0.085753545 0.07407671 0.048613094 0.060488574 0.016771622
0.002765614 -0.073496304 -0.015966868 -0.061144043 0.069879524 0.0031955598 0.015640633 0.0012728217
-0.00633552 0.07344778 0.03573761 -0.0055063395 0.076151185 0.026346799 0.065443054 0.024681794
00000000: b7d8 1f3d 01d9 e33d d266 27bd 7c62 e4bd
00000010: 230f 49bc 8b0f d4bc 6cb1 cebd 7a60 903c
00000020: f03e 18bb 405b ae3c 8a2c 8abd 30f3 883d
00000030: 6d00 c5bd 3fd2 bfb9 5fba e33d 4399 673d
00000040: ef05 b23d 9e0a 6cbd d00d c83d c918 dcbd
00000050: fb10 c2bc a90f 233d 3a83 993d 5f7e 0d3d
00000060: ffc6 933c a22b 0abd ec81 753c 99e1 71bc
00000070: f326 3b3c 74a1 30bc cb1c 53bc 50b4 57bd
00000080: 18cb 703d 4bce 4c3d 63ea d13b 6f2b ae3c
00000090: c6a7 d73d 8e66 d0bd 7598 7e3d f04f 58bd
000000a0: 22d3 d1bc 2661 ee38 a880 153d 3f13 bd3d
000000b0: a857 c8bb c54e b3bd b495 68bd 3ed9 703a
000000c0: feda a23d ce34 9ebd cab2 923c 9d0f e1bd
000000d0: 2814 ec3d 4a36 cebd e111 af3b a408 7dbd
000000e0: 7901 ba3c 605b 9cbd 0acb babd 5d50 c2bd
000000f0: f5b1 2bbd e938 a63d 1730 1f3d b1b5 323d
00000100: 2384 983d eafc 40bc 4a18 eb3c f80a 1ebd
00000110: e177 e93d 2ddc 79bd b1d0 553d 2ce9 a43d
00000120: 5ba8 d2bd e0c0 44bd 0827 a93d 1997 bbbd
00000130: 18d4 f6bc 8252 943d ef4c 0b3d f5c6 a13d
00000140: 3df1 34bc 7558 92bd f65f 14bd bb4c a5bc
00000150: cdbf cabd dfe6 893b a428 0e3d 631e 48bd
00000160: d5ff 863d 6842 94bd 8358 673c 237e a63d
00000170: 7063 7fbd ba74 853d 8bf3 b73c 1c38 003c
00000180: 3942 b4bd 0aef d8bd 3b5a c53d f315 55bd
00000190: 0d0a d6bd 9f13 5dbd 03a5 2fbd ca34 f13d
000001a0: 116c 62bd 988e 32bd d758 903d 720e b03d
000001b0: f7ba b4bd 92dd 47bd 50a1 ad3d 1527 49bd
000001c0: b80e 89bd d452 97bc f953 04ba 8c0e 8d3c
000001d0: c60e 9a3c 713d 8e3d 0184 3cbc d529 92bc
000001e0: 1f99 b7bd 3b92 cd3c bc00 febc ef3d 87bd
000001f0: dfb4 28bd 2cb5 09bd c832 5fbd 8bd8 4a3d
00000200: fd9c a13c 90d3 cfbd 1eab 383d 7bbf 6ebd
00000210: 3af9 dc3c 877e 823d be47 e3ba 8de3 c13d
00000220: da05 23bd eb07 e0bc 1d00 8cbd fa1f b93d
00000230: 048f b93c 510d 7bbc 9fff 1a3d d2bc d83d
00000240: 47d9 ccbd 836e 2cbd 644c c93d c989 0bbd
00000250: b2f7 b83d 5bff a93d 82e5 b63d e489 20ba
00000260: eee4 443d c16c 96bd bd11 59bd eb56 843d
00000270: 4063 113d 1cfe 95bd 8082 6a3d 7d80 17bc
00000280: d140 8dbd ffcf c9bd e18f d13d 258a c33c
00000290: 9579 ac3b ce2a 533c beb9 92bc b787 833d
000002a0: 97c5 c83d 2f6a 813d 62e3 8b3d eaaf cdbd
000002b0: 4d14 c4bd 5ecf 4fbd 67f6 a53c 6176 a237
000002c0: 2aed cabd 1671 5f3c 7fc2 4bbd 056d 88bd
000002d0: 9914 90bd 0d18 9c3d a054 e8bd 6ba4 91bd
000002e0: 61d9 35bd cf8d 8fbd 274b 86bd 46e7 8ebd
000002f0: 0731 89bc 58a0 a7bd 6d80 9ebd fc3c 72bd
00000300: 5252 04bd b106 a33c 7c53 a1bd 4d7d df3c
00000310: 453a a7bc 7b4a 963c 9579 efbb 4ccb 933c
00000320: 7c4e d93d 58cb 653a 4e8e fabc 8379 c9bd
00000330: 6768 f63c a9ea 0cbd 36ef b93d 4424 6aba
00000340: c5b4 b3ba ca5b 823c beb8 d93d b92a 48bd
00000350: e373 90bd e329 74bd 4a87 7abd 4b2c 61bd
00000360: 9826 2ebd 12fe 7bbd ec37 9a3d 154b 4ebc
00000370: 8a7a 22bc 85a0 a03d 2aae 353d 1845 22bd
00000380: ab9e dc3d 5ec3 cc3b 5d1a 81bd eede 903d
00000390: 8e5d 2d3d 426f efbd 7de2 ec3d 72d1 2ebc
000003a0: 7688 a5bd 5126 df3d 6569 69bc 8e9f afbd
000003b0: 88b5 973d 861e 473d dec2 773d a464 893c
000003c0: 4e3f 353b 3b85 96bd f3cc 82bc 2d72 7abd
000003d0: ff1c 8f3d 996c 513b c920 803c cfd4 a63a
000003e0: 329a cfbb ca6b 963d 9a61 123d 866e b4bb
000003f0: 27f5 9b3d 3ed5 d73c 0207 863d 7931 ca3c

down_blocks.3.conv1.bias f4 [32]
0.0001303483 -0.00028909533 0.00021583903 4.165268e-05 -6.8865615e-05 0.00031545022 -0.00020853488 -6.4918524e-05
-0.00011027407 9.21032e-05 0.00020466048 -0.0002152453 5.2325293e-05 0.00016680884 0.00025604802 0.00044123645
-5.7403715e-05 0.00038008663 -0.00025198807 0.00024708227 7.7895755e-05 3.9711842e-05 6.11293e-05 4.1163228e-05
5.5894412e-05 0.00030545137 7.698767e-05 4.175474e-05 0.00032086694 0.0001830619 -0.00037177655 4.0503543e-05
00000000: 1bae 0839 b891 97b9 d952 6239 39b4 2e38
00000010: f26b 90b8 0363 a539 28aa 5ab9 de24 88b8
00000020: f142 e7b8 8727 c138 219a 5639 78b3 61b9
00000030: db77 5b38 68e9 2e39 2f3e 8639 c155 e739
00000040: c5c4 70b8 5d46 c739 441d 84b9 d28a 8139
00000050: f75b a338 4490 2638 8b32 8038 aea6 2c38
00000060: 2b70 6a38 fd24 a039 7174 a138 d021 2f38
00000070: 083a a839 4ef4 3f39 01eb c2b9 59e2 2938
