Models/df5b4216-f6df-427a-8558-e8f726724313.pt (torch, 167363 bytes, 110 tensors)

conv_final.weight f4 [2, 4, 1, 1]
-0.7700894 0.24853589 0.010575114 -1.5490626 -0.6680636 1.1105021 -0.93624383 0.67500764
00000000: 9424 45bf 3180 7e3e 3e43 2d3c af47 c6bf
00000010: 3706 2bbf ef24 8e3f adad 6fbf 4dcd 2c3f

conv_final.bias f4 [2]
0.84623194 -0.8462319
00000000: a8a2 583f a7a2 58bf

down_blocks.0.conv1.weight f4 [4, 9, 3, 3]
0.30270353 -0.13237545 -0.14783065 0.14769211 0.19109988 -0.08095993 0.20265925 0.20718737
0.045795668 -0.06995146 -0.09430943 0.043445088 0.0354324 -0.15528001 0.0675619 0.017937222
0.022814091 0.17573036 0.18421201 0.1180251 0.03346365 0.20519608 0.035141088 0.13769254
-0.08621038 0.17773736 -0.029905777 -0.029760243 0.15532205 0.140854 0.107873455 0.13923392
-0.16041948 0.07864684 -0.11730224 -0.08571538 -0.070914984 -0.13386893 0.09088426 0.14549004
-0.010722456 -0.20990002 -0.058975372 0.029875254 -0.012252609 -0.31249866 0.023739131 -0.085613094
-0.076380454 0.048618164 -0.015409524 0.08644161 -0.17816591 0.17348778 -0.07569686 -0.19254622
-0.15335926 -0.14762747 -0.06873 0.10399261 -0.1166312 -0.073680304 0.028899305 0.030567743
0.13449177 -0.058984127 0.03665126 0.10706035 -0.050563652 -0.0987444 -0.12488508 -0.062243674
0.15968145 0.045360945 0.013385837 -0.18217601 -0.1880355 0.009357206 -0.0028065473 0.06371445
0.1301749 0.06651423 0.19815873 0.08733782 -0.060314134 0.2172673 0.18148571 -0.11841806
-0.04573502 -0.056012064 0.25050178 -0.057588585 -0.054981105 0.22784108 0.18643615 0.06120175
-0.04299548 -0.09326617 0.094674386 -0.00079365645 -0.19731429 0.100156695 -0.1643392 -0.19583969
0.2124378 -0.15053643 -0.04134113 -0.15696985 0.19629933 -0.124755226 0.2266386 0.17532548
-0.099781714 -0.04866663 0.03688341 -0.084395915 0.123349205 0.13474396 0.17717585 0.1457528
-0.09477157 -0.0044717616 0.07396582 0.13286155 0.031188583 -0.02146917 0.036482867 0.21305433
0.1252247 -0.08002795 -0.00769647 -0.21826118 -0.14469594 0.16992345 -0.12922466 -0.07660777
0.20753042 -0.042459875 0.11596895 -0.061000664 0.1393287 -0.14311944 0.157696 0.13787897
-0.17006631 0.14529222 -0.026312983 0.018931165 0.077124014 0.14125402 0.11809967 0.12631738
-0.21144894 -0.18382835 0.08866272 -0.0002403613 -0.033958353 0.14021519 -0.17028399 0.16734575
0.10689681 -0.19537745 0.15464202 -0.15840364 0.11492355 -0.1199203 -0.03431809 0.01480557
0.15847111 0.101976454 -0.022208134 0.19295694 0.21657869 -0.0649317 0.04235382 0.037742425
0.12563388 -0.17619944 0.17668536 -0.072104074 0.1456679 0.14815708 -0.061386455 0.16134995
0.08342521 -0.03998869 0.0037603944 -0.19749719 0.11569886 0.14466867 -0.08940974 -0.060770582
0.13553677 -0.14294787 0.0116412705 0.11276437 -0.004850136 0.044995576 0.1730824 0.21217161
0.08705231 0.05728945 -0.11064788 0.18232577 -0.03642605 -0.11798622 -0.21257523 0.007968173
-0.110637225 0.10819639 0.14633036 0.2193042 -0.040300794 -0.1507601 0.21758264 0.14087318
-0.094619066 -0.15823042 -0.09420194 -0.1734051 0.17649978 0.082401805 0.20087779 -0.09805009
0.07145473 -0.1689166 0.1270255 -0.024284327 0.0599774 0.08340647 0.123093426 0.199093
0.15756075 -0.10323139 -0.13694894 -0.09822613 0.19752005 0.045783494 -0.15452814 0.05665764
-0.18981685 -0.17023008 0.13012703 -0.0037602256 -0.02356875 0.1621143 -0.18768564 -0.101852685
-0.18503545 -0.041232023 -0.024628295 -0.06315385 0.19696209 0.059154306 -0.05374986 -0.07185455
00000000: f5fb 9a3e 6e8d 07be eb60 17be 9a3c 173e
00000010: b0af 433e 52ce a5bd e885 4f3e ed28 543e
00000020: 3d94 3b3d b642 8fbd 4d25 c1bd 7af3 313d
00000030: 9021 113d b901 1fbe e55d 8a3d 15f1 923c
00000040: 9ee4 ba3c a9f2 333e 13a2 3c3e 25b7 f13d
00000050: 2e11 093d ec1e 523e 1af0 0f3d 46ff 0c3e
00000060: 118f b0bd c800 363e f6fc f4bc c1cb f3bc
00000070: be0c 1f3e 083c 103e c2ec dc3d 5693 0e3e
00000080: 0145 24be 9811 a13d 283c f0bd 8c8b afbd
00000090: e03b 91bd f014 09be 8721 ba3d 57fb 143e
000000a0: 3dad 2fbc 08f0 56be 2990 71bd f3bc f43c
000000b0: 2bbf 48bc d3ff 9fbe 9178 c23c eb55 afbd
000000c0: 5b6d 9cbd d723 473d 3a78 7cbc 4c08 b13d
000000d0: 2071 36be c8a6 313e f506 9bbd d62a 45be
000000e0: 360a 1dbe a82b 17be 50c2 8cbd 14fa d43d
000000f0: 57dc eebd b3e5 96bd 3cbe ec3c 3469 fa3c
00000100: 36b8 093e 5799 71bd a21f 163d 7542 db3d
00000110: d51b 4fbd 813a cabd c0c3 ffbd 39f3 7ebd
00000120: 8983 233e 66cc 393d 4550 5b3c 598c 3abe
00000130: 618c 40be f74e 193c 0dee 37bb b97c 823d
00000140: 924c 053e 9d38 883d 1fea 4a3e 2cde b23d
00000150: f40b 77bd 527b 5e3e 64d7 393e 2b85 f2bd
00000160: a554 3bbd e86c 65bd c541 803e 02e2 6bbd
00000170: de33 61bd 2c4f 693e 1ee9 3e3e b0ae 7a3d
00000180: 071c 30bd 5502 bfbd a5e4 c13d 620d 50ba
00000190: c20c 4abe f41e cd3d 8948 28be 338a 48be
000001a0: 4b89 593e 3926 1abe 5155 29bd b4bc 20be
000001b0: b102 493e ab7f ffbd f313 683e 8688 333e
000001c0: 5b5a ccbd a956 47bd 0f13 173d c4d7 acbd
000001d0: 829e fc3d 52fa 093e 966d 353e 3940 153e
000001e0: 9917 c2bd db87 92bb 647b 973d dc0c 083e
000001f0: 337f ff3c 1de0 afbc 0f6f 153d ea2a 5a3e
00000200: e73a 003e b2e5 a3bd ab32 fcbb dc7f 5fbe
00000210: 2c2b 14be 6a00 2e3e 7853 04be 89e4 9cbd
00000220: db82 543e 68ea 2dbd 2181 ed3d d5db 79bd
00000230: 2fac 0e3e e78d 12be 0f7b 213e 2530 0d3e
00000240: dd25 2ebe 7cc7 143e 538e d7bc 8815 9b3c
00000250: 32f3 9d3d e5a4 103e 3dde f13d 5859 013e
00000260: 1286 58be 803d 3cbe cd94 b53d 7f09 7cb9
00000270: ea17 0bbd 9294 0f3e ed5e 2ebe af5c 2b3e
00000280: b7ec da3d 0711 48be 7a5a 1e3e 9034 22be
00000290: 0a5d eb3d c698 f5bd 2091 0cbd 1093 723c
000002a0: 4046 223e 08d9 d03d d5ed b5bc 8196 453e
000002b0: cec6 5d3e e9fa 84bd 337b 2d3d cd97 1a3d
000002c0: 2ba6 003e a06d 34be 02ed 343e 4dab 93bd
000002d0: f729 153e 7db6 173e 5d70 7bbd ec38 253e
000002e0: d6da aa3d 2ecb 23bd f370 763b b43c 4abe
000002f0: 86f3 ec3d 0624 143e 741c b7bd 93ea 78bd
00000300: 27ca 0a3e ed60 12be 07bb 3e3c 02f1 e63d
00000310: e4ed 9ebb 484d 383d 833c 313e 8443 593e
00000320: 7b48 b23d 58a8 6a3d 5b9b e2bd 9bb3 3a3e
00000330: 7b33 15bd c2a2 f1bd 52ad 59be f18c 023c
00000340: c595 e2bd 1296 dd3d a0d7 153e 4891 603e
00000350: 7212 25bd db60 1abe fccd 5e3e 0f41 103e
00000360: a4c7 c1bd 2807 22be f2ec c0bd 1b91 31be
00000370: 5cbc 343e 47c2 a83d e8b2 4d3e 7cce c8bd
00000380: dc56 923d 79f8 2cbe f912 023e edef c6bc
00000390: ddaa 753d 03d1 aa3d 6818 fc3d 09df 4b3e
000003a0: 9b57 213e fb6a d3bd 583c 0cbe c82a c9bd
000003b0: b242 4a3e 7987 3b3d a03c 1ebe d711 683d
000003c0: 595f 42be cb50 2ebe 0540 053e 1e6e 76bb
000003d0: 4013 c1bc 4b01 263e aa30 40be 2498 d0bd
000003e0: ef79 3dbe e9e2 28bd 47c1 c9bc ce56 81bd
000003f0: 6eb0 493e c94b 723d d028 5cbd 7a28 93bd

down_blocks.0.conv1.bias f4 [4]
0.015586084 4.0764684e-05 0.00013398733 -0.021923194
00000000: c65c 7f3c bffa 2a38 f37e 0c39 4598 b3bc

down_blocks.0.conv2.weight f4 [4, 4, 3, 3]
-0.08398201 0.19580983 -0.040426143 0.075017475 -0.073252395 -0.084260486 0.25061408 0.12934157
-0.14949581 -0.21396086 0.19421637 -0.19323765 -0.26710668 -0.2345565 0.18333647 -0.22609316
-0.25701463 -0.15664814 -0.012302375 -0.24166514 0.2304918 0.08991618 -0.049339887 -0.22874622
0.1089642 -0.24685138 -0.27802706 0.18239 0.16550148 -0.058267497 0.0051657353 0.04264408
-0.23089735 -0.08803634 0.05124637 -0.01936056 0.14016019 0.11677756 0.3849566 -0.10570219
0.24654876 0.1682226 -0.14416757 0.1461238 0.18284054 0.17031595 0.24286972 -0.26030508
-0.13195354 0.035889197 0.066488415 -0.18622124 0.1558519 -0.1023283 0.09529491 0.14364803
-0.1693087 0.20014118 -0.24973747 -0.08085476 0.062491532 0.13150163 0.01899038 -0.053582728
-0.14189118 0.13030729 0.0013853638 0.056595076 -0.07941376 -0.1904525 -0.082826115 0.11023836
-0.19946744 0.033546485 0.1130473 -0.087402426 -0.16242053 0.19021367 -0.18017414 -0.13888241
-0.01702169 -0.0014361425 0.2861736 0.1872175 -0.27307138 0.18664567 -0.28012314 -0.16776483
-0.060153548 0.11930259 0.015679218 -0.006232887 0.05234846 -0.110038154 0.0123372115 0.006765491
-0.06734514 0.23693459 0.2518767 0.23840898 -0.26735356 0.1282973 -0.22193488 0.18807416
0.22751914 -0.13414213 0.013636832 0.18826456 -0.23391332 -0.14008673 -0.24091795 0.09448622
-0.065083206 0.1659265 0.13881125 -0.105215676 -0.16044754 0.050305422 0.10666005 0.10963173
-0.04738238 0.25557467 0.048113912 0.22065698 0.27360848 -0.22421387 -0.014375922 0.036236536
-0.096899904 -0.035810634 0.1900182 0.28038678 0.08073304 -0.2650864 -0.021241726 -0.093201734
0.2377727 0.26867363 0.04790044 0.22772275 0.27472186 0.12525395 0.1610018 -0.2746175
00000000: c3fe abbd 5f82 483e e295 25bd c3a2 993d
00000010: 5a05 96bd c390 acbd 7d50 803e 1e72 043e
00000020: 6e15 19be 8e18 5bbe a8e0 463e 17e0 45be
00000030: 35c2 88be 942f 70be 8ebc 3b3e f784 67be
00000040: 6c97 83be 5f68 20be e78f 49bc 1177 77be
00000050: 0b06 6c3e f925 b83d 9f18 4abd 733c 6abe
00000060: 9f28 df3d 9cc6 7cbe 9059 8ebe 72c4 3a3e
00000070: 3879 293e e6a9 6ebd 5445 a93b 8fab 2e3d
00000080: 5b70 6cbe 664c b4bd b7e7 513d 0a9a 9ebc
00000090: 2786 0f3e 1329 ef3d 0819 c53e 647a d8bd
000000a0: 4777 7c3e 8c42 2c3e aaa0 13be 7aa1 153e
000000b0: 8d3a 3b3e 4e67 2e3e d7b2 783e b546 85be
000000c0: d41e 07be 8d00 133d 142b 883d c8b0 3ebe
000000d0: a497 1f3e 8091 d1bd fa29 c33d 7818 133e
000000e0: 435f 2dbe cff1 4c3e 2ebb 7fbe 2e97 a5bd
000000f0: 1ff7 7f3d 5da8 063e b791 9b3c 9079 5bbd
00000100: ec4b 11be 466f 053e 1895 b53a 3dd0 673d
00000110: aea3 a2bd fb05 43be bda0 a9bd a6c4 e13d
00000120: 3141 4cbe 0a68 093d 5885 e73d 0b00 b3bd
00000130: 9151 26be 5fc7 423e 927f 38be 3137 0ebe
00000140: 1271 8bbc f23c bcba 5985 923e f2b5 3f3e
00000150: 03d0 8bbe 0b20 3f3e 4d6c 8fbe 8bca 2bbe
00000160: 9163 76bd eb54 f43d b471 803c 3f3d ccbb
00000170: 576b 563d af5b e1bd 0422 4a3c 0db1 dd3b
00000180: 40ec 89bd fb9e 723e fcf5 803e 7c21 743e
00000190: 91e2 88be 5e60 033e e642 63be 8396 403e
000001a0: c7fa 683e 8e5c 09be 056d 5f3c 6dc8 403e
000001b0: f986 6fbe e572 0fbe 32b3 76be fe81 c13d
000001c0: 584a 85bd a3e8 293e 8924 0e3e 517b d7bd
000001d0: 5c4c 24be 0f0d 4e3d 9670 da3d 9a86 e03d
000001e0: 0714 42bd afda 823e 1813 453d e7f3 613e
000001f0: 6916 8c3e 5298 65be fd88 6bbc c36c 143d
00000200: 7573 c6bd 2cae 12bd 2294 423e db8e 8f3e
00000210: 5d57 a53d 68b9 87be 2103 aebc 8de0 bebd
00000220: b07a 733e 978f 893e 4033 443d 2730 693e
00000230: 58a8 8c3e 9242 003e a8dd 243e aa9a 8cbe

down_blocks.0.conv2.bias f4 [4]
0.00082740706 -0.03425343 -0.008038141 0.025750807
00000000: 59e6 583a 534d 0cbd 68b2 03bc 5bf3 d23c

down_blocks.0.norm1.weight f4 [4]
1.0472363 1.0021981 0.95551765 0.9910917
00000000: d70b 863f 0748 803f ce9c 743f 30b8 7d3f

down_blocks.0.norm1.bias f4 [4]
-0.028873073 0.0060648085 -0.006446811 0.030059747
00000000: 3987 ecbc 4dbb c63b c53f d3bb dc3f f63c

down_blocks.0.norm1.running_mean f4 [4]
0.030279156 0.59597373 0.62183493 0.00038185297
00000000: fe0b f83c bc91 183f 9330 1f3f 7033 c839

down_blocks.0.norm1.running_var f4 [4]
0.013576946 0.052667174 0.057434727 9.5927295e-05
00000000: d771 5e3c 89b9 573d ad40 6b3d 932c c938

down_blocks.0.norm2.weight f4 [4]
1.0255581 1.1360041 0.982081 1.0187926
00000000: 7d45 833f 9568 913f a969 7b3f cc67 823f

down_blocks.0.norm2.bias f4 [4]
-0.003791185 -0.00028225392 -0.00016865777 0.0045147426
00000000: 8875 78bb 7bfb 93b9 bad9 30b9 68f0 933b

down_blocks.0.norm2.running_mean f4 [4]
0.63798434 0.24620649 0.21743324 0.40142706
00000000: f152 233f 8e1d 7c3e d2a6 5e3e d987 cd3e

down_blocks.0.norm2.running_var f4 [4]
0.9354365 1.17438 0.1614751 0.32608882
00000000: c478 6f3f 1552 963f bb59 253e 1df5 a63e

down_blocks.1.conv1.weight f4 [8, 4, 3, 3]
0.032515302 -0.08631619 0.16654505 0.03202481 0.123948924 0.13819912 -0.0055142334 0.05283676
0.011174831 -0.1299075 -0.058724348 -0.08074977 0.14925224 0.14760089 0.12632789 -0.104532056
-0.08421365 0.018127011 -0.17152154 0.09706578 -0.0728688 0.03594946 -0.22497112 0.124924995
-0.008146913 0.11342036 -0.14862968 -0.12547831 0.036012936 -0.021176398 -0.15861136 0.061361205
-0.12708889 0.005025801 0.17765993 0.22053325 0.1021802 -0.014148817 0.10486678 0.02389266
0.0037482416 0.06050156 0.07640947 0.09912726 0.22637932 0.108014345 0.081636585 0.111601934
0.070208125 0.17340498 0.20031036 -0.06830164 0.054974012 0.09675607 -0.090651795 0.11946287
0.17653582 0.22524871 0.20500278 -0.19354177 -0.024031678 0.010177023 -0.103665985 0.18266523
-0.21448395 -0.08207116 0.07110701 0.18934394 -0.13436887 0.1382594 0.02689338 0.06513178
0.11766698 0.23339179 0.041267507 0.11899108 0.052530967 -0.03193265 -0.059570774 -0.0017502625
-0.14931506 -0.12759137 -0.2325415 0.036479313 0.12383268 0.19187726 -0.0673954 -0.16706096
-0.19388948 0.21171564 -0.093212426 -0.19908473 -0.005472083 -0.11977396 0.21743579 0.23148417
-0.11632435 0.119284324 -0.21041504 0.15114716 0.07416952 0.012689451 0.19918378 -0.20060664
0.04532323 0.1806186 0.15422799 0.20723467 -0.13181405 0.072543636 0.0070359604 -0.19837266
-0.21376535 -0.12420378 -0.23292668 0.14031622 0.016192527 -0.15404266 -0.07623127 0.061838645
0.10530188 -0.10446781 -0.20829563 0.117575645 -0.14131248 -0.08442806 0.22100684 -0.039799906
-0.1613694 0.07974852 -0.093331024 -0.0708659 0.20070086 0.09040924 -0.03613849 0.1137065
0.067277975 0.002587713 0.1494209 0.08409283 0.18639429 0.21215187 -0.17775425 0.03749723
-0.07610395 -0.02995068 -0.016027838 -0.17373602 -0.15918949 0.13968475 0.10143343 -0.22941944
-0.14847755 -0.093869716 0.19701035 -0.20184971 0.10456575 -0.07870072 -0.18630095 0.16428217
0.18143728 -0.21618302 -0.071575865 0.062074307 0.048269555 0.19364807 -0.09714864 0.15516588
0.120948724 -0.10359992 -0.07926555 -0.09355134 0.16395296 0.21388383 -0.1462067 -0.16223958
0.028192967 -0.14939949 0.13062425 -0.12619147 -0.14424832 -0.005266601 -0.07074524 0.21733582
-0.06656664 -0.10661496 0.20164137 0.026060775 -0.072100356 -0.19117771 0.15141264 0.07203996
-0.21267761 0.19132411 0.12256759 -0.17183596 -0.21786734 0.21957384 -0.02879435 -0.07072286
-0.11096746 -0.15698019 -0.10568789 -0.035476174 -0.011023719 -0.04208154 -0.17799842 0.208247
0.20094617 0.11939763 0.11577103 0.08544124 -0.19486247 0.09354219 -0.083067715 0.21257262
0.10753092 -0.21471924 0.2340973 0.16148113 0.22350472 -0.18660967 -0.042238187 0.04948431
-0.06483869 -0.14642936 0.11157757 0.04421388 -0.01700416 0.022885598 0.19479746 0.16575158
0.033936933 0.13143708 0.03152296 -0.1651283 0.065744214 -0.12562174 0.15119943 -0.11751749
-0.044562463 0.21716964 0.11430071 -0.109458834 -0.031714182 0.03230843 -0.18734542 0.010647213
-0.20992409 -0.213861 0.1256059 0.13191874 0.010592939 -0.13774957 -0.18380353 0.10274548
00000000: c42e 053d 8bc6 b0bd c98a 2a3e 722c 033d
00000010: efd8 fd3d 1284 0d3e beb0 b4bb 5c6b 583d
00000020: a316 373c 7906 05be f188 70bd 2360 a5bd
00000030: 94d5 183e b024 173e 195c 013e e714 d6bd
00000040: 3578 acbd 197f 943c 58a3 2fbe 6cca c63d
00000050: 3d3c 95bd be3f 133d d45e 66be add8 ff3d
00000060: a17a 05bc ef48 e83d 6132 18be 637d 00be
00000070: 4d82 133d 207a adbc 046b 22be e355 7b3d
00000080: 9723 02be 79af a43b 7cec 353e 78d3 613e
00000090: da43 d13d 71d0 67bc 65c4 d63d 8aba c33c
000000a0: 0fa5 753b 7cd0 773d 917c 9c3d 3c03 cb3d
000000b0: fbcf 673e a036 dd3d 1531 a73d 8e8f e43d
000000c0: 47c9 8f3d 1391 313e 291e 4d3e bbe1 8bbd
000000d0: 6e2c 613d 0c28 c63d a6a7 b9bd f3a8 f43d
000000e0: cec5 343e 99a7 663e 40ec 513e d02f 46be
000000f0: 15de c4bc 87bd 263c d54e d4bd 980c 3b3e
00000100: aea1 5bbe ed14 a8bd 8da0 913d 61e3 413e
00000110: fe97 09be df93 0d3e 814f dc3c d063 853d
00000120: 63fb f03d 42fe 6e3e 1e08 293d 98b1 f33d
00000130: b62a 573d cfcb 02bd 7c00 74bd 1069 e5ba
00000140: 0ce6 18be 50a7 02be 5c1f 6ebe 556b 153d
00000150: fd9b fd3d 797b 443e 9906 8abd 0712 2bbe
00000160: f78a 46be fccb 583e 28e6 bebd dedc 4bbe
00000170: 294f b3bb 0d4c f5bd 7da7 5e3e 300a 6d3e
00000180: 763b eebd 574b f43d 0a77 57be 52c6 1a3e
00000190: 30e6 973d 6ae7 4f3c d5f6 4b3e d46b 4dbe
000001a0: daa4 393d 15f4 383e f1ed 1d3e 5335 543e
000001b0: 43fa 06be c291 943d ea8d e63b 3422 4bbe
000001c0: 4ee5 5abe 8d5e febd 5584 6ebe 0eaf 0f3e
000001d0: 31a6 843c 5cbd 1dbe 241f 9cbd 854a 7d3d
000001e0: 83a8 d73d 38f3 d5bd 734b 55be 80cb f03d
000001f0: 38b4 10be 9ee8 acbd 9e4f 623e 3a05 23bd
00000200: 053e 25be 3153 a33d 5624 bfbd 2422 91bd
00000210: 8784 4d3e 7b28 b93d f405 14bd f4de e83d
00000220: 09c9 893d 9f96 293b cb01 193e dd38 ac3d
00000230: 25de 3e3e 573e 593e 3605 36be b296 193d
00000240: 63dc 9bbd 215b f5bc d04c 83bc dbe7 31be
00000250: 9202 23be 8509 0f3e 55bc cf3d eeec 6abe
00000260: 800a 18be c43e c0bd 15bd 493e b1b1 4ebe
00000270: 9126 d63d d82d a1bd adc5 3ebe 9639 283e
00000280: b2ca 393e 155f 5dbe 5e96 92bd a141 7e3d
00000290: 4cb6 453d ae4b 463e def5 c6bd cee3 1e3e
000002a0: f7b3 f73d 322c d4bd fa55 a2bd d897 bfbd
000002b0: 49e3 273e 5d04 5b3e 36b7 15be 2222 26be
000002c0: f0f4 e63c 2efc 18be 5dc2 053e 5638 01be
000002d0: d5b5 13be 7493 acbb e1e2 90bd 488d 5e3e
000002e0: 1754 88bd f258 dabd 137b 4e3e 687d d53c
000002f0: 5aa9 93bd 17c4 43be ea0b 1b3e b089 933d
00000300: 29c8 59be 78ea 433e b704 fb3d c4f5 2fbe
00000310: 9e18 5fbe f7d7 603e 21e2 ebbc 26d7 90bd
00000320: e842 e3bd 6abf 20be e472 d8bd 774f 11bd
00000330: d49c 34bc b15d 2cbd 3845 36be b43e 553e
00000340: d5c4 4d3e bf86 f43d 5d19 ed3d d1fb ae3d
00000350: 078a 47be 0c93 bf3d 681f aabd a3ac 593e
00000360: 2c39 dc3d 5cdf 5bbe 34b7 6f3e 4f5b 253e
00000370: 6cde 643e 9b16 3fbe f301 2dbd 0fb0 4a3d
00000380: 26ca 84bd 94f1 15be c882 e43d 9d19 353d
00000390: 4f4c 8bbc 947a bb3c fc78 473e c8ba 293e
000003a0: 7401 0b3d 7197 063e 381e 013d 6517 29be
000003b0: e7a4 863d fca2 00be 06d4 1a3e 03ad f0bd
000003c0: 2187 36bd b861 5e3e 7e16 ea3d f42b e0bd
000003d0: bbe6 01bd d855 043d 7ad7 3fbe a671 2e3c
000003e0: 57f6 56be 61fe 5abe d59e 003e b515 073e
000003f0: 028e 2d3c 390e 0dbe fe36 3cbe 396c d23d

down_blocks.1.conv1.bias f4 [8]
0.00032270278 -0.00034600563 -0.00084603217 0.00019894462 0.0016614851 -0.0035314723 -0.0008956227 -3.842943e-05
00000000: 6f30 a939 1768 b5b9 42c8 5dba ca9b 5039
00000010: 30c6 d93a 4670 67bb 39c8 6aba 492f 21b8

down_blocks.1.conv2.weight f4 [8, 8, 3, 3]
0.07964447 0.09858625 -0.0059386 -0.031110357 -0.16288924 0.09923434 -0.08480853 0.13922942
-0.18954235 -0.033899613 0.10161013 0.11687036 -0.08798325 -0.1768661 -0.01754666 -0.012457224
-0.09541672 -0.20051092 -0.041640412 0.14904521 -0.12126896 -0.069991715 0.08804432 0.037178576
0.14525183 -0.1441673 -0.103880614 0.026741788 0.11253395 0.076886125 0.00038438634 0.09695935
-0.08545419 0.12549563 0.099130355 0.033049967 -0.17956434 0.14762513 -0.16045226 0.04766702
0.047561556 0.11446155 -0.11219647 0.052065365 -0.20151187 -0.0021275054 -0.052633986 -0.11902474
0.20642684 0.12847614 0.13918206 -0.13541764 -0.023618145 -0.1286531 -0.19581711 -0.093132734
-0.1204634 -0.043187693 0.17083167 -0.13539565 0.09712861 -0.11403408 -0.07414616 0.11127935
0.17545703 0.04883739 0.15600818 0.18960279 0.165256 0.1088002 0.18519235 -0.0964621
-0.17908916 -0.17172095 0.10865064 -0.14809027 -0.18276049 -0.05593037 0.08284061 -0.0012347095
0.15151298 0.15393937 0.05875205 -0.09177754 0.05756913 -0.18660225 0.04153543 -0.14900595
0.15501258 0.13873895 0.18362486 -0.037256412 -0.06806241 -0.07842327 -0.11796896 -0.16571887
0.062223736 0.044984225 0.101560555 0.08551966 0.0023929244 -0.084521644 -0.08660831 0.14729905
-0.012132792 0.1864676 0.19032037 -0.093253106 0.18483898 -0.08274251 0.10630769 -0.013623176
-0.08205784 0.016738772 0.14504038 -0.078490384 -0.12368905 0.16361475 -0.08910311 0.037158255
-0.12117899 0.058007732 -0.1375088 -0.14528173 0.14248218 0.040790193 0.047103077 0.116005346
0.18029554 -0.036322527 -0.15682316 -0.027159965 -0.015451666 0.07481042 0.12849776 0.16238931
0.20369689 -0.032171212 -0.17830752 0.19290836 -0.055202097 -0.13002329 -0.122775845 0.031488474
-0.13060184 0.13995184 0.12879455 0.12734699 0.11366111 0.1524973 -0.020729398 0.08685654
0.0019392429 0.052511964 -0.18200292 -0.14170842 0.07512604 0.11989684 0.11298777 -0.024189148
-0.09073755 -0.179568 0.044793986 0.017766358 0.18373767 -0.18815213 0.19148025 -0.11762396
-0.12554747 -0.09658104 0.15531929 0.08836441 0.08254483 -0.17139517 -0.04368655 -0.12806429
0.102435455 -0.008843232 -0.009324135 0.13447143 -0.0035541765 0.07942023 0.117778376 0.09230624
-0.1577863 0.18891855 -0.03624129 0.034034513 0.038530927 -0.14862496 0.025798311 -0.06656454
0.0663932 0.026647786 -0.06611863 -0.15932225 -0.2003576 -0.14811988 -0.054764733 0.04307258
0.119933575 -0.14831614 -0.051705886 -0.1824254 -0.082830735 -0.17509523 0.19647895 -0.16276747
0.00989491 -0.069712855 0.18094009 0.17079543 -0.12090924 0.007328774 -0.14844644 0.15074074
0.18717983 -0.20494588 -0.014530779 -0.014613578 -0.07597039 -0.1202805 -0.06055202 -0.089560315
-0.05776304 -0.11964717 0.12341257 -0.13300969 -0.1894353 0.08684085 0.124922164 0.10476834
-0.1624557 0.19467734 0.114606656 -0.020306172 -0.08911722 -0.093817584 0.009778858 -0.11708761
0.13260797 -0.043262854 0.19136359 -0.07766187 -0.014325022 0.14411785 0.047841523 0.20798227
0.19584306 0.16490951 0.101149045 0.17293458 0.15897982 0.035806347 -0.0059831548 -0.13987571
00000000: a41c a33d 96e7 c93d 9698 c2bb 26db febc
00000010: 70cc 26be 603b cb3d 18b0 adbd 2892 0e3e
00000020: 6417 42be 52da 0abd f918 d03d ba59 ef3d
00000030: 9030 b4bd 631c 35be 03be 8fbc 6219 4cbc
00000040: d769 c3bd bc52 4dbe 238f 2abd 4f9f 183e
00000050: dc5b f8bd d157 8fbd 9550 b43d 9048 183d
00000060: e5bc 143e 98a0 13be 5cbf d4bd 9811 db3c
00000070: 3378 e63d 7976 9d3d 7687 c939 a092 c63d
00000080: 9b02 afbd ed81 003e db04 cb3d 675f 073d
00000090: b7df 37be 0b2b 173e 994d 24be 7e3e 433d
000000a0: e8cf 423d d16a ea3d 43c7 e5bd 7e42 553d
000000b0: 2159 4ebe 9e6d 0bbb bc96 57bd 3ec3 f3bd
000000c0: 8f61 533e 408f 033e be85 0e3e ecaa 0abe
000000d0: d77a c1bc a3bd 03be 4884 48be 60bc bebd
000000e0: 84b5 f6bd 94e5 30bd 7fee 2e3e 28a5 0abe
000000f0: 5deb c63d b38a e9bd f1d9 97bd 6ee6 e33d
00000100: 02ab 333e b709 483d 9cc0 1f3e 3c27 423e
00000110: de38 293e a4d2 de3d 10a3 3d3e ec8d c5bd
00000120: 2663 37be 9ed7 2fbe 3a84 de3d faa4 17be
00000130: 9125 3bbe 3e17 65bd 56a8 a93d fad5 a1ba
00000140: 3826 1b3e 48a2 1d3e fda5 703d ddf5 bbbd
00000150: 9ccd 6b3d a914 3fbe 0e21 2a3d 0495 18be
00000160: 9ebb 1e3e 9511 0e3e 2808 3c3e 2e9a 18bd
00000170: 4e64 8bbd 619c a0bd b699 f1bd 35b2 29be
00000180: 51de 7e3d 6141 383d fbfe cf3d ee24 af3d
00000190: 9cd2 1c3b af19 adbd b35f b1bd 90d5 163e
000001a0: 9ec8 46bc 5df1 3e3e 58e3 423e 7cfb bebd
000001b0: 6e46 3d3e e874 a9bd d9b7 d93d be33 5fbc
000001c0: f10d a8bd c01f 893c 7785 143e 91bf a0bd
000001d0: af50 fdbd a08a 273e b17b b6bd 4133 183d
000001e0: b12c f8bd 8499 6d3d 1bcf 0cbe bcc4 14be
000001f0: d9e6 113e 9e13 273d 28ef 403d 3694 ed3d
00000200: 659f 383e eec6 14bd 4096 20be 937e debc
00000210: fc28 7dbc 3536 993d eb94 033e 6249 263e
00000220: eb95 503e f6c5 03bd 3f96 36be c589 453e
00000230: 981b 62bd d324 05be e771 fbbd 0ffa 003d
00000240: 7dbc 05be 894f 0f3e b8e2 033e 4067 023e
00000250: 28c7 e83d 4128 1c3e b3d0 a9bc d7e1 b13d
00000260: 322e fe3a c916 573d f95e 3abe 031c 11be
00000270: aedb 993d 798c f53d 2266 e73d 5228 c6bc
00000280: 9cd4 b9bd ace0 37be e679 373d c18a 913c
00000290: ba25 3c3e f4aa 40be 6613 443e d5e4 f0bd
000002a0: 848f 00be 48cc c5bd 050c 1f3e 66f8 b43d
000002b0: 440d a93d 3782 2fbe abf0 32bd 4923 03be
000002c0: aec9 d13d 34e3 10bc 42c4 18bc e1b2 093e
000002d0: 30ed 68bb 13a7 a23d ca35 f13d 0e0b bd3d
000002e0: bb92 21be dd73 413e bf71 14bd c667 0b3d
000002f0: 9bd2 1d3d 2431 18be fb56 d33c fd52 88bd
00000300: 28f9 873d 754c da3c 3469 87bd 5f25 23be
00000310: 8b2a 4dbe bdac 17be fc50 60bd e06c 303d
00000320: bc9f f53d 30e0 17be 8dc9 53bd b9cd 3abe
00000330: 29a3 a9bd 2a4c 33be c731 493e 84ac 26be
00000340: 431e 223c 9dc5 8ebd 5c48 393e ffe4 2e3e
00000350: 439f f7bd 3626 f03b 5802 18be c85b 1a3e
00000360: 12ac 3f3e 55dd 51be 8112 6ebc ca6d 6fbc
00000370: 5d96 9bbd 9f55 f6bd 6505 78bd 666b b7bd
00000380: f098 6cbd 9309 f5bd bbbf fc3d b133 08be
00000390: 54fb 41be 9ed9 b13d 31d7 ff3d c990 d63d
000003a0: c95a 26be 7f59 473e e5b6 ea3d 2159 a6bc
000003b0: 1783 b6bd 6f23 c0bd 8137 203c a1cb efbd
000003c0: 62ca 073e 6434 31bd d1f4 433e 300d 9fbd
000003d0: 7fb3 6abc a193 133e 79f5 433d 4ef9 543e
000003e0: 158b 483e 0ade 283e 3b27 cf3d c315 313e
000003f0: 9bcb 223e ada9 123d 570e c4bb 943b 0fbe

down_blocks.1.conv2.bias f4 [8]
-0.0006986635 0.00370723 -0.000112528905 -0.0025671874 -0.0011863009 0.00051225733 0.00035208245 0.0029312817
00000000: 8426 37ba 00f5 723b 7ffd ebb8 423e 28bb
00000010: a77d 9bba 0249 063a b597 b839 bf1a 403b

down_blocks.1.norm1.weight f4 [8]
1.0069724 0.99387383 1.0026575 1.0055765 0.99384034 0.99963003 0.99970263 0.99763644
00000000: 79e4 803f 846e 7e3f 1557 803f bbb6 803f
00000010: 526c 7e3f c1e7 7f3f 83ec 7f3f 1a65 7f3f

down_blocks.1.norm1.bias f4 [8]
-0.0008196584 0.0012607208 -0.0013881319 -0.002369012 0.0032164278 -0.004333196 -0.00087571924 0.000104149476
00000000: 58de 56ba c53e a53a faf1 b5ba 6d41 1bbb
00000010: b4ca 523b 7cfd 8dbb 8690 65ba d36a da38

down_blocks.1.norm1.running_mean f4 [8]
0.2535293 0.47990942 0.30192074 0.59165657 0.2877207 0.1869442 0.33747253 0.1344411
00000000: 98ce 813e b0b6 f53e 5b95 9a3e ce76 173f
00000010: 2150 933e 4d6e 3f3e 33c9 ac3e edaa 093e

down_blocks.1.norm1.running_var f4 [8]
0.19112112 1.5976073 0.40197003 0.71021837 0.21156846 0.1653919 0.59783375 0.12067129
00000000: 41b5 433e 657e cc3f 04cf cd3e dfd0 353f
00000010: 67a5 583e 7f5c 293e a20b 193f 8222 f73d

down_blocks.1.norm2.weight f4 [8]
0.99720114 0.99968314 1.0043231 1.0042742 1.0105746 1.0000278 0.99645084 1.001679
00000000: 9348 7f3f 3ceb 7f3f a98d 803f 0f8c 803f
00000010: 825a 813f e900 803f 6717 7f3f 0437 803f

down_blocks.1.norm2.bias f4 [8]
0.00015538385 0.0014286261 -0.00037146598 -0.001161349 0.0008296288 0.0009728411 -0.00017945626 0.001783061
00000000: 89ee 2239 bd40 bb3a 52c1 c2b9 6838 98ba
00000010: 727b 593a 4306 7f3a 6c2c 3cb9 99b5 e93a

down_blocks.1.norm2.running_mean f4 [8]
0.34108168 0.2828933 0.29155308 0.51611894 0.37483078 0.50013244 0.6811301 0.34746554
00000000: 42a2 ae3e 64d7 903e 7246 953e 5f20 043f
00000010: d2e9 bf3e ae08 003f 8b5e 2e3f 01e7 b13e

down_blocks.1.norm2.running_var f4 [8]
0.3455114 0.32969385 0.18860696 1.119515 0.34615195 0.30101258 0.7346134 0.3294438
00000000: dfe6 b03e a2cd a83e 2f22 413e 444c 8f3f
00000010: d43a b13e 521e 9a3e a00f 3c3f dcac a83e

down_blocks.2.conv1.weight f4 [16, 8, 3, 3]
-0.050614636 -0.14254333 0.15914604 -0.005246841 -0.042887885 0.041925162 -0.08173889 -0.0041780868
-0.021139441 -0.14184232 -0.1099772 -0.15814598 -0.14832266 0.04874204 0.06773029 0.14493266
0.11402583 -0.13737991 0.13735911 0.06273288 -0.032522626 0.0904488 0.14877991 0.16485535
0.017700708 -0.12853886 0.04494531 0.12506433 0.01115096 0.09555236 -0.09671118 -0.027442148
-0.047740858 0.15464596 -0.11253021 0.011404321 0.045823835 -0.044602048 0.08921982 -0.096378066
-0.04635755 -0.15157957 -0.05199112 -0.11371718 0.12475203 0.0707204 -0.12382593 0.07443718
-0.022586318 0.03526321 -0.011535556 0.13571396 0.027733859 -0.047862373 0.09713853 0.0844857
-0.16360147 -0.07564307 -0.12211113 0.019746866 -0.087511025 -0.12995362 0.006009345 -0.11959741
0.04676383 -0.048895214 -0.050783753 -0.101084895 0.037675276 -0.0111938985 -0.06711539 -0.12158654
0.11778143 0.0471406 -0.09297074 -0.047120076 0.11152841 0.055432737 0.14653146 0.011235618
0.14841485 0.11204185 0.036923755 -0.117329106 0.100923896 -0.057566088 -0.08686328 -0.0015134525
-0.06965316 -0.06564084 -0.04411971 0.16419616 0.0053573004 0.018302595 -0.022584543 -0.05382756
-0.048589785 0.058185548 -0.073420025 0.0346459 -0.044430982 -0.020317698 -0.037814073 0.10085456
-0.05583829 0.13018647 -0.14103241 0.15180308 0.053522117 -0.1111368 -0.00010024368 -0.14166832
-0.13080208 0.1275396 -0.0018454664 0.1446877 -0.11853754 -0.15277292 -0.01813553 0.0600378
-0.12527414 0.14210258 -0.016100643 -0.1502846 0.02929037 -0.076771535 0.10026632 0.08160185
-0.026352596 0.12371806 0.15808877 -0.04494973 0.15813524 -0.08166823 -0.12434973 -0.14246042
0.112772286 0.043368477 0.11359709 0.08256833 0.16414149 0.13350199 0.13722277 -0.10475298
-0.10886005 -0.09588581 -0.14677784 0.078305036 -0.03963877 0.15085973 0.12019895 0.08517735
-0.14067225 -0.025549151 -0.101254605 0.0018110132 -0.061531935 0.15630516 -0.03875279 0.11691363
0.034923147 0.01432909 0.07922234 0.050475277 0.0077468096 -0.15292276 0.005591953 0.10893302
0.0052368804 -0.053483088 -0.09545535 0.015533538 -0.042632204 0.016808981 -0.045586605 -0.09636249
0.068249956 -0.092999004 0.04925549 -0.1392559 -0.013862971 0.11485949 -0.008515591 0.116914146
-0.10317629 -0.12754105 -0.10960293 -0.038044658 -0.11509706 0.123265825 -0.11488895 -0.12424456
0.14984664 -0.106809966 0.020832615 0.06712257 0.101170324 -0.14934102 -0.08874617 0.13170238
-0.15744093 0.024322135 -0.06683464 0.011841933 0.12104267 -0.09308514 -0.058930255 0.13166176
-0.016085194 -0.124147885 0.06645524 -0.022881338 -0.1657499 0.13324594 -0.08043891 -0.0030586387
0.16536132 -0.013356163 -0.13657798 -0.038184088 -0.11960872 0.16363198 -0.018446427 -0.0011910584
-0.09758215 0.06367463 -0.0643567 0.15235622 0.06704091 0.13765593 -0.12645619 -0.13790594
-0.121027544 0.009024115 0.038118713 -0.04251353 -0.110530056 -0.02257645 0.14226745 0.015271479
-0.039833628 -0.033197347 0.1326335 -0.16236748 0.13913077 0.080409035 -0.0094479015 -0.083538756
-0.09949938 0.014714291 -0.10508851 -0.10984028 -0.10946375 0.06744065 0.119255036 0.035619017
00000000: 4b51 4fbd e1f6 11be 2ef7 223e b1ed abbb
00000010: 35ab 2fbd b8b9 2b3d b866 a7bd 55e8 88bb
00000020: 9f2c adbc 1d3f 11be ba3b e1bd 05f1 21be
00000030: e5e1 17be bca5 473d 2eb6 8a3d 3a69 143e
00000040: 6086 e93d 52ad 0cbe dea7 0c3e 197a 803d
00000050: 7236 05bd 383d b93d c359 183e d7cf 283e
00000060: 1301 913c b19f 03be 9318 383d dd10 003e
00000070: 84b2 363c f5b0 c33d 8310 c6bd 5bce e0bc
00000080: eb8b 43bd 835b 1e3e 3d76 e6bd 30d9 3a3c
00000090: c6b1 3b3d a3b0 36bd e2b8 b63d dd61 c5bd
000000a0: 6ae1 3dbd ad37 1bbe a4f4 54bd 8ee4 e8bd
000000b0: fe7d ff3d dbd5 903d 7398 fdbd 8572 983d
000000c0: f106 b9bc 2870 103d a1ff 3cbc 9af8 0a3e
000000d0: 1e32 e33c 560b 44bd 91f0 c63d d706 ad3d
000000e0: 2587 27be c1ea 9abd 6615 fabd 2ec4 a13c
000000f0: fb38 b3bd 9012 05be 0aea c43b 7def f4bd
00000100: 6e8b 3f3d 5946 48bd a002 50bd 9905 cfbd
00000110: 6451 1a3d 9d66 37bc cb73 89bd 5d02 f9bd
00000120: 6437 f13d 8016 413d 7167 bebd fb00 41bd
00000130: 0269 e43d 700d 633d 580c 163e 9915 383c
00000140: 10fa 173e 3376 e53d 5d3d 173d 3e4a f0bd
00000150: 30b1 ce3d 6bca 6bbd 60e5 b1bd 0a5f c6ba
00000160: 51a6 8ebd b46e 86bd deb6 34bd 0a23 283e
00000170: 4b8c af3b 53ef 953c 3803 b9bc 4a7a 5cbd
00000180: 1506 47bd f853 6e3d 3d5d 96bd dce8 0d3d
00000190: 43fd 35bd 4d71 a6bc eee2 1abd d68c ce3d
000001a0: b1b6 64bd 9a4f 053e cd6a 10be 4472 1b3e
000001b0: 023a 5b3d b19b e3bd ea39 d2b8 8011 11be
000001c0: fbf0 05be be99 023e 94e3 f1ba 0329 143e
000001d0: cfc3 f2bd 8170 1cbe f790 94bc 32ea 753d
000001e0: dd47 00be 5783 113e 7fe5 83bc 35e4 19be
000001f0: 5cf2 ef3c 653a 9dbd 6e58 cd3d df1e a73d
00000200: 66e1 d7bc e55f fd3d 06e2 213e 351d 38bd
00000210: 34ee 213e ac41 a7bd 12ab febd 25e1 11be
00000220: 28f5 e63d 25a3 313d 97a5 e83d 9619 a93d
00000230: b514 283e bfb4 083e 2084 0c3e bb88 d6bd
00000240: 05f2 debd c85f c4bd ee4c 16be 645e a03d
00000250: 435c 22bd f97a 1a3e de2a f63d 7671 ae3d
00000260: 630c 10be 744c d1bc 935e cfbd 855f ed3a
00000270: e908 7cbd 760e 203e 3fbb 1ebd 6a70 ef3d
00000280: 930b 0f3d 8fc4 6a3c 523f a23d 2abf 4e3d
00000290: f3d8 fd3b c997 1cbe b43c b73b 4618 df3d
000002a0: 239a ab3b 1511 5bbd 187e c3bd 6180 7e3c
000002b0: 1b9f 2ebd fdb2 893c 05b9 3abd b259 c5bd
000002c0: a2c6 8b3d 4376 bebd 20c0 493d 1999 0ebe
000002d0: 8421 63bc 743b eb3d fa84 0bbc af70 ef3d
000002e0: 174e d3bd 1f9a 02be 8077 e0bd b7d4 1bbd
000002f0: 02b8 ebbd cb72 fc3d e64a ebbd ef73 febd
00000300: 6671 193e 2fbf dabd 29a9 aa3c 8f77 893d
00000310: 6332 cf3d daec 18be 8dc0 b5bd fddc 063e
00000320: 3238 21be 373f c73c 9ae0 88bd ab04 423c
00000330: 38e5 f73d 6ca3 bebd da60 71bd 57d2 063e
00000340: 19c5 83bc 3f41 febd af19 883d a571 bbbc
00000350: 57ba 29be a071 083e 28bd a4bd 7173 48bb
00000360: 7a54 293e cfd3 5abc 19db 0bbe eb66 1cbd
00000370: 6bf5 f4bd 248f 273e f61c 97bc 4a1d 9cba
00000380: 26d9 c7bd d867 823d 72cd 83bd 4503 1c3e
00000390: bf4c 893d adf5 0c3e bb7d 01be 3737 0dbe
000003a0: 4add f7bd e2d9 133c 5e22 1c3d ab22 2ebd
000003b0: 955d e2bd 3ff2 b8bc 8fae 113e 3a35 7a3c
000003c0: 9628 23bd f1f9 07bd 14d1 073e a943 26be
000003d0: 4c78 0e3e 7ead a43d 5fcb 1abc 5e16 abbd
000003e0: 55c6 cbbd 3614 713c a538 d7bd f1f3 e0bd
000003f0: 882e e0bd 531e 8a3d fc3b f43d 3fe5 113d

down_blocks.2.conv1.bias f4 [16]
-0.00073218875 -0.00019353475 -0.0017798312 -0.00021918915 -4.5615743e-05 0.0004814522 -1.3113408e-05 -0.0002676589
-0.00013963427 7.253333e-05 0.00035822106 -7.492664e-05 0.0002262379 8.378192e-05 0.0005389152 -0.00024436184
00000000: 5bf0 3fba 97ef 4ab9 3a49 e9ba 24d6 65b9
00000010: 8853 3fb8 6c6b fc39 a901 5cb7 9254 8cb9
00000020: ca6a 12b9 091d 9838 9ecf bb39 ef21 9db8
00000030: 463a 6d39 13b4 af38 fd45 0d3a b11d 80b9

down_blocks.2.conv2.weight f4 [16, 16, 3, 3]
-0.08165436 0.014664565 -0.1378175 -0.010745577 0.10524768 0.014744288 0.031541508 0.031973984
-0.059324488 -0.13749029 -0.10660656 -0.107112475 -0.03467829 0.090355024 -0.06554779 -0.01573529
-0.09164812 -0.070294574 -0.04410338 0.015117831 -0.012969495 -0.10418532 -0.14144424 -0.016286967
-0.07767906 -0.030581169 0.0168231 0.08503062 0.086770326 -0.09431059 0.012365169 0.10958973
-0.10125329 -0.12357794 -0.06922262 -0.021885658 0.01626691 0.13004114 -0.03291244 -0.079768285
0.05704886 0.09935216 0.12462025 0.04040766 0.09923624 0.11875071 0.072903 -0.050006475
-0.0011702916 -0.016887037 0.020342408 -0.12973633 -0.05784727 -0.12174073 -0.10197895 0.03133662
-0.036971584 0.019342816 0.039012045 -0.09230608 0.061555132 -0.06466104 -0.019400345 0.07151081
0.071403794 0.1368482 -0.08130672 -0.06137722 -0.03783895 -0.11903682 -0.020025898 -0.073887706
0.054123513 0.0051493766 0.023818482 -0.066833064 0.037332453 0.07494834 0.046270058 -0.050530422
0.017338896 -0.02174618 -0.022631064 0.04638861 -0.048248608 0.12089746 -0.10366475 0.016827757
-0.10001817 -0.056625452 -0.01678398 -0.06981914 -0.13535562 -0.007598891 -0.019954862 0.0093392525
-0.033396948 0.04556668 0.0013038226 -0.05381351 0.054131117 0.062118113 0.09766042 0.1161592
0.04865948 0.056682456 0.124177225 -0.10491211 -0.017582167 0.075784944 0.063584276 0.13768007
0.04849909 0.025918886 -0.13367106 0.0867615 0.08359031 -0.03070395 -0.002256329 -0.1289558
0.13492377 -0.12202196 -0.0070029837 0.08522306 -0.072289415 0.090150885 -0.13322446 -0.020386746
0.124295555 0.01966202 -0.014284475 0.06704835 -0.025016947 -0.07284013 0.0809852 -0.105386205
-0.13851333 0.066360146 0.023849579 0.1251632 0.050630268 0.05139406 -0.098597564 0.007770401
-0.036933985 0.009466784 -0.045578647 0.12773208 0.009503228 0.123385526 0.14042482 0.10950648
-0.029105667 -0.06512057 0.13952662 0.07285997 0.045405388 0.13323517 -0.13766369 0.12385239
0.13176332 0.053959664 0.08623547 -0.10554134 -0.014271494 0.025220767 0.13061322 0.042972203
-0.06211101 -0.09278752 -0.1085913 0.08532474 -0.11084232 0.06957843 -0.05554485 -0.14050189
-0.035171572 -0.058271307 0.09852524 -0.088633515 0.06700305 0.11798812 -0.010023595 0.09525527
0.05139255 -0.10757124 -0.07384638 -0.08741613 0.0434263 -0.029766796 -0.05264307 0.103228554
0.14182709 0.038626898 -0.06281554 0.09784512 0.083153956 0.010850527 -0.13978155 -0.14499696
-0.10542458 0.016923046 -0.09643283 -0.08201042 -0.103710175 0.1140936 0.08541478 0.018568471
0.09662992 0.08213891 0.08768014 0.05173694 0.037985016 -0.14316228 0.092401974 -0.06781812
-0.11232592 -0.07374603 0.005768072 -0.012450428 0.09779648 0.0911926 -0.12388395 -0.054213155
0.08418199 0.1362861 -0.12955138 -0.12236473 0.008185773 0.1268244 0.010868642 0.08521757
0.08736642 0.093024 0.101762936 -0.12175145 -0.07659561 0.067742355 -0.12304494 -0.07862848
0.016649546 0.017130082 0.0479783 -0.008358935 0.0062356098 0.12143913 0.092342034 -0.082381845
0.09273296 -0.06314817 0.066184916 -0.12588072 -0.048819557 0.08121669 0.008955532 -0.04815943
00000000: 673a a7bd a543 703c 0820 0dbe 370e 30bc
00000010: 188c d73d 0792 713c ab31 013d 27f7 023d
00000020: 3cfe 72bd 41ca 0cbe 8a54 dabd c95d dbbd
00000030: d30a 0ebd 0e0c b93d eb3d 86bd 4be7 80bc
00000040: 02b2 bbbd 9af6 8fbd bfa5 34bd c7b0 773c
00000050: 017e 54bc 1d5f d5bd c2d6 10be 3f6c 85bc
00000060: 3316 9fbd 5c85 fabc 99d0 893c 8924 ae3d
00000070: a4b4 b13d e925 c1bd 4797 4a3c 9570 e03d
00000080: e35d cfbd 6e16 fdbd 97c4 8dbd 8d49 b3bc
00000090: 2f42 853c 8129 053e 32cf 06bd 8e5d a3bd
000000a0: 11ac 693d 2579 cb3d e738 ff3d 8182 253d
000000b0: 5f3c cb3d 9233 f33d 2b4e 953d 97d3 4cbd
000000c0: 7864 99ba af56 8abc 1fa5 a63c 9ad9 04be
000000d0: 42f1 6cbd 3453 f9bd 57da d0bd d45a 003d
000000e0: 846f 17bd d374 9e3c 18cb 1f3d f80a bdbd
000000f0: 3c21 7c3d 026d 84bd 79ed 9ebc 4274 923d
00000100: 273c 923d ef21 0c3e 2384 a6bd ae66 7bbd
00000110: 04fd 1abd 94c9 f3bd 5a0d a4bc 7052 97bd
00000120: 9eb0 5d3d 1abc a83b fa1e c33c c6df 88bd
00000130: eae9 183d 847e 993d ac85 3d3d fdf8 4ebd
00000140: 4d0a 8e3c 0b25 b2bc c864 b9bc fc01 3e3d
00000150: 55a0 45bd 1699 f73d 2f4e d4bd 5dda 893c
00000160: 54d6 ccbd 17f0 67bd 8f7e 89bc 56fd 8ebd
00000170: aa9a 0abe 1e00 f9bb 6178 a3bc aa03 193c
00000180: 3dcb 08bd 21a4 3a3d 07e5 aa3a 8e6b 5cbd
00000190: 97b8 5d3d 906f 7e3d 3002 c83d e0e4 ed3d
000001a0: 2a4f 473d dd2b 683d a150 fe3d 29dc d6bd
000001b0: 7a08 90bc 2335 9b3d 7938 823d 01fc 0c3e
000001c0: fba6 463d d853 d43c 11e1 08be 03b0 b13d
000001d0: 6531 ab3d da86 fbbc ebde 13bb fd0c 04be
000001e0: 7529 0a3e a6e6 f9bd 4979 e5bb 6d89 ae3d
000001f0: 790c 94bd 07a1 b83d fe6b 08be 1b02 a7bc
00000200: ab8e fe3d 3f12 a13c 6e09 6abc a550 893d
00000210: 57f0 ccbc 352d 95bd 92db a53d b9d4 d7bd
00000220: 70d6 0dbe d4e7 873d 3160 c33c c82a 003e
00000230: af61 4f3d 9482 523d 85ed c9bd d99e fe3b
00000240: 1748 17bd 921a 1b3c adb0 3abd 33cc 023e
00000250: 6db3 1b3c 8db1 fc3d 86cb 0f3e ef44 e03d
00000260: 026f eebc ef5d 85bd 11e0 0e3e 9c37 953d
00000270: 00fb 393d cd6e 083e b6f7 0cbe 52a6 fd3d
00000280: f7ec 063e cf04 5d3d 399c b03d 0f26 d8bd
00000290: fcd2 69bc c89b ce3c 79bf 053e 9f03 303d
000002a0: 1d68 7ebd 6207 bebd 1e65 debd bdbe ae3d
000002b0: 4c01 e3bd 237f 8e3d ff82 63bd badf 0fbe
000002c0: 1110 10bd e5ad 6ebd 9ac7 c93d 7d85 b5bd
000002d0: e538 893d c1a3 f13d 013a 24bc 3215 c33d
000002e0: ff80 523d 4f4e dcbd c53c 97bd 3a07 b3bd
000002f0: c7df 313d 7fd9 f3bc 43a0 57bd 7e69 d33d
00000300: 1f3b 113e 3d37 1e3d 6fa5 80bd 0663 c83d
00000310: 9f4c aa3d 69c6 313c e522 0fbe 157a 14be
00000320: d8e8 d7bd 33a2 8a3c 937e c5bd 14f5 a7bd
00000330: 0066 d4bd e8a9 e93d f2ed ae3d e81c 983c
00000340: e8e5 c53d 7238 a83d a591 b33d 1dea 533d
00000350: 2d96 1b3d 2299 12be 3f3d bd3d 3ae4 8abd
00000360: 220b e6bd 2908 97bd 1802 bd3b e1fc 4bbc
00000370: 8549 c83d 30c3 ba3d deb6 fdbd 9d0e 5ebd
00000380: 9b67 ac3d 958e 0b3e 1ea9 04be 5c9a fabd
00000390: 9f1d 063c 41de 013e 6312 323c 8d86 ae3d
000003a0: 2aed b23d 5e83 be3d 1669 d03d d358 f9bd
000003b0: 29de 9cbd 81bc 8a3d fcfe fbbd f807 a1bd
000003c0: a164 883c 6354 8c3c e584 443d eaf3 08bc
000003d0: 1654 cc3b 14b5 f83d d21d bd3d d0b7 a8bd
000003e0: c7ea bd3d d453 81bd f58b 873d e0e6 00be
000003f0: 04f7 47bd f054 a63d 39ba 123c d342 45bd

down_blocks.2.conv2.bias f4 [16]
-2.9101444e-05 -0.00024285524 0.0007480964 -0.00059659185 -0.00048065154 -7.483552e-05 0.0004583479 -0.00037818812
7.5517484e-05 -0.00021511425 -0.000116253854 0.00042431944 -0.0003786519 -0.00016941625 -0.0005552146 -0.0007393358
00000000: e01e f4b7 f5a6 7eb9 e61b 443a 9a64 1cba
00000010: f5ff fbb9 04f1 9cb8 6a4e f039 8d47 c6b9
00000020: 245f 9e38 4b90 61b9 50cd f3b8 3177 de39
00000030: cc85 c6b9 54a5 31b9 d28b 11ba fccf 41ba

down_blocks.2.norm1.weight f4 [16]
1.0023364 0.9972672 1.0003225 0.9998791 1.0015624 0.999631 0.9994085 0.99931335
1.0009604 1.0005645 1.0010234 0.9983708 0.9990344 0.9998713 1.0006495 0.99978954
00000000: 8f4c 803f e74c 7f3f 910a 803f 14f8 7f3f
00000010: 3233 803f d1e7 7f3f 3cd9 7f3f 00d3 7f3f
00000020: 781f 803f 7f12 803f 8921 803f 3b95 7f3f
00000030: b8c0 7f3f 91f7 7f3f 4815 803f 35f2 7f3f

down_blocks.2.norm1.bias f4 [16]
-6.0125047e-05 7.485777e-06 -0.00030757915 0.00044631463 2.578606e-05 0.00047491616 0.00023947447 0.0003089376
-0.0008676753 -0.00030838288 -3.6508038e-05 0.0007602492 0.00018811351 -0.00021074654 -4.199863e-05 -0.0006157988
00000000: c72e 7cb8 562e fb36 9342 a1b9 56ff e939
00000010: 244f d837 2bfe f839 701b 7b39 e7f8 a139
00000020: b474 63ba 73ae a1b9 3520 19b8 764b 473a
00000030: 5640 4539 d8fb 5cb9 b027 30b8 8f6d 21ba

down_blocks.2.norm1.running_mean f4 [16]
0.1893124 0.5174602 0.21745306 0.4053805 0.2447817 0.20420426 0.1418281 0.26716244
0.29318628 0.5696942 0.58889186 0.116109945 0.23712651 0.17250223 0.14011544 0.40563473
00000000: 1cdb 413e 4678 043f 04ac 5e3e 088e cf3e
00000010: 0ea8 7a3e ec1a 513e 633b 113e 84c9 883e
00000020: 831c 963e 7bd7 113f 9ec1 163f 0dcb ed3d
00000030: 4bd1 723e 6da4 303e 6c7a 0f3e 5baf cf3e

down_blocks.2.norm1.running_var f4 [16]
0.13559622 1.0294021 0.16003539 0.3833044 0.16544344 0.20806038 0.06361169 0.20873877
0.27846068 1.4772964 0.92069185 0.085352495 0.19387293 0.13894488 0.08658607 0.36619842
00000000: bcd9 0a3e 73c3 833f 51e0 233e 7940 c43e
00000010: 016a 293e c80d 553e d946 823d 9ebf 553e
00000020: 6692 8e3e 0c18 bd3f 76b2 6b3f 4acd ae3d
00000030: a086 463e 9147 0e3e 0a54 b13d 5c7e bb3e

down_blocks.2.norm2.weight f4 [16]
1.0001127 0.99989575 1.0002077 1.0002809 1.0005798 0.99954206 0.9978669 1.0005826
0.99945 0.99847215 1.00044 0.9998942 1.001022 0.9996702 1.0025905 1.0001637
00000000: b103 803f 2bf9 7f3f ce06 803f 3409 803f
00000010: 0013 803f fde1 7f3f 3574 7f3f 1713 803f
00000020: f5db 7f3f df9b 7f3f 6b0e 803f 11f9 7f3f
00000030: 7d21 803f 63ea 7f3f e354 803f 5d05 803f

down_blocks.2.norm2.bias f4 [16]
-0.0010212659 -0.00023154564 0.0006607648 -0.0003540351 -7.781096e-05 -0.00032468987 0.00019523212 -0.00025042138
0.00013982286 -0.00035287262 5.5160675e-05 -4.1290208e-05 -0.00029514875 -0.00020651489 -1.34514885e-05 -0.00073658174
00000000: ffdb 85ba 0fcb 72b9 2d37 2d3a c99d b9b9
00000010: 712e a3b8 233b aab9 39b7 4c39 fd4a 83b9
00000020: 6a9d 1239 c301 b9b9 535c 6738 062f 2db8
00000030: 32be 9ab9 eb8b 58b9 b4ad 61b7 2a17 41ba

down_blocks.2.norm2.running_mean f4 [16]
0.36899135 0.41120413 0.32244873 0.36084828 0.31273594 0.46725196 0.39659762 0.2789992
0.35914242 0.25780314 0.29690966 0.31787655 0.37336236 0.29039553 0.38378957 0.2904331
00000000: 6fec bc3e 5989 d23e 0018 a53e 1bc1 b83e
00000010: ed1e a03e a63b ef3e d80e cb3e fcd8 8e3e
00000020: 84e1 b73e c6fe 833e 8b04 983e b7c0 a23e
00000030: 5a29 bf3e b9ae 943e 1180 c43e a6b3 943e

down_blocks.2.norm2.running_var f4 [16]
0.32172754 0.5940395 0.33726323 0.33306336 0.32714054 0.5108236 0.2631048 0.29229382
0.3047777 0.15448314 0.26194897 0.32190397 0.34756565 0.35294616 0.4601573 0.35841292
00000000: 79b9 a43e f912 183f c4ad ac3e 4887 aa3e
00000010: f77e a73e 56c5 023f acb5 863e 89a7 953e
00000020: d30b 9c3e d430 1e3e 2d1e 863e 99d0 a43e
00000030: 20f4 b13e 5cb5 b43e bd99 eb3e e681 b73e

down_blocks.3.conv1.weight f4 [32, 16, 3, 3]
0.03830785 -0.10372025 -0.08371634 0.026425542 0.09740937 0.016952232 -0.11491839 0.09618259
-0.09834279 -0.07545589 0.09578711 -0.028158484 0.09431899 -0.041980974 -0.044515975 -0.09384383
-0.078283384 0.09171393 -0.031838268 -0.089921825 0.014051591 -0.020569226 -0.09544345 -0.1023726
0.004638705 0.10640401 -0.025300434 0.048248377 0.0770335 -0.10781762 0.050923202 -0.06693424
0.030388422 0.022056364 0.081351854 0.06637537 -0.016274411 0.114648394 -0.06786732 -0.060793605
-0.019961154 0.00016961335 0.069533065 0.04614547 -0.003793472 -0.09006034 0.00242382 0.069776185
-0.114165746 -0.03971856 -0.09036454 0.116424054 -0.10624772 0.06414362 0.026299145 -0.00021750535
-0.05302374 -0.08302014 -0.047676392 -0.08118761 -0.0233186 0.0914004 -0.11500295 0.06006626
-0.020648919 0.0032517328 0.027049607 0.016010957 0.020171259 0.0033435123 -0.060234364 0.04041943
0.0950809 0.037185196 0.0793057 0.020079458 -0.09090563 -0.09663163 -0.040625755 0.03358374
0.09353901 0.03781575 -0.026974343 0.06644996 0.009094134 -0.065237015 -0.020774875 -0.095830105
-0.104843736 -0.08102869 0.06310725 -0.09354631 0.035185553 -0.08559421 -0.07073844 -0.022802742
-0.11623757 0.013794553 0.08377824 0.042531557 0.109131955 -0.11066011 -0.014081319 0.029190522
0.06480873 -0.07064906 0.054520253 -0.014846705 0.035132766 0.054900758 0.08102238 0.009561714
0.01092006 0.094690725 -0.047363665 0.03277251 0.10414532 -0.0501053 0.036670867 0.049573414
0.06453005 0.11290029 0.11067586 -0.029248161 0.015254101 0.09564828 -0.07139613 0.061338015
0.014719887 -0.10830343 0.026052022 -0.08443646 0.07267635 0.03079563 0.06438583 0.07783325
-0.041195046 -0.029777251 -0.0051885378 0.016633885 -0.088616185 0.0056713247 -0.08644515 0.10374226
0.012296782 -0.056707237 0.03152423 -0.117181115 -0.06920698 -0.022365846 -0.0014413986 0.09409063
-0.065900415 -0.11438464 -0.0019847213 -0.049963407 -0.030148257 -0.08293036 -0.03584503 0.06512136
0.026199728 0.04401542 0.11536431 -0.0770236 -0.06924576 0.05872737 0.045713652 -0.053985752
0.06634607 -0.110227674 0.081188135 -0.052574847 -0.022262115 0.024960648 -0.027665362 -0.06562737
0.056065463 -0.091721945 -0.031451005 -0.091166936 -0.022461483 -0.057409585 -0.024977155 0.019915605
0.02253119 0.09961377 0.068381846 -0.082063586 0.007877325 0.055069003 0.0681261 0.038627632
0.0217522 -0.11698659 0.041398134 0.02014535 -0.0367991 -0.023400962 0.08836636 0.07405426
-0.021747071 -0.075141795 0.035322715 -0.10313605 0.022825481 -0.071851045 -0.07751603 0.044739474
-0.020286791 -0.04990044 0.05902145 0.012469169 0.036370408 0.08753426 -0.11130784 -0.09540232
0.10876854 -0.078113556 0.04481574 -0.09748598 0.035000946 0.08404195 0.01109683 0.028667396
-0.085768424 0.03819914 0.08425708 0.078708164 0.10418766 -0.02685598 0.0770011 0.0924142
-0.110229984 0.02179743 0.04938544 -0.11529461 0.09989845 0.02807301 0.009626489 0.06802214
-0.0434974 -0.033304814 -0.09640971 -0.1183245 -0.105291635 -0.09389246 -0.10833486 0.026742186
0.113190204 0.012129178 -0.061275557 -0.10642669 -0.10960066 -0.05038355 -0.103665166 0.075440764
00000000: b1e8 1c3d 486b d4bd 7973 abbd 617a d83c
00000010: 907e c73d 68df 8a3c 555a ebbd 61fb c43d
00000020: f267 c9bd 9e88 9abd 082c c43d 9fac e6bc
00000030: 512a c13d 3ef4 2bbd 6256 36bd 3231 c0bd
00000040: 0a53 a0bd 83d4 bb3d d868 02bd ef28 b8bd
00000050: a538 663c cb80 a8bc db77 c3bd baa8 d1bd
00000060: 4700 983b 58ea d93d db42 cfbc 17a0 453d
00000070: bdc3 9d3d 7ccf dcbd d994 503d d214 89bd
00000080: 24f1 f83c 8caf b43c cd9b a63d cfef 873d
00000090: ea51 85bc c7cc ea3d 05fe 8abd b702 79bd
000000a0: 9385 a3bc 3dda 3139 5a67 8e3d 0803 3d3d
000000b0: e69b 78bb 8e71 b8bd f4d8 1e3b d1e6 8e3d
000000c0: bbcf e9bd eeaf 22bd 0b11 b9bd bc6f ee3d
000000d0: 6898 d9bd bb5d 833d 4e71 d73c 2612 64b9
000000e0: 6c2f 59bd 7706 aabd 5248 43bd b145 a6bd
000000f0: a606 bfbc 2230 bb3d ab86 ebbd 0a08 763d
00000100: ec27 a9bc 061b 553b 2397 dd3c 6929 833c
00000110: 323e a53c d41e 5b3b 4fb8 76bd d88e 253d
00000120: c6b9 c23d 814f 183d 076b a23d ad7d a43c
00000130: bb2c babd cee6 c5bd 3167 26bd 1b8f 093d
00000140: 6191 bf3d b0e4 1a3d 4cf9 dcbc eb16 883d
00000150: 90ff 143c fc9a 85bd 1230 aabc 9342 c4bd
00000160: 50b8 d6bd 5ff2 a5bd 603e 813d 3595 bfbd
00000170: ba1e 103d 044c afbd 51df 90bd d1cc babc
00000180: f70d eebd 8c02 623c ed93 ab3d 9235 2e3d
00000190: 9380 df3d c5a1 e2bd 55b5 66bc f620 ef3c
000001a0: 70ba 843d 74b0 90bd a150 5f3d 983f 73bc
000001b0: 60e7 0f3d 9edf 603d 10ef a53d bca8 1c3c
000001c0: 0dea 323c 36ed c13d 6700 42bd 783c 063d
000001d0: 244a d53d 373b 4dbd 3134 163d 7e0d 4b3d
000001e0: 5528 843d 4438 e73d 06aa e23d d799 efbc
000001f0: 56ec 793c 3fe3 c33d 2238 92bd 923d 7b3d
00000200: ae2b 713c 30ce ddbd 0d6b d53c 06ed acbd
00000210: 57d7 943d 1e47 fc3c b8dc 833d 0a67 9f3d
00000220: 23bc 28bd 6cef f3bc 9c04 aabb c943 883c
00000230: 677c b5bd 85d6 b93b 280a b1bd d276 d43d
00000240: 7178 493c d945 68bd 8d1f 013d a7fc efbd
00000250: 64bc 8dbd 9438 b7bc 50ed bcba 97b2 c03d
00000260: ccf6 86bd 7e42 eabd 1912 02bb 6ea6 4cbd
00000270: 7af9 f6bc 65d7 a9bd 3dd2 12bd 595e 853d
00000280: d0a0 d63c 8349 343d 2044 ec3d 8dbe 9dbd
00000290: b9d0 8dbd 1c8c 703d 3d3e 3b3d 2a20 5dbd
000002a0: 73e0 873d 0cbf e1bd f745 a63d b958 57bd
000002b0: 0a5f b6bc 467a cc3c 78a2 e2bc a467 86bd
000002c0: e6a4 653d b7d8 bbbd c5d2 00bd bbb5 babd
000002d0: 2501 b8bc 5026 6bbd e49c ccbc 0d26 a33c
000002e0: 5593 b83c 4e02 cc3d c80b 8c3d f410 a8bd
000002f0: e50f 013c 0990 613d b285 8b3d 0238 1e3d
00000300: ab31 b23c aa96 efbd 1791 293d dc07 a53c
00000310: a7ba 16bd 60b3 bfbc 6cf9 b43d c3a9 973d
00000320: ea26 b2bc f1e3 99bd 8dae 103d fe38 d3bd
00000330: 81fc ba3c a426 93bd b9c0 9ebd bd40 373d
00000340: 7c30 a6bc 6764 4cbd 7ac0 713d 7c4b 4c3c
00000350: 23f9 143d 2945 b33d 5df5 e3bd 4b62 c3bd
00000360: 0ac2 de3d 00fa 9fbd b690 373d bba6 c7bd
00000370: 275d 0f3d 301e ac3d 7acf 353c e3d7 ea3c
00000380: 5ba7 afbd b476 1c3d fa8e ac3d bf31 a13d
00000390: 5760 d53d 1201 dcbc c1b2 9d3d a843 bd3d
000003a0: 42c0 e1bd 8690 b23c 6348 4a3d 951f ecbd
000003b0: 8f97 cc3d 5ef9 e53c 6cb8 1d3c 314f 8b3d
000003c0: 542a 32bd a16a 08bd 7472 c5bd 1e54 f2bd
000003d0: 24a3 d7bd b14a c0bd abde ddbd 6e12 db3c
000003e0: 44d0 e73d 76b9 463c 14fc 7abd 3df6 d9bd
000003f0: 5076 e0bd fb5e 4ebd 674e d4bd b080 9a3d

down_blocks.3.conv1.bias f4 [32]
0.00015516521 3.8001697e-06 0.00011626563 2.0848584e-05 -2.0199417e-05 -2.3273169e-05 0.00015501892 2.4219413e-05
-0.00022183312 -0.00018671865 3.3477376e-05 -3.1102707e-05 -0.0005062833 0.00022471417 -0.00037434834 -0.00027921767
0.00027227975 -0.00012457518 -0.00032110745 -0.000161557 1.4961261e-05 3.954847e-05 0.00020952424 -3.5468078e-05
-4.734086e-05 -0.00012910589 -0.00018476062 -0.00013217 -2.511204e-05 0.0002856012 -3.351418e-05 -6.766821e-05
00000000: d8b3 2239 6b06 7f36 a3d3 f338 fee3 ae37
00000010: eb71 a9b7 c03a c3b7 938c 2239 cb2a cb37
00000020: e09b 68b9 e8c9 43b9 0f6a 0c38 4774 02b8
00000030: 19b8 04ba 40a1 6b39 2f44 c4b9 f663 92b9
00000040: c5c0 8e39 65a0 02b9 505a a8b9 a167 29b9
00000050: 2002 7b37 d9e0 2538 bcb3 5b39 8fc3 14b8
00000060: dd8f 46b8 9960 07b9 4dbc 41b9 1d97 0ab9
00000070: b2a7 d2b7 bfbc 9539 9491 0cb8 18e9 8db8
