Models/e304b54a-d253-48d2-819a-5cd3139fd2de.pt (torch, 167363 bytes, 110 tensors)

conv_final.weight f4 [2, 4, 1, 1]
0	0xbf84d1fa	-1.037658
1	0x3f2aefd6	0.6677221
2	0xbef32a1c	-0.47493064
3	0xbf1e2323	-0.61772364
4	0x3f0ec706	0.55772436
5	0x3f736fa2	0.95092213
6	0xbed4396f	-0.41450068
7	0x3f51097c	0.81655097

conv_final.bias f4 [2]
0	0x3f8fca56	1.1233623
1	0xbf8fca54	-1.1233621

down_blocks.0.conv1.weight f4 [4, 9, 3, 3]
0	0x3e5f9f48	0.21838105
1	0x3d7cd371	0.061725084
2	0x3e766ddd	0.24065347
3	0x3e0c12b9	0.13679017
4	0x3d9a5f9f	0.075377695
5	0x3d0721a8	0.03299108
6	0x3e3b72ab	0.18305461
7	0xbe05a9e2	-0.13053086
8	0x3e6b9835	0.23007281
9	0x3e03e8ff	0.1288185
10	0x3c1bb59e	0.00950375
11	0xbc44cd0c	-0.012011778
12	0x3e09d47a	0.1345996
13	0xbd7638a0	-0.060112596
14	0xbe210464	-0.15724331
15	0x3c651294	0.01398148
16	0xbdbd9f1d	-0.09258864
17	0x3e67792f	0.22604822
18	0x3e2a9c15	0.16661103
19	0x3e023e9d	0.12719198
20	0xbe25231c	-0.16126674
21	0x3d8bd87f	0.06828403
22	0x3e054e35	0.13018115
23	0xbe304f3c	-0.17217726
24	0xba324ead	-0.0006801885
25	0x3d7ee110	0.062226355
26	0x3db68643	0.08912327
27	0x3e0e2e71	0.13884903
28	0xbb2834a4	-0.0025666142
29	0xbe2c11a7	-0.16803609
30	0x3daf6b68	0.08565408
31	0xbe39fd37	-0.18163
32	0xbe111dbe	-0.14171502
33	0xbe3a7b88	-0.18211186
34	0x3d428919	0.047494028
35	0x3e791797	0.24325405
36	0xbd97ccd8	-0.07412118
37	0xbd86ae22	-0.06576182
38	0x3e3a6803	0.1820374
39	0x3e60492b	0.21902911
40	0xbdd761cb	-0.105166994
41	0x3e40984b	0.18808095
42	0x3e0683bb	0.13136189
43	0x3e222dbd	0.1583776
44	0x3e14162b	0.14461581
45	0xbe437d07	-0.19090663
46	0xbccd0a65	-0.02502937
47	0xbd2b2e1a	-0.041792013
48	0x3cda5a13	0.026654279
49	0x3e080c20	0.13285875
50	0xbde1d724	-0.11027363
51	0xbe82237a	-0.2541769
52	0xbe689466	-0.2271286
53	0xbe5c24a7	-0.21498357
54	0xbe84b4a6	-0.25919074
55	0x3df3a59a	0.1189682
56	0xbe03602d	-0.12829657
57	0x3e19b57d	0.15010639
58	0xbe84e86f	-0.25958583
59	0xbe0b2eb8	-0.1359204
60	0xbd1b0be3	-0.037853133
61	0x3d69c53b	0.05707286
62	0xbe41cd79	-0.18926038
63	0xbcaf9d3d	-0.021437282
64	0x3de9a22f	0.11407887
65	0x3d9b8944	0.07594541
66	0xbe328c00	-0.17436218
67	0xbd7606ca	-0.06006507
68	0xbdb968c3	-0.09053185
69	0x3e1b27c6	0.15151891
70	0xbdef69a4	-0.11690071
71	0x3dd4ebcc	0.10396537
72	0xbcb7073e	-0.02234232
73	0xbdc4a370	-0.09601486
74	0x3d60af46	0.054854654
75	0xbd65bf44	-0.05609061
76	0x3d9d2e23	0.076748155
77	0xbe045eef	-0.1292684
78	0xbdf158ee	-0.1178454
79	0x3e2788c9	0.16360773
80	0x3dc38cb9	0.09548325
81	0x3e347dbf	0.17626093
82	0x3cc95b31	0.024579616
83	0x3e119030	0.1421516
84	0x3e0f7674	0.1401003
85	0xbd970f8b	-0.073760115
86	0xbd6a4496	-0.057194315
87	0x3e63f593	0.22261648
88	0x3e4e744b	0.2016155
89	0x3e24eedd	0.16106744
90	0xbe48c757	-0.19607292
91	0xbd278eb4	-0.040907577
92	0xbbe04d64	-0.006845163
93	0x3d5c5b67	0.053798106
94	0xbc19352b	-0.009351055
95	0xbdc32a2d	-0.09529529
96	0xbd655c76	-0.05599638
97	0x3e205e3a	0.15660945
98	0x3e387bfb	0.18016045
99	0x3d7d2e49	0.06181172
100	0x3e570097	0.20996319
101	0xbdea7a10	-0.11449063
102	0x3e0ff499	0.1405815
103	0xbd08e6db	-0.033423286
104	0xbd0aea95	-0.03391512
105	0xbe374a50	-0.17899442
106	0xbe05349d	-0.13008352
107	0x3e0ee4f6	0.13954529
108	0x3e0be85d	0.13662858
109	0x3e4709ca	0.19437328
110	0x3e29a024	0.16564995
111	0x3df45494	0.119301945
112	0x3e648ade	0.22318599
113	0xbd1c9d0a	-0.0382357
114	0xbd8cdaf4	-0.068776995
115	0x3deafc5a	0.114739135
116	0x3e50936a	0.20368734
117	0xbd677094	-0.056503847
118	0xbdad581c	-0.08464071
119	0x3d3ce144	0.046113268
120	0xbda6aca1	-0.08138395
121	0xbd5cef1f	-0.05393898
122	0xbe527ae9	-0.20554699
123	0x3e465f23	0.1937223
124	0xbe08cde4	-0.13359791
125	0x3db195c0	0.08671141
126	0xbdeffb9e	-0.11717914
127	0x3e28f82a	0.16500917
128	0x3d5f58b8	0.05452797
129	0xbda2f4a6	-0.07956819
130	0x3e6ab3d5	0.22920163
131	0xbdcfdd64	-0.10149649
132	0x3e487fdf	0.19580029
133	0xbe3401bd	-0.17578788
134	0xbe0063eb	-0.12538116
135	0x3d499b87	0.049220588
136	0x3da7e06e	0.081971034
137	0x3d1a8597	0.037725057
138	0xbd9e3539	-0.07724995
139	0xbe197475	-0.14985831
140	0x3d58e49b	0.05295239
141	0x3dc2a102	0.09503366
142	0x3d53cf57	0.051711407
143	0x3d90043a	0.07032056
144	0x3df56c21	0.119835146
145	0x3d20d1df	0.03926265
146	0xbe4103ce	-0.18849108
147	0x3e07ac5c	0.13249344
148	0x3e6861c6	0.22693548
149	0xbd036b1e	-0.032084577
150	0x3c50f3bd	0.012753424
151	0x3e636a33	0.2220848
152	0xbd9b9fd5	-0.07598845
153	0x3e714d8b	0.23564737
154	0xbcc3bed6	-0.023894709
155	0xbdf58cde	-0.11989759
156	0xbdb978be	-0.09056233
157	0x3dbfa374	0.09357348
158	0xbdf725eb	-0.12067779
159	0x3d4720c9	0.04861525
160	0xbe274341	-0.16334249
161	0xbe325577	-0.17415415
162	0x3dfe7a3c	0.12425658
163	0x3b9c46b8	0.0047691725
164	0x3e0b1767	0.13583146
165	0x3dbc5afa	0.0919704
166	0x3e05c0b7	0.13061796
167	0x3e4bf65a	0.19918194
168	0xbe47de36	-0.1951836
169	0x3e0caea0	0.13738489
170	0x3e2e27d7	0.17007385
171	0x3dcba14a	0.09942873
172	0x3d94d893	0.07267871
173	0x3e3740b8	0.17895782
174	0xbd028fa4	-0.031875268
175	0x3d629dd9	0.055326317
176	0x3e21fb10	0.15818429
177	0x3e36c811	0.17849757
178	0x3e4b1f17	0.19836079
179	0x3bcb8b99	0.0062117097
180	0x3e33da8f	0.17563842
181	0xbd7221c4	-0.059114233
182	0x3b10856b	0.002205218
183	0xbe1f7d1f	-0.15575074
184	0x3e01c53c	0.12672895
185	0x3e06132b	0.1309325
186	0x3ded04d3	0.11573186
187	0xbd6badbb	-0.05753873
188	0x3e5a35a3	0.21309523
189	0x3d1e73ff	0.03868484
190	0x3da72a63	0.081623815
191	0x3e258048	0.16162217
192	0xbe129b0d	-0.1431696
193	0x3e60083b	0.2187814
194	0xbe45d1cd	-0.19318314
195	0x3e04b9ca	0.12961498
196	0x3e51429e	0.20435569
197	0x3c89aabe	0.016805049
198	0xbe5f980d	-0.21835347
199	0x3e119603	0.14217381
200	0xbe336564	-0.17519146
201	0xbdec4bb9	-0.115378805
202	0x3dbf4bd0	0.09340632
203	0xbcfcbffd	-0.030853266
204	0xbc453a8c	-0.012037884
205	0xbdea226a	-0.11432345
206	0xbe54d79d	-0.20785375
207	0xbe775ed5	-0.2415727
208	0x3d91181e	0.07084678
209	0x3ddbfd65	0.107416905
210	0xbc657015	-0.014003773
211	0xbe2cc672	-0.16872576
212	0x3de7c182	0.113162056
213	0xbe598f02	-0.2124596
214	0xbe0d186f	-0.13778852
215	0x3ddaafad	0.10678039
216	0xbbb09299	-0.0053885696
217	0xbe28cc06	-0.16484079
218	0xbdba8767	-0.09107857
219	0x3e0c7c61	0.13719322
220	0xbe81e06a	-0.25366527
221	0xbe399bee	-0.18125889
222	0xbdbcf44c	-0.092262834
223	0x3d1ec9cd	0.03876667
224	0x3d8fa4e9	0.07013876
225	0xbe24ad0d	-0.16081639
226	0xbe0d1802	-0.1377869
227	0x3d019cae	0.031643562
228	0xbe00acdb	-0.12565939
229	0xbe4bf6e3	-0.19918399
230	0xbe57356b	-0.21016471
231	0xbe458eca	-0.19292751
232	0x3d950314	0.07275978
233	0x3e141313	0.14460401
234	0xbe00c005	-0.1257325
235	0x3e1842e5	0.14869268
236	0x3e307dfd	0.1723556
237	0x3db2a9d1	0.08723796
238	0x3d440ce5	0.04786386
239	0x3ddde17e	0.10834025
240	0x3da5d5a4	0.08097389
241	0x3dafe287	0.085881285
242	0xbc03ad96	-0.008036992
243	0x3e24f554	0.1610921
244	0x3e4d2e71	0.20037247
245	0xbdc8e97c	-0.098101586
246	0x3e4dd17a	0.2009944
247	0x3d6a8d78	0.05726382
248	0x3cb4921e	0.02204233
249	0xbe47bc5a	-0.19505444
250	0x3dc4c55f	0.09607958
251	0x3e50ed08	0.2040292
252	0x3d53b31f	0.051684495
253	0x3d65b8ae	0.056084327
254	0xbdd921e2	-0.10602166
255	0x3d9b3063	0.075775884

down_blocks.0.conv1.bias f4 [4]
0	0x3c0d29ca	0.00861592
1	0x3b52f721	0.0032190757
2	0xbcc800c9	-0.024414437
3	0x3bfe7e09	0.0077664894

down_blocks.0.conv2.weight f4 [4, 4, 3, 3]
0	0x3ddc75c7	0.10764652
1	0xbe0a95c4	-0.13533694
2	0x3e953ad3	0.29146442
3	0x3e3a4920	0.18191957
4	0x3daf89dc	0.085712165
5	0x3e03de56	0.12877783
6	0xbd12a7f9	-0.035804722
7	0x3db2dc60	0.087334394
8	0x3db906e0	0.090345144
9	0x3d832f55	0.06405512
10	0x3de42b91	0.11141122
11	0x3d8d4333	0.06897583
12	0xbe3fc548	-0.187276
13	0xbe688c18	-0.22709692
14	0x3da1395f	0.07872271
15	0x3e81a750	0.25322962
16	0x3cf92da3	0.03041727
17	0xbb6fc39b	-0.0036585096
18	0x3d04f8c3	0.0324638
19	0xbe196798	-0.14980924
20	0x3e8747a6	0.2642185
21	0x3e581d27	0.2110487
22	0x3c5e84b8	0.013581447
23	0x3d26855e	0.040654533
24	0x3e1e4c7c	0.15458864
25	0x3e1ac87e	0.15115544
26	0x3e147ee2	0.14501527
27	0x3e8583ff	0.26077268
28	0xbe745fbf	-0.23864649
29	0x3e416a18	0.18888128
30	0x3e52b514	0.20576888
31	0x3e7e0470	0.2480638
32	0xbdfad612	-0.12247862
33	0x3df7b5d7	0.1209523
34	0x3e91c19b	0.28468022
35	0x3e78f8d2	0.24313667
36	0xbe85bf54	-0.26122534
37	0xbe8e229a	-0.27760774
38	0xbddf3bee	-0.109001026
39	0xbd84d84a	-0.06486566
40	0xbd82f068	-0.0639351
41	0xbe8e942d	-0.27847424
42	0xbe29487e	-0.1653156
43	0x3e7f7c70	0.24949813
44	0xbcc09ac2	-0.023511294
45	0xbe2556b3	-0.16146354
46	0x3e71a62e	0.23598549
47	0xbb76c23b	-0.0037652391
48	0xbe5f4f98	-0.21807706
49	0xbde2d5af	-0.11075913
50	0x3ddd9cd1	0.10820926
51	0xbe218b84	-0.15775877
52	0xbe4c8d86	-0.19975862
53	0x3ddd6f4a	0.10812242
54	0x3da624c9	0.08112485
55	0xbe575118	-0.21027029
56	0x3d91586c	0.07096943
57	0xbe6db1cd	-0.23212357
58	0xbe9d9b56	-0.30782574
59	0x3e41807d	0.1889667
60	0x3cbc0e86	0.022956144
61	0x3cbfef22	0.023429457
62	0x3d84c89e	0.06483577
63	0x3e4fa442	0.20277503
64	0x3cc7266d	0.024310315
65	0x3e660382	0.22462276
66	0xbe184347	-0.14869414
67	0xbea1e580	-0.31620407
68	0x3bc819da	0.0061065974
69	0x3e560fa2	0.20904401
70	0x3de70964	0.11281088
71	0xbe52fbb0	-0.20603824
72	0xbdf5c15c	-0.11999771
73	0x3d74a936	0.059731685
74	0xbe851e85	-0.25999847
75	0x3d3625fc	0.04446982
76	0x3e3c7cd4	0.18406993
77	0x3d23c1fb	0.039979916
78	0xbe0e6453	-0.13905458
79	0xbe3f38eb	-0.18674056
80	0x3e6ef1c3	0.23334412
81	0x3e280873	0.16409473
82	0x3d653ec1	0.05596805
83	0x3e287bab	0.16453426
84	0x3e663195	0.22479852
85	0xbd009a44	-0.03139712
86	0x3d642686	0.0557008
87	0xbe6bdd98	-0.2303375
88	0x3e2058fd	0.15658946
89	0xbd135eb5	-0.03597899
90	0x3bc10eb1	0.005891644
91	0xbd8846b0	-0.066541076
92	0xbe70e041	-0.23523046
93	0x3dd50771	0.1040181
94	0xbe0aaffc	-0.13543695
95	0xbe4ffa48	-0.20310318
96	0xbb687fb1	-0.00354765
97	0xbe8a4079	-0.27002314
98	0xbd868ee9	-0.06570227
99	0xbe2840e0	-0.16430998
100	0x3e3e5021	0.18585254
101	0x3d40ef65	0.047103304
102	0xbb4461d4	-0.0029965537
103	0x3e7576ba	0.23971072
104	0x3e9e0bec	0.3086847
105	0x3e2ddac5	0.16977985
106	0x3d9efab9	0.07762665
107	0x3e346768	0.17617571
108	0x3e99e683	0.3005868
109	0x3e4a92be	0.1978254
110	0x3d883d95	0.06652371
111	0xbc6609a7	-0.014040387
112	0x3d1f2c40	0.03886056
113	0x3e541327	0.20710431
114	0xbe1818b0	-0.14853168
115	0xbda4c0de	-0.08044599
116	0x3e006778	0.1253947
117	0x3e896b0f	0.26839492
118	0xbe15da8c	-0.1463415
119	0xbe387961	-0.18015052
120	0xbe17016d	-0.14746638
121	0x3d8c31df	0.0684545
122	0xbcd8e3a1	-0.02647573
123	0x3dd5273b	0.10407873
124	0x3d749081	0.059708122
125	0xbdb70b7a	-0.08937736
126	0x3e9a0abe	0.3008632
127	0x3e626aac	0.22111005
128	0x3e78cf9c	0.24297947
129	0xbe5130af	-0.20428728
130	0xbe169580	-0.14705467
131	0x3d85a6b8	0.0652594
132	0xbe8309b8	-0.25593352
133	0x3e384b49	0.17997469
134	0xbe4b8f93	-0.19878988
135	0xbe802fdd	-0.25036517
136	0x3e85029a	0.25978547
137	0x3e317834	0.1733101
138	0x3d816e96	0.06319921
139	0x3dc1a490	0.09455216
140	0xbe1a0891	-0.1504233
141	0xbe84fae9	-0.2597268
142	0x3df70f06	0.12063412
143	0xbcce93a8	-0.025216892

down_blocks.0.conv2.bias f4 [4]
0	0x392dd467	0.00016577692
1	0x3c6928e9	0.014230945
2	0x3ccf535f	0.02530831
3	0xbc09013e	-0.008362113

down_blocks.0.norm1.weight f4 [4]
0	0x3f832013	1.0244163
1	0x3f7ba238	0.982944
2	0x3f763358	0.96172094
3	0x3f83999d	1.0281254

down_blocks.0.norm1.bias f4 [4]
0	0xbc828f2d	-0.015937412
1	0x3c2179aa	0.009855667
2	0xbcdcb03b	-0.026939502
3	0x3cc31efb	0.023818484

down_blocks.0.norm1.running_mean f4 [4]
0	0x3d1926ee	0.037390642
1	0x3f2b045f	0.66803545
2	0x3d29b2b0	0.041430175
3	0x3f39232b	0.7231929

down_blocks.0.norm1.running_var f4 [4]
0	0x3cabfd4d	0.020994807
1	0x3d2f1e55	0.042753536
2	0x3ccfae5e	0.0253517
3	0x3d1d4bf0	0.038402498

down_blocks.0.norm2.weight f4 [4]
0	0x3f83fb67	1.0311097
1	0x3f7f9a0a	0.9984442
2	0x3f82202d	1.0166069
3	0x3f863f50	1.0488071

down_blocks.0.norm2.bias f4 [4]
0	0xbcbe4804	-0.0232277
1	0x3cfe1dd0	0.031020075
2	0x3d123a61	0.035700206
3	0xbc58d9c8	-0.013235517

down_blocks.0.norm2.running_mean f4 [4]
0	0x3f184c62	0.5949155
1	0x3eb525d3	0.3538042
2	0x3effaf2d	0.49938336
3	0x3e2e75de	0.1703715

down_blocks.0.norm2.running_var f4 [4]
0	0x4048b3dd	3.135978
1	0x3e0918de	0.13388392
2	0x3ebfe0a0	0.37476063
3	0x3f272864	0.65296006

down_blocks.1.conv1.weight f4 [8, 4, 3, 3]
0	0x3e6cb427	0.23115598
1	0x3e007cf1	0.12547661
2	0xbd971bf1	-0.07378376
3	0xbd5085b1	-0.050908748
4	0xbe0f37e9	-0.13986172
5	0x3e19989c	0.14999622
6	0x3e645e28	0.22301543
7	0xbd9735d5	-0.073833145
8	0xbda91cfe	-0.08257483
9	0x3d3ed47c	0.04658936
10	0x3cae1a88	0.021252885
11	0xbdb0f811	-0.08641065
12	0xbe50f227	-0.20404874
13	0xbe21eaa8	-0.1581217
14	0xbe1760c8	-0.14783013
15	0x3d8cd685	0.06876854
16	0xbc80e26d	-0.015732968
17	0x3e316a68	0.17325747
18	0x3e1dc973	0.15408878
19	0xbe236aa4	-0.15958649
20	0xbd9bc9ee	-0.076068744
21	0xbdeb6334	-0.11493531
22	0x3e23d514	0.15999252
23	0x3da6e4f4	0.08149138
24	0xbd4eeffd	-0.05052184
25	0x3e2d9ac8	0.16953576
26	0x3e4c710a	0.19964996
27	0x3d9bd9b6	0.076098844
28	0xbe5b4127	-0.21411572
29	0x3e56bf8a	0.20971504
30	0x3cade130	0.021225542
31	0x3e5407c4	0.20706087
32	0xbd66987b	-0.05629776
33	0x3caca6f1	0.021075698
34	0xbdf5a135	-0.119936384
35	0x3e50b038	0.20379722
36	0x3e53cd91	0.20683886
37	0xbe223a06	-0.15842447
38	0x3e1cfbeb	0.15330474
39	0xbc84d25f	-0.016213594
40	0x3e3de2e8	0.18543589
41	0x3bc41f0b	0.005985146
42	0x3c8fd71b	0.017558625
43	0xbdbe0ee0	-0.09280181
44	0x3e0c7719	0.13717307
45	0x3d55d829	0.0522081
46	0xbcc695b1	-0.0242413
47	0x3dc030b8	0.09384292
48	0x3e5d8a68	0.21634829
49	0xbdf873fb	-0.121314965
50	0xbe33224e	-0.17493555
51	0xbe4a219a	-0.1973938
52	0xbe20693e	-0.15665147
53	0x3e4120e6	0.18860206
54	0xbe0bd098	-0.13653791
55	0x3e57d57c	0.21077532
56	0x3cdf576d	0.027263368
57	0x3e2854aa	0.16438547
58	0x3da4063b	0.08009001
59	0x3e0b21e3	0.13587146
60	0xbe159d13	-0.146107
61	0x3e61aa02	0.22037509
62	0x3e3db13d	0.18524642
63	0x3e6ea00e	0.23303244
64	0x3ce09733	0.027415847
65	0xbe6d5592	-0.23177174
66	0x3e17f974	0.14841253
67	0x3e602b4a	0.21891513
68	0x3ddbb837	0.107284956
69	0x3d4db641	0.05022264
70	0xbcef3aa0	-0.02920276
71	0x3e1650e4	0.14679295
72	0x3d8e3321	0.06943346
73	0xbe490bf2	-0.19633463
74	0x3d950216	0.072757885
75	0xbc6ec6bb	-0.014573748
76	0xbde9d290	-0.11417115
77	0xbe13eb27	-0.14445172
78	0xbb5cbecd	-0.0033683062
79	0xbe19367c	-0.1496219
80	0xbc840629	-0.016116219
81	0x3e285806	0.16439828
82	0xbd8587d0	-0.06520045
83	0x3e00d78f	0.12582229
84	0x3d458b89	0.048228774
85	0xbe24723e	-0.16059205
86	0xbb4de128	-0.003141472
87	0xba66da55	-0.0008806338
88	0xbd9a2e5f	-0.07528376
89	0x3ddf25c4	0.10895875
90	0xbde4b78e	-0.11167823
91	0xbe4bc84b	-0.19900624
92	0x3cd2a9a8	0.025715664
93	0x3d2f2007	0.042755153
94	0x3dad2e11	0.08456052
95	0x3e1dcbdd	0.15409799
96	0xbd265817	-0.040611353
97	0x3c32ab9a	0.010905171
98	0x3da39b27	0.07988577
99	0x3ddabb65	0.10680274
100	0xbdfea529	-0.124338455
101	0x3e378027	0.1791998
102	0x3e34fbc6	0.17674169
103	0x3e18d616	0.14925417
104	0xbe55c7e8	-0.2087704
105	0xbe1a09f7	-0.15042864
106	0xbdc63121	-0.09677339
107	0xbe348f2e	-0.17632744
108	0xbde2da4c	-0.11076793
109	0xbdf1a9e0	-0.11799979
110	0x3c58f7d0	0.013242677
111	0xbe30bee6	-0.17260322
112	0x3d0b394a	0.033990182
113	0x3e43e78b	0.19131295
114	0xbe0df329	-0.1386229
115	0xbcee7a78	-0.029111132
116	0x3e62b9eb	0.22141235
117	0x3d61ed1b	0.055157762
118	0x3e6dcb9d	0.23222204
119	0xbb0e9fca	-0.0021762722
120	0x3e253073	0.16131763
121	0x3e48ed37	0.1962174
122	0x3e46b882	0.19406322
123	0xbe6c0737	-0.23049627
124	0xba41a083	-0.0007386284
125	0xbe580240	-0.21094608
126	0x3e1f8017	0.15576206
127	0xbdb02e14	-0.08602539
128	0x3df588c4	0.119889766
129	0x3e3168f9	0.173252
130	0xbdf8faaf	-0.12157189
131	0xbe131c57	-0.1436628
132	0x3d949a42	0.07255985
133	0x3e5ec57c	0.21755022
134	0xbe650096	-0.22363505
135	0x3e2e6a32	0.17032698
136	0x3dc5c0cd	0.096559145
137	0xbd6958db	-0.056969505
138	0xbe5a5cf0	-0.21324515
139	0x3e5cc5ad	0.21559782
140	0xbbe1fe9c	-0.006896807
141	0x3d79612b	0.060883682
142	0x3e5e3621	0.21700336
143	0xbdbe0ffc	-0.092803925
144	0x3e39094e	0.18069956
145	0xbe3e15ee	-0.18563053
146	0x3d8816d8	0.06644982
147	0x3db19ed9	0.08672876
148	0x3d90b8dc	0.07066509
149	0xbc91fad4	-0.0178198
150	0x3b836e60	0.0040109605
151	0x3dd7e2b8	0.1054129
152	0xbd89f7fb	-0.06736752
153	0x3e3b000c	0.18261737
154	0xbd3d0271	-0.046144906
155	0x3e5ca121	0.21545841
156	0xbdc5a3f5	-0.09650413
157	0x3e6a8911	0.22903849
158	0xbe0fec1f	-0.14054917
159	0x3e24ec34	0.1610573
160	0xbd132c6e	-0.035931043
161	0xbd74b03e	-0.05973839
162	0xbce089b8	-0.02740942
163	0xbcb62f79	-0.022239434
164	0xbd155346	-0.03645637
165	0xbe220059	-0.15820445
166	0x3dbd5797	0.09245222
167	0x3d51d019	0.051223848
168	0x3c98de79	0.01866077
169	0x3e17def1	0.14831139
170	0x3d8288ba	0.06373735
171	0x3e2b4c55	0.16728337
172	0x3dc72cc5	0.09725336
173	0x3d49c595	0.049260695
174	0x3db1612e	0.08661114
175	0xbe217c6b	-0.15770118
176	0x3d9b06c9	0.075696535
177	0x3caf1e64	0.021376796
178	0xbe11cca8	-0.14238226
179	0xbe29e521	-0.16591312
180	0xbded76a0	-0.115948915
181	0xbe4feb91	-0.20304705
182	0x3de3f027	0.1112979
183	0xbe1c8a2d	-0.15287085
184	0x3e6ab5db	0.22920935
185	0x3e5ff4fa	0.21870795
186	0x3cb60da0	0.022223294
187	0x3e311807	0.17294322
188	0x3dc2d8fd	0.095140435
189	0xbd8cd96a	-0.06877406
190	0x3e1dceeb	0.15410964
191	0xbd90bfcc	-0.07067832
192	0x3e414a23	0.18875937
193	0xbe43ce65	-0.19121702
194	0x3e48f4a4	0.19624573
195	0xbd086e1a	-0.033308126
196	0xbe321e12	-0.17394283
197	0x3db02fe7	0.08602887
198	0xbdbf346a	-0.09336169
199	0xbdf65178	-0.12027258
200	0xbdf46812	-0.11933912
201	0x3e5d13da	0.21589604
202	0x3e545ed8	0.20739305
203	0xbcc9ce51	-0.024634512
204	0xbe19cee2	-0.15020326
205	0xbe5ff1a5	-0.21869524
206	0xbd4f1001	-0.050552372
207	0x3e616549	0.22011293
208	0x3dfccf91	0.12344278
209	0x3de748d3	0.11293187
210	0xbe4ef23b	-0.20209591
211	0x3e10e173	0.14148502
212	0x3e078e75	0.13237937
213	0x3d1ce262	0.038301833
214	0xbe05b618	-0.13057745
215	0xb9a811c8	-0.00032056705
216	0xbe3350e9	-0.17511334
217	0x3e695aad	0.22788496
218	0x3e5954eb	0.212238
219	0xbd3ffbed	-0.046871115
220	0x3dd351e4	0.10318354
221	0x3e37e3fd	0.17958064
222	0xbcabb4de	-0.020960268
223	0x3dc6e86d	0.097123004
224	0x3ddf1bd2	0.10893978
225	0x3dbde386	0.09271912
226	0x3dafecde	0.08590101
227	0x3e5cb917	0.21554981
228	0xbd115708	-0.03548339
229	0x3c639c1d	0.013892201
230	0xbcd57aef	-0.026059596
231	0x3db9c5a6	0.090709016
232	0x3df156a2	0.11784102
233	0x3d3b80f5	0.04577728
234	0x3d1d45f2	0.038396783
235	0xbdacbaef	-0.08434092
236	0x3dd5f792	0.10447611
237	0x3e477bee	0.19480869
238	0x3dcd86f6	0.100355074
239	0xbe103939	-0.14084329
240	0x3defa5ac	0.11701521
241	0xbe2ea30f	-0.1705439
242	0xbd464426	-0.048404835
243	0xbe44da02	-0.19223788
244	0x3e04b347	0.12959014
245	0x3e630dff	0.22173308
246	0x3df22ef0	0.11825359
247	0x3e6c079f	0.23049782
248	0x3dc10505	0.094247855
249	0xbe1c7ecc	-0.15282744
250	0xbd2d3aea	-0.042292513
251	0x3d4bbc05	0.049739856
252	0x3cbab110	0.022789508
253	0xbe0ccd00	-0.13750076
254	0x3b229efc	0.0024814
255	0xbe5c6f00	-0.21526718

down_blocks.1.conv1.bias f4 [8]
0	0x3abf4dd9	0.0014595344
1	0xba7ef3c6	-0.0009725656
2	0xbb572a51	-0.003283162
3	0xba606204	-0.00085595273
4	0x3a092765	0.00052320055
5	0xb98458f2	-0.0002524327
6	0xb687b012	-4.043811e-06
7	0xba24cc1e	-0.00062865193

down_blocks.1.conv2.weight f4 [8, 8, 3, 3]
0	0x3c8f3bea	0.017484624
1	0x3d1768de	0.036965244
2	0xbe2407eb	-0.16018645
3	0xbe252233	-0.16126327
4	0x3c1e8737	0.009675792
5	0x3cf2ac51	0.029623182
6	0x3e286120	0.164433
7	0x3d593382	0.053027637
8	0x3dda0b30	0.10646665
9	0x3dfe4f88	0.12417513
10	0x3dd6e873	0.10493555
11	0xbe493654	-0.19649631
12	0xbe50a0ee	-0.2037389
13	0xbe2ae1a0	-0.16687632
14	0xbd8f1cf2	-0.06987943
15	0xbe58e8b1	-0.21182515
16	0x3e3bc880	0.18338203
17	0xbe4d0a2b	-0.2002341
18	0x3e2c7f20	0.1684537
19	0xbdd419fe	-0.1035652
20	0x3dbd9555	0.092569984
21	0xbe2771ad	-0.16351958
22	0x3db81765	0.08988837
23	0x3e03cd26	0.12871227
24	0xbe0706f0	-0.1318624
25	0xbe01683f	-0.12637423
26	0x3e438a1a	0.1909565
27	0x3d083a7a	0.033258893
28	0xbdc67342	-0.096899524
29	0xbd8700f7	-0.06591981
30	0xbe27bffa	-0.16381827
31	0x3dd2b465	0.10288314
32	0xbdbe3970	-0.09288299
33	0x3e00bb40	0.1257143
34	0x3dd40e14	0.10354248
35	0x3d5a449e	0.053288095
36	0x3dfe8b69	0.12428934
37	0xbda7d63e	-0.0819516
38	0x3db1b251	0.08676589
39	0x3e44cdb0	0.19219089
40	0x3dc6e298	0.09711188
41	0x3c978feb	0.018501243
42	0xbc8359ba	-0.016033996
43	0xbe0bfc60	-0.13670492
44	0xbdb84777	-0.08998006
45	0x3e19f5a6	0.15035114
46	0xbd35aec7	-0.044356134
47	0x3e2823fa	0.16419974
48	0xbdb0a938	-0.08626026
49	0xbd97783a	-0.07395978
50	0x3e1d72bb	0.15375797
51	0x3df54e80	0.11977863
52	0x3e26b839	0.16281213
53	0xbe15520f	-0.14582084
54	0x3e0d28ea	0.13785139
55	0xbe3b8641	-0.18312933
56	0xbda741d9	-0.08166856
57	0xbbd58061	-0.006515548
58	0xbe51637c	-0.20448107
59	0x3ce84dac	0.02835735
60	0x3dee07a9	0.11622555
61	0xbdba53f7	-0.09098046
62	0x3c84adf5	0.01619623
63	0xbd89de17	-0.067318134
64	0xbd6041eb	-0.054750364
65	0x3db2deca	0.087339
66	0x3e157670	0.14595962
67	0xbdd6fa9f	-0.10497021
68	0xbcc66ecf	-0.02422276
69	0x3da4b91c	0.08043119
70	0x3bbf5b20	0.0058397204
71	0xbd5fe84e	-0.054664902
72	0xbd1b9982	-0.037988193
73	0x3de75c3f	0.112968914
74	0x3e4c8a5c	0.19974655
75	0x3e28f4e5	0.1649967
76	0xbd8846a0	-0.06654096
77	0xba335a2b	-0.0006841744
78	0xbdd6f175	-0.10495273
79	0x3ce2c22f	0.027680485
80	0xbdbaad71	-0.091151126
81	0xbe4041ac	-0.18775052
82	0x3da5b76b	0.08091625
83	0xbcc5f8a3	-0.02416641
84	0xbe30463e	-0.17214295
85	0xbd558b97	-0.052135076
86	0xbd27dca1	-0.040981892
87	0x3db12e9e	0.0865147
88	0xbdfdf5fc	-0.124004334
89	0x3e391f21	0.18078281
90	0x3e0fde4d	0.14049645
91	0xbd1d3bab	-0.038386982
92	0xbda64ef3	-0.08120527
93	0xbc521b67	-0.012823916
94	0xbdfc7ccc	-0.123284906
95	0x3da73fe6	0.081664845
96	0x3d0077f6	0.031364404
97	0x3e3e9a5a	0.18613568
98	0x3cd22cdf	0.025656162
99	0x3d9be556	0.07612102
100	0x3e3ef9ec	0.18650025
101	0x3df80fd2	0.121123925
102	0x3e3e8447	0.18605147
103	0x3c93ff91	0.0180662
104	0x3e048b6a	0.12943807
105	0x3db5fcaa	0.088860825
106	0xbd916dae	-0.07100998
107	0xbe50693e	-0.20352647
108	0x3d9bf33b	0.07614752
109	0xbd828020	-0.06372094
110	0xbda3cb8d	-0.079978086
111	0xbe1e5b5b	-0.15464537
112	0x3e4721d2	0.19446495
113	0xbd83f2a4	-0.064427644
114	0x3ba8a43d	0.005146532
115	0x3cfbb093	0.030723846
116	0x3d82e0f0	0.0639056
117	0xbd865f99	-0.065612026
118	0x3e00f555	0.12593587
119	0xb9b5971f	-0.00034635604
120	0xbce0daf3	-0.027448153
121	0x3e0a8568	0.13527453
122	0x3e2ead30	0.17058253
123	0x3dc1f8cc	0.09471282
124	0xbe50149b	-0.2032036
125	0xbdeac41e	-0.11463188
126	0x3dfbb4fe	0.12290381
127	0x3de57582	0.112040535
128	0xbcd85608	-0.02640821
129	0x3df35abb	0.1188254
130	0x3e0d09c3	0.13773255
131	0xbd183d30	-0.037167728
132	0xbe0cd7aa	-0.13754144
133	0xbd236e40	-0.039900064
134	0x3e3137ae	0.17306396
135	0x3e3e3430	0.18574595
136	0x3cd391fd	0.025826449
137	0x3e1559f3	0.14585094
138	0x3d81a4cf	0.06330263
139	0x3e13bbb3	0.1442707
140	0x3dbf5a17	0.09343355
141	0xbe383865	-0.17990263
142	0xbe289f00	-0.16466904
143	0x3d0f4f57	0.034987774
144	0xbdc051a0	-0.09390569
145	0xbd25e39f	-0.04050028
146	0x3dcc336b	0.09970745
147	0x3da81626	0.082073495
148	0xbe3ea829	-0.18618836
149	0x3cf2f66c	0.029658519
150	0x3d3614d6	0.044453464
151	0x3e024884	0.12722975
152	0xbe44885f	-0.19192646
153	0xbe30a243	-0.17249398
154	0xbdb43f2e	-0.08801113
155	0xbe46f027	-0.19427548
156	0xbdee402f	-0.11633336
157	0x3e05d5bd	0.13069816
158	0x3e51d887	0.20492755
159	0xbd9a2f27	-0.07528525
160	0x3d8bebb0	0.06832063
161	0xbcaf1d52	-0.021376286
162	0xbb581c4e	-0.0032975855
163	0x3e188599	0.14894713
164	0x3e294759	0.16531123
165	0x3e0ff68d	0.14058895
166	0x3d0042cc	0.031313702
167	0xbd2981a7	-0.04138341
168	0xbe3d12e8	-0.18464243
169	0x3ca0874a	0.01959576
170	0xbd0b81b1	-0.03405923
171	0xbd859596	-0.06522672
172	0xbcee17a4	-0.029064007
173	0xbd007336	-0.031359874
174	0x3c7e8591	0.015534774
175	0x3d241277	0.040056672
176	0x3e098491	0.13429476
177	0x3e0d529d	0.13801046
178	0x3e053215	0.13007386
179	0x3e2098d9	0.15683307
180	0xbdca2afe	-0.09871481
181	0x3dcca549	0.09992463
182	0x3e404039	0.18774499
183	0x3cd3bbd0	0.025846392
184	0x3d7979ba	0.060907103
185	0xbc326c47	-0.010890073
186	0xbe383cb2	-0.17991903
187	0x3e2b5043	0.16729836
188	0x3d89631b	0.06708356
189	0x3d415fd6	0.047210537
190	0xbd9be061	-0.07611156
191	0xbdd2bb03	-0.10289576
192	0xbde4e79f	-0.11176991
193	0xbd057d95	-0.032590467
194	0x3d262d1a	0.040570356
195	0x3e30b661	0.17257072
196	0xbd391da4	-0.045194283
197	0x3d661418	0.056171507
198	0xbda4e1fd	-0.08050916
199	0xbcf5e229	-0.030015068
200	0x3db80df9	0.0898704
201	0x3c9fa6a1	0.019488635
202	0xbe4d8810	-0.20071435
203	0xbe4ba892	-0.19888523
204	0x3c510f7e	0.012760041
205	0xbe1a8e99	-0.15093459
206	0x3d934849	0.07191522
207	0xbe46c277	-0.1941012
208	0xbd9c8e77	-0.076443605
209	0xbc6e9c3d	-0.014563617
210	0xbe4e8f3e	-0.2017183
211	0xbc77c371	-0.01512228
212	0x3dc38b69	0.09548075
213	0x3dcd9964	0.100390226
214	0x3d0d9c42	0.034572847
215	0x3c6797dc	0.014135327
216	0xbd7df139	-0.061997626
217	0xbe24f28a	-0.16108146
218	0xbe0d316e	-0.13788387
219	0x3df57aec	0.11986336
220	0x3caefb36	0.021360021
221	0xbe0139e4	-0.1261974
222	0x3dcea8ee	0.100908145
223	0x3de08afc	0.10964009
224	0xbe144b7c	-0.1448192
225	0xbe280c34	-0.16410905
226	0x3e0b7f3f	0.1362276
227	0x3dddbe27	0.10827284
228	0x3ddad4af	0.106850974
229	0x3d3d5155	0.046220142
230	0x3dff6cd0	0.12471926
231	0xbe2ee49e	-0.17079398
232	0xbe43b90c	-0.19113559
233	0x3e13ace9	0.14421429
234	0x3e560dbb	0.20903675
235	0x3d9f5ee3	0.0778177
236	0x3dfa87af	0.12232911
237	0x3d994f22	0.074857965
238	0xbdced414	-0.100990444
239	0xbd34d264	-0.044145957
240	0xbd22d865	-0.03975715
241	0xbdaffa7e	-0.085926995
242	0x3e375628	0.1790396
243	0x3e4f47a1	0.20242168
244	0x3e0a57dc	0.13510078
245	0x3ca23770	0.019801825
246	0xbe474e89	-0.19463553
247	0xbe368ee1	-0.17827941
248	0xbe0ec41c	-0.13941997
249	0xbe33fa54	-0.17575961
250	0x3d58665e	0.052832
251	0x3e46a09b	0.19397204
252	0x3cba6a90	0.022755891
253	0x3cc42e62	0.023947898
254	0x3cd2f0b2	0.025749538
255	0x3d65c150	0.05609256

down_blocks.1.conv2.bias f4 [8]
0	0xba5be6a5	-0.0008388556
1	0x3801e4f3	3.0969222e-05
2	0xbb0ec357	-0.0021783912
3	0xbb1d9034	-0.002404225
4	0x3a295f29	0.00064610183
5	0xb8dab6fe	-0.00010429135
6	0xb9de01fd	-0.0004234462
7	0xb9f3d212	-0.00046505086

down_blocks.1.norm1.weight f4 [8]
0	0x3f7f298b	0.99672765
1	0x3f80e5f3	1.0070175
2	0x3f81250b	1.008943
3	0x3f7f66b5	0.99766093
4	0x3f80b22e	1.0054376
5	0x3f7ecdd5	0.99532825
6	0x3f7d7ae4	0.9901564
7	0x3f7fa2c9	0.99857765

down_blocks.1.norm1.bias f4 [8]
0	0x371a1fea	9.186546e-06
1	0x3aa4746f	0.0012546907
2	0xbaa8670d	-0.0012848094
3	0x39b4f783	0.00034516686
4	0xbacb1b1b	-0.0015495749
5	0x39e46c65	0.0004356831
6	0x39bd465a	0.00036101305
7	0xba2506e3	-0.00062952767

down_blocks.1.norm1.running_mean f4 [8]
0	0x3eb98e93	0.36241588
1	0x3f19bac7	0.60050625
2	0x3e53d7ca	0.20687786
3	0x3e996522	0.2995997
4	0x3e52a41d	0.20570417
5	0x3e6a3bdd	0.22874399
6	0x3ec43741	0.38323405
7	0x3ed3c097	0.41357872

down_blocks.1.norm1.running_var f4 [8]
0	0x3f24d0e5	0.6438125
1	0x3ff4c9fc	1.9124141
2	0x3dd2d90a	0.10295303
3	0x3f0e2866	0.55530393
4	0x3e86776e	0.26262993
5	0x3f2de3a6	0.6792549
6	0x3fd0cec8	1.6313105
7	0x3eec3952	0.46137482

down_blocks.1.norm2.weight f4 [8]
0	0x3f7f5322	0.99736226
1	0x3f8052dd	1.0025288
2	0x3f7ff282	0.9997941
3	0x3f81239c	1.0088992
4	0x3f7f6b11	0.99772745
5	0x3f80f6f5	1.0075365
6	0x3f7f43f9	0.99713093
7	0x3f7ffb5e	0.9999293

down_blocks.1.norm2.bias f4 [8]
0	0xba80b418	-0.0009819297
1	0xb9e08b8d	-0.00042828583
2	0xb6ddafbd	-6.606772e-06
3	0xbb1cd496	-0.0023930422
4	0x3b3b62e9	0.002859289
5	0xba338db5	-0.0006849424
6	0xba412bda	-0.00073689
7	0xb9199cae	-0.00014649585

down_blocks.1.norm2.running_mean f4 [8]
0	0x3e4b3250	0.19843411
1	0x3eb715a4	0.35758698
2	0x3e8d02a4	0.27541077
3	0x3e546870	0.20742965
4	0x3e9e0ee2	0.3087073
5	0x3e9449e8	0.28962636
6	0x3e966933	0.29377136
7	0x3e5401e8	0.20703852

down_blocks.1.norm2.running_var f4 [8]
0	0x3def40ac	0.11682257
1	0x3f9ad772	1.2096999
2	0x3e6ad28c	0.2293188
3	0x3e4ef0bf	0.20209025
4	0x3ef14f18	0.47130656
5	0x3d9fbbbf	0.077994816
6	0x3ee33c55	0.44381967
7	0x3e907b5d	0.2821912

down_blocks.2.conv1.weight f4 [16, 8, 3, 3]
0	0xbde01171	-0.10940827
1	0x3e267bbf	0.16258143
2	0x3e0ab70c	0.1354639
3	0xbe1de902	-0.15420917
4	0x3d63203c	0.055450663
5	0x3e2209ba	0.15824023
6	0xbd7f8bee	-0.062389307
7	0xbda7100b	-0.08157357
8	0x3d108fa4	0.035293236
9	0xbc3dd937	-0.011587433
10	0x3de06dd6	0.109584495
11	0xbd9be53d	-0.07612083
12	0xbb02d4f2	-0.001996335
13	0xbdbe3f8f	-0.092894666
14	0xbdfe75e6	-0.12424831
15	0x3cff0a2c	0.03113278
16	0xbd0e8f68	-0.03480473
17	0x3da66178	0.081240594
18	0x3e1f7856	0.15573248
19	0xbcc34613	-0.023837125
20	0x3dc7aaf0	0.097494006
21	0xbc3da91d	-0.011575964
22	0xbd5690e5	-0.052384276
23	0x3db9cdf5	0.09072486
24	0xbcb86413	-0.022508657
25	0xbe08e6a2	-0.1336923
26	0xbdc247d9	-0.0948636
27	0x3da09f32	0.07842864
28	0xbc5a62d3	-0.013329226
29	0x3de27296	0.11057012
30	0xbd9c3bdb	-0.07628604
31	0xbe2b0758	-0.1670202
32	0x3d84de18	0.064876735
33	0xbdc49a91	-0.09599794
34	0x3e27fce6	0.16405067
35	0x3d0e51de	0.034746043
36	0xbd3d3f03	-0.04620267
37	0xbe091df6	-0.13390335
38	0x3c19b98f	0.0093826195
39	0x3d8231c3	0.063571475
40	0xbd9b1898	-0.0757305
41	0xbd911248	-0.07083565
42	0xbcc2ee7c	-0.023795359
43	0x3e146dc1	0.14494993
44	0xbdcd03e1	-0.100105055
45	0xba402c11	-0.0007330785
46	0xbd1249d0	-0.035714924
47	0x3e27b296	0.16376719
48	0xbd8c3f16	-0.0684797
49	0x3de3a2ee	0.11115061
50	0x3e20f54a	0.1571857
51	0xbd0552f3	-0.03254981
52	0x3e29ae95	0.16570504
53	0xbd0a953f	-0.03383374
54	0x3d31a32e	0.04336851
55	0xbe1f7008	-0.1557008
56	0x3c59781d	0.013273266
57	0x3dcf76f8	0.10130113
58	0x3e05072d	0.12991019
59	0x3cf50454	0.02990929
60	0x3da80de9	0.08205778
61	0xbd6b442d	-0.057438064
62	0x3b8bcc25	0.0042662793
63	0x3dd36ece	0.10323869
64	0xbe0c4985	-0.1369992
65	0xbe0ed10a	-0.1394693
66	0x3de8c5f5	0.11365882
67	0xbc352be0	-0.011057824
68	0xbc7a01c9	-0.015259215
69	0x3be4417c	0.006965814
70	0xbdf56ad0	-0.119832635
71	0xbdf979b1	-0.12181414
72	0x3e06029f	0.13086937
73	0x3db1af3d	0.08676002
74	0x3db03ec5	0.08605722
75	0xbdc34b8b	-0.09535893
76	0xbda1b4c7	-0.07895809
77	0xbcf108d0	-0.029423147
78	0xbadfb4d8	-0.0017067445
79	0xbdd3a47c	-0.10334107
80	0x3e1f1d7c	0.15538591
81	0xbdf1caed	-0.11806283
82	0x3d7240f1	0.059143964
83	0xbcdbc12a	-0.026825506
84	0xbdaf2cb4	-0.08553448
85	0x3e248298	0.16065443
86	0x3b05af47	0.0020398663
87	0xbdd8df9e	-0.105895266
88	0xbd1a37f0	-0.037651002
89	0x3dc257b0	0.09489381
90	0x3de9ab3c	0.114096135
91	0xbe23e9ee	-0.16007206
92	0xbb9517f0	-0.0045499727
93	0xbe225868	-0.15854037
94	0x3e02bf8d	0.12768383
95	0xbd84c3a9	-0.06482632
96	0xbd8af4f5	-0.06785003
97	0x3e112899	0.14175643
98	0xbdc4606a	-0.09588702
99	0x3d40441d	0.046939958
100	0x3e162f47	0.14666472
101	0xbd5e857c	-0.05432652
102	0x3ca397d6	0.019969862
103	0xbc171a4d	-0.009222579
104	0x3e2ab675	0.16671164
105	0xbd4e5850	-0.05037719
106	0x3c26f765	0.010190819
107	0xbd527603	-0.051382076
108	0x3de3f1c2	0.11130096
109	0x3e1377a1	0.14401104
110	0x3d53e898	0.05173549
111	0xbd1d9dc5	-0.03848054
112	0x3d43f112	0.047837324
113	0xbd9a1bab	-0.075248085
114	0x3dbee79c	0.0932152
115	0xbbd01355	-0.006349961
116	0xbcf46f16	-0.029838126
117	0xbe1ca3d9	-0.15296878
118	0xbe093be1	-0.13401748
119	0x3e1f6036	0.15564045
120	0xbc8fdc4c	-0.0175611
121	0xbc838ae0	-0.016057432
122	0x3e0a0741	0.1347933
123	0xbb8ef57a	-0.004362759
124	0xbe22f234	-0.15912706
125	0x3d07df2d	0.03317182
126	0x3c6e007e	0.0145264845
127	0xbca3a403	-0.019975668
128	0x3dd04470	0.101693034
129	0x3d8d1dcb	0.06890448
130	0x3cf10056	0.029419105
131	0x3da18f6e	0.07888685
132	0x3da7fd52	0.08202614
133	0x3d9839c5	0.07432894
134	0x3dc39073	0.09549036
135	0x3df49bff	0.119438164
136	0x3d349989	0.044091735
137	0xbe1e43b3	-0.15455513
138	0x3df3b36f	0.118994586
139	0xbd81a168	-0.06329614
140	0xbcbdcc1e	-0.02316862
141	0x3c8170e9	0.01580091
142	0x3cb90dd3	0.0225896
143	0xbdcc3911	-0.09971822
144	0xbe17a125	-0.14807566
145	0x3d8b3c34	0.06798592
146	0x3e2491ed	0.16071291
147	0x3dd27440	0.10276079
148	0xbda9fd78	-0.083002985
149	0xbe0279ee	-0.12741825
150	0xbe22278b	-0.15835397
151	0xbe23eb29	-0.16007675
152	0xbd92af6e	-0.07162367
153	0x3d5ad096	0.05342158
154	0x3d27a8be	0.04093241
155	0xbd209bb3	-0.039210986
156	0xbcf89557	-0.030344648
157	0xbd81a334	-0.06329957
158	0xbe26ad21	-0.16276981
159	0x3d3eb82f	0.04656237
160	0xbe18c174	-0.14917547
161	0x3d2c3895	0.04204615
162	0x3d8e52f5	0.069494165
163	0xbdaf7056	-0.08566348
164	0x3d219619	0.039449785
165	0xbdbffea2	-0.09374739
166	0x3c6e5468	0.014546491
167	0x3dbf1b1c	0.093313426
168	0x3db42b0b	0.08797272
169	0x3dd5e29a	0.104436114
170	0xbaa6dffe	-0.001273155
171	0x3c3b8967	0.0114463335
172	0x3b962866	0.0045824526
173	0xbd259c16	-0.04043206
174	0xbd48a64e	-0.048986726
175	0x3ae47950	0.0017431173
176	0x3df7f63d	0.12107513
177	0xbd916314	-0.07098976
178	0xbe2001e2	-0.15625718
179	0x3d841873	0.06449976
180	0xbe16b37c	-0.14716905
181	0x3e25fb32	0.16209105
182	0xbe06f5b8	-0.13179672
183	0x3de1f2ab	0.11032613
184	0xbd9a9b1b	-0.07549115
185	0xbdc908be	-0.098161206
186	0x3d56928d	0.052385855
187	0x3e06bff6	0.13159165
188	0xbdab8f9e	-0.08377002
189	0xbda1548a	-0.07877453
190	0xbe260c43	-0.16215615
191	0x3d82ff47	0.063963465
192	0xbdf79f14	-0.120908886
193	0x3e0691dc	0.13141578
194	0x3c08147d	0.008305666
195	0xbdc40f18	-0.095731914
196	0xbca26ce1	-0.019827308
197	0x3e0f6d58	0.14006555
198	0xbd64a946	-0.055825494
199	0xbd7e60cc	-0.06210403
200	0xbd84f092	-0.06491198
201	0xbd3e3bd4	-0.046443775
202	0x3b030793	0.0019993528
203	0xbe2966d5	-0.16543134
204	0xbcd07db5	-0.025450567
205	0x3ddb4784	0.10707
206	0x3da310c6	0.07962184
207	0x3d3ab97f	0.04558706
208	0xbbe224c7	-0.006901357
209	0xbb9cb677	-0.0047824937
210	0xbe0516d7	-0.12996994
211	0xbd88f0ef	-0.066865794
212	0x3da06a62	0.07832791
213	0x3d00e15d	0.031464923
214	0x3d281b3a	0.04104159
215	0xbd6a597e	-0.057214253
216	0xbd37ce6c	-0.044874594
217	0x3c2caedf	0.010539739
218	0xbb999275	-0.0046866485
219	0x3e125431	0.14289929
220	0x3c7c5323	0.015400681
221	0xbd993126	-0.074800774
222	0xbd03bf01	-0.032164577
223	0xbcb4bf84	-0.022063978
224	0x3c8d6469	0.017259793
225	0xbc085f98	-0.008323573
226	0x3d40241f	0.046909448
227	0x3d8d720c	0.06906518
228	0x3dce505a	0.100739196
229	0xbd529ad0	-0.051417172
230	0x3da63bf4	0.08116904
231	0x3de1b8fa	0.110216096
232	0xbd435b47	-0.04769447
233	0xbe276a93	-0.16349249
234	0xbe03bec2	-0.12865737
235	0x3e25f977	0.16208445
236	0x3e25c7c8	0.16189492
237	0x3de4b189	0.11166675
238	0x3deb114d	0.11477909
239	0xbce633cb	-0.028100869
240	0x3c83a57f	0.016070126
241	0xbc5e18c8	-0.013555713
242	0xbd4c1907	-0.049828555
243	0xbdbcc8b9	-0.09217972
244	0x3dcd22fd	0.10016439
245	0xbe04f79e	-0.12985083
246	0x3da12507	0.078683905
247	0xbd7fe9e0	-0.0624789
248	0x3c8c30ba	0.017113078
249	0xbe07b541	-0.13252737
250	0x3dbd4e73	0.092434786
251	0xbdd69e17	-0.10479372
252	0xbd2e226e	-0.042513303
253	0x3dbd5419	0.09244556
254	0xbd282505	-0.04105093
255	0xbe26f35d	-0.16303773

down_blocks.2.conv1.bias f4 [16]
0	0xb93f6600	-0.00018253177
1	0x397a3071	0.00023859904
2	0x3a71bab1	0.00092212396
3	0xba3247df	-0.0006800871
4	0x3a4e0d90	0.00078602973
5	0xba311cf9	-0.00067563314
6	0x3a1ab6dd	0.00059018825
7	0x391d351d	0.00014992473
8	0xba183fce	-0.00058078475
9	0xba037fc4	-0.0005016292
10	0x37a52c38	1.9690124e-05
11	0xb8754013	-5.8472226e-05
12	0x39402c5b	0.0001832707
13	0x381430ce	3.5331403e-05
14	0x3a602d96	0.0008551715
15	0x383f1484	4.5557055e-05

down_blocks.2.conv2.weight f4 [16, 16, 3, 3]
0	0xbde34289	-0.11096675
1	0x3ded3901	0.11583138
2	0x3d94927b	0.072545014
3	0xbdae5374	-0.08512011
4	0xbdc09c08	-0.094047606
5	0xbb64ce54	-0.003491302
6	0x3e0f227c	0.13977998
7	0xbde2f224	-0.11081341
8	0xbcc438cd	-0.023952866
9	0x3dff17f6	0.12455742
10	0x3dd80977	0.1054868
11	0xbde244b9	-0.11048264
12	0x3dba7b09	0.09105498
13	0x3df7ff44	0.12109235
14	0x3ddab26f	0.10678565
15	0x3e02f343	0.1278811
16	0x3e10d500	0.14143753
17	0x3ddc7e08	0.10766226
18	0x3dfe0ce6	0.12404804
19	0xbd43fa43	-0.04784609
20	0x3e0f8cf3	0.14018612
21	0xbdadb04d	-0.08480892
22	0xbe057459	-0.13032664
23	0x3c97dc6b	0.01853772
24	0xbe054163	-0.13013224
25	0x3de23c29	0.11046631
26	0xbe08b06c	-0.1334855
27	0xbd996d12	-0.07491507
28	0xbd56da5b	-0.052454334
29	0xbba9c864	-0.005181359
30	0xbc2cfbb9	-0.010558062
31	0xbd1fe215	-0.039033968
32	0xbd873b79	-0.066031404
33	0x3d674b5e	0.05646836
34	0x3cde06ea	0.027102906
35	0xbe001ae1	-0.12510253
36	0x3df2f646	0.11863379
37	0x3cadfb1f	0.021237908
38	0x3ceb7148	0.02874054
39	0x3d300528	0.042973667
40	0xbcac468b	-0.021029731
41	0x3dd64191	0.104617245
42	0xbe0b6a33	-0.1361473
43	0xbcd29048	-0.025703564
44	0xbdd7affd	-0.10531614
45	0xbdb07210	-0.08615506
46	0xbd5052ae	-0.0508601
47	0x3bbadec2	0.0057028243
48	0x3ce5c7a2	0.028049294
49	0xbce694b8	-0.028147087
50	0x3e11abef	0.14225744
51	0x3d197801	0.03746796
52	0x3da5da8a	0.08098324
53	0x3d9ebd52	0.07750954
54	0xbdbaf499	-0.091286846
55	0xbd736198	-0.059419245
56	0x3d0f18a1	0.034935597
57	0x3d2d84f0	0.042363107
58	0x3db358f8	0.08757204
59	0x3dc6de2e	0.09710346
60	0x3dd4a772	0.103835
61	0xbc566237	-0.01308494
62	0xbcb3023b	-0.02185165
63	0xbb3348a6	-0.0027356534
64	0xbcf2f19f	-0.02965623
65	0xbdbf24ee	-0.09333216
66	0xbdbe7385	-0.09299377
67	0x3df079fe	0.11742018
68	0xbd958f12	-0.07302679
69	0xbc7b24c7	-0.015328593
70	0xbda58557	-0.08082073
71	0xbd96a8f8	-0.07356447
72	0x3d9e7e26	0.07738905
73	0x3daecc7e	0.085350975
74	0x3d12d5eb	0.03584854
75	0x3bd40a4e	0.006470955
76	0x3e09eb95	0.13468774
77	0xba38d5ec	-0.000705092
78	0x3de0dda0	0.109797716
79	0x3c64a769	0.013955929
80	0x3b2b8f7c	0.0026178053
81	0xbdc65698	-0.09684485
82	0xbcdb4515	-0.02676634
83	0x3de88784	0.113539726
84	0x3db7201d	0.08941672
85	0x3d9b542d	0.07584415
86	0xbde5821f	-0.11206459
87	0x3df78498	0.12085837
88	0xbd381dfe	-0.044950478
89	0xbdd38665	-0.10328368
90	0x3d96d0ae	0.07364021
91	0xbdb1d9cf	-0.08684122
92	0xbd231896	-0.03981837
93	0xbd4c6188	-0.0498977
94	0xbe046ea2	-0.12932828
95	0x3c8d5623	0.017252987
96	0x3d8d70de	0.06906293
97	0x3db3fa6a	0.08787997
98	0x3dc1d4ac	0.09464392
99	0x3c20639d	0.009789375
100	0x3d52a8ab	0.051430386
101	0xbd213cd4	-0.03936465
102	0x3dff92ff	0.12479209
103	0xbb89a7ae	-0.004200897
104	0x3dcd99d1	0.10039104
105	0xbe0f54bc	-0.13997167
106	0x3db13ff2	0.08654775
107	0xbd9b9c39	-0.075981565
108	0x3d90586e	0.070481166
109	0x3d306b67	0.043071177
110	0x3cfa7b4e	0.030576374
111	0xbdf281ec	-0.11841187
112	0x3de688b3	0.11256542
113	0x3cbbdfe2	0.022933904
114	0xbdbc3ba3	-0.09191062
115	0x3dfc7080	0.12326145
116	0x3d89cdb7	0.0672869
117	0xbdf81191	-0.121127255
118	0x3cad0a7b	0.021123162
119	0x3e0b87f3	0.1362608
120	0xbd9f0565	-0.07764701
121	0x3bfcc20b	0.0077135614
122	0xbc50124c	-0.012699675
123	0x3d0f3638	0.034963816
124	0xbcc4550c	-0.023966335
125	0xbddbba66	-0.10728912
126	0x3e051bf2	0.12998942
127	0xbb69605c	-0.0035610413
128	0x3d570304	0.05249311
129	0xbd35bf48	-0.044371873
130	0xbdcda94a	-0.10042055
131	0x3da22cdc	0.079187125
132	0xbe0bd57f	-0.13655661
133	0x3d90b854	0.07066408
134	0xbcf3e245	-0.02977098
135	0xbd9e3a14	-0.07725921
136	0x3bb873bc	0.005629031
137	0xbdecf641	-0.11570407
138	0xbe0c1c2e	-0.13682625
139	0xbdd0e9b3	-0.102008246
140	0x3df40d92	0.11916651
141	0xbde8c482	-0.11365606
142	0x3d941e97	0.07232397
143	0xbe05e3f6	-0.13075241
144	0xbccf3392	-0.025293145
145	0x3c5506f3	0.013002145
146	0x3d92b1b4	0.071628004
147	0xbd2c71ed	-0.042100836
148	0x3dd3939c	0.10330889
149	0x3d9c6c68	0.07637864
150	0xbb458a8c	-0.0030142395
151	0xbde3e0f2	-0.11126889
152	0x3d366e5a	0.044538833
153	0xbdd78fd9	-0.10525484
154	0x3db3e2c7	0.08783489
155	0xbe0dc4e4	-0.13844639
156	0x3da6f956	0.08153026
157	0x3dd8e620	0.10590768
158	0xbc8401b7	-0.016114099
159	0x3cb9a9ba	0.02266394
160	0x3bd14d15	0.0063873627
161	0xbde283c7	-0.11060291
162	0x3db96cb4	0.090539366
163	0xbb0f2e1e	-0.0021847556
164	0x3d9d0376	0.07666676
165	0x3dda5181	0.10660077
166	0xbe0ae711	-0.13564707
167	0xbd23fafb	-0.040034276
168	0xbe0d1fc8	-0.13781655
169	0x3c2d881f	0.010591536
170	0x3e0b5dc0	0.13609982
171	0xbd84009c	-0.06445429
172	0xbc5430a2	-0.012951048
173	0xbd88a493	-0.06672015
174	0xbdea93d9	-0.11453981
175	0xbd874982	-0.066058174
176	0xbde853a0	-0.11344075
177	0x3da6c7b4	0.08143559
178	0xbd32a423	-0.043613564
179	0xbd7b56f8	-0.061362237
180	0x391aa4d2	0.00014747985
181	0xbd748ed1	-0.059706513
182	0x3dc25f77	0.09490865
183	0x3d5b74b7	0.053578105
184	0x3d6c30b3	0.05766363
185	0xba14cfba	-0.00056767056
186	0xbd6e2426	-0.058139943
187	0xbd1afdb1	-0.037839595
188	0xbdd0bdc0	-0.10192442
189	0x3dd0847c	0.101815194
190	0x3de02c21	0.10945917
191	0x3e0ec417	0.1394199
192	0xbd8f3a54	-0.06993547
193	0x3b03f168	0.0020132903
194	0xbbf19843	-0.0073728873
195	0x3dab9098	0.083771884
196	0x3e05fc67	0.13084565
197	0x3daa44bf	0.083138935
198	0xbe0d7e0f	-0.13817619
199	0xbdec7d85	-0.115473785
200	0xbdc7c712	-0.097547665
201	0x3d38a5ef	0.04508012
202	0x3d3aac76	0.045574628
203	0xbd24338c	-0.04008822
204	0xbdb0264d	-0.08601055
205	0x3d3ecbe4	0.046581164
206	0xbdb800f6	-0.08984558
207	0x3de71f73	0.11285295
208	0xbce24311	-0.02761987
209	0xbc697bf3	-0.014250743
210	0xbe043265	-0.12909849
211	0xbd8819af	-0.06645524
212	0xbab8f240	-0.0014110282
213	0x3d953b5f	0.07286715
214	0x3dfa0b3a	0.122091725
215	0xbabc3611	-0.0014359375
216	0x3dcb54aa	0.09928258
217	0x3e0e5d22	0.13902715
218	0x3d1dc551	0.038518254
219	0xbde8fcdf	-0.11376356
220	0xbd3a7585	-0.04552223
221	0xbdf22542	-0.118235126
222	0xbcd97218	-0.026543662
223	0x3da836d2	0.08213581
224	0xbddb3936	-0.107042715
225	0x3c264eed	0.010150653
226	0xbc82691d	-0.015919263
227	0x3dc46f5c	0.095915526
228	0xbde5548f	-0.11197769
229	0x3d9b9bf0	0.07598102
230	0x3e001333	0.12507324
231	0x3d973e22	0.07384898
232	0x3d820f46	0.063505694
233	0xbdf19199	-0.11795349
234	0x3db3e7ba	0.08784433
235	0x3e076508	0.13222134
236	0xbd7df1f6	-0.06199833
237	0x3b8bcabf	0.0042661126
238	0x3c9462e1	0.018113555
239	0x3d84153b	0.06449362
240	0xbd9ef4d6	-0.077615425
241	0xbd8f5a06	-0.069995925
242	0xbdcedebf	-0.10101079
243	0xbccfe428	-0.025377348
244	0xbd64b926	-0.055840634
245	0x3dc27571	0.094950564
246	0x3dc76066	0.097351834
247	0xbd5fbbb4	-0.054622367
248	0xbd9a297c	-0.07527444
249	0x3d9a3332	0.07529296
250	0xbd0b7371	-0.03404564
251	0x3bba9c9d	0.0056949393
252	0x3de83e71	0.11340035
253	0x3bcfdbb6	0.0063433303
254	0xbdcdc487	-0.1004725
255	0xbc256706	-0.0100953635

down_blocks.2.conv2.bias f4 [16]
0	0xb8ca97cf	-9.660387e-05
1	0xb947fa55	-0.00019071375
2	0xb8165913	-3.5845744e-05
3	0xb9bc2e74	-0.00035892765
4	0xb9a18a87	-0.00030811524
5	0xb87b24be	-5.9877282e-05
6	0x38ddbde5	0.00010573472
7	0x39fb11ee	0.0004788781
8	0x39e5b6f9	0.0004381461
9	0xb9d45192	-0.00040496566
10	0xb9879808	-0.0002586248
11	0x39bdc355	0.00036194423
12	0xb8cdff38	-9.8227e-05
13	0x39b1f7d3	0.00033944714
14	0xb8579975	-5.1402913e-05
15	0x3a646c13	0.0008713614

down_blocks.2.norm1.weight f4 [16]
0	0x3f7fdd20	0.99946785
1	0x3f7fc060	0.99902916
2	0x3f7ff6b6	0.99985826
3	0x3f7ffafc	0.99992347
4	0x3f801234	1.0005555
5	0x3f7feff5	0.9997552
6	0x3f7feadc	0.9996774
7	0x3f800a25	1.0003096
8	0x3f803e30	1.0018978
9	0x3f800a29	1.0003101
10	0x3f800c94	1.0003839
11	0x3f7fcb33	0.9991943
12	0x3f7fef02	0.9997407
13	0x3f80190f	1.0007647
14	0x3f7fd40a	0.9993292
15	0x3f7ff321	0.9998036

down_blocks.2.norm1.bias f4 [16]
0	0xb9b178d6	-0.000338501
1	0xb980e247	-0.00024582652
2	0x3998ac99	0.00029120294
3	0x391d705a	0.00015014541
4	0x397f3c58	0.00024341175
5	0x3a0e31fe	0.00054243195
6	0xb9bab483	-0.00035611176
7	0x37078423	8.0773925e-06
8	0x3903898b	0.00012544372
9	0x39a49c99	0.00031397192
10	0x39fe18cf	0.0004846514
11	0x39bb9b41	0.00035783093
12	0xb950bff1	-0.0001990793
13	0x397f390c	0.00024339947
14	0xb9a34879	-0.0003114378
15	0xb9a4c24e	-0.00031425286

down_blocks.2.norm1.running_mean f4 [16]
0	0x3ef35a9f	0.47530076
1	0x3ee10925	0.4395229
2	0x3dfd1178	0.123568475
3	0x3e2ca7b6	0.16860852
4	0x3e16a2e6	0.14710578
5	0x3e88eb92	0.26742226
6	0x3e611ab6	0.21982846
7	0x3ecc6062	0.39917284
8	0x3ea0a125	0.31372944
9	0x3e831d95	0.25608507
10	0x3e82601a	0.25463945
11	0x3eacd147	0.33753416
12	0x3f74a23a	0.9556004
13	0x3e92a216	0.28639287
14	0x3e4121b6	0.18860516
15	0x3e0977c8	0.13424599

down_blocks.2.norm1.running_var f4 [16]
0	0x3f1c2d40	0.61006546
1	0x3f63a3ec	0.88922
2	0x3d82bb2d	0.06383357
3	0x3df60ffc	0.120147675
4	0x3db6132d	0.08890376
5	0x3f1b7895	0.6073087
6	0x3e209f2b	0.15685718
7	0x3f19c529	0.6006647
8	0x3e355db9	0.17711534
9	0x3df3abab	0.118979774
10	0x3e97986a	0.2960847
11	0x3eb7c93f	0.35895726
12	0x4005948d	2.0871918
13	0x3e805226	0.25062674
14	0x3e6c9cc1	0.23106672
15	0x3dbfa8b6	0.09358351

down_blocks.2.norm2.weight f4 [16]
0	0x3f7ff5b9	0.9998432
1	0x3f800b63	1.0003475
2	0x3f80172b	1.000707
3	0x3f7ffeed	0.9999836
4	0x3f801c8e	1.0008714
5	0x3f80296c	1.0012641
6	0x3f80210d	1.0010086
7	0x3f7fdd30	0.9994688
8	0x3f7fb74e	0.99889076
9	0x3f802516	1.0011318
10	0x3f800eb1	1.0004483
11	0x3f7fcce5	0.9992202
12	0x3f7fdd0e	0.9994668
13	0x3f8014ff	1.0006407
14	0x3f7f86de	0.99815166
15	0x3f7fc974	0.9991677

down_blocks.2.norm2.bias f4 [16]
0	0xb8688876	-5.54402e-05
1	0xb933b375	-0.00017137623
2	0xb99f3625	-0.00030367184
3	0x3876cca9	5.8841575e-05
4	0x39985bf5	0.00029060213
5	0xb9911c47	-0.00027677623
6	0x39c17ccf	0.00036904818
7	0x3a25c634	0.0006323785
8	0x39c5d4b5	0.00037733247
9	0xb90fd86a	-0.00013718163
10	0x3a27e848	0.0006405157
11	0xb8004461	-3.058126e-05
12	0xb96f3773	-0.00022813473
13	0x3a230383	0.000621848
14	0xb9b787b9	-0.000350056
15	0x38d1b98f	0.000100004596

down_blocks.2.norm2.running_mean f4 [16]
0	0x3ebd262f	0.36943194
1	0x3ea1ca12	0.3159948
2	0x3eb5a9a0	0.35480976
3	0x3e84d3ab	0.2594274
4	0x3ea47a16	0.32124394
5	0x3ec1600e	0.37768596
6	0x3e80ff9e	0.2519502
7	0x3ebaa07b	0.36450562
8	0x3e984d06	0.29746264
9	0x3e8a8cde	0.27060598
10	0x3eb711e8	0.3575585
11	0x3e8a1e57	0.26976272
12	0x3e95a7c8	0.2922957
13	0x3ec34c3d	0.38144103
14	0x3ebd49a7	0.36970255
15	0x3e9bb845	0.30414024

down_blocks.2.norm2.running_var f4 [16]
0	0x3f3bb4a9	0.7332254
1	0x3e95cc84	0.29257596
2	0x3f24cfba	0.64379466
3	0x3e37accf	0.17937015
4	0x3ead739c	0.33877265
5	0x3e8f3ca9	0.27975968
6	0x3e73d36f	0.23811124
7	0x3e7eb13b	0.24872296
8	0x3eb769ca	0.35822898
9	0x3e6c5610	0.23079705
10	0x3f112e5a	0.5671135
11	0x3e227bab	0.15867488
12	0x3e9984c8	0.29984117
13	0x3f510b79	0.8165813
14	0x3f4e5f2f	0.8061399
15	0x3e463896	0.19357523
